Heater_Results/Benchmark-MSE1.pth (torch, 43754 bytes, 14 tensors)

fc1.weight f4 [8, 3]
0	0x3de80e3c	0.1133084
1	0x3e90a64d	0.28251877
2	0xbe362992	-0.17789295
3	0xbe76555a	-0.24055997
4	0xbeeafeb2	-0.45897442
5	0xbf08bbca	-0.53411543
6	0xbeae3225	-0.34022632
7	0x3dcb2e6e	0.09920965
8	0x3ebf7c34	0.37399447
9	0x3c71f168	0.014767028
10	0xbe7ad2e9	-0.24494518
11	0x3dfda2f7	0.12384599
12	0xbea8ddd1	-0.32981732
13	0x3e139e41	0.14415838
14	0x3efb8fcc	0.49133146
15	0xbe990a9a	-0.298909
16	0x3efb1222	0.49037272
17	0xbece47fd	-0.40289298
18	0xbee86cb8	-0.45395446
19	0x3e7dc7c0	0.2478323
20	0x3e93ea54	0.28889716
21	0xbdb75959	-0.089525886
22	0xbe872895	-0.2639815
23	0xbd109cb5	-0.035305697

fc1.bias f4 [8]
0	0x3f08c529	0.5342584
1	0x3edda381	0.43288806
2	0xbebf3ac6	-0.37349528
3	0x3e6294d9	0.22127093
4	0xbece4493	-0.40286693
5	0x3e015ad9	0.12632312
6	0x3d8e8038	0.069580495
7	0xbf0d2153	-0.55128974

fc2.weight f4 [32, 8]
0	0xbe1be8f9	-0.15225591
1	0xbdcd1ded	-0.100154735
2	0x3e331f30	0.17492366
3	0x3e95f1c8	0.29286027
4	0xbe1c4c90	-0.15263581
5	0x3ef4f2d7	0.47841522
6	0x3d96f9c3	0.07371857
7	0xbccab620	-0.024745047
8	0xbe0503f4	-0.12989789
9	0x3eab0d1e	0.33408445
10	0xbd9c192a	-0.07621987
11	0xbce5ed38	-0.028067216
12	0x3e91e834	0.2849747
13	0x3e6be5bd	0.23036857
14	0xbcb7034f	-0.022340445
15	0xbe758089	-0.23974814
16	0x3cd997f8	0.026561722
17	0x3d05f785	0.032706756
18	0xbdeb622f	-0.114933364
19	0xbe21f44a	-0.15815845
20	0xbe316ad4	-0.17325908
21	0xbeb28170	-0.34864378
22	0x3e9ae4ef	0.30252787
23	0xbe415355	-0.18879445
24	0xbe70af78	-0.23504436
25	0x3d72aff3	0.05924983
26	0x3cf5de16	0.030013125
27	0xbda37c39	-0.07982678
28	0x3d95b363	0.07309606
29	0xbe042794	-0.12905723
30	0x3db0f68d	0.08640776
31	0xbe8158d2	-0.25263077
32	0xbedd3ef9	-0.43212107
33	0xbdff4083	-0.124634765
34	0x3eab0b3f	0.33407018
35	0x3edfb5d4	0.4369341
36	0xbceb48fb	-0.028721323
37	0xbea83b15	-0.32857576
38	0xbdc19ad3	-0.094533585
39	0x3e53f812	0.207001
40	0xbd476f68	-0.04869023
41	0x3ea4832a	0.3213132
42	0xbd305be2	-0.043056376
43	0x3d026053	0.031830143
44	0xbe223774	-0.15841466
45	0xbe3b1eaf	-0.18273424
46	0x3cd24e50	0.025672108
47	0xbe48c83b	-0.19607632
48	0xbe994e4b	-0.29942545
49	0x3e94acfe	0.29038233
50	0xbe972b16	-0.2952506
51	0x3e7dd0f5	0.24786742
52	0x3e11b122	0.14227727
53	0xbe8d9989	-0.276562
54	0xbe1cae44	-0.15300852
55	0xbe6f585f	-0.23373555
56	0xbe687d7e	-0.22704121
57	0xbe91b5b0	-0.2845893
58	0xbe143380	-0.1447277
59	0x3d1152b9	0.03547928
60	0x3e093267	0.13398133
61	0xbe7f2f1f	-0.24920319
62	0x3d49ba98	0.049250215
63	0xbea1c5f8	-0.3159635
64	0x3e94e29b	0.29079136
65	0xbe6dc1bb	-0.23218434
66	0x3e8bef2f	0.2733092
67	0x3e89f87a	0.26947385
68	0xbeaa196e	-0.33222526
69	0xbeaf368d	-0.34221306
70	0xbd0e7387	-0.034778144
71	0x3e78af7f	0.24285696
72	0x3d815f3f	0.06316995
73	0x3cf0f322	0.02941281
74	0xbe3c51ce	-0.18390581
75	0xbdf4a9a3	-0.11946418
76	0xbdb26788	-0.08711153
77	0xbd0ae15a	-0.03390632
78	0x3ea7b1c8	0.32752824
79	0xbe632aa0	-0.22184229
80	0xbce9f216	-0.028557818
81	0x3dc0bc79	0.09410948
82	0x3d9c24c5	0.07624201
83	0xbe0143e7	-0.12623559
84	0xbc58d2ff	-0.013233899
85	0x3c173306	0.0092284735
86	0xbe4b8110	-0.19873452
87	0x3e57295d	0.21011873
88	0xbe83b364	-0.25722802
89	0x3c071a2f	0.008245989
90	0x3e6d45c4	0.23171145
91	0x3e00c7d9	0.12576236
92	0x3e5c3279	0.21503629
93	0xbe889d54	-0.26682532
94	0x3e1ce6b5	0.15322383
95	0x3d95ed3f	0.07320642
96	0x3e8671f9	0.2625883
97	0x3e7bcc7c	0.24589723
98	0x3e6d28d0	0.231601
99	0xbdac5529	-0.084146805
100	0x3dc6c463	0.097054265
101	0x3cc7c074	0.024383761
102	0x3eaf7bde	0.3427419
103	0xbe96be9a	-0.29442292
104	0x3e59be65	0.21264036
105	0x3e375ce5	0.1790653
106	0xbd37e53a	-0.04489634
107	0x3ca8fef8	0.020629391
108	0xbd19aa0f	-0.037515696
109	0x3e09812e	0.13428184
110	0x3e0dfd6d	0.13866206
111	0xbe3142ee	-0.17310688
112	0x3e70e719	0.23525657
113	0x3e1c5ff4	0.15270978
114	0xbdbce1c0	-0.09222746
115	0x3e996688	0.29961038
116	0x3e2d6564	0.16933209
117	0x3e408b08	0.18803036
118	0x3dd6c9a8	0.104876816
119	0x3ccb4c1e	0.024816569
120	0x3cb0f4d2	0.021601114
121	0xbea453f4	-0.320953
122	0x3e90a6fe	0.28252405
123	0x3ee7faa4	0.4530841
124	0x3e9978f8	0.29975104
125	0x3c52e3ec	0.012871724
126	0xbeae5c2c	-0.34054697
127	0x3e2781cb	0.16358106
128	0xbec4bbbd	-0.38424483
129	0xbe862746	-0.26201838
130	0xbd5b5d51	-0.05355579
131	0x3e299eb6	0.1656445
132	0x3e6f8df7	0.23393999
133	0x3e7f1523	0.24910407
134	0xbe3d235c	-0.1847052
135	0x3e8536b0	0.26018286
136	0xbe69f219	-0.22846259
137	0xbd4e30ae	-0.050339393
138	0xbdecda32	-0.11565055
139	0x3e63af8b	0.22234933
140	0xbd4d9178	-0.050187558
141	0xbe962757	-0.2932689
142	0x3e24da7c	0.1609897
143	0x3e342ad1	0.17594458
144	0xbd0fcdb4	-0.035108283
145	0x3e7924ec	0.24330491
146	0x3e5e2b5c	0.21696228
147	0xbde8b5c4	-0.11362794
148	0xbd3f1123	-0.046647202
149	0x3e37362f	0.17891763
150	0xbeb47a91	-0.3524976
151	0xbe542882	-0.20718578
152	0x3d96896c	0.0735043
153	0xbe99be26	-0.30027884
154	0x3eaab172	0.33338505
155	0x3e2ff0dc	0.17181724
156	0x3eaa5747	0.33269712
157	0xbc9288a1	-0.017887415
158	0xbe8f93c5	-0.28042427
159	0x3ea7a3a0	0.32742023
160	0xbe0803bc	-0.13282675
161	0xbce8d711	-0.028422864
162	0x3eb00f31	0.3438659
163	0x3eb20565	0.3476974
164	0x3e815aae	0.25264496
165	0x3e3f6836	0.18692097
166	0x3dcb52ed	0.09927926
167	0x3e3fea41	0.18741705
168	0x3eaa1070	0.33215666
169	0xbe82b935	-0.25531927
170	0xbd29eb81	-0.04148436
171	0xbea166e1	-0.31523803
172	0xbd896c87	-0.06710153
173	0x3ebfbc8c	0.37448537
174	0x3e2ab7fb	0.16671745
175	0x3eae0b13	0.33992824
176	0x3e2c5520	0.16829348
177	0xbe8a9b78	-0.27071738
178	0x3e97ebca	0.2967208
179	0xbe11dc8b	-0.14244287
180	0x3e81a729	0.25322846
181	0x3d3e8543	0.046513807
182	0xbdd8a15f	-0.10577654
183	0xbe344f80	-0.17608452
184	0x3e73371e	0.23751494
185	0xbe0e32c3	-0.13886552
186	0xbaef56cd	-0.0018260122
187	0xbe2b3d2c	-0.16722554
188	0xbea7a29d	-0.32741252
189	0xbda79c96	-0.08184163
190	0xbd3ce5ed	-0.04611771
191	0x3e859ded	0.2609705
192	0xbe731d2c	-0.23741597
193	0xbd4aa0f4	-0.049469903
194	0xbe24d99a	-0.16098633
195	0xbea95ba3	-0.33077726
196	0xbe3bc436	-0.18336567
197	0xbd75400e	-0.05987554
198	0x3d824848	0.06361443
199	0xbe3552b8	-0.17707336
200	0x3e56d055	0.2097791
201	0xbe2a9569	-0.16658558
202	0x3ebee28c	0.37282217
203	0xbe3dbb9f	-0.18528603
204	0x3dcc9f8c	0.09991369
205	0xbd1d2749	-0.038367543
206	0xbe4decda	-0.20109883
207	0xbe21cc9a	-0.15800706
208	0xbe8dc12e	-0.27686447
209	0x3d672c81	0.056438927
210	0x3e9940dc	0.29932296
211	0x3ed38f7d	0.4132041
212	0x3d951f57	0.07281368
213	0x3dc668b0	0.09687936
214	0xbea0482b	-0.3130506
215	0xbe7ab24b	-0.24482076
216	0x3ed6b6b2	0.4193626
217	0xbea02b5c	-0.3128308
218	0xbea10933	-0.3145233
219	0xbd93bef1	-0.072141536
220	0x3dadc155	0.08484141
221	0x3d157c17	0.036495294
222	0x3e66127c	0.22467989
223	0xbe4c182f	-0.199311
224	0x3e5b8df6	0.21440873
225	0xbd4ded5f	-0.050275203
226	0x3d608cbe	0.054821722
227	0x3e6a34fd	0.22871776
228	0x3e71b1a6	0.23602924
229	0xbedd014b	-0.4316505
230	0xbd83011d	-0.06396697
231	0xbdac4aa6	-0.084126756
232	0x3d50670b	0.05087952
233	0xbc58f0df	-0.013241022
234	0x3d16bb7b	0.03679989
235	0x3e6544d1	0.22389533
236	0xbcbd028a	-0.0230725
237	0xbec9aa21	-0.3938761
238	0x3e96927f	0.29408643
239	0xbea0d6d5	-0.31413904
240	0x3eda9ab1	0.42696145
241	0xbe8c5813	-0.27410945
242	0x3da8f265	0.08249358
243	0x3da085a3	0.07837989
244	0xbd884333	-0.06653442
245	0x3e25f477	0.16206537
246	0x3d154686	0.03644421
247	0xbea65d92	-0.32493263
248	0x3ddc185e	0.10746835
249	0xbe00a3e8	-0.12562525
250	0xbe8b2692	-0.27177864
251	0x3e70e602	0.23525241
252	0xbcdae9ec	-0.02672287
253	0xbc95bd95	-0.018278876
254	0xbeabd914	-0.33564055
255	0xbe4a5f86	-0.19763002

fc2.bias f4 [32]
0	0xbec9a37c	-0.3938254
1	0xbcf985bd	-0.03045928
2	0xbe0a7f57	-0.13525139
3	0x3e2183f0	0.15772986
4	0xbe4531ac	-0.1925723
5	0xbeb168b9	-0.3465021
6	0xbe47b68f	-0.19503234
7	0xbe9b5290	-0.30336428
8	0xbea0a66b	-0.31376967
9	0x3e80e169	0.25171974
10	0x3d32de34	0.04366894
11	0x3e9526e9	0.2913125
12	0x3e853428	0.26016355
13	0xbe2f89b8	-0.1714238
14	0xbe1e8ff0	-0.15484595
15	0x3e2a84ec	0.16652268
16	0x3e91fe31	0.28514245
17	0x3c3b41cb	0.0114292605
18	0xbe0bb0fc	-0.13641733
19	0x3e815acb	0.25264582
20	0x3dd4cbbd	0.103904225
21	0x3ebc7032	0.36804348
22	0x3e9caad2	0.30599076
23	0x3b44e4b1	0.0030043537
24	0x3e9087ac	0.2822851
25	0x3e02c767	0.12771378
26	0x3dcf9034	0.101349264
27	0x3eb3db45	0.35128227
28	0x3e289504	0.16463095
29	0xbde4ea3f	-0.111774914
30	0x3d86329c	0.06552622
31	0xbe81fbf8	-0.2538755

fc2_1.weight f4 [64, 32]
0	0xbe165c8e	-0.14683744
1	0x3d44702f	0.04795855
2	0x3d8b7109	0.06808669
3	0x3d8218b4	0.06352368
4	0x3d6d7a76	0.057978116
5	0x3e165acd	0.14683075
6	0x3e30f4b6	0.1728085
7	0x3d57459a	0.05255661
8	0xbe2e82ca	-0.1704208
9	0xbd203cfd	-0.039120663
10	0x3e160a14	0.14652282
11	0xbd2001f7	-0.039064374
12	0xbcaf3dbc	-0.021391742
13	0xbdf335a6	-0.11875467
14	0x3dbae33c	0.09125373
15	0x3e41aefd	0.18914409
16	0x3cd7e0a3	0.026352232
17	0x3e3ff4f8	0.18745792
18	0x3d147e64	0.036253348
19	0xbda7024d	-0.08154736
20	0xbd3501e4	-0.044191256
21	0xbdd373be	-0.103248104
22	0x3dc9b24d	0.09848461
23	0x3e30c5a5	0.17262895
24	0x3a429642	0.0007422903
25	0x3ca70ee9	0.020392852
26	0x3e6156eb	0.22005813
27	0xbe276be8	-0.16349757
28	0x3d657222	0.05601705
29	0xbe18387c	-0.14865297
30	0xbe085a4a	-0.13315693
31	0x3bae5319	0.0053199646
32	0x3e30e434	0.17274553
33	0x3d6ed2ca	0.058306493
34	0x3de08264	0.1096237
35	0xbdde070e	-0.10841189
36	0x3de6a367	0.11261635
37	0xbd553384	-0.052051082
38	0xbe2047a3	-0.15652327
39	0xbe28adca	-0.16472545
40	0xbe05fbde	-0.13084361
41	0xbdd88046	-0.10571341
42	0xbe08c6f0	-0.13357139
43	0xbdf3718a	-0.1188689
44	0xbdaf8c02	-0.08571626
45	0x3bf09de1	0.0073430394
46	0x3b19ce63	0.0023468963
47	0xbbd14067	-0.006385851
48	0xbda8723b	-0.08224913
49	0xbd8a64fd	-0.06757543
50	0x399494b0	0.0002833954
51	0xbe28272b	-0.16421191
52	0xbdf29057	-0.11843937
53	0x3db482f5	0.088140406
54	0x3cde4417	0.027132077
55	0x3e198dd2	0.14995506
56	0x3d90a43b	0.070625745
57	0x3e135603	0.1438828
58	0xbd08abee	-0.03336709
59	0xbd8eff01	-0.06982232
60	0xbd342e1f	-0.043989297
61	0xbcf2150c	-0.029551052
62	0xbcf8b8ab	-0.030361494
63	0x3dd65a29	0.104664154
64	0xbcfc12db	-0.03077071
65	0x3e3dfa8a	0.18552604
66	0xbdf058d1	-0.117356904
67	0xbd45709d	-0.0482031
68	0xbdedddd0	-0.11614573
69	0xbe0c691b	-0.1371197
70	0xbd99bd36	-0.07506792
71	0x3d760e13	0.060072016
72	0x3cf6a0a3	0.030105894
73	0xbe3534fe	-0.17695996
74	0xbd4a320d	-0.04936414
75	0xbdc33b6d	-0.09532819
76	0x3e291109	0.16510405
77	0x3d0a6b40	0.033793688
78	0xbe1f3aa1	-0.15549709
79	0xbda9fb73	-0.08299913
80	0x3d8c4a5a	0.06850119
81	0x3df61ef6	0.12017624
82	0x3c02d8b5	0.007986237
83	0x3d1f4abf	0.038889643
84	0x3df143ee	0.11780535
85	0xbd85252c	-0.065012306
86	0xbc8e8fe7	-0.017402602
87	0xbdb42b7b	-0.08797356
88	0xbbfa22e2	-0.007633553
89	0x3da52be7	0.08065014
90	0x3e3ecac7	0.18632041
91	0xbdbd92a5	-0.09256486
92	0xbd7519e2	-0.059839137
93	0xbd63a24e	-0.055574708
94	0x3cb389c9	0.021916287
95	0xbdff8f41	-0.124784954
96	0xbe6f9994	-0.23398429
97	0x3e142131	0.14465787
98	0xbd9b6841	-0.07588244
99	0xbd3a239f	-0.045444127
100	0x3dbd5db5	0.09246389
101	0xbdb2edb1	-0.08736742
102	0x3dfd4822	0.12367274
103	0xbd5bd3ac	-0.053668663
104	0xbe23f02c	-0.16009587
105	0xbd05f0fb	-0.03270052
106	0xbdc0cc51	-0.0941397
107	0xbd90e2c9	-0.07074506
108	0x3d244cf1	0.04011244
109	0x3d808f17	0.06277292
110	0xbda49afe	-0.08037375
111	0x3d986240	0.07440615
112	0x3d890b6a	0.0669163
113	0x3e88e46f	0.2673678
114	0xbe0b04ac	-0.13576001
115	0xbce2f1bc	-0.027703159
116	0x3d79fa81	0.061029915
117	0x3e1b4adc	0.15165275
118	0x3cfeb34d	0.031091357
119	0x3e139180	0.14410973
120	0x3d43f58f	0.047841605
121	0xbdd6885c	-0.10475227
122	0x3d6a7e96	0.057249628
123	0xbd43be25	-0.047788758
124	0x3e1c7017	0.15277134
125	0xbe1da6f2	-0.15395716
126	0x3e12f73f	0.1435213
127	0xbe07adef	-0.13249944
128	0x3e76894d	0.24075814
129	0x3cd816c1	0.026378037
130	0xbe28f919	-0.16501273
131	0xbd3ae92e	-0.045632534
132	0x3da4d903	0.08049204
133	0x3cba96eb	0.022777041
134	0x3c0e662f	0.008691355
135	0x3e208234	0.15674669
136	0xbdaff7f9	-0.08592219
137	0xbe0e36bc	-0.13888067
138	0xbe02d0a7	-0.12774907
139	0x3d8d38fa	0.06895633
140	0x3e32ae9f	0.17449425
141	0xbd627b6b	-0.05529348
142	0xbce980dc	-0.028503828
143	0x3d57b242	0.052660234
144	0x3d046a42	0.032327898
145	0x3db12013	0.08648696
146	0xbb795797	-0.0038046592
147	0xbd6692a7	-0.056292202
148	0xbe1d17cb	-0.15341108
149	0x3e0499c8	0.12949288
150	0xbddadb44	-0.10686353
151	0xbdfe815c	-0.12427017
152	0xbd29ec42	-0.04148508
153	0x3e28d720	0.16488314
154	0xbcab78e9	-0.020931678
155	0xbd9a2377	-0.07526296
156	0xbe1cc7f5	-0.15310653
157	0xbd917113	-0.07101645
158	0x3d8c38ed	0.06846795
159	0x3df37d40	0.11889124
160	0x3e2c1769	0.16805805
161	0x3b7027c0	0.0036644787
162	0xbe0e0c4f	-0.13871883
163	0xbdd4b40d	-0.103859045
164	0x3d16fd27	0.03686252
165	0x3dfd0166	0.12353782
166	0xbe2486d2	-0.16067055
167	0x3d8232c0	0.06357336
168	0x3d30e181	0.043183807
169	0xbd99c629	-0.07508499
170	0xbdb36ba5	-0.08760766
171	0xbb88095d	-0.004151507
172	0x3e221715	0.15829118
173	0x3e032bff	0.12809752
174	0xbe228f91	-0.15875079
175	0x3e290b78	0.16508281
176	0xbde99638	-0.11405605
177	0xbd483418	-0.048877805
178	0x3dbad21e	0.09122108
179	0xbdf35339	-0.11881108
180	0xbe0ed2e4	-0.13947636
181	0xbc777ecd	-0.015105915
182	0xbdbef14f	-0.0932337
183	0x3dae7222	0.08517863
184	0x3b99b9da	0.0046913447
185	0x3d1097fb	0.03530119
186	0x3d38e81d	0.045143235
187	0xbe333c79	-0.17503537
188	0xbe22d166	-0.15900192
189	0x3e1464dd	0.14491601
190	0x3ce8d3ee	0.028421368
191	0x3dcb23a0	0.09918904
192	0xbd1d3e4c	-0.03838949
193	0xbcab4c7e	-0.020910498
194	0xbdd8b34a	-0.10581072
195	0xbe122e8f	-0.14275573
196	0xbe005a29	-0.12534393
197	0x3e042908	0.12906277
198	0xbc9bb26a	-0.019005973
199	0x3e047072	0.1293352
200	0xbe1ae43c	-0.15126127
201	0x3d8df92d	0.06932292
202	0x3da4e695	0.080517925
203	0xbcfedf28	-0.031112269
204	0xbdb50ae2	-0.08839966
205	0xbe190c07	-0.14945994
206	0x3d97a58b	0.07404622
207	0x3dde9371	0.10867966
208	0x3d9b8e8a	0.075955465
209	0xb8ebc01c	-0.000112414564
210	0xbe326ca2	-0.17424253
211	0x3d9ac567	0.07557183
212	0x3e0180a0	0.12646723
213	0x3dbac8e6	0.091203496
214	0xbe111a5a	-0.14170209
215	0xbe346248	-0.17615616
216	0xbbe4df93	-0.00698466
217	0x3d990d05	0.074731864
218	0xbdf8bf0c	-0.12145814
219	0x3d88f09b	0.06686517
220	0xbd86a170	-0.065737605
221	0x3d4f0c42	0.0505488
222	0x3d094c85	0.03352024
223	0x3ceaa151	0.028641375
224	0x3e2d754b	0.16939275
225	0xbd0da197	-0.034577932
226	0xbe3a7358	-0.18208063
227	0x3db08ee9	0.08621008
228	0x3b2c1546	0.0026257797
229	0xbc831234	-0.01599989
230	0xbbcea714	-0.0063065384
231	0xbe0f5810	-0.13998437
232	0x3e258dcb	0.16167371
233	0xbcf25383	-0.029580837
234	0x3dc84ada	0.09779902
235	0x3c10b4db	0.008832182
236	0x3db26378	0.087103784
237	0xbe493a12	-0.19651058
238	0xbe45c992	-0.19315174
239	0x3cee2c68	0.029073909
240	0x3e5e36ab	0.21700542
241	0x3d192bc7	0.037395265
242	0x3d29508a	0.041336574
243	0x3d1a1324	0.03761591
244	0x3dc26269	0.094914265
245	0xbe491d3a	-0.19640055
246	0xbdfc7408	-0.12326819
247	0xbdfc02b3	-0.12305202
248	0xbcd87d7b	-0.026427021
249	0x3dd98b0f	0.106222264
250	0x3e1a7cee	0.1508672
251	0xbe0d5d9a	-0.13805237
252	0x3de781a8	0.11304027
253	0xbe5a6368	-0.21326983
254	0xbe46fdd7	-0.1943277
255	0xbda20980	-0.07911968

fc2_1.bias f4 [64]
0	0x3ddf39d1	0.108996995
1	0x3b95cdb8	0.0045716427
2	0x3a0751fb	0.00051620574
3	0x3e6a6f46	0.2289401
4	0xbcb85249	-0.022500174
5	0xbdc16b32	-0.09444274
6	0x3e46239a	0.19349518
7	0x3e0a4504	0.1350289
8	0x3e2eae34	0.1705864
9	0x3e80aa02	0.25129706
10	0xbde56c7f	-0.112023346
11	0xbd915e56	-0.07098071
12	0x3d8e27dd	0.06941197
13	0x3d743ebc	0.05963014
14	0x3cc285d9	0.023745464
15	0x3e22dce8	0.15904582
16	0x3daa27a3	0.08308341
17	0xbe15bc19	-0.14622535
18	0x3d51ce92	0.05122239
19	0xbca21035	-0.019783119
20	0xbd8d1c8f	-0.06890213
21	0xbe2710ef	-0.16315053
22	0x3e03d3bf	0.12873743
23	0x3e019d32	0.12657622
24	0xbc1da53e	-0.009621916
25	0x3dc116de	0.0942819
26	0x3cc9372a	0.024562437
27	0x3e5bd616	0.21468386
28	0x3ddb42c9	0.10706098
29	0x3db153c0	0.08658552
30	0x3cc718d1	0.024303826
31	0x3d797eb5	0.060911853
32	0xbcc4fc49	-0.02404608
33	0xbe1434fb	-0.14473335
34	0xbb45e77e	-0.0030197795
35	0x3dcd78c1	0.100327976
36	0xbc59d770	-0.013295993
37	0xbe2392a6	-0.1597391
38	0xbd9cf2b8	-0.076634824
39	0x3db901f0	0.09033573
40	0x3de22d13	0.110437535
41	0x3db4eca4	0.08834198
42	0x3cf4567f	0.0298264
43	0x3e10f83d	0.14157195
44	0x3df496a4	0.11942795
45	0xbd2fa020	-0.042877316
46	0xbe06e271	-0.13172318
47	0x3e2f4f86	0.1712018
48	0x3df343c2	0.11878158
49	0x3dbb150b	0.09134873
50	0x3c910bab	0.017705759
51	0x3e574cd6	0.21025404
52	0x3df3a55f	0.118967764
53	0xbdf904f6	-0.12159149
54	0xbd006b1c	-0.031352147
55	0x3e37a472	0.17933825
56	0x3da44b24	0.080221444
57	0x3e17b8d2	0.14816597
58	0x3dddaf23	0.1082442
59	0xbe4e1f0d	-0.20129032
60	0x3d06d49a	0.032917596
61	0xbe0b41a1	-0.13599254
62	0xbdf30e9a	-0.118680194
63	0xbe083a76	-0.13303551

fc2_1_1.weight f4 [64, 64]
0	0x3de0d550	0.10978186
1	0x3d8feeac	0.07027945
2	0xbdf048a2	-0.117326036
3	0xbda759ba	-0.08171411
4	0xbda024b6	-0.07819502
5	0x3d916506	0.07099347
6	0xbda565e6	-0.08076076
7	0x3c4c68d0	0.012476161
8	0xbd64de9c	-0.05587636
9	0xbdd604c2	-0.10450126
10	0x3c9970a0	0.018730462
11	0x3c2ec870	0.010667905
12	0x3dee4ff4	0.116363436
13	0xbdd7a4e6	-0.10529499
14	0xbd6fc314	-0.05853565
15	0x3db73e86	0.08947472
16	0xbdf0234e	-0.11725484
17	0x3dd2d70e	0.10294925
18	0xbb3990c0	-0.0028315037
19	0x3c0a35a0	0.008435637
20	0x3d7615a8	0.060079247
21	0x3d694ca4	0.056957856
22	0x3d9254ea	0.07145102
23	0xbdd49174	-0.103793055
24	0x3c352fb0	0.011058733
25	0xbdcffe72	-0.101559535
26	0x3c9f5e80	0.01945424
27	0x3afb8500	0.0019189417
28	0x3d760f88	0.060073406
29	0x3df54538	0.11976093
30	0xbcff9370	-0.031198233
31	0xbceef310	-0.029168636
32	0xbdfb6d1a	-0.12276669
33	0x3dcf4ba6	0.10121851
34	0xbd547224	-0.051866665
35	0xbddb3f50	-0.10705435
36	0x3d3d421c	0.046205625
37	0xbd8d12fa	-0.06888385
38	0xbd20c254	-0.039247826
39	0xbdf1a4a0	-0.11798978
40	0xbde5ad3e	-0.11214684
41	0xbbcafb40	-0.006194502
42	0xba6fb500	-0.00091440976
43	0xbdce027c	-0.100590676
44	0xbda784ce	-0.08179627
45	0x3d5fa308	0.054598838
46	0x3d5441cc	0.05182056
47	0x3ca2e7b8	0.019885883
48	0xbd870bba	-0.065940335
49	0xbcd6eaf8	-0.026235089
50	0x3d54e95c	0.05198036
51	0xbdbbb19a	-0.09164734
52	0xbcc09368	-0.023507789
53	0xbd83a324	-0.06427601
54	0xbde6a9a2	-0.11262824
55	0x3df6f020	0.12057519
56	0x3b295380	0.0025837123
57	0xbde53be4	-0.11193064
58	0x3de6973c	0.112593144
59	0x3cd80d08	0.026373401
60	0x3d6bffa0	0.05761683
61	0xbcb01968	-0.02149649
62	0xbdde518c	-0.108553976
63	0x3df62b62	0.12019993
64	0x3e075c56	0.13218817
65	0x3d903ad1	0.07042468
66	0xbd9f44c9	-0.077767916
67	0x3e02c8ac	0.12771863
68	0x3bdbafbe	0.0067042997
69	0xbd1fe9e0	-0.0390414
70	0xbdcf2774	-0.10114947
71	0x3daf6266	0.0856369
72	0x3d73678d	0.059424926
73	0x3dc60b03	0.09670069
74	0xbdaaf5b6	-0.08347647
75	0xbc7196d0	-0.014745429
76	0xbd8c5822	-0.068527475
77	0x3de4eeb8	0.111783445
78	0xbd50065d	-0.05078732
79	0xbc74b5de	-0.014935939
80	0x3dccc066	0.099976346
81	0x3cd1c176	0.025604945
82	0xbdf54fe8	-0.119781315
83	0xbd983b6e	-0.0743321
84	0xbdff1a31	-0.124561675
85	0x3daeb39f	0.08530354
86	0xbdae5ec4	-0.08514169
87	0xbc65a253	-0.014015752
88	0x3e33fa44	0.17575938
89	0x3e0ade53	0.13561372
90	0x3d9ec6d6	0.07752769
91	0x3d67eef4	0.056624368
92	0xbd4f92f0	-0.05067724
93	0x3ca44bca	0.02005567
94	0x3cb634be	0.022241946
95	0xbc129c9f	-0.008948474
96	0x3d0be780	0.034156322
97	0x3d5d8650	0.05408317
98	0xbddc0baa	-0.10744412
99	0x3cd8f155	0.026482264
100	0x3dc3361c	0.09531805
101	0x3e17f90b	0.14841096
102	0x3ded474f	0.11585867
103	0x3c79900c	0.015232097
104	0xbae9b4d8	-0.0017830385
105	0x3de91980	0.11381817
106	0xbc8c3fda	-0.01712029
107	0xbdae8052	-0.08520569
108	0x3cfb8e50	0.030707508
109	0xbb6d357e	-0.0036195214
110	0xbdaac263	-0.083378576
111	0x3d61ffb0	0.055175483
112	0x3c5527c8	0.013009973
113	0x3e08279e	0.13296363
114	0xbdf632f6	-0.12021439
115	0xbcae0524	-0.021242686
116	0x3da8c0c0	0.08239889
117	0x3c87f8fb	0.016598215
118	0x3da8ade4	0.08236292
119	0xbbe6c2cd	-0.007042265
120	0x3dd12180	0.10211468
121	0x3d46cc66	0.048534773
122	0xbd09fd6f	-0.03368896
123	0xbc36074c	-0.011110138
124	0xbdbe8b0c	-0.09303865
125	0xbdd7ec20	-0.10543084
126	0x3dbcf510	0.092264295
127	0x3dd3c6d7	0.1034066
128	0x38d99800	0.000103756785
129	0x3d80155c	0.06254074
130	0x3df31800	0.11869812
131	0xbdc3ee24	-0.09566906
132	0x3d8b3cf8	0.06798738
133	0x3dd18b6a	0.10231669
134	0xbd9203ea	-0.07129653
135	0xbd927792	-0.071517125
136	0xbdcf3bce	-0.10118829
137	0xbd282560	-0.04105127
138	0xbd660ee4	-0.056166545
139	0xbd0e0edc	-0.03468214
140	0x3d0a2594	0.033727244
141	0xbd8ec28e	-0.06970702
142	0x3d54703c	0.051864848
143	0x3daa2f72	0.08309831
144	0x3de556ca	0.11198194
145	0xbdb43646	-0.08799414
146	0x3c7dc6e0	0.01548931
147	0xbd1d44d8	-0.038395733
148	0x3dfbd6da	0.12296839
149	0x3dd672d8	0.104711235
150	0xbd8a856c	-0.067637295
151	0xbdb7a32a	-0.08966668
152	0xbdf6b98a	-0.120471075
153	0xbdb0067c	-0.08594987
154	0x3c993a98	0.018704697
155	0xbcd121c0	-0.025528789
156	0x3d7c0fe0	0.061538577
157	0x3dee6b66	0.116415784
158	0xbda1edbc	-0.07906672
159	0xbdd6af6c	-0.10482678
160	0xbd948d9c	-0.07253572
161	0x3d43a0f0	0.047760904
162	0x3c5b75f0	0.013394818
163	0xbd5f82fc	-0.054568276
164	0xbd0343d0	-0.032047093
165	0x3c67e030	0.014152572
166	0x3c298e80	0.010348916
167	0xbdb47b96	-0.08812635
168	0xbdc4e9b0	-0.09614885
169	0xbc999320	-0.018746912
170	0x3db4a72c	0.08820948
171	0xbda2ae86	-0.07943444
172	0xbc1c6b70	-0.0095470995
173	0x3dcc2c40	0.099693775
174	0x39fac400	0.00047829747
175	0xbdf77902	-0.12083627
176	0x3de53f22	0.11193682
177	0xbce625a0	-0.028094113
178	0x3da72764	0.0816181
179	0xbb3d3f00	-0.0028876662
180	0x3dba462e	0.09095417
181	0x3df0872c	0.11744532
182	0xbde9d47a	-0.1141748
183	0x3d9e5e20	0.07732797
184	0xbd4d4e98	-0.05012378
185	0xbce9f438	-0.028558835
186	0xbd9da258	-0.0769698
187	0x3cdec9a8	0.027195767
188	0xbdbbdbea	-0.09172805
189	0xbd896308	-0.06708342
190	0x3d260094	0.040527895
191	0xbb3bc580	-0.0028651655
192	0xbd149e1f	-0.03628361
193	0xbcc7c9a9	-0.024388151
194	0x3cb56a76	0.022145491
195	0x3c04ab91	0.008097545
196	0x3ce89ed6	0.028396051
197	0xbd6fe00c	-0.058563277
198	0xbd1d78ae	-0.038445167
199	0xbde2799a	-0.1105835
200	0x3e0a2030	0.13488841
201	0x3d136d63	0.03599299
202	0xbdd4ed29	-0.10396797
203	0x3db7be8c	0.08971891
204	0x3d9c2bbf	0.076255314
205	0x3def13c4	0.11673692
206	0xbc1f2977	-0.009714476
207	0xbd92efcd	-0.071746446
208	0x3cdbdf94	0.026840009
209	0xbdf5d564	-0.12003592
210	0xbdb0f5fa	-0.08640666
211	0xbd0ed400	-0.034870148
212	0xbe71c4fa	-0.23610297
213	0xbd231f82	-0.03982497
214	0xbcfa58fb	-0.030560007
215	0xbdfb725f	-0.12277674
216	0x3d8bb2a4	0.06821182
217	0x3dafd402	0.08585359
218	0x3ddba22d	0.10724292
219	0x3da164c4	0.07880548
220	0x3deeb244	0.11655095
221	0x3d44ba81	0.048029426
222	0x3d937b0c	0.07201204
223	0x3df65356	0.12027614
224	0x3d5f6067	0.054535296
225	0xbdf96cfc	-0.1217899
226	0xbd8a8fb6	-0.06765692
227	0x3db07699	0.08616371
228	0xbd2aabea	-0.041667856
229	0x3c7cb2a6	0.0154234525
230	0xbca9e151	-0.020737322
231	0x3d400dd8	0.046888202
232	0xbd5cc6a0	-0.05390036
233	0xbdd3f466	-0.1034935
234	0x3d6858f3	0.056725454
235	0x3ce135c8	0.027491465
236	0xbdf5042a	-0.11963685
237	0xbd4e2bf8	-0.0503349
238	0x3da1c7ec	0.0789946
239	0x3d5a5ec0	0.053313017
240	0xbd9d7622	-0.07688548
241	0xbd102cea	-0.035199083
242	0x3dfe77bc	0.12425181
243	0x3dca8398	0.09888381
244	0xbdbddfc8	-0.092711985
245	0xbd851ecb	-0.06500014
246	0x3da50c23	0.080589555
247	0x3dbd91d2	0.09256329
248	0x3d09e6f5	0.033667523
249	0x3e33e686	0.17568406
250	0xbdbe32d3	-0.09287038
251	0x3dda0dad	0.1064714
252	0x3dfb7b08	0.12279326
253	0xbd93c147	-0.07214599
254	0xbd6ff474	-0.058582738
255	0xbddd5cd7	-0.108087234

fc2_1_1.bias f4 [64]
0	0x3d375a2c	0.04476373
1	0x3e528c04	0.20561224
2	0xbdd4d498	-0.103921115
3	0x3b41bd48	0.0029562283
4	0x3e4c9858	0.1997999
5	0xbd4b9067	-0.04969826
6	0xbe01cfa7	-0.1267687
7	0x3d7288c8	0.059212476
8	0xbd1f4ebb	-0.038893443
9	0xbdda567c	-0.10661027
10	0x3d6ba1b6	0.057527266
11	0xbe3d5aee	-0.18491718
12	0x3e44cbb7	0.19218336
13	0x3dde61fd	0.108585335
14	0x3d687b24	0.05675806
15	0x3d74c4ac	0.059757873
16	0xbda6cfe2	-0.08145119
17	0x3d7ddec7	0.061980035
18	0xbddb1302	-0.10696985
19	0x3d140dff	0.03614616
20	0x3e64c771	0.22341706
21	0xbd64acc2	-0.055828817
22	0xbddc77c7	-0.10765033
23	0x3c84c46c	0.016206942
24	0xbda68a67	-0.08131867
25	0x3da80a3c	0.08205077
26	0x3da9f92d	0.0829948
27	0x3d8cdda7	0.06878214
28	0x3de48135	0.11157457
29	0xbc6b5506	-0.014363533
30	0xbce682ea	-0.028138597
31	0x3c38b620	0.011273891
32	0xbc583738	-0.013196759
33	0xbc93a6fb	-0.018023958
34	0xbbe8960b	-0.0070979646
35	0xbd5757a4	-0.052573815
36	0x3d46f46f	0.048572954
37	0xbdbda8c0	-0.09260702
38	0xbdb68197	-0.08911436
39	0xbd6e2af0	-0.058146417
40	0x3d200c0f	0.039074
41	0x3d1a4f7b	0.037673455
42	0xbd0c82a0	-0.03430426
43	0xbd82d220	-0.063877344
44	0x3d6d97c6	0.05800607
45	0xbdecb5e0	-0.115581274
46	0xbdc22448	-0.09479576
47	0x3dc890ca	0.09793241
48	0xbe149de0	-0.1451335
49	0x3c922d52	0.017843876
50	0x3dab015a	0.08349867
51	0x3d56b743	0.052420866
52	0x3da4f960	0.08055377
53	0x3d8cd7c5	0.06877092
54	0xbdaf7084	-0.085663825
55	0x3c871ad6	0.016492289
56	0xbc0be160	-0.00853762
57	0x3ddec70e	0.108778104
58	0xbd0daad1	-0.03458673
59	0xbd9c72c9	-0.07639081
60	0x3dfc6fae	0.12325989
61	0x3e28e139	0.16492166
62	0x3e0b54b9	0.13606538
63	0xbdd036d1	-0.101667054

fc2_1_2.weight f4 [32, 64]
0	0xbd667b64	-0.05627002
1	0xbda42af0	-0.08016002
2	0xbda680c6	-0.0813003
3	0x3df00980	0.11720562
4	0x3d8ce8b0	0.06880319
5	0xbd6d2720	-0.05789864
6	0xbd43344d	-0.0476573
7	0xbcf68110	-0.030090839
8	0x3cf4df8a	0.029891748
9	0x3db9caec	0.090719074
10	0x3d4f39d2	0.05059225
11	0xbd19781c	-0.03746806
12	0x3c41b756	0.011823496
13	0xbdb59f94	-0.08868328
14	0x3d85395d	0.06505082
15	0x3de527bc	0.11189219
16	0xbde02246	-0.10944037
17	0xbc7dfbdf	-0.015501945
18	0x3d90ab44	0.07063916
19	0xbd0b8d14	-0.03407009
20	0x3d7cdd1a	0.061734296
21	0xbdaff918	-0.08592433
22	0xbdf93534	-0.12168351
23	0xbc1092d4	-0.008824069
24	0x3d566e78	0.052351445
25	0xbe6e2b00	-0.2325859
26	0xbb32d553	-0.0027287796
27	0xbd2eeed8	-0.042708248
28	0x3db459c8	0.08806187
29	0x3db778bc	0.08958575
30	0x3d306288	0.043062717
31	0xbc390230	-0.011292025
32	0x3b399798	0.0028319117
33	0x3cd45b1e	0.025922354
34	0x3b999eba	0.004688111
35	0xbc0744aa	-0.008256117
36	0xbd58da72	-0.0529427
37	0x3d1880dd	0.03723227
38	0xbd96bede	-0.07360624
39	0xbddcf3d8	-0.10788697
40	0xbcf6c8f7	-0.030125124
41	0x3db95fdc	0.09051487
42	0xbdc9f262	-0.09860684
43	0x3c9d94d0	0.019235998
44	0xbd4ab250	-0.04948646
45	0xbdbf7eb2	-0.09350337
46	0x3dae8509	0.08521468
47	0x3dea75f2	0.114482775
48	0x3e50e20a	0.20398727
49	0xbdc5f333	-0.09665527
50	0x3dc3f53b	0.095682584
51	0xbd63b8e9	-0.055596266
52	0xbd3cbb23	-0.046076905
53	0xbb6b1338	-0.003586961
54	0xbddf5b8c	-0.10906133
55	0x3d8ac60e	0.06776057
56	0xbd0c9504	-0.0343218
57	0xbdd6e78f	-0.10493385
58	0x3de01000	0.10940552
59	0xbdd9edc8	-0.10641056
60	0x3dc241db	0.09485217
61	0x3ac9c5cb	0.001539403
62	0xbcb607bb	-0.022220483
63	0xbafc0eef	-0.0019230525
64	0xbc90cd58	-0.01767604
65	0x3da6ff26	0.081541345
66	0xbcc6e538	-0.024279222
67	0xbdc203d2	-0.09473385
68	0xbdf80839	-0.12110943
69	0xbdbdc2fa	-0.092657045
70	0x3d70f7ac	0.05882995
71	0xbd3ebdd4	-0.046567753
72	0x3dae7c0a	0.08519752
73	0x3c6db9e0	0.014509648
74	0x3dda6f67	0.106657796
75	0xbe5bb21c	-0.21454662
76	0xbe19fb2c	-0.1503722
77	0x3dcb2267	0.09918671
78	0xbc93a23b	-0.018021693
79	0xbc55c680	-0.013047814
80	0xbd9523ee	-0.07282244
81	0xbbd6459d	-0.0065390603
82	0xbcb574c8	-0.022150412
83	0xbdc29c20	-0.09502435
84	0xbd8486b6	-0.064710066
85	0x3e3ed38c	0.18635386
86	0x3da36ada	0.07979365
87	0x3deaed33	0.114710234
88	0xbdc24b43	-0.09487011
89	0xbda75c55	-0.08171908
90	0x3ce16912	0.027515922
91	0xbc1d50b0	-0.009601757
92	0xbd2e11c0	-0.042497396
93	0x3dc85870	0.09782493
94	0xbd64bb43	-0.05584265
95	0xbdf382e4	-0.118902
96	0xbe438cec	-0.19096726
97	0x3de74ba1	0.11293722
98	0x3d5af4b9	0.053456042
99	0x3db95f97	0.090514354
100	0xbe0d2a7d	-0.13785739
101	0xbdce018f	-0.10058891
102	0xbd0a9ccc	-0.03384094
103	0xbdba084c	-0.09083614
104	0x3d643efe	0.055724137
105	0xbce38a21	-0.027775826
106	0x3d70aa74	0.058756307
107	0x3cac38c8	0.02102317
108	0xbdba304f	-0.090912454
109	0x3d392e1c	0.04520999
110	0xbd6c33e1	-0.057666663
111	0xbdae2c7d	-0.08504579
112	0xbe1f40e1	-0.15552093
113	0x3d4bfa31	0.049799148
114	0xbc381961	-0.01123652
115	0xbd9f4cac	-0.07778296
116	0x3b96b510	0.004599221
117	0xbd6d4443	-0.057926428
118	0x3dd06708	0.10175902
119	0x3cc86290	0.02446106
120	0x3daf84c0	0.08570242
121	0x3d09d108	0.033646613
122	0x3d44b1c7	0.048021104
123	0xbe4ac7ab	-0.1980273
124	0x3da8832c	0.08228144
125	0xbd66e1c9	-0.05636767
126	0xbd8b847a	-0.06812377
127	0x3d82e483	0.063912414
128	0x3dee51cc	0.11636695
129	0xbccb9998	-0.024853513
130	0xbdb999ac	-0.09062514
131	0x3cab01c9	0.020874875
132	0x3d456157	0.048188534
133	0xbdf80ac8	-0.12111431
134	0x3dd1b7b8	0.1024012
135	0x3c14da10	0.009085193
136	0xbc87dea0	-0.016585648
137	0x3daa5b98	0.08318251
138	0xbd79b9af	-0.060968097
139	0xbd5db284	-0.054125324
140	0x3d633c6c	0.055477545
141	0xbe3a76ad	-0.18209334
142	0x3d933bd1	0.071891434
143	0x3ddde02e	0.108337745
144	0x3d82a31c	0.06378767
145	0xbd90bb43	-0.07066967
146	0xbdbf04d4	-0.09327093
147	0xbda1f0d0	-0.079072595
148	0x3c839e51	0.016066702
149	0x3d993a3f	0.07481813
150	0x3d8d4694	0.06898227
151	0x3d9019e0	0.07036185
152	0x3d8dbccb	0.06920775
153	0x3d3f396a	0.046685614
154	0x3cc57e0f	0.024107961
155	0xbcacf700	-0.021113873
156	0x3d4a200b	0.049346965
157	0xbda1384f	-0.07872068
158	0xba9354e8	-0.0011240514
159	0xbd87f274	-0.06638041
160	0xbde650f5	-0.1124591
161	0x3db603e4	0.08887461
162	0x3d31cfc6	0.04341104
163	0xbdd5eafe	-0.10445212
164	0xbc581618	-0.013188861
165	0xbde0d2f4	-0.10977736
166	0x3d0eb610	0.034841597
167	0xbd2724b4	-0.040806487
168	0xbd933dcc	-0.07189521
169	0xbd0d077b	-0.034430962
170	0xbd381c44	-0.04494883
171	0x3d95df0a	0.07317932
172	0x3d1ba4c4	0.03799893
173	0x3d9d78a2	0.076890245
174	0x3d831512	0.06400503
175	0x3d8610d9	0.06546182
176	0x3a9ab9e3	0.0011804666
177	0xbdc9fcc7	-0.098626666
178	0x3e0856a7	0.13314305
179	0x3dbef157	0.09323376
180	0x3c04537d	0.008076546
181	0x3d3d1448	0.04616192
182	0xbd17b45c	-0.03703724
183	0xbd82b7bf	-0.06382703
184	0xbd8d15a4	-0.06888893
185	0x3d7f8e2f	0.062391456
186	0xbc7a9eb8	-0.015296631
187	0xbdc89041	-0.09793139
188	0x3deb6d65	0.11495475
189	0xbc091340	-0.008366406
190	0xbcf47759	-0.029842066
191	0x3d722bf5	0.059123952
192	0x3cad4fc0	0.021156192
193	0x3d874315	0.06604592
194	0x3ca19470	0.0197241
195	0xbda30312	-0.0795957
196	0xbd984259	-0.0743453
197	0x3d9190db	0.07107707
198	0x3d67406c	0.05645792
199	0x3ddb4af6	0.10707657
200	0xbddf1378	-0.10892385
201	0x3d0524e0	0.03250587
202	0xbd84eb07	-0.064901404
203	0x3ddec5c5	0.10877565
204	0x3dafa6b9	0.08576722
205	0xbda29b26	-0.079397485
206	0xb9b7ecff	-0.00035081056
207	0x3d13f4d8	0.036122173
208	0xbd7d37ac	-0.06182067
209	0xbc2f1d3e	-0.010688124
210	0x3d8cb697	0.06870764
211	0x3d693658	0.056936592
212	0xbc4d9cb0	-0.012549564
213	0xbd6ec6da	-0.05829511
214	0x3de0d930	0.10978925
215	0xbddcd680	-0.107831
216	0xbc852729	-0.016254025
217	0x3d7fe77f	0.06247663
218	0x3decaa98	0.11555976
219	0xbd8c1ae4	-0.068410665
220	0xbdc7616e	-0.0973538
221	0x3df769b2	0.12080707
222	0xbdbb48b4	-0.091447264
223	0x3da0470a	0.078260496
224	0xbd42ebdd	-0.047588218
225	0xbcc753d7	-0.02433197
226	0xbd213c1f	-0.039363977
227	0x3d8202f2	0.06348218
228	0xbe03502c	-0.12823552
229	0x3dbd7079	0.09249968
230	0x3d11f1b6	0.035630904
231	0x3dc4f36e	0.09616743
232	0x3dcdf4a8	0.1005643
233	0xbc5117f7	-0.012762061
234	0x3c162fa0	0.009166628
235	0xbbabce00	-0.005243063
236	0x3c662f92	0.014049428
237	0xbdb286fc	-0.087171525
238	0xbc084fd8	-0.0083198175
239	0x3d339d7f	0.04385137
240	0xbdb0bc5d	-0.086296774
241	0x3d07b39d	0.033130277
242	0x3d2502de	0.040285937
243	0x3db6841f	0.08911919
244	0xbd81037e	-0.06299494
245	0xbd266779	-0.040626023
246	0xbdb6421a	-0.088993266
247	0xbd4265f7	-0.047460523
248	0x3d120a30	0.035654247
249	0x3d0097f6	0.03139492
250	0x3c36142c	0.011113208
251	0xbcdceb19	-0.026967572
252	0xbd74ed05	-0.059796352
253	0x3d8ff11c	0.0702841
254	0xbd5fea15	-0.054666597
255	0xbc180979	-0.009279602

fc2_1_2.bias f4 [32]
0	0xba1aba85	-0.00059024274
1	0xbd3ac183	-0.045594703
2	0xbbfced9f	-0.0077187563
3	0x3cd72ab3	0.026265478
4	0x3dedddbd	0.11614559
5	0xbccb3d58	-0.024809524
6	0xbc20a6a0	-0.0098053515
7	0x3ccab9a5	0.024746725
8	0x3da83bac	0.082145065
9	0xbd2b9950	-0.041894257
10	0xbd9a1193	-0.07522883
11	0xbd126298	-0.035738558
12	0x3d65cdd5	0.0561045
13	0xbc754e24	-0.014972243
14	0x3e1cd0de	0.15314052
15	0x3d9a5f38	0.07537693
16	0x3dd21f16	0.102598354
17	0x3d804fde	0.062652335
18	0x3da71838	0.08158916
19	0x3dd0efe1	0.10202003
20	0xbd29507f	-0.041336533
21	0xbdbcca2e	-0.0921825
22	0x3df561ed	0.119815685
23	0xbdc4fcf4	-0.096185595
24	0x3dd42325	0.10358266
25	0xbb326108	-0.002721848
26	0x3cdc4cde	0.026892122
27	0x3e4b65b6	0.19863018
28	0xbd454435	-0.04816075
29	0x3cc3f7b0	0.023921818
30	0xbd852231	-0.06500662
31	0xbcd070f3	-0.025444483

fc2_2.weight f4 [16, 32]
0	0xbe3ae27e	-0.18250462
1	0xbd06d725	-0.03292002
2	0xbdef73ee	-0.11692034
3	0xbcd803f3	-0.02636907
4	0x3de4bc02	0.11168672
5	0x3d4b1a58	0.04958567
6	0xbde3cdaf	-0.111232154
7	0xbd9f083e	-0.07765244
8	0x3df7203d	0.12066696
9	0x3d71b8b9	0.059014056
10	0xbe1e86f2	-0.15481165
11	0xbdce1462	-0.100624815
12	0xbd299b22	-0.04140771
13	0xbdb42769	-0.087965794
14	0x3d7f9683	0.0623994
15	0xbd716fc0	-0.058944464
16	0xbe17c4b0	-0.14821124
17	0x3e43892f	0.190953
18	0x3e0724fe	0.13197705
19	0xbdf4746d	-0.11936269
20	0x3df1f15b	0.11813613
21	0x3e247a41	0.16062261
22	0xbdd2e6fc	-0.10297963
23	0x3d295b29	0.041346703
24	0xbdba46e2	-0.09095551
25	0x3d8d4c83	0.06899359
26	0x3c209fa6	0.009803688
27	0x3c6d5651	0.0144859115
28	0x3cefba27	0.029263569
29	0xbd27ba3d	-0.040949095
30	0x3e10950c	0.14119357
31	0x3ccb6cd3	0.024832165
32	0xbdd7adc5	-0.10531191
33	0xbde09b2f	-0.10967099
34	0xbd637b3e	-0.055537455
35	0xbe18ca39	-0.14920892
36	0x3d9b06fa	0.0756969
37	0x3dd613de	0.10453008
38	0x3d439621	0.047750596
39	0xbdd49122	-0.103792444
40	0x3e36d90b	0.17856233
41	0x3e1fd150	0.1560719
42	0x3e084910	0.13309121
43	0xbc4eeb27	-0.012629307
44	0xbd6be51e	-0.05759155
45	0xbe35c41a	-0.17750588
46	0x3e010201	0.1259842
47	0xbd9b7b6a	-0.07591899
48	0xbd8ae945	-0.06782774
49	0xbcf48297	-0.029847426
50	0x3e223b1f	0.15842865
51	0x3e288831	0.16458203
52	0x3dde437c	0.108527154
53	0xbda88766	-0.0822895
54	0x3dee788c	0.11644086
55	0xbd705b6e	-0.058680944
56	0x3dcd7faa	0.100341156
57	0xbd9ebedb	-0.077512465
58	0x3dc4ab71	0.09603012
59	0xbe098fa9	-0.13433708
60	0x3e14e397	0.14539944
61	0x3e25a6da	0.1617693
62	0x3b859818	0.004076969
63	0xbdbc4aa1	-0.09193922
64	0x3e071359	0.13190974
65	0x3bd29508	0.0064264573
66	0x3d86f43b	0.06589552
67	0x3d890cf2	0.06691922
68	0xbda79d7b	-0.08184334
69	0x3b7adc5d	0.003827832
70	0x3e04527a	0.12922087
71	0xbe293eee	-0.16527912
72	0xbde99283	-0.11404898
73	0xbdf05dac	-0.117366165
74	0x3df4acf6	0.11947052
75	0xbd9d1ea3	-0.07671859
76	0x3dc5355a	0.09629317
77	0xbdedb0ab	-0.11605962
78	0xbe1ba3e2	-0.15199235
79	0x3df75193	0.12076106
80	0x3ca245a5	0.0198086
81	0xbdcd6ea2	-0.10030867
82	0x3e0ccb10	0.13749337
83	0xbdfa9903	-0.12236216
84	0xbe292858	-0.16519296
85	0x3d4f7597	0.05064925
86	0xbe2a04fb	-0.16603462
87	0xbdfa6bfe	-0.12227629
88	0x3e2c8078	0.16845882
89	0xbda647e3	-0.0811918
90	0xbd5b7c11	-0.053585116
91	0x3da38692	0.079846516
92	0xbe231578	-0.15926158
93	0x3df0f96a	0.11766322
94	0x3d4a9f58	0.04946837
95	0xbdc6f24f	-0.097141854
96	0x3e09d5bf	0.13460444
97	0xbd8a0970	-0.06740081
98	0xbe21adeb	-0.15789
99	0x3c9b3501	0.018946173
100	0x3dcdaf6d	0.100432254
101	0xbdbd524d	-0.09244213
102	0xbd98adde	-0.074550375
103	0xbdf7201c	-0.12066671
104	0x3dcc1353	0.09964623
105	0x3d5d8982	0.054086216
106	0xbcc12d19	-0.023581075
107	0x3de1bf91	0.110228665
108	0xbe2bca88	-0.16776478
109	0xbdc7b318	-0.09750956
110	0xbe0b1952	-0.13583878
111	0xbd919d91	-0.071101315
112	0xbdb5827e	-0.0886278
113	0xbc554e7f	-0.013019203
114	0xbe2d1f75	-0.16906531
115	0x3bccd72c	0.0062512364
116	0x3da20886	0.07911782
117	0x3e278c22	0.1636205
118	0x3e34672a	0.17617479
119	0x3e22cc00	0.15898132
120	0x3c541502	0.012944462
121	0x3dd01346	0.10159926
122	0xbddd8b45	-0.10817579
123	0xbcc81f67	-0.024429036
124	0x3e320896	0.17386088
125	0xbe0aac11	-0.135422
126	0xbda0e760	-0.07856631
127	0xbe2d43ac	-0.16920346
128	0xbd82d890	-0.06388962
129	0x3e1a0c85	0.15043838
130	0x3e0557cd	0.13021775
131	0xbd5417d7	-0.051780548
132	0xbdd1aa1f	-0.10237526
133	0x3dff61e4	0.12469843
134	0x3e0d6363	0.13807444
135	0xbdbbea84	-0.0917559
136	0x3e2d29e7	0.16910516
137	0x3d678ca6	0.056530617
138	0x3d3fb52b	0.046803635
139	0xbe22fdf6	-0.15917191
140	0x3bba69a5	0.0056888633
141	0xbc54d374	-0.0129898675
142	0xbdb5c5ac	-0.088755935
143	0x3e031166	0.12799606
144	0x3d5e3bae	0.054256134
145	0xbe6e3238	-0.23261344
146	0xbda46981	-0.08027936
147	0xbe01693f	-0.12637804
148	0x3e240359	0.16016902
149	0xbdf0f46f	-0.11765372
150	0x3d10a92d	0.03531759
151	0x3e04e291	0.12977053
152	0xbdef36d5	-0.1168038
153	0xbd8bcc57	-0.06826084
154	0xbd63af83	-0.055587303
155	0x3e1f41e7	0.15552483
156	0x3c822e34	0.015891172
157	0x3e20e91a	0.15713921
158	0xbd414507	-0.04718497
159	0x3da73927	0.08165198
160	0xbe1dac41	-0.15397741
161	0xbdb4b602	-0.08823778
162	0x3e066d88	0.1312772
163	0xbe249a8a	-0.16074577
164	0xbdfc80ce	-0.12329255
165	0x3e2d379e	0.16915748
166	0xbd39d777	-0.0453715
167	0x3bc1594b	0.005900537
168	0xbe123136	-0.14276585
169	0x3d92353a	0.071390584
170	0x3dc11978	0.09428686
171	0xbdbaaf93	-0.091155194
172	0x3e140642	0.14455512
173	0xbe185a8a	-0.14878288
174	0xbd8f42a0	-0.069951296
175	0xbdf82f3f	-0.121183865
176	0x3e1e9691	0.15487124
177	0xbd8db066	-0.06918411
178	0xbde7e195	-0.11322323
179	0xbe168dd1	-0.14702536
180	0xbe1e9030	-0.1548469
181	0xbdb888ed	-0.090104915
182	0x3b5b1215	0.0033427526
183	0x3dd30581	0.10303784
184	0x3db6d7d3	0.08927884
185	0x3c4e8a47	0.01260621
186	0xbd00e2b2	-0.031466193
187	0xbcbc32ff	-0.022973536
188	0xbe242876	-0.1603106
189	0xbde68bb6	-0.112571165
190	0x3d1fb3ec	0.038989946
191	0xbd5051e5	-0.05085935
192	0x3e08d232	0.13361433
193	0xbc18cfed	-0.009326917
194	0xbd38b8a8	-0.045097977
195	0xbd66ffa9	-0.05639616
196	0x3dc53e6f	0.09631049
197	0xbe236acd	-0.1595871
198	0x3d080554	0.033208206
199	0x3dc95527	0.09830695
200	0xbdf4e750	-0.11958182
201	0xbcce4ab5	-0.025182107
202	0x3de95694	0.113934666
203	0xbd4aa954	-0.04947789
204	0x3d8ca417	0.06867235
205	0x3d32b7c6	0.04363229
206	0xbdd6a8bb	-0.104814015
207	0xbe356f03	-0.17718129
208	0x3da7c937	0.081926756
209	0xbc6e86ff	-0.014558553
210	0x3dc356f0	0.095380664
211	0x3de6e9a2	0.11275031
212	0x3e123e04	0.1428147
213	0xbe199583	-0.1499844
214	0xbdcf1c1d	-0.10112784
215	0xbd8dff19	-0.06933422
216	0xbe42039f	-0.18946694
217	0xbe1681fa	-0.1469802
218	0xbda2b963	-0.07945516
219	0xbd8b03fc	-0.06787869
220	0xbdedf7ef	-0.11619555
221	0xbe2e7109	-0.17035307
222	0x3deb2104	0.114809066
223	0xbd9d4c55	-0.07680575
224	0xbe1f0bd1	-0.15531851
225	0xbe12dd66	-0.1434227
226	0x3dd26d93	0.10274806
227	0xbd4d882f	-0.050178703
228	0xbdc93aa8	-0.09825641
229	0x3d852c1c	0.06502554
230	0xbd361989	-0.044457946
231	0x3dc52025	0.09625272
232	0x3e0d4e02	0.13799289
233	0xbe2b3426	-0.16719112
234	0xbdbf2b25	-0.09334401
235	0x3dfa7e59	0.1223113
236	0xbd0827ad	-0.033240963
237	0x3e06f951	0.13181044
238	0xbdff72a0	-0.12473035
239	0x3d9d8d83	0.07693007
240	0x3dd28d38	0.102808416
241	0xbd487b3c	-0.04894565
242	0x3dd6ebd5	0.104942
243	0x3d8cb24b	0.06869944
244	0x3c54e49a	0.012993956
245	0x3d2b51be	0.041826002
246	0xbe1e2051	-0.15442015
247	0x3e053ab3	0.13010673
248	0xbd3a7464	-0.045521155
249	0xbddc2ad2	-0.10750355
250	0xbe3708d0	-0.17874455
251	0x3caa870f	0.020816354
252	0x3e219f49	0.15783419
253	0x3da09bb3	0.07842197
254	0xbdf6de6e	-0.12054144
255	0xbd950506	-0.07276349

fc2_2.bias f4 [16]
0	0x3e283313	0.16425733
1	0x3e0e74cd	0.13911743
2	0xbdb111fc	-0.08646008
3	0xbd892d15	-0.06698052
4	0xbd9d9f18	-0.0769636
5	0x3e16e3bb	0.1473531
6	0xbe3e4141	-0.1857958
7	0xbdb51c8a	-0.08843334
8	0xbdf751bc	-0.120761365
9	0xbe30adc3	-0.17253785
10	0x3df77141	0.12082148
11	0xbc4de4c3	-0.012566748
12	0x3ddb5f0d	0.10711489
13	0x3e2e59cb	0.17026441
14	0x3e3c1453	0.18367128
15	0x3db0ce36	0.086330816

fc3.weight f4 [30, 16]
0	0xbdc06460	-0.09394145
1	0x3cb9b642	0.022669915
2	0x3e2af4f5	0.16695006
3	0x3df58706	0.11988644
4	0x3db040cf	0.08606111
5	0xbe13f6ef	-0.14449666
6	0x3d935292	0.071934834
7	0xbe5eda37	-0.2176293
8	0x3d98e8d9	0.07466287
9	0xbde4d74c	-0.11173877
10	0xbdf44938	-0.11928028
11	0x3cd33497	0.025781913
12	0x3deecdd0	0.11660349
13	0x3de4983d	0.1116185
14	0xbdfe4659	-0.124157615
15	0x3e3583d6	0.17726073
16	0xbdb5fbe5	-0.08885936
17	0xbe145045	-0.14483745
18	0x3d051908	0.032494575
19	0x3e4b0fd9	0.19830264
20	0xbdfed15b	-0.12442275
21	0xbe5f9d9e	-0.2183747
22	0x3dc5afc4	0.09652665
23	0x3e3cc51d	0.18434568
24	0x3e59f274	0.21283895
25	0x3c361391	0.011113063
26	0x3e0d7dd2	0.13817528
27	0x3deb9f11	0.11504949
28	0x3e817155	0.25281778
29	0x3e924267	0.28566286
30	0x3b8fe255	0.0043909946
31	0x3dfdc0b8	0.12390274
32	0xbd6421e6	-0.05569639
33	0xbdedaf0c	-0.11605653
34	0x3e3ba536	0.18324742
35	0xbe383361	-0.1798835
36	0x3dbf2d10	0.09334767
37	0x3e48c2cc	0.19605559
38	0xbdae7d5b	-0.085200034
39	0xbd8069a9	-0.06270153
40	0xbe5393a5	-0.2066179
41	0x3e260d11	0.16215922
42	0x3e1a6f3e	0.15081498
43	0x3df90fa0	0.12161183
44	0x3e58146f	0.21101545
45	0x3e291f7d	0.16515918
46	0x3e4fec9a	0.203051
47	0x3df9f2a6	0.12204485
48	0xbdbeab26	-0.09309988
49	0xbc66aee6	-0.014079785
50	0xbda7960f	-0.08182918
51	0x3e6ec66d	0.23317881
52	0x3d9f09c1	0.07765532
53	0x3e2ef797	0.17086636
54	0xbe67fb83	-0.22654538
55	0xbdce8206	-0.10083394
56	0x3d9e835b	0.07739898
57	0x3e638367	0.22218095
58	0xbe3379ab	-0.17526881
59	0x3df8ecfb	0.121545754
60	0x3e051339	0.12995614
61	0x3e25fc7a	0.16209593
62	0xbe09b5b4	-0.1344822
63	0xbdae149b	-0.08500024
64	0xbd1fd8dc	-0.039025173
65	0x3d72f674	0.059317067
66	0x3e233464	0.15937954
67	0xbde448d0	-0.111467004
68	0x3e47be67	0.19506226
69	0xbc307ad3	-0.010771471
70	0xbd5287e8	-0.05139914
71	0x3e0c7d0f	0.13719581
72	0x3d7df6d1	0.06200296
73	0xbe64c402	-0.22340396
74	0x3e6c977a	0.23104659
75	0x3d4c4d2d	0.049878288
76	0x3d2616c2	0.040549047
77	0xbdda523b	-0.106602155
78	0x3e0a24e5	0.13490637
79	0x3e85a26e	0.26100487
80	0xbcfbe827	-0.030750347
81	0x3d53c588	0.051702052
82	0x3e7a180e	0.24423239
83	0x3e144a1b	0.14481394
84	0x3e7ca629	0.2467276
85	0xbd648c9d	-0.05579816
86	0x3e67e340	0.22645283
87	0xbdfb3c21	-0.12267328
88	0xbe655f39	-0.22399606
89	0x3e38e549	0.18056215
90	0x3e7716e3	0.24129824
91	0x3dc95043	0.09829762
92	0x3da95765	0.08268622
93	0xbdaa1c08	-0.08306128
94	0xbe9c8823	-0.30572614
95	0xbca8d96d	-0.02061149
96	0x3c43a48b	0.011941086
97	0x3ea550e1	0.32288268
98	0x3e7c893c	0.24661726
99	0xbb851d4a	-0.0040623294
100	0x3d90fd6b	0.07079586
101	0x3e23cfa9	0.15997185
102	0xbd6a1b97	-0.057155218
103	0xbdc2cfde	-0.09512304
104	0xbd79a58a	-0.060948886
105	0xbe4bd8ce	-0.19906923
106	0x3e29a54e	0.16566965
107	0xbd877d05	-0.066156425
108	0xbe11d7a3	-0.14242415
109	0xbda7537a	-0.08170219
110	0xbda7b215	-0.08188263
111	0x3e96d056	0.29455823
112	0x3d59dd2c	0.05318944
113	0x3eaafd82	0.33396536
114	0x3d34c0c4	0.044129148
115	0x3e0be426	0.1366125
116	0x3e38519f	0.17999886
117	0xbdc76318	-0.097356975
118	0x3e52dd47	0.20592223
119	0xbe3cf755	-0.18453725
120	0x3de35c50	0.111015916
121	0x3c000b7f	0.007815241
122	0xbe19b7d1	-0.15011527
123	0xbdcfc0e2	-0.10144211
124	0x3d877b39	0.066153
125	0xbd407c1f	-0.04699337
126	0xbe2c64ed	-0.16835375
127	0x3ccae84c	0.02476897
128	0xbdf0121e	-0.117222056
129	0x3d6844c1	0.056706194
130	0x3cbe8e43	0.023261195
131	0xbe58f4c7	-0.21187125
132	0x3e950599	0.29105833
133	0x3e5db786	0.2165204
134	0x3d3843b8	0.044986457
135	0x3e346305	0.17615898
136	0x3dd5c91b	0.104387484
137	0xbde966bf	-0.113965504
138	0xbe79a39b	-0.24378817
139	0x3e09e73a	0.13467112
140	0x3d0e862e	0.034795932
141	0xbd888c8f	-0.066674344
142	0x3d5bd576	0.05367037
143	0xbd533cfb	-0.051571827
144	0x3d8e0f70	0.06936538
145	0x3e6c64b3	0.23085289
146	0x3d6b4989	0.057443175
147	0x3e6fd647	0.23421584
148	0x3e174e5f	0.1477599
149	0x3dbd79f7	0.092517786
150	0xbe5775b9	-0.21041001
151	0x3e5e9a08	0.21738446
152	0x3c8eb81b	0.017421773
153	0xbe56e85e	-0.20987079
154	0x3e00af94	0.12566978
155	0xbdd94edd	-0.10610745
156	0x3e9279eb	0.2860864
157	0x3ce833cb	0.02834501
158	0xbd53ede3	-0.05174054
159	0xbd3cb4c3	-0.046070825
160	0xbd704bcd	-0.05866604
161	0x3c2a765b	0.010404195
162	0x3e5fd6f1	0.21859337
163	0x3c917ae8	0.017758802
164	0x3dc4e8e5	0.096147336
165	0x3d4cbb6f	0.049983438
166	0xbdbb7dd9	-0.09154863
167	0x3e27ef41	0.16399862
168	0xbe67abb4	-0.22624093
169	0x3e77783e	0.24166963
170	0xbe380ddc	-0.17974037
171	0x3d2bbfc9	0.041930947
172	0x3e5baffa	0.21453848
173	0x3d8a3335	0.06748048
174	0xbe3b3783	-0.18282895
175	0x3d8543c1	0.06507064
176	0xbeab7d80	-0.33494186
177	0x3e525262	0.20539239
178	0xbd782fda	-0.06059251
179	0xbe09a0ad	-0.13440199
180	0x3e2f147e	0.17097661
181	0xbe4e1c7d	-0.20128055
182	0xbdb6e233	-0.08929863
183	0xbce46a23	-0.027882641
184	0xbd4c82be	-0.049929373
185	0xbe5f0946	-0.21780881
186	0x3e3cd700	0.18441391
187	0xbdec0273	-0.11523905
188	0x3e7dbfb9	0.24780168
189	0x3e01e56f	0.12685178
190	0x3d5ffaa1	0.054682378
191	0xbda1f95e	-0.07908891
192	0x3e3122f7	0.17298494
193	0x3ea46028	0.3210461
194	0x3e71f934	0.2363022
195	0xbe2ccfd9	-0.16876163
196	0xbcd77d96	-0.026305001
197	0x3e36e16b	0.17859428
198	0xbe387de3	-0.18016772
199	0x3d476e9b	0.048689466
200	0xbe507401	-0.20356752
201	0x3dcbb9d9	0.09947557
202	0xbe5928b2	-0.2120693
203	0xbc6aee5f	-0.014339059
204	0xbdb178c2	-0.08665611
205	0x3d87fe31	0.0664028
206	0xbe6027e7	-0.21890222
207	0xbd814327	-0.063116364
208	0x3e0b1486	0.13582048
209	0x3ba6f564	0.005095171
210	0x3e3139e6	0.17307243
211	0x3e3bafb6	0.18328747
212	0xbdef4800	-0.11683655
213	0xbdd5d890	-0.10441697
214	0xbbf42aed	-0.007451406
215	0xbe1d3885	-0.15353592
216	0xbd47bb92	-0.048762865
217	0xbe68a094	-0.22717506
218	0x3e53c21e	0.20679519
219	0x3d96456d	0.07337461
220	0x3d6dc091	0.058044974
221	0x3e2eee20	0.17083025
222	0xbde21e0e	-0.11040889
223	0x3e2095be	0.15682122
224	0x3e1eb0a6	0.15497074
225	0x3c906e8e	0.017630842
226	0x3e57bf05	0.21068962
227	0x3e0c496d	0.13699885
228	0xbd464fc3	-0.04841591
229	0xbe577eb6	-0.2104443
230	0x3dccda94	0.10002628
231	0x3cab70ab	0.020927748
232	0x3c934cc3	0.017980939
233	0x3c011957	0.007879577
234	0x3d861e34	0.065487295
235	0x3d8183dd	0.06323979
236	0x3e0592e3	0.13044314
237	0x3dbae5d7	0.0912587
238	0x3e645d99	0.2230133
239	0x3e0b99d7	0.13632904
240	0xbd936776	-0.07197468
241	0xbde8db36	-0.11369936
242	0xbe32ace8	-0.17448771
243	0x3e10c779	0.14138593
244	0x3d29eb8c	0.0414844
245	0xbdf525d8	-0.11970109
246	0xbc8c7de6	-0.017149877
247	0xbdeb3b53	-0.114859246
248	0xbe7535c2	-0.23946288
249	0xbd5231c9	-0.05131701
250	0xbe23ec31	-0.16008069
251	0x3e837768	0.25677037
252	0xbcf46e00	-0.029837608
253	0x3e4ccd42	0.20000175
254	0xbda299af	-0.07939469
255	0xbdcf5cb1	-0.10125101

fc3.bias f4 [30]
0	0x3dc277ec	0.094955295
1	0x3db6a1ba	0.08917566
2	0x3c9ce9d8	0.019154474
3	0x3e301dd8	0.17198884
4	0x3d0f9c14	0.035060957
5	0x3e54dddf	0.20787762
6	0xbe198012	-0.14990261
7	0xbd98284c	-0.07429561
8	0x3e009510	0.12556863
9	0xbd18cd81	-0.03730536
10	0x3dc79a15	0.09746186
11	0x3e3e8b70	0.18607879
12	0xbdcca578	-0.09992498
13	0xbd201838	-0.039085597
14	0xbd93b23a	-0.072117284
15	0x3e00d732	0.1258209
16	0xbe43f127	-0.19134961
17	0xbe56be5b	-0.20971052
18	0x3c99e077	0.018783791
19	0x3df11d69	0.11773188
20	0xbcf66703	-0.030078417
21	0x3d6d372a	0.057913937
22	0xbda045ed	-0.07825837
23	0xbceb502f	-0.028724758
24	0xbd579863	-0.05263556
25	0x3dab9157	0.08377331
26	0x3c5af9a5	0.013365184
27	0x3e3d5b74	0.18491918
28	0xbd44dcb5	-0.048062045
29	0x3d9f995e	0.07792924
