Heater_Results/Benchmark-MPC.pth (torch, 43736 bytes, 14 tensors)

fc1.weight f4 [8, 3]
00000000: 4a18 6abe ba34 92be cf95 913e 0acc 2c3f
00000010: bd67 e23e 3da3 fcbe 3432 1ebf c101 0b3f
00000020: 90db efbe 072b 153e e2ae cbbd 83f5 f6be
00000030: 694c 7d3f cf72 06bc 169e 9e3c 2e43 acbd
00000040: 1968 993d 0924 b13e 1584 93be 7903 173e
00000050: 0edf 843e 0df1 243d e338 6b3e 42b8 a33d
-0.22860828 -0.28555852 0.28434607 0.6749884 0.4421977 -0.4934329 -0.61795354 0.5429955
-0.468472 0.14567195 -0.099454656 -0.48234186 0.9894472 -0.008206083 0.01936249 -0.08411251
0.07490558 0.34597805 -0.28811708 0.14747418 0.25951427 0.040268946 0.2297092 0.07994129

fc1.bias f4 [8]
00000000: 7cfa e53d 347f fabe 3796 abbe 8347 d93e
00000010: 1298 033e 9e88 91be c539 333d 8931 6bbe
0.11229417 -0.48925173 -0.33513042 0.42437372 0.12850979 -0.28424543 0.043756265 -0.22968115

fc2.weight f4 [32, 8]
00000000: 6675 ab3e 092e 05bc 706d aebc a36b 613e
00000010: 3e64 a3be dd96 d1bd 349b 89be ad70 7cbe
00000020: 8166 e4bd 3816 7e3c e70f 0d3e 4979 103e
00000030: 40cc ba3e fec6 62be 7275 96be f252 3f3d
00000040: a7e9 063e 9ee2 8a3d 2125 7b3e 664d 953e
00000050: f36d 8bbe e156 43be 0c56 a43e 989e 9f3d
00000060: aec4 11be 247f a4be ebbf 40be d020 a03d
00000070: 137c a1be 3f6f b2bd 21c8 6dbd 77d4 8d3e
00000080: 7ad3 053e 5169 9f3d 21d6 91bd 4f78 19bd
00000090: d31e cf3e 62e8 7f3e 6100 95be 690e d0bb
000000a0: 5c1d 923e ef85 4bbf 056f 17bf 9bfb bcbd
000000b0: 304b e03d b772 80be cc0d 9b3e 12de 32be
000000c0: b671 a83e f736 5cbe 5104 c93d 9998 123e
000000d0: 92b4 2fbf a7bf 4f3d 2d1a 74be acba a23e
000000e0: bb79 c93d c3a5 43be b961 193e 8a04 2dbe
000000f0: f7d4 e7be 298b b2bd fe9c cd3e 1a34 adbd
00000100: c5e7 ff3e 898f 77be 0b52 a63e 0384 7cbe
00000110: 5445 b2bd 74b1 8e3e ed45 933e 3e7b 1f3e
00000120: 4b6b 073c 6285 813e 38a8 d4bd 7e6c 68be
00000130: d17f f33e 0a55 4cba 531e 7dbe 3913 133d
00000140: cc25 933d cc30 88be 1243 12bf d0dc ecbd
00000150: 8c92 dabe 99a7 c5bd 1cdf 9d3e 1c59 4dbd
00000160: cf9c 62bd b7d0 5a3d d233 8bbe 1a64 95be
00000170: 7550 b13e dcf8 93bd 5b77 58be bff7 9a3e
00000180: f0bb f0bb b238 9d3e 473e af3c 2748 e6bd
00000190: 606f 693e 25bd d5bb 2f10 f83d 154b 6c3e
000001a0: 74ae eb3e 45a1 2abe 1b68 6d3e 79fb e6bd
000001b0: 65ba 23be 4edb aa3e ae9a 983e 3412 6b3e
000001c0: 70d4 4a3e 5d33 9a3e 783c 6abe cff6 403e
000001d0: 9cd1 e03e f98f acbe b02d 433e 6687 8b3e
000001e0: 3cf8 bbbe f05b 48be 8b2a a83e 2462 62be
000001f0: 9a67 01bf 1ab3 b53d 9cdf f4bd 1a03 173e
00000200: afd9 92bb 16d5 04be f0a0 eb3d 8cf9 b4be
00000210: 2114 adbe df99 96be 6611 a93e 5684 75be
00000220: 93d0 483d 8cd1 ffbe b9c4 4abe ee6e 52bd
00000230: f02b 023f 27f2 27be 89a8 72bd b673 e13d
00000240: 770d 6bbc 7731 9c3d 85a5 8dbe 1c21 40bd
00000250: 55ea 033d 20bf a0bd 8794 47bd 2790 1abe
00000260: 231a 0abe 83d0 023e 4161 513e 5bd4 13be
00000270: 4cae 203f b384 a7be e3eb 133e 695f 6c3e
00000280: 647d 16bd c242 2abe 3395 173e a67a ea3b
00000290: 439a a539 dc07 39be c5da 08bc af8e 1b3e
000002a0: 7afa cebd 9db8 2b3e 6bdf 853e 2969 8abe
000002b0: 6c29 383f 4ca7 113e 649c 91be 194e a53d
000002c0: bac1 e1be ed6e babd 76fb 80be 016c 9c3e
000002d0: c3f4 243e e7eb a6be 8b67 263e 355c a23e
000002e0: fa74 373e 9ff9 843e d616 34bb e3ab b33e
000002f0: 5af9 203f ed9b ad3e 9fbf 91be 0552 76be
00000300: 8806 08ba 6599 773e 3bd9 193e 93f2 2e3e
00000310: ff3a 203f f0d4 c93d bbe6 993d 6aa8 503e
00000320: 677c c33d 533d b23d f5c0 1abe 3151 ad3e
00000330: 440a 253f dd81 59be cabf a03d 4cbd 0c3e
00000340: a1da c6bd be9e 07be 4854 71be 1420 063e
00000350: d722 ae3c 305a b1be bbb7 5abe 851d 01be
00000360: 3f70 2d3d c29a 113c a769 ad3c 80ff a53e
00000370: 256b 393f 31ec 503e 9e59 91be e330 3b3d
00000380: b7d6 97be 8afd 813d a959 0bbd 5af2 30be
00000390: 92f2 1fbf e087 95be dcac 973e c26e 27bd
000003a0: baac d53e 4d8d 88be 6bb8 cc3d aa0d 913e
000003b0: c1cc e4be 9e9e f23d 0489 463e e054 813e
000003c0: 45d0 7dbd d325 21be 56d7 893e 3b97 8e3e
000003d0: 3aba 70be 673c 9e3e 3194 6abe 1814 a4be
000003e0: 0bf3 fbbd 8406 7a3e 139b 12bd b61c f3bd
000003f0: 23ef 603e 19c7 84be efee 5c3e b667 733d
0.33488005 -0.008128651 -0.021292418 0.22013716 -0.31912416 -0.10233853 -0.26876223 -0.24652357
-0.111523636 0.015508227 0.13775598 0.14108767 0.36483955 -0.22146222 -0.2938648 0.046709962
0.13175069 0.06781505 0.24525882 0.29160613 -0.27232322 -0.1907611 0.320969 0.07793921
-0.14235184 -0.3212825 -0.18823211 0.078187585 -0.31539974 -0.08712625 -0.058052186 0.2770116
0.13068953 0.077837594 -0.0712092 -0.03746825 0.40453205 0.24990991 -0.29101852 -0.006349374
0.28538024 -0.7950124 -0.5915378 -0.092276774 0.10951841 -0.2508752 0.30283964 -0.17467526
0.32899255 -0.21505342 0.098152764 0.14316024 -0.68634903 0.050719883 -0.2383811 0.31783044
0.09837671 -0.19106202 0.14978684 -0.16896263 -0.45279667 -0.08717949 0.40158838 -0.08457203
0.49981514 -0.24175848 0.3248447 -0.24659733 -0.087046295 0.2786976 0.28764287 0.15574357
0.008265327 0.25297076 -0.10383648 -0.22697636 0.47558454 -0.0007794654 -0.24718599 0.035907004
0.071849436 -0.2659973 -0.5713359 -0.11565554 -0.4268993 -0.09651107 0.3083428 -0.05013381
-0.055325326 0.053421702 -0.27187973 -0.29177934 0.34631696 -0.072252005 -0.2113928 0.3026714
-0.0073466226 0.30707318 0.021392 -0.11244231 0.22796392 -0.006522792 0.12112462 0.23075517
0.46031535 -0.16663082 0.23184244 -0.11278433 -0.15989073 0.3337044 0.2980551 0.22956163
0.19807601 0.30117312 -0.2287463 0.1884415 0.4390992 -0.33703592 0.19060397 0.27251738
-0.36712825 -0.19566321 0.32844958 -0.2210775 -0.5054871 0.088720515 -0.119567126 0.14747277
-0.0044815163 -0.12971911 0.11505306 -0.3534664 -0.3380442 -0.2941427 0.33021086 -0.23976263
0.049027037 -0.4996456 -0.19801606 -0.051375322 0.50848293 -0.16400968 -0.05924276 0.11008398
-0.014346472 0.07626622 -0.27665344 -0.046906576 0.0322059 -0.07848954 -0.04872563 -0.15094052
-0.13486533 0.12774853 0.20447256 -0.14436476 0.62765956 -0.3271843 0.14445452 0.23083271
-0.036740676 -0.16627029 0.14803009 0.007155734 0.00031586186 -0.18069404 -0.00835294 0.15191148
-0.10106368 0.16769643 0.26147017 -0.27033356 0.71938205 0.14223975 -0.2843963 0.080715366
-0.44093114 -0.09103189 -0.2519185 0.3055115 0.16108994 -0.32601854 0.16250436 0.31710973
0.17915717 0.25971696 -0.0027479432 0.35092077 0.6288048 0.33908024 -0.28466508 -0.24054725
-0.00051889615 0.24179609 0.15024273 0.17084722 0.6259002 0.09855068 0.075147115 0.20376745
0.09545212 0.08703103 -0.1511267 0.33851007 0.6446879 -0.21240945 0.07849081 0.13744086
-0.09709669 -0.13244149 -0.23567307 0.13098174 0.021256847 -0.3463912 -0.2135915 -0.12608917
0.042343374 0.008886995 0.021168543 0.32421494 0.72429115 0.204026 -0.28388685 0.04570092
-0.29656002 0.06347187 -0.034021053 -0.1727995 -0.6247951 -0.29205227 0.2962407 -0.04087711
0.41733342 -0.26670304 0.099961124 0.28330737 -0.44687465 0.1184666 0.19388205 0.25260067
-0.0619662 -0.15737085 0.269221 0.27849755 -0.2350854 0.30905458 -0.22908093 -0.3204658
-0.12302216 0.24416548 -0.03579242 -0.118707106 0.21966223 -0.2593315 0.21575521 0.05942508

fc2.bias f4 [32]
00000000: 4848 acbe a9ef 853e 1e69 413d 4ef3 263e
00000010: edea ca3d 2ab6 cd3e 6693 323e 6c15 d93e
00000020: 3878 75be bd7f 063b ef88 a53e 1b93 7bbe
00000030: dd76 49be 2704 67be f39a de3d 1119 14be
00000040: 8459 15be 6667 3a3e eec4 ccbe e1a2 c5bb
00000050: 166f 0bbe 9eaa d13e 0ffb 943d 36dd 7e3e
00000060: d156 0ebe 9acd 8b3b 3aa8 413e 4fc3 04be
00000070: 44a0 2abe db95 febd fe42 4dbe adcd 10be
-0.33648896 0.2615941 0.04721939 0.16303751 0.0990809 0.40178043 0.1743904 0.42399156
-0.23971641 0.0020522915 0.32331035 -0.24567835 -0.19674249 -0.22560178 0.10869398 -0.14462687
-0.14584929 0.18203506 -0.39993995 -0.0060313796 -0.13616595 0.40950483 0.07274448 0.24889073
-0.13900305 0.004266453 0.1891183 -0.1296513 -0.16662699 -0.124309264 -0.20045087 -0.14140959

fc2_1.weight f4 [64, 32]
00000000: 308b d73d 5e6b e13d 82b0 013e 15ce 8c3e
00000010: 8085 8e3d 09d7 6b3d 79f7 af3d 059a 8d3e
00000020: 6a3a de3d d796 68be c816 b13d 2e96 3cbe
00000030: a7c9 ef3c c99b ae3c 15cf 00be 13ec 8d3c
00000040: 8b7c 06bd 1a6d 8dbe a33a 1bbe 0703 5dbd
00000050: 99fb cebd 7811 79bb 5913 1b3e bb6e 8dbc
00000060: 4d43 2e3d 4fcb 77ba b534 513d c933 e43c
00000070: 2f0b c33d 5106 553e 2044 45bd c370 1ebe
00000080: 29ec f03d c6eb 87bc 5ea9 c53b 6ce5 23bc
00000090: 0fe1 99be b7af e53e f7d6 5b3e d148 aa3e
000000a0: 811f 8d3d a163 7cbe 2179 823d 0ee9 f0bd
000000b0: 2538 9fbd 75c8 d0bc 8aa4 aabd 73e9 053e
000000c0: d951 803d 835f 4c3e aa41 cf3c 7687 b43d
000000d0: 9adf a7bd 5b8e e43d 0156 7fbe 17ba 7ebe
000000e0: ac71 33bd 3aaf 5a3c 959b b8bd 9735 d3be
000000f0: 504a 503e 776c c2bc e6fd 503e 1c35 1c3d
00000100: 3010 10be d92a 13bd 87f8 82bd 3add b53d
00000110: 7787 173e 47f7 93be 3f9e 75be b5e0 65be
00000120: 2eff 48bd 23c6 fd3c e439 07bb 31c7 d13d
00000130: 16ce 1d3e d0a5 babd e102 623d eb50 da3c
00000140: 4ff2 7e3c 43c9 d23e 9896 4a3e 4eb9 753c
00000150: f231 b93d d845 75bd 594f 7bbd de15 993e
00000160: ceb5 52bc 34f2 b13e ef37 8c3d ef7d 293e
00000170: ef7e df3d 8560 18bd 67b9 173e 19cb eebd
00000180: 85df d93b ca89 13be f931 8dbc 6bcd a5bd
00000190: 59c8 593d e3d3 88bc f154 b3bd 97ee b8be
000001a0: 15de 4ebe 6ae4 813e df6d ed39 c5b5 ae3d
000001b0: 08ae bc3d 3c98 863d 3fb4 ebba b65c 8ebd
000001c0: de61 1d3e 15d3 db3e f224 4c3e 85bc 1fbe
000001d0: d924 7b3d 6b67 193e 6753 2abe f449 883d
000001e0: 8c9e 9f3d 7e7c b6bc ea73 4b3d 09af 5f3e
000001f0: c47c 233e b211 04bd 9a87 323e ef76 903c
00000200: 421d 523b 37cd 13bd c9a1 353d 80ca d43c
00000210: 1ede 983d dc9d acbd a908 28be 541f b3bd
00000220: 3921 19bc 9ace 803d ca08 c2bd ac65 013e
00000230: 0ca1 0b3e 96c0 10be 67cb 523e 7089 983d
00000240: af72 20bc 1b14 cc3e 9463 b5bd 65e3 003e
00000250: 3306 c5bd e885 4f3e d50b 21bd 48fb 373e
00000260: b40c 173d 7a4f de3d 2bcc 01be b886 3a3e
00000270: 7434 3abe 5ed0 1dbe abe3 24be 7a33 52bd
00000280: 2b67 7d3d 541d 313e 28cd 7a3c 78f5 243e
00000290: 409a e3bd 6c40 6a3c 9e8c 6b3c 0412 683e
000002a0: bd78 13bc d1e6 2dbe 3982 263e 7595 d43d
000002b0: 545e e83c ebda 233e 09a6 21bb 6859 f33d
000002c0: 8b85 9abd 226f 6c3e 1495 27be e6a6 d33c
000002d0: 546b 39be d551 bebe 9d72 323e ce09 263e
000002e0: a743 20be 94c9 82be 2aed 273e 971a 97bd
000002f0: 965b aebb d145 23bd e6cc d4bd 4206 4cbe
00000300: c374 0f3e 8554 9f3e 490a cc3d 994c 3b3e
00000310: f7a5 1ebe b83a 9f3d 6e3c 833d d195 2a3d
00000320: 7230 0ebd 8023 3a3d 664f 313d c1f3 73be
00000330: 826a 86bd eae6 c43d e1f4 063e 0f67 6c3d
00000340: 2388 f5ba b20a 413e 287d 963d 8691 0b3e
00000350: 3852 033e 0d78 3b3d ac32 0c3e 4bf1 be3d
00000360: 8d4e 92bd 4d5c bdbe 47ac 893d 4a06 49be
00000370: 8b1c 333e 5c98 13be 4ef9 0ebe 70cc dc3b
00000380: f454 133e cc3c 5ebe 648f 58be bac6 813d
00000390: 2a78 24be f8ab 22be f1a8 a23d 7954 d4bd
000003a0: 5690 d93d 2906 c0bd 90ed 89be 85b3 123e
000003b0: 02ce 1c3d cc42 64bd d533 3d3e 5167 b9bb
000003c0: e43d 1d3e 6c44 90be e178 eabd a3d8 0e3e
000003d0: 29ad 24bc be66 d7bd ffd8 d3bd 5d7e 2fbe
000003e0: 7d80 b83d dfc7 c43d 6aa9 c9bd 1d9b e93d
000003f0: 2988 bb3d c3bc 013d 7073 e53d c58f a4bd
0.10524595 0.11006807 0.12664989 0.27500978 0.06959057 0.05757812 0.085921235 0.2765657
0.10850985 -0.22713791 0.08646923 -0.18416664 0.02927096 0.021314519 -0.12578996 0.017324483
-0.032833617 -0.276223 -0.15159087 -0.053957965 -0.10106582 -0.0038004797 0.151441 -0.017264714
0.04254465 -0.00094525976 0.051075656 0.027856724 0.095236175 0.20803191 -0.048160672 -0.15472703
0.11763794 -0.016591918 0.006032153 -0.010003429 -0.3005452 0.44860622 0.21468721 0.3325868
0.068907745 -0.2464738 0.0637076 -0.11763202 -0.077743806 -0.02548621 -0.083321646 0.13077335
0.06265611 0.1995831 0.025299866 0.088148996 -0.081969455 0.11159965 -0.24935152 -0.24875675
-0.043809578 0.013347441 -0.0901405 -0.41251823 0.20340848 -0.02373336 0.20409355 0.038136587
-0.14068675 -0.035929535 -0.06395059 0.08880086 0.1479777 -0.28899595 -0.23986147 -0.22449
-0.049071483 0.030978268 -0.002063387 0.10243071 0.15410647 -0.091136575 0.055178527 0.026649913
0.015560701 0.41169176 0.1978401 0.014997793 0.090427294 -0.05988106 -0.06135497 0.29899496
-0.012860728 0.347551 0.06846606 0.16551946 0.109128825 -0.037201423 0.14816819 -0.116598316
0.00664896 -0.14408031 -0.017235743 -0.08095821 0.053169582 -0.016702598 -0.08756436 -0.3611953
-0.20201905 0.2536958 0.00045286023 0.085307635 0.09212881 0.06572005 -0.0017982795 -0.06951277
0.15369365 0.4293448 0.19935969 -0.15599258 0.061314438 0.14980857 -0.16633378 0.066547304
0.07793912 -0.02227616 0.04967109 0.21844114 0.15965563 -0.032243438 0.1743454 0.017634837
0.0032060896 -0.03608438 0.044343743 0.025975466 0.074642405 -0.08428547 -0.16409554 -0.0874621
-0.0093463 0.06289406 -0.09474333 0.12636441 0.13635653 -0.14135966 0.20585404 0.07448089
-0.009792968 0.3985909 -0.08856884 0.12586744 -0.09620323 0.20265925 -0.039317925 0.1796695
0.03687735 0.10855003 -0.1267554 0.18215454 -0.18184072 -0.15411517 -0.16102473 -0.051318623
0.061865967 0.17296344 0.015307702 0.16109264 -0.11113405 0.014297586 0.0143767875 0.22663122
-0.009000954 -0.1698258 0.16260614 0.10380069 0.028365292 0.1600148 -0.0024665615 0.11882287
-0.075450025 0.23089269 -0.16365463 0.02583642 -0.18107349 -0.37171808 0.17426534 0.16214678
-0.15650807 -0.25544417 0.16399065 -0.073781185 -0.0053209765 -0.039861504 -0.10390644 -0.19924262
0.14009385 0.3111917 0.09962899 0.18290938 -0.15492998 0.077748716 0.064080104 0.041646782
-0.03471417 0.04544401 0.04328861 -0.23823453 -0.065632835 0.09614356 0.13179351 0.05771547
-0.0018732589 0.18851736 0.073480904 0.13629732 0.12824333 0.045768786 0.13691205 0.09323367
-0.071438886 -0.36984482 0.067223124 -0.19631305 0.17491357 -0.14413589 -0.1396229 0.006738238
0.14387876 -0.2170288 -0.21148449 0.06336732 -0.16061464 -0.15885913 0.07942379 -0.103676744
0.10623233 -0.09376175 -0.26939058 0.14326294 0.0382824 -0.055727765 0.18476804 -0.005658068
0.1535564 -0.28177202 -0.11448837 0.13949828 -0.01005105 -0.105176434 -0.10344123 -0.17138048
0.09008882 0.09608435 -0.09846766 0.11406539 0.0915683 0.031674158 0.112036586 -0.08035234

fc2_1.bias f4 [64]
00000000: 028c 07bd 5991 ac3d 2a13 04be 955f 623d
00000010: ccb8 f03c d68a 40be fb08 83bd 1a11 17bf
00000020: f386 7c3d 5bac c83d d605 953c fb55 683d
00000030: b81d 423e ac25 113e f933 043f 9724 2cbe
00000040: 3f9f b13d f113 2bbc 6346 98bd 4603 b0bc
00000050: f9f5 06be d9ff 89bc c5d4 dfbe 25f7 613d
00000060: 03d8 97bc e7ec a53e 38de 1bbe 794a 213e
00000070: 869e 863e 0b1e edbd 3e13 36be 739d 803e
00000080: 1993 39be 7929 27bd aab8 7b3d 6307 963b
00000090: 1ef0 ddbd 0b34 48be 0b31 593c 345e f3bd
000000a0: d29b 16bd 7f62 253d cc3d 893d afdb c43d
000000b0: e1e2 e8bd 2603 d7bd c4ed 313d 7117 00be
000000c0: 11de 9f3c 5b07 f5bd 9939 0dbe f85f dabd
000000d0: 4733 2dbe b1ee 32be f7af 12bd 0a10 23be
000000e0: c30a 433d d274 16be e9fc 8dbd 558a b8bd
000000f0: 3160 dfbc c87b 25be ce0f 28bd 7dfd b1bd
-0.033092506 0.0842616 -0.12897936 0.055266935 0.029384993 -0.18802962 -0.06398197 -0.5901047
0.061652135 0.09798499 0.01819126 0.056722622 0.1895665 0.14174527 0.51641804 -0.16810833
0.08672952 -0.010441766 -0.074353 -0.021485936 -0.13179769 -0.01684563 -0.43717018 0.055167336
-0.01853562 0.32407305 -0.15221488 0.15751065 0.2629282 -0.11577996 -0.17780778 0.25120124
-0.1812252 -0.040811036 0.061455406 0.0045785173 -0.10836814 -0.19551103 0.013256322 -0.11883202
-0.036769696 0.040377136 0.0670124 0.09612214 -0.11371399 -0.104986474 0.04343964 -0.12508942
0.01951507 -0.119642936 -0.13791503 -0.10662836 -0.16914092 -0.17473866 -0.035812344 -0.15924087
0.047617685 -0.14693001 -0.069330044 -0.0901076 -0.027267547 -0.161605 -0.041030698 -0.08690927

fc2_1_1.weight f4 [64, 64]
00000000: 432a c83b ce80 953a a5bd 0f3b 5dcb 983d
00000010: 0659 01be 900f ac3d ab26 72bd 9381 db3d
00000020: 92c8 b8bc d921 cabd 5bdc 08be dc3e 14bd
00000030: df5f 4b3a 8c49 893d 4756 3bbe 69ee 273e
00000040: 44db 10bd e883 8e3d 6877 daba 044e f4bd
00000050: 07d5 cfbd baa5 5ebd bb23 623d 4786 bd3d
00000060: 6c37 cebd 9b86 19be 8e72 8a3d 6477 f6bc
00000070: 1a80 123d 14d4 e33c 6b2b ec3d 323d 25be
00000080: 47ba f33d 6616 a83d 79ab 953d 440b d0bd
00000090: f5f0 4f3d c691 bcbc 0285 80bd c811 a43c
000000a0: 6602 fd3d ee60 2e3d 872c 243c cacc 75bd
000000b0: 9af1 933d 63e4 f03d f09b 543d a785 38bc
000000c0: 6d3d 983d 0541 8cbd 0b4b f23d 5a4c 6e3d
000000d0: 43b2 8bbd 6401 d5bd ae84 95bd 24b4 1bbc
000000e0: c9bd ccbd 3fbb f4bc 49fd 363d 422d ebbd
000000f0: 4cdc a13d ef1f 82ba 8b2c cd3d 2492 f33d
00000100: 574a 243d 0202 e83d 4b2d 3d3d f13a 393d
00000110: b22d 333c 4437 633d fc76 fd3d a861 0abd
00000120: 876d 42bd f2e0 a63d 000a 773b 78a1 e43d
00000130: e043 d4bd 765e a1bd 28eb d8bc ea0d bcbd
00000140: f00e 7d3d 007e d3bc 10c8 06bc 944f ae3d
00000150: 2082 583c 83bc bcbd 7152 2bbd aa2a a4bd
00000160: 3e9a bbbd eb55 0abe 5049 0ebe 4819 f9bc
00000170: 2cdd 4fbc ba6c b2bd 2014 80bc 1e9e 25bd
00000180: 3835 3abd ae43 6abd 808c 9ebc b0ac c53c
00000190: 00e7 693b b826 bdbc c0cf 51bd 0c37 7f3d
000001a0: 9c00 5ebd 40b4 adbb b41f 9a3d 0e11 dcbc
000001b0: 9d02 d9bd 0006 a5bd 88b8 a8bd bf23 00bd
000001c0: e012 08bc 50cd 51bd 1aba c9bd 889d c93d
000001d0: e52e f8bd d9ce 8e3d 80e3 33bd 0eb3 b73d
000001e0: 301e 6fbd 04a1 5fbd 907d a5bd 28cb e2bd
000001f0: 9afd 193d 1dfa 1cbd 6043 c2bc 4033 7abd
00000200: b568 183d f607 ec3c 5318 953d eab0 bd3b
00000210: 7550 923d fbd6 373e 8dd3 dabd fe81 adbd
00000220: d853 cf3d d9bc 103d 1ab9 89be 808c 1a3b
00000230: 0a39 373d 6091 01bc d594 99bd f369 bf3d
00000240: 667e aebd fcb9 113e df5d 663c f017 92bc
00000250: 0a9a b7bd ba20 81bd ee7a 0bbe 4562 c13d
00000260: 62f5 653c 7231 a43d 4e2c b8bd a431 d7bd
00000270: b86d e1bc 191f be3d 3554 093e 438c 46bd
00000280: 32c9 383d c0c4 203e e317 6bbc c0e8 8c3b
00000290: 0e36 e53c d20d ec3a d4c0 25bd bb95 d9bd
000002a0: 4221 b4bc 15e6 363e b003 f3bc cee1 5ebc
000002b0: 2f1a 6fbd 5835 86bd cb18 023e 769e 163e
000002c0: 261c e1bc 254a 37be e1b5 bd3d 03a5 a6bc
000002d0: 661b 26be 902f 463d 0ea6 56be 770a b9bd
000002e0: 8ede b6bc 80af e3bd dbc7 4d3e 6865 b6bc
000002f0: 3810 86bd 4f74 cdbd 57dd c3bd 5794 113e
00000300: 87ca a4bd 7b6b 68be 6b68 1bbe be61 5cbd
00000310: 277d aabd 8fc9 313e b0a1 38bd 35a7 47be
00000320: c9aa a9bd 1019 7c3d 9edf bc3d 4c29 1cbd
00000330: 8825 63be 00f3 c6bd 4064 27be 609e 353d
00000340: 8873 b1bd d479 103d 8899 cc3b 88e5 c4bd
00000350: 9e3c 94bd f80d f7bd 4cac 2fbe b628 04be
00000360: fa02 d53d 68c1 443d 8531 203c e194 44bd
00000370: bc5a 4ebe f681 853d ce5d dc3d 7b7c 6ebe
00000380: 11b6 5aba 3093 e73d 822a cc3d a2a4 eabd
00000390: 31e3 203e af2a d0bb 0817 27bd fc86 70bd
000003a0: 1346 753d 8b6f 133e 0bb6 aebd f156 7d3d
000003b0: 3544 973d a8a6 f5bd b297 9b3d 360f 133e
000003c0: c48f 54bd e2bd ba3d ffb3 76be 4c34 b3bd
000003d0: ba5b 993d a222 243a 4a0f af3d 3d5a c93b
000003e0: 7260 923d ecdb 54bd bf29 e7bb 200a d8bb
000003f0: 504b a33d 7edf 36be aeff dfbd 36a0 f33d
0.0061085536 0.0011406185 0.0021933105 0.074606635 -0.12631616 0.08401406 -0.059118908 0.10718074
-0.022556577 -0.09869737 -0.13365309 -0.03619276 0.00077581214 0.06703481 -0.18294631 0.1639954
-0.035365358 0.06958753 -0.0016667666 -0.11928943 -0.101480536 -0.054357268 0.055209856 0.09254127
-0.10069165 -0.14992754 0.06760131 -0.030086227 0.0357667 0.027811088 0.11531719 -0.16136625
0.11900764 0.08207397 0.073080964 -0.10158399 0.050766904 -0.023018729 -0.06275369 0.02002801
0.12353973 0.042572908 0.010020382 -0.060009755 0.07223816 0.11762311 0.051906526 -0.011262334
0.07433591 -0.06848339 0.118307196 0.058178283 -0.0682111 -0.10400656 -0.07300697 -0.009503398
-0.09997136 -0.029874442 0.044675145 -0.114832416 0.079033464 -0.000992773 0.100182615 0.118931085
0.04010996 0.11328508 0.046185773 0.045222227 0.010936188 0.055472627 0.1237621 -0.03378454
-0.047467735 0.08148374 0.003769517 0.1116361 -0.10364509 -0.07879345 -0.026479319 -0.091823414
0.061781824 -0.025816917 -0.00822641 0.08511272 0.013214618 -0.09215643 -0.04182667 -0.0801595
-0.09160279 -0.13509338 -0.13895154 -0.030407563 -0.012687009 -0.08712144 -0.015634596 -0.040433995
-0.04546091 -0.05719345 -0.019354105 0.024130195 0.0035690665 -0.023089752 -0.051223516 0.062308356
-0.0541998 -0.0053010285 0.07525578 -0.026863601 -0.105962016 -0.08057785 -0.082383215 -0.03128409
-0.008305281 -0.051221192 -0.09849949 0.098445 -0.121183194 0.06973047 -0.043918133 0.08969699
-0.0583784 -0.054596916 -0.0808059 -0.11073905 0.03759537 -0.038324464 -0.023713768 -0.061084032
0.03720923 0.02881239 0.0728003 0.005788912 0.07144252 0.17953102 -0.10684881 -0.0847206
0.10123414 0.03533635 -0.26899034 0.002358228 0.04473213 -0.007908195 -0.074990906 0.0934638
-0.08520202 0.14231104 0.014060467 -0.01783368 -0.089649275 -0.0630507 -0.13621113 0.094425716
0.014035555 0.080172434 -0.089928254 -0.10507515 -0.027518138 0.09283275 0.13411029 -0.048473608
0.04511375 0.15700054 -0.014348957 0.004300207 0.027979877 0.001800949 -0.0404671 -0.10624262
-0.021988515 0.17861207 -0.029664844 -0.013603641 -0.05837458 -0.06553143 0.1270477 0.14708886
-0.027479243 -0.17899378 0.09263206 -0.020342356 -0.16221389 0.048385203 -0.20961782 -0.09035199
-0.02232292 -0.11117458 0.2009577 -0.022265151 -0.06546062 -0.1003195 -0.095637016 0.14216743
-0.080464415 -0.2269725 -0.15176551 -0.05380415 -0.08324652 0.17362045 -0.045076072 -0.19497378
-0.08284528 0.06154734 0.09222339 -0.03812532 -0.22182286 -0.09714317 -0.16346836 0.04434049
-0.08664614 0.035272434 0.0062438883 -0.09614092 -0.07238124 -0.12063211 -0.1715557 -0.12906155
0.10400958 0.04803601 0.009777431 -0.047993544 -0.201518 0.06518929 0.10760079 -0.23289673
-0.000834317 0.11307371 0.09969045 -0.114571825 0.15711667 -0.0063527445 -0.04079345 -0.05872248
0.05988128 0.14398019 -0.08530816 0.061850492 0.07386056 -0.11994678 0.07597293 0.14361271
-0.051894918 0.091182485 -0.240921 -0.08750209 0.074881986 0.0006261264 0.08547838 0.0061447904
0.07147302 -0.051967546 -0.007054537 -0.006593004 0.07973349 -0.17858693 -0.10937439 0.11895792

fc2_1_1.bias f4 [64]
00000000: 35df 403c 9e9c 863d 7ee2 dd3c 9866 9e3d
00000010: 94b1 a3bd 305a cc3e af92 89bd 7f04 37bd
00000020: aeee 09be b184 00be 34ce ce3d 9942 b73d
00000030: c73a e0bd 93c8 9f3c d963 90bd 6207 1bbd
00000040: 177d 6cbd 4c75 1bbd ce78 2fbe 28e1 dd3d
00000050: fd19 0bbe bac2 b2bd 6364 14be c61b 26be
00000060: a84e 81bc d230 30ba 4dcd e13d 26bb 833d
00000070: e452 4f3d 2c79 3abd 252e 333d fb57 13ba
00000080: 38a1 1f3d 8cbb b83e 2ae5 f6bd fbec a9bc
00000090: 44ea e83b 9358 703c 9d4c c43e a548 123d
000000a0: d1e0 1bbc 4d66 8ebd 8120 b43d b511 4e3e
000000b0: b804 5ebd d184 64bd 0b05 5cbc 3a05 ae3d
000000c0: adde 25bb 7876 0c3e 00b7 423d daea cbbb
000000d0: 004d fb3c 511b 8e3d 44bc 34bd 3aae fc3c
000000e0: ab98 c6bd 67ca b6bc 283e 483d 3a82 0abd
000000f0: 232f 84bc 9615 14be c8cc 5ebd 7678 5f3e
0.011771967 0.06572841 0.027085539 0.07734412 -0.07992855 0.39912558 -0.06717431 -0.044682022
-0.13469955 -0.12550618 0.10097924 0.08948249 -0.10948711 0.01950482 -0.070502944 -0.037848838
-0.057736482 -0.03795366 -0.17135927 0.10833961 -0.13584132 -0.087285474 -0.1449142 -0.16221532
-0.015784577 -0.0006721142 0.11025486 0.0643218 0.05061616 -0.045525715 0.04374518 -0.0005620715
0.03897211 0.36080587 -0.12055428 -0.020742884 0.0071080048 0.014669555 0.383397 0.03571381
-0.00951405 -0.06953106 0.08795262 0.20123942 -0.05420372 -0.055790726 -0.013428937 0.08497091
-0.0025309727 0.13717067 0.047537804 -0.006223065 0.030676365 0.06938804 -0.044124857 0.030844796
-0.09697088 -0.02231331 0.0488874 -0.0338156 -0.016135758 -0.1446136 -0.054394513 0.21823296

fc2_1_2.weight f4 [32, 64]
00000000: d4f1 da3d a015 c9bb 8e29 333e 55db 843e
00000010: 9a97 ccbd 38e5 293d 9816 56be 8a40 023b
00000020: e73c 113e 4f90 f1bd 5b09 2cbe e03d 073e
00000030: 988f b6bd f251 e53d 078c d83d b99a 143e
00000040: 6861 fa3d 24b6 ba3d 7c8c 1abd 3189 26be
00000050: 8e7a b53d 38f7 7ebd 31d4 6a3c 8ba4 bc3d
00000060: 42b9 47bd b080 b73d c920 4e3e d5e6 113e
00000070: cac8 b6bc f6c5 373d e1de ddbd f475 76bd
00000080: 5748 c53d eda4 f23c ee57 e9bd 9895 4cbe
00000090: 24b2 6a3c c932 79be 500a 01bf 11cb c73d
000000a0: 2227 5abd 37e2 b8bc bae3 713d 2263 58be
000000b0: c7d8 543e 108c e73d d870 c03d 5100 353c
000000c0: 4cea 55bd 9240 bb3c 9c53 10bd c6fb 04bd
000000d0: 780b dabc b315 35be 0f35 263e d36a 39be
000000e0: 222e 1dbe 2a6e 9fbd 805c cfbb 20e8 303d
000000f0: b7a1 2ebd 54f1 a3bd 206e 393e c206 713e
00000100: 8fcd 913d c68a ee3d dfb8 11bd 2785 f43d
00000110: 28a2 3e3d 3c20 0c3e cf2c 1dbe 8f5b 843c
00000120: 646f d8bd 6541 eb3c 4237 fcbd 048c e4bd
00000130: 6d34 cebd c3b0 163d 5a14 f23c 190b 903c
00000140: 8069 2f3d f8c7 7bbd d04c 74be 1ad2 afbd
00000150: 0ce2 8a3d aa98 aebd 77ee 43bd b60e dbbd
00000160: 8ab3 a6bd 0c7d b9bd 1b2b ebbd 23e4 da3d
00000170: db02 293d 7da5 b23d 3919 843d c81a 913c
00000180: 136e 063e 3bcc 163d c27c cd3d a604 3dbd
00000190: 8f9e 963d 139b 24be 4cbc 81be e3c9 883d
000001a0: d6c8 b93d 4e18 453c 6bdd 243e e03a 30be
000001b0: 37ed 9bbd da5f aa3d f8f5 ddbc 81e0 d83d
000001c0: 2098 ebbb 5cab ce3d d298 b2bd 65db dcbc
000001d0: c0be 443d 0d67 b03c 9a89 fb3d bbdf 88be
000001e0: bc58 c0bd 5e86 493d 989b 8cbd 0fdc cabd
000001f0: 5bf7 adbd 468d b13d 3bd6 8c3e e525 e83b
00000200: b79b ec3d d0d1 5a3d 61ea c73d 80c2 0dbe
00000210: 1c01 a63d f665 ce3c 732c a43d 22a8 323d
00000220: 6a6c 06bd f888 19bc 9be4 ac3b 20e5 2bbd
00000230: 4c6e d83c 1ba4 f63a a4c7 5c3d 0ffb 02be
00000240: 6e3b 07bc f695 febd dfd4 553d dae1 a73c
00000250: 78df 0bbd b6d1 e0bc 74b3 17bd 71f1 dc3d
00000260: 6c05 d13d 0d7c 8c3d bd0e 29bd 35a2 4b3d
00000270: e353 97bd 9ad9 fdbc d5b1 ef3c a1d3 8ebd
00000280: c5d3 c83d 6892 7cbd 4478 ebbd 93cf b9bd
00000290: 0342 c23d e176 133e 68a3 003e eb7d 6d3d
000002a0: 2034 54bd a30c d63d 8299 adbd 1e6a a5bb
000002b0: eaca 92bd 39ae bfbe c382 83bb f27e a6bd
000002c0: 9700 a93d 4465 e4bd c0d3 49bb 1bb1 26be
000002d0: fea2 8c3d fad5 9fbc 4889 83bd c223 2f3d
000002e0: 3ab0 56bc da8a 353d 78a8 8dbd 2c02 d33d
000002f0: b9cb 9fbd aa13 adbd 948f 13be 2337 0cbe
00000300: eea1 b83d 40c2 9fbd a764 5c3d 1485 b53c
00000310: 34ff abbd 8f48 acbd db34 50bc 8c4e 1d3e
00000320: 3cb0 52bd f668 1bbd b58a a1bd 10fc 73bd
00000330: 1dba 113d 4969 08be 385d 08bb 4f8a 82bd
00000340: c65d 973d 3003 e43d b33a a7bd 6b36 a6bd
00000350: c322 b73d dec3 66ba 312e 953d f46d 643d
00000360: ba71 3a3d db1e 833d 9bd9 84bc f5fd 75bc
00000370: ac43 31bd 064b e13d e846 e73d 7cad ff3d
00000380: d246 333c 3cf2 7cbe 2cb7 9abe 4586 223d
00000390: 7d4b be3d 2960 23bd 18ca 32be b132 bebd
000003a0: 3fcc 8d3d 1858 af3d cec6 0cbe a864 083e
000003b0: 1ca7 173d e6f4 fb3d 2de3 d43d b15a a9bd
000003c0: 3c85 f4bc d573 21be b0d2 7f3d c26d 27be
000003d0: 802e 683b f083 db3d 30d6 fe3b 9b19 083e
000003e0: 3b2a 58bd c10e 5c3d 41b8 53bd 715b c83d
000003f0: 8f67 623d 88b6 b93d a230 09be 054b 08be
0.10690656 -0.006136611 0.1749632 0.25948587 -0.09989853 0.041478366 -0.20907056 0.0019874894
0.14183389 -0.11795103 -0.16800444 0.13207197 -0.08914107 0.111972705 0.10573583 0.14512147
0.1222561 0.09116772 -0.037731633 -0.16263272 0.08861266 -0.062247485 0.014332817 0.092110716
-0.04876066 0.08960092 0.20129694 0.14248212 -0.02231254 0.044866525 -0.108335264 -0.060171083
0.09632938 0.029619658 -0.113937244 -0.1997894 0.014324699 -0.24335779 -0.5040636 0.09755529
-0.053259976 -0.022568805 0.059055068 -0.21131566 0.20785819 0.11306012 0.09396523 0.011047439
-0.052225396 0.022857938 -0.035235986 -0.032466672 -0.026616797 -0.17684059 0.16231178 -0.18107156
-0.1534963 -0.07784684 -0.0063281655 0.04319012 -0.042634692 -0.08005014 0.18108416 0.23537734
0.07119285 0.11647563 -0.035576697 0.11939459 0.046541363 0.13684171 -0.15349124 0.01615694
-0.10568121 0.028717706 -0.12315227 -0.11159518 -0.10068593 0.036789667 0.02955072 0.017583417
0.042825222 -0.061470002 -0.23857427 -0.085849956 0.06781396 -0.08525212 -0.04783484 -0.10696165
-0.08139713 -0.09057054 -0.11482831 0.10688045 0.04126249 0.08722971 0.06450123 0.017712966
0.13127927 0.036815863 0.10033561 -0.04614701 0.073544614 -0.16074781 -0.25338972 0.06679132
0.090715095 0.0120297205 0.16100089 -0.17209959 -0.076136045 0.083190635 -0.027094826 0.10589696
-0.0071897656 0.10091278 -0.087205544 -0.026960084 0.048033476 0.021533513 0.12282105 -0.26733193
-0.09391925 0.04920041 -0.06865615 -0.09905254 -0.08494445 0.08669524 0.27507195 0.0070845955
0.11553138 0.05342275 0.09761501 -0.13843727 0.0810568 0.025195103 0.080162905 0.043617375
-0.032818235 -0.009371035 0.0052762753 -0.041966558 0.026419781 0.0018817218 0.05390133 -0.12791084
-0.008253915 -0.124309465 0.052204963 0.020493437 -0.034148663 -0.027443748 -0.037036374 0.10788239
0.10206112 0.06859598 -0.04127382 0.04971524 -0.07389047 -0.03098755 0.029259602 -0.06973959
0.09806017 -0.06166306 -0.11497548 -0.09072795 0.09485247 0.14400817 0.12562335 0.057981413
-0.051807523 0.10451629 -0.08476545 -0.0050480505 -0.07167609 -0.3743761 -0.0040133907 -0.08129682
0.08252066 -0.111521274 -0.003079638 -0.16278498 0.06867026 -0.019511212 -0.06422669 0.04275871
-0.013103539 0.044321872 -0.069168985 0.103031486 -0.07802529 -0.08451016 -0.1441024 -0.13692908
0.09015261 -0.07800722 0.053806927 0.022158183 -0.083982855 -0.08412277 -0.012707914 0.15361995
-0.0514376 -0.037941895 -0.078877844 -0.059566557 0.035577882 -0.13321413 -0.0020807516 -0.063740365
0.07390933 0.111334205 -0.08165493 -0.08115848 0.08942177 -0.000880299 0.07284201 0.055768922
0.045518614 0.064023696 -0.016217044 -0.015014161 -0.043277428 0.11000638 0.11292821 0.124842614
0.010942178 -0.2470178 -0.30217874 0.03967883 0.09291742 -0.039886627 -0.17459905 -0.09287012
0.069237225 0.085617244 -0.13747713 0.13319647 0.037024602 0.1230257 0.10394893 -0.08269251
-0.029848687 -0.15766843 0.062456787 -0.16350463 0.0035428107 0.107185245 0.007776998 0.13291018
-0.05277465 0.053725008 -0.05168939 0.09783066 0.055274542 0.09068018 -0.13397458 -0.13309868

fc2_1_2.bias f4 [32]
00000000: 2836 303c 35d4 80bd e0ce 8fbd 5a51 b83c
00000010: c4ee e4bc 241b 0fbe 52e3 77bd 7b47 a63d
00000020: cbb9 1b3d db57 b63d 5e90 a6bd 1d4c b9bd
00000030: 63db 223e ff1c 2d3e 7b0e 24be a938 d6bb
00000040: 876d adbd c1f3 043d 9ee2 00bd c276 36bc
00000050: 5d84 14bd d901 85bd aeee d1bd af81 bcbd
00000060: bfe5 fd3d 5408 443d 127a a0bd a968 c13d
00000070: b192 a63d df97 e63d 6a89 65bd 4f23 703c
0.010755099 -0.06290475 -0.0702188 0.022499729 -0.027945884 -0.13975197 -0.060519524 0.081191026
0.038018983 0.08903476 -0.081330046 -0.090477206 0.15904002 0.16905592 -0.16021149 -0.006537516
-0.08468156 0.032459024 -0.03146612 -0.0111367125 -0.036259044 -0.06494493 -0.10250603 -0.09204423
0.12397336 0.047859505 -0.07835783 0.094437905 0.08133448 0.11259436 -0.05603925 0.014656856

fc2_2.weight f4 [16, 32]
00000000: 19d5 e53d d76f 4b3e 93ff 503e 360b 2e3e
00000010: 244c 0cbe ed5d c13d 1eb0 2a3e 8c55 fcbb
00000020: 07fc 32be 576c a33e 822d a53d 4bd4 bc3d
00000030: db7e 3d3d 3e39 2f3e 2129 b1bc c9e5 a0bd
00000040: c342 1a3e bc50 983e 4aed 2d3d 38a5 dabd
00000050: b687 313e 5964 613e bb2d 29be 4455 1ebe
00000060: bdd4 673e 779b fa3d 72a4 583d 5919 703c
00000070: 8fae 713e 1452 8b3d 051c 64bd 5da4 133e
00000080: f2bc f13c d23a 0a3d fc6a 0b3e 80e0 853d
00000090: 8713 363b 93b3 e63d dfc0 1dbe 631e 193e
000000a0: 6d1b 903c 9a6d 35be ed2a 70bc 54bb 0d3e
000000b0: 456d 3b3e d700 d9bd 629a dcbc 0bc8 3abd
000000c0: 06f0 b13c 93e6 b2be 7b63 d5bc d816 fabd
000000d0: ac8e eabd d045 fcbd 066c 44be b8f1 0d3e
000000e0: c6d9 ebbd 69e5 96bd 8f21 1cbe 488e 65bd
000000f0: f27d 013d 2fa7 00be cd03 183e f34e ecbc
00000100: acde d0bd 54c8 b2bd 4d42 67bd c7a2 023d
00000110: 264a 42bd 8485 e63d 2545 29bd 4582 013d
00000120: 1c40 c73d ff70 d4bd b25f 5c3d d506 a23c
00000130: fbc5 873d ed15 453d 0440 91bd 39ef eb3b
00000140: bdf5 d2bd 4f8a 853d 1891 49bd 3b2e 1cbd
00000150: 1fc3 473e 54d7 08be 854c 193e a020 633d
00000160: d268 243e 165a f5bd 2cde 1d3e e05a 2e3d
00000170: dc3a 253e 2de6 10be 6ffa 123e f8d7 1c3d
00000180: b39d d6bd 2fbb c7bd 58e7 02bc ee75 70bd
00000190: 4cc2 57be bced f6bd a91d a63d 740e 6dbe
000001a0: 0ff3 1a3e fb91 14be 5b8f d23c 692e 30be
000001b0: 1957 d3bd d863 1d3e fbc2 2cbd ed1f f6bd
000001c0: 1e3c b2bd d69d f13c d1a3 d13d 649d 1fbe
000001d0: 12a8 633e dacb e13d a1b4 a2bd 4f8d c2bd
000001e0: 2075 0e3e e509 303e dd52 173e 40b4 e43d
000001f0: 21cf b23d b193 683e cd80 f33d 85d1 d63c
00000200: 621e b03d 3e7a d2bd ad3f f83d 24ab b2bd
00000210: 36f2 323e cce5 2bbd 4060 1ebd 3dcd 6abd
00000220: 3261 34be 0288 00be c24a 7dbd 7374 a6bd
00000230: 4cc3 d3bd c432 6c3c 24da 5c3d 94c5 253e
00000240: bc62 c8bd cfbb a9bb b429 9abc b51e 15be
00000250: 4628 b23d cef0 ddbd 0578 efbd 0df7 13be
00000260: 2535 39bb c9b2 5d3d 7824 503d fe12 cdbb
00000270: 89cd 083e 98c1 3ebe ec81 1dbe e874 d43c
00000280: fdd7 053d 9124 883d 162a 923d ca07 cdbb
00000290: b179 be3c 24d3 f6bd d96e cbbd 4655 4b3e
000002a0: 9b7a 993d 709a aabd 67d1 d3bd 7e94 343d
000002b0: 838e e2bc 4dce 82bd 2e64 ebbd 5dec b0bd
000002c0: 3301 80bd 738d 973e 5b0f 043e 2aba 953d
000002d0: 979e e3bc 11a3 8abd 459b 303d f5bc 4ebd
000002e0: 99ca c4bd 9cf5 19bd 88c0 423d ab47 993d
000002f0: f2e2 a43d 2c34 343e 2a4b 9b3c c1c4 033c
00000300: 6f96 983d 7206 1abe 5cd6 b53b 62a7 10bc
00000310: 2db3 20be eaf3 2abe 762c dc3b 10bb 7dbe
00000320: eb16 c03d 339a 54bd 621b 22bd 0c2d b33b
00000330: e570 59be e3f8 2f3e edbb b83d 5ba0 463e
00000340: 4fe2 123e 32c9 1ebe b62d d8bd e59a 95bd
00000350: 4a94 343e 6d53 dbbd 6cd5 0d3e 7e95 3a3d
00000360: 4ac9 ce3d 7835 00b9 040d 0ebe 7a35 123e
00000370: 1926 2f3e 48fd 5c3e 8e7f 003e cfa5 d43d
00000380: 9432 69bd 994f 833d c296 50bd b4f8 e9bd
00000390: 93b6 02bb 3959 473d c218 bebd 3332 69bd
000003a0: ceaa da3d eedc 793d bfe2 11be 9b6a 073e
000003b0: e029 c0bd 808a 293d aadc 24bd 94ff f13d
000003c0: e1f9 523d 9d82 ee3c af8d 443e 80b7 34bd
000003d0: ccbd 403e d05d 913d 88dd b5bd be43 8b3c
000003e0: 0859 bd3d a2a7 10be 8368 3d3e afd1 54bd
000003f0: 731a 95bd 971d 08be da4f 6f3e 7120 02bd
0.11222286 0.19866882 0.20409994 0.16996464 -0.1370092 0.09441743 0.16668746 -0.0077006277
-0.17478953 0.31918594 0.080653206 0.09220179 0.046263557 0.1711168 -0.021626057 -0.07856328
0.1506453 0.29749095 0.042462625 -0.10676044 0.17336926 0.22010936 -0.16521351 -0.15462214
0.22639747 0.12236684 0.052891202 0.014654481 0.23601745 0.068027645 -0.055690784 0.14418168
0.029509041 0.0337475 0.1361503 0.065369606 0.0027782635 0.1126472 -0.15405606 0.14952998
0.017591203 -0.17717591 -0.014658672 0.13840991 0.18303402 -0.10595863 -0.026929084 -0.045600932
0.021720897 -0.3494154 -0.026048413 -0.12211388 -0.11452994 -0.12318003 -0.19181833 0.1386174
-0.11516146 -0.07367975 -0.15247177 -0.056043893 0.03161425 -0.12563775 0.148452 -0.02884624
-0.10198721 -0.08729616 -0.056459714 0.031893518 -0.047433995 0.11255935 -0.041325707 0.031618375
0.09729025 -0.10373115 0.0538022 0.019778648 0.06629559 0.048116613 -0.07092288 0.0072001484
-0.10300777 0.06520521 -0.049210638 -0.038130026 0.19508027 -0.13363391 0.14970596 0.055451035
0.16055611 -0.11980073 0.15416783 0.042567134 0.16135734 -0.14150305 0.14353345 0.0382919
-0.104792975 -0.09752499 -0.007989727 -0.058706217 -0.21070212 -0.12057063 0.08111126 -0.23150045
0.15131782 -0.14508812 0.025703123 -0.17205204 -0.10319347 0.15370119 -0.042178135 -0.12017808
-0.08702873 0.029494207 0.102363236 -0.15587384 0.22232082 0.1102521 -0.079446085 -0.09499609
0.13911867 0.17191274 0.14777704 0.111671925 0.08730913 0.2271259 0.11889801 0.026222954
0.08599545 -0.10277222 0.1212152 -0.08724049 0.17475209 -0.0419672 -0.03866601 -0.057324637
-0.17615202 -0.12551883 -0.061838873 -0.0812768 -0.10339984 0.0144164 0.053918973 0.16188651
-0.09784457 -0.005179859 -0.018818714 -0.14562495 0.08699088 -0.108369455 -0.11692814 -0.14449711
-0.0028260436 0.05412558 0.05081603 -0.0062583676 0.13359655 -0.18628538 -0.15381593 0.025934651
0.032676686 0.066475995 0.071369335 -0.006257032 0.023251386 -0.12051991 -0.09933252 0.19856748
0.07494088 -0.08330238 -0.10342675 0.044086926 -0.027655846 -0.06387005 -0.11493717 -0.08638833
-0.06250229 0.29600105 0.12896483 0.073108986 -0.027785582 -0.06769384 0.043116827 -0.050473172
-0.09608955 -0.037587747 0.047546893 0.07484373 0.08051099 0.17598027 0.01895674 0.008042515
0.07450568 -0.15041521 0.0055492353 -0.00882897 -0.1569335 -0.16694608 0.0067191673 -0.2477839
0.09379371 -0.05190487 -0.039576896 0.0054680165 -0.21234472 0.17184786 0.09020219 0.19397108
0.14344142 -0.15506437 -0.10555594 -0.073049344 0.17634693 -0.107092716 0.13850945 0.045552723
0.100969866 -0.0001222695 -0.13872153 0.14278212 0.17104377 0.21580994 0.12548658 0.10383188
-0.056933 0.064116664 -0.050925024 -0.114243895 -0.0019945248 0.048669074 -0.09282066 -0.05693264
0.1067711 0.06100171 -0.14246653 0.1322426 -0.09382987 0.04139185 -0.040249504 0.11816326
0.051507834 0.029115016 0.19194673 -0.04412031 0.18822402 0.070979714 -0.08880144 0.017000075
0.09245497 -0.14126447 0.184969 -0.051957782 -0.072804354 -0.13292538 0.23370305 -0.03176922

fc2_2.bias f4 [16]
00000000: eb3e 4c3e 1c2a 993d 4479 1ebd 6a36 c7bb
00000010: c6a6 1fbe 35d3 3d3e 511b eebd 4d8e cebd
00000020: 1889 203e 3746 95bb df1f 3abc d35a 273e
00000030: 2e7c c6bd 19a0 163e eb1d d33d 45bd 953d
0.19945876 0.07478735 -0.038689867 -0.0060794847 -0.15590963 0.185376 -0.11626304 -0.100857355
0.15677297 -0.0045554894 -0.011360138 0.1634324 -0.09691654 0.1470951 0.10308441 0.07311491

fc3.weight f4 [30, 16]
00000000: 5df3 fabe 2e7e 823d dff6 0b3e 1382 f1be
00000010: 83bd 233e f4fe 6a3e 5711 d7be 508c 9f3e
00000020: 49d0 f1be e8f8 4d3e 5154 723d 13d3 df3e
00000030: e3bd de3e d9d2 38be 0951 a7be 67a2 db3c
00000040: 8f19 b73d 3aed 99bd 777b 463e cef8 003d
00000050: 7626 5a3e e53e 983d b77c 663e 2f1d f93d
00000060: 5b16 f4bd a83a bdbd f9fc 483e 3c25 c93b
00000070: 135a 72bd f58d 7bbe 5200 77be c6f0 6c3e
00000080: 1eef de3d 6a56 693e 3597 473e cc06 2cbe
00000090: 0fc0 77bd f805 f03d 20c0 c2bd ffd1 923e
000000a0: d302 093e f524 05be 478e 703d 028b 14be
000000b0: 96d1 173b 4cfa 3dbe 5101 b43d 6dd0 68bd
000000c0: 597f bfbd 5ff9 9b3e feb5 213e 48bc 51bc
000000d0: e36d 8a3c bb8d b13b 5117 9f3d d73d e0bc
000000e0: 85a1 03be 5ef7 843e f48a 09be 8009 d5bd
000000f0: 23e3 4dbd 8c99 05bd 3d73 143e dc9d 913e
00000100: 391b 403e 5ee0 26be 7719 9fbd 6fb5 92bd
00000110: 4350 d73d e615 23bd e202 423e 0835 7f3d
00000120: 8f88 06be 06fa 623e dfa1 303e 1beb d5bd
00000130: 3833 283e d8f4 53be d8a1 e53d 25cb fabd
00000140: b414 0a3e 3b6b ad3c d54e 04be 7ab8 bebd
00000150: 20be f8bd 36b6 173e 45ed d4bc b1bf 12be
00000160: 8047 87bd ae04 263e bfd2 9dbd 4f9d 423e
00000170: 7605 1fbe 3094 96bd 1059 143d ee4a 793e
00000180: dee9 083e 882d ebba db1b 663e b407 81be
00000190: c2cc 373e 33fd 663d 1f8e 143e 98af 32be
000001a0: 88bd e93d 7856 373e 48c0 a1bc f9cd bb3d
000001b0: 132d 0dbd 9d63 39be 9bd2 0f3d 5564 56be
000001c0: ed62 053e 020b 033c 68da 8abe cb9c 67bd
000001d0: 0615 17bd b571 71be afb2 a13d c72e dd3d
000001e0: c09d 88bd 5791 e43d 9199 8bbd 8311 823c
000001f0: 6748 553d 3bc7 27bc ba4c c83c 3a4c 8f3d
00000200: d836 b5bd 713f e63d 202a e7bd 6435 b4bd
00000210: 6dc0 dabd c9db 9abd af4b 483d d5bc 23bd
00000220: c31d 273d 8f6f 443b 2bdf e4bd 18b0 563e
00000230: d29a 4ebe 5fc5 9b3e 2529 36be 5cea 5f3e
00000240: 5d70 cebb ef38 c4bd dd4a 56be 2836 6fbe
00000250: 0952 bc3d bd34 a53c 7e28 f53d 57a3 623d
00000260: 67b3 4a3e 1dd7 983d 44d8 523d 0691 093d
00000270: 9384 343d ca75 2abe 5c29 d63d 2712 86bc
00000280: 13b9 ed3d f54b 80be 1cb6 b1bd debb 613e
00000290: 3de8 07be e749 a7be 688a 6dbe 51ec 873d
000002a0: a358 26bd 85f0 3cbd 54df 80bd 3e08 2e3e
000002b0: b838 95bd ad4c 4e3d 9ebf 15be 02b6 073e
000002c0: 4e3b 933d 880b 823d 925d 0b3e babb 4cbd
000002d0: 5591 6c3e e2aa 9cbd 4079 083d e2d4 58be
000002e0: 1d56 a2bd 5c4e 683e 4e56 053e 5141 ad3d
000002f0: 5dbd d1bc 44ec 12bd 4514 9a3d 8ab1 4ebd
00000300: ea53 d33c 7472 923d 02d1 5ebd 8c30 dcbd
00000310: 2649 4cbe d3bb f13d 2cc7 a0bd 1dbb 573e
00000320: 1679 a7bb d622 353d fad9 443e 07f2 5dbe
00000330: 6867 f43d 25eb 6f3d 0108 d23d d851 db3d
00000340: 3874 59ba 98a0 033d 55c6 f43d 19c8 2fbe
00000350: 02f0 d7bc 1645 40bd a4fb ebbd 7853 ce3d
00000360: 863f 313e db66 c73d 54af e33c ae59 10be
00000370: 1bd8 dd3d 9de9 383e 0355 b13b 0492 4abe
00000380: baf2 8abd 1110 99be d076 8ebe 9b6a 223e
00000390: 2a72 b5bb f9c8 0c3e d7b9 0d3b 95a2 473e
000003a0: 4b2f 493e 8bbc 463e 5a2b d53d e5a0 08be
000003b0: bae0 0c3e fa1d f9bc c8c0 8dbe ef6c 853d
000003c0: 734d 423d 7dd2 7dbc 6767 81bd 148b 6e3e
000003d0: 8435 6abd f70c 853e ef18 69be 7f49 003e
000003e0: 8401 0a3e e6b2 dcbd fa1b 773e 85ed e8bc
000003f0: 10c2 333d 9e00 8ebd de5e 55be 41f7 8fbd
-0.49013796 0.06371723 0.13668393 -0.4716955 0.15990262 0.2294882 -0.42005417 0.31161737
-0.4722922 0.20114481 0.05916244 0.43715724 0.43504247 -0.18049182 -0.32679012 0.026810838
0.08940422 -0.075159505 0.19383036 0.03148728 0.21303734 0.07433871 0.22508512 0.121637695
-0.119183265 -0.092397034 0.19627751 0.006138472 -0.059167933 -0.24565871 -0.24121216 0.23138723
0.10885452 0.2278687 0.19491275 -0.16799468 -0.060485896 0.117198884 -0.09509301 0.2867584
0.13379984 -0.13002379 0.058729436 -0.14506152 0.0023165694 -0.18552512 0.087893136 -0.056839395
-0.093504615 0.30463693 0.15792081 -0.012801237 0.016898101 0.005418507 0.07768119 -0.027373238
-0.12854584 0.25969976 -0.13431913 -0.104022026 -0.050265443 -0.032617137 0.14497085 0.2844075
0.18760385 -0.16296527 -0.07768529 -0.07163512 0.105133556 -0.039815806 0.18946412 0.062306434
-0.1313803 0.22165689 0.17249249 -0.104452334 0.16425788 -0.20698869 0.1121251 -0.12245778
0.1348446 0.021169296 -0.12920697 -0.0931253 -0.121456385 0.14815602 -0.025992045 -0.14330937
-0.066054344 0.16212723 -0.07706212 0.19005321 -0.15529427 -0.07352483 0.03621775 0.2434499
0.13370463 -0.0017942647 0.22471564 -0.2520119 0.17949203 0.056393813 0.1450734 -0.17449796
0.11413103 0.17904079 -0.019745007 0.091701455 -0.034466814 -0.18104406 0.03511296 -0.20936711
0.13026018 0.00799823 -0.27119756 -0.056546014 -0.036885284 -0.23578532 0.07895409 0.10799938
-0.066707134 0.11160534 -0.068164 0.01587749 0.052071 -0.010240371 0.024450649 0.06996961
-0.08848351 0.11242569 -0.112873316 -0.08799246 -0.106812336 -0.07561452 0.048900302 -0.039975006
0.040799867 0.002997372 -0.111753784 0.20965612 -0.20176247 0.3042402 -0.17789133 0.21866745
-0.006300016 -0.09581172 -0.20926996 -0.23360503 0.091953345 0.02016675 0.11970614 0.055331554
0.19794999 0.074629046 0.05147578 0.03358557 0.044071745 -0.16646495 0.104571074 -0.016366078
0.11607566 -0.2505795 -0.08677313 0.22044322 -0.13272186 -0.3267357 -0.23197329 0.06636871
-0.040611874 -0.046127815 -0.062925965 0.16995332 -0.07286209 0.050366092 -0.14623877 0.13253024
0.07189046 0.06349856 0.13609913 -0.049983718 0.23102315 -0.07649781 0.033318758 -0.21174958
-0.07926581 0.22686142 0.13021204 0.08459724 -0.02560299 -0.03586985 0.07523397 -0.050462283
0.02579685 0.071507365 -0.054398544 -0.10751447 -0.19949779 0.11803403 -0.07850489 0.21067472
-0.00511087 0.044222675 0.19223776 -0.21674357 0.11933786 0.05857386 0.10255433 0.1070897
-0.0008295211 0.032135576 0.11951891 -0.17166175 -0.026359562 -0.046940885 -0.11522606 0.10074514
0.17309389 0.09736415 0.027793564 -0.1409671 0.108322345 0.18057866 0.0054117455 -0.19782263
-0.06784578 -0.2989507 -0.27825022 0.1586098 -0.005537291 0.1374854 0.0021625662 0.19495614
0.19646947 0.19407861 0.10408659 -0.13342626 0.13757601 -0.030409802 -0.27686143 0.06514918
0.047437143 -0.015492079 -0.063185506 0.23295242 -0.057179943 0.25986454 -0.22763418 0.12528037
0.1347714 -0.1077631 0.24131766 -0.02843357 0.043886244 -0.069337115 -0.2083697 -0.07029582

fc3.bias f4 [30]
00000000: b49b 1bbe 64b6 363e 46e0 093e a452 4d3e
00000010: fc20 96bd 39d4 4a3e 10c1 4dbe ff41 933d
00000020: cbbd 9d3e 2b2b 863d 94e6 c2bb 1cdb 4cbd
00000030: b441 283e cd91 43bd 7507 c9bd f436 15bd
00000040: 6791 e53d 0252 793d 4b43 f53d fb5a edbd
00000050: cc38 3e3e 36a4 4d3d 68e8 543e 9239 d2bd
00000060: 840d 42be eb08 b03c a7f1 5dbe ae11 b4be
00000070: 0065 c9be fb86 773c
-0.15196115 0.17843014 0.1346446 0.20051056 -0.0733051 0.19807519 -0.20093179 0.07190322
0.30808863 0.065512024 -0.005947897 -0.050013646 0.16431314 -0.04774647 -0.098158754 -0.03642936
0.11209374 0.060869224 0.11975726 -0.11589619 0.18576354 0.050205432 0.20791781 -0.10264887
-0.18950468 0.021488627 -0.21674214 -0.3516974 -0.3933487 0.015107865
