Heater_Results/Benchmark-MPC_best.onnx (onnx, 41615 bytes, 14 tensors)

fc1.weight f4 [8, 3]
0	0x3f4d956d	0.8030613
1	0x3cac172e	0.021007147
2	0x3d03e41d	0.032199968
3	0xbd20bbd5	-0.03924163
4	0xbec334b6	-0.38126153
5	0x3eff0e8e	0.49815792
6	0x3f1dee0e	0.6169137
7	0xbe938eaa	-0.28819782
8	0x3ea40826	0.32037467
9	0xbf0d0afd	-0.5509489
10	0xbe05d2f4	-0.13068753
11	0xbe00e1da	-0.12586156
12	0x3e89975c	0.2687329
13	0xbdaa2276	-0.08307354
14	0xbd8372cd	-0.06418381
15	0x3f25ab1b	0.6471421
16	0xbe3fcfc3	-0.18731599
17	0x3e6afaac	0.22947186
18	0xbf0a44eb	-0.5401141
19	0x3eb5896d	0.3545641
20	0x3e93bf65	0.2885696
21	0xbecf3dc2	-0.40476805
22	0xbd9a64ea	-0.07538779
23	0x3f15778c	0.5838554

fc1.bias f4 [8]
0	0x3e5a084d	0.21292229
1	0xbef942b2	-0.48683697
2	0xbe8aaf7f	-0.27087018
3	0xbe966b42	-0.29378706
4	0x3e85814b	0.26075205
5	0x3ebfb915	0.37445894
6	0xbe319fa3	-0.17346053
7	0x3f14e0dc	0.5815561

fc2.weight f4 [32, 8]
0	0xbe86239d	-0.26199046
1	0xbd7406dd	-0.059576858
2	0x3e74b765	0.23898084
3	0x3e9fb28a	0.31190902
4	0x3bdd8908	0.00676072
5	0x3e7b84f5	0.24562438
6	0xbebc3b77	-0.36764118
7	0xbe166743	-0.14687829
8	0x3e6b533c	0.2298097
9	0x3e8cd9ea	0.27510005
10	0xbe463a53	-0.19358186
11	0xbe6142f2	-0.21998194
12	0xbe3a9091	-0.1821921
13	0x3e1ca1ef	0.15296148
14	0xbe91941f	-0.2843332
15	0xbe016ffd	-0.12640376
16	0x3e241bb2	0.1602619
17	0xbe0f88c3	-0.14017014
18	0x3ea3e5ab	0.3201116
19	0xbdc94b45	-0.0982881
20	0xbe8d9d5a	-0.27659112
21	0x3dce3fcb	0.10070761
22	0xbcbd797b	-0.023129215
23	0xbef2502e	-0.47326797
24	0x3e999da5	0.30003086
25	0xbda3951f	-0.07987427
26	0x3e1d6c92	0.15373448
27	0x3d4ce265	0.050020594
28	0xbe0b973e	-0.13631913
29	0x3ed280a6	0.41113776
30	0xbe2c46ee	-0.16823933
31	0xbdc55dd6	-0.096370384
32	0x3c51ab5e	0.012797205
33	0xbe6d2f81	-0.23162653
34	0xbe089278	-0.13337123
35	0xbe243856	-0.16037115
36	0x3d5fdee5	0.05465593
37	0x3d52c1e7	0.05145445
38	0xbe223556	-0.15840659
39	0x3e970ff3	0.29504356
40	0x3ea6cc46	0.32577723
41	0xbe4a9e3c	-0.19786924
42	0xbe871cc6	-0.2638914
43	0xbe9a5e80	-0.30150223
44	0x3df1d7d9	0.11808748
45	0x3eaafd1d	0.33396235
46	0xbe59e37f	-0.21278189
47	0x3ea33f40	0.31884193
48	0xbe7f3bcd	-0.24925156
49	0x3e8db418	0.27676463
50	0xbdd8631d	-0.10565779
51	0x3e4f8015	0.20263703
52	0xbe7d2d43	-0.24724297
53	0x3e9157ab	0.28387198
54	0xbd25a11d	-0.040436853
55	0xbe8b504c	-0.272097
56	0x3ebeb342	0.37246138
57	0xbcb7b7af	-0.022426454
58	0x3e27b844	0.16378886
59	0x3e5ef2f1	0.21772362
60	0xbddd155e	-0.10795091
61	0xbd1b571d	-0.037924875
62	0xbe951f6f	-0.29125544
63	0x3d61427d	0.05499505
64	0xbe3a2852	-0.18179443
65	0x3e86c7a9	0.26324204
66	0x3c7d11ea	0.015446166
67	0xbea64a94	-0.32478774
68	0xbebb493c	-0.3657931
69	0xbcf632b5	-0.030053476
70	0xbeaeeda3	-0.34165677
71	0xbe0e8d70	-0.13921142
72	0x3d9a2dea	0.07528289
73	0xbec1f425	-0.3788158
74	0x3e140e39	0.1445855
75	0xbd51f82e	-0.051262073
76	0xbd136270	-0.03598255
77	0x3e9609ad	0.29304257
78	0x3e135e03	0.14391331
79	0x3c313149	0.010814973
80	0xbea120fc	-0.31470478
81	0xbe8eda86	-0.27901095
82	0xbea519b3	-0.3224617
83	0x3eaa9f66	0.33324736
84	0x3e185140	0.14874744
85	0xbe55096c	-0.20804375
86	0xbe54449d	-0.20729299
87	0x3de0f8f6	0.109849855
88	0xbeb2d442	-0.34927565
89	0xbe5f5aa2	-0.21811917
90	0x3e8ae6e4	0.2712928
91	0x3e1b9e98	0.15197217
92	0x3e4a09a8	0.19730246
93	0xbe2debda	-0.16984501
94	0xbeb444a5	-0.35208622
95	0x3e557867	0.20846711
96	0xbebb3f72	-0.36571842
97	0xbe0fa543	-0.14027886
98	0xbd270576	-0.040776692
99	0xbe04f8f8	-0.12985599
100	0xbe021dad	-0.12706633
101	0x3db0f814	0.08641067
102	0x3dea37e7	0.11436444
103	0x3ebe95f2	0.37223774
104	0x3eb66032	0.35620266
105	0xbe5d9974	-0.21640569
106	0x3e269923	0.16269355
107	0x3e83894d	0.2569069
108	0xbea8948a	-0.32925826
109	0xbc326ab7	-0.010889701
110	0x3e819a90	0.25313234
111	0xbe14067e	-0.14455602
112	0xbc368f69	-0.01114259
113	0x3eacd8b6	0.33759087
114	0xbe26c9e2	-0.1628795
115	0x3e0e3f04	0.13891226
116	0xbebca411	-0.36843923
117	0xbe0c8c98	-0.13725507
118	0xbe38060e	-0.1797106
119	0x3e279b17	0.16367756
120	0x3ef57300	0.479393
121	0xbe6821d8	-0.2266916
122	0xbd22db22	-0.039759763
123	0x3e8ea32e	0.2785887
124	0x3e3d4f76	0.18487343
125	0x3e5332f2	0.20624903
126	0xbc6c1018	-0.014408134
127	0x3dd034ac	0.10166296
128	0x3e1bbbba	0.15208331
129	0x3d11f6bd	0.0356357
130	0xbe8dbbc6	-0.27682322
131	0x3cb3ed4a	0.021963734
132	0xbee81174	-0.45325816
133	0x3e8e3714	0.27776396
134	0x3e267b62	0.16258004
135	0x3d695441	0.056965116
136	0x3d23692b	0.039895218
137	0x3d7f7390	0.06236607
138	0x3e37fe00	0.17967987
139	0x3e5e0f8a	0.21685615
140	0x3e939bce	0.28829807
141	0x3d4d70af	0.05015629
142	0x3d135a82	0.035974987
143	0x3bb5cffb	0.005548475
144	0xbeea78f0	-0.45795393
145	0x3d2a1a32	0.041528888
146	0x3e0d4cfc	0.13798898
147	0xbe3785e6	-0.17922172
148	0xbd81efb6	-0.06344549
149	0x3dbdfe6a	0.09277041
150	0x3e35ec6b	0.17765968
151	0x3da9291f	0.08259796
152	0x3ea2aa54	0.31770575
153	0xbec36ef9	-0.38170603
154	0xbd421742	-0.04738546
155	0x3c7351be	0.014851032
156	0x3e243cb6	0.16038784
157	0xbe9aceec	-0.30235994
158	0xbb54b546	-0.003245668
159	0xbd2b2d76	-0.0417914
160	0x3e8ff5fa	0.28117353
161	0x3e0aed99	0.13567199
162	0xbebaee2c	-0.36509836
163	0xbeb12ca0	-0.3460436
164	0xbdb26f36	-0.08712618
165	0x3da12b04	0.07869533
166	0x3def1df4	0.11675635
167	0xbd538708	-0.051642448
168	0xbd041da3	-0.032254826
169	0xbe8e04e8	-0.27738118
170	0xbea0a754	-0.3137766
171	0xbe47fc3b	-0.19529812
172	0x3e04cd25	0.12968881
173	0xbe0e007c	-0.13867372
174	0x3da5473a	0.08070226
175	0x3e8338a7	0.2562916
176	0x3dd93c06	0.10607152
177	0xbe163f23	-0.14672522
178	0x3eb2f8ce	0.34955448
179	0xbe2533fb	-0.1613311
180	0xbe9ace13	-0.30235347
181	0x3ea950cc	0.33069456
182	0x3dce2806	0.100662276
183	0xbe099775	-0.13436683
184	0xbeb8ce41	-0.3609486
185	0x3dc63bee	0.096793994
186	0x3e87affd	0.26501456
187	0x3dfd1c42	0.123589054
188	0xbe106ca7	-0.14103948
189	0x3e6cda2b	0.231301
190	0x3e8ecb45	0.27889457
191	0x3eaf7559	0.34269217
192	0x3e59ca1e	0.21268508
193	0x3cee7753	0.029109633
194	0x3eae8fbe	0.34094042
195	0x3e71c856	0.23611578
196	0xbe75a84c	-0.23989981
197	0x3ea1e6ba	0.31621343
198	0x3b52ba3e	0.0032154466
199	0xbe433ab3	-0.1906536
200	0xbeabe34b	-0.33571848
201	0x3dd24b91	0.102683194
202	0xbc7431e5	-0.014904474
203	0xbe59bb48	-0.21262848
204	0xbea6ea4a	-0.32600623
205	0xbdfd4f06	-0.12368588
206	0x3bf13582	0.007361115
207	0x3eb2d608	0.34928918
208	0xbea0f0b5	-0.31433645
209	0xbd2fbd7f	-0.042905327
210	0x3decaeb0	0.115567565
211	0xbe2a6028	-0.16638243
212	0xbd923c76	-0.07140438
213	0xbec354a0	-0.381505
214	0x3dcd705a	0.10031195
215	0x3d05ca94	0.032663897
216	0xbef7d448	-0.48404145
217	0x3eb96f9a	0.36217958
218	0xbe3d89fc	-0.18509668
219	0x3e778d76	0.24175057
220	0x3e0d9604	0.13826758
221	0xbd36713f	-0.044541594
222	0x3ea5e206	0.32399005
223	0xbe0a31f7	-0.13495623
224	0x3e87034d	0.26369706
225	0x3e335278	0.17511928
226	0xbe3ccdce	-0.18437883
227	0xbdbb8142	-0.09155513
228	0x3c8c316d	0.017113412
229	0x3dbca7ae	0.0921167
230	0x3da88d86	0.082301185
231	0x3ca229fb	0.019795408
232	0xbed5b6b7	-0.41740963
233	0xbe2f28ce	-0.1710541
234	0xbccd9949	-0.025097506
235	0xbe33a0cd	-0.1754181
236	0xbd366b52	-0.044535942
237	0xbeaa7056	-0.3328883
238	0x3ea2b67e	0.31779855
239	0x3da36d7d	0.079798676
240	0x3def1be9	0.11675245
241	0xbe1f9b98	-0.15586698
242	0xbcfe65a0	-0.031054318
243	0xbeb49030	-0.35266256
244	0xbebc0d89	-0.36729077
245	0xbf026cbf	-0.50947183
246	0xbd0b7e83	-0.034056198
247	0x3e3e1cf9	0.1856574
248	0xbe849e7c	-0.25902164
249	0x3c84a84c	0.016193531
250	0x3c697d55	0.014251073
251	0x3e9d30a9	0.30701187
252	0x3d56b243	0.052416097
253	0xbe889a59	-0.26680258
254	0x3e8c49fe	0.27400202
255	0xbc7868d7	-0.0151617145

fc2.bias f4 [32]
0	0xbd3484e6	-0.044072054
1	0x3d755897	0.05989894
2	0x3e47f113	0.19525556
3	0xbd6cd79c	-0.05782281
4	0x3eba4d12	0.36386925
5	0x3e4388c3	0.19095139
6	0xbe46fa3c	-0.19431394
7	0xbd9190f7	-0.07107728
8	0x3e905ef9	0.28197458
9	0x3e278126	0.1635786
10	0x3bab8645	0.005234512
11	0xbd5558a9	-0.052086506
12	0xbc95fa11	-0.018307718
13	0x3ebecc99	0.3726547
14	0x3e58d717	0.211758
15	0xbe41ae87	-0.18914233
16	0xbbee26fd	-0.0072678314
17	0xbda8bff7	-0.082397394
18	0x3e34d4af	0.17659257
19	0x3e04d86a	0.1297318
20	0xbe9d83ed	-0.30764714
21	0xbef4cd09	-0.4781268
22	0xbdfaa1f9	-0.12237925
23	0x3e8dbfc6	0.27685374
24	0xbd1e9b35	-0.038722236
25	0x3e17f124	0.14838082
26	0x3e3b212c	0.18274373
27	0xbdfcdaaa	-0.12346394
28	0x3d9a405d	0.075318076
29	0xbe7aa13d	-0.2447557
30	0xbe20c35e	-0.15699527
31	0xbe070f42	-0.13189414

fc2_1.weight f4 [64, 32]
0	0xbdc0ab6f	-0.09407698
1	0xbbac94c3	-0.005266757
2	0xbe939f7a	-0.28832608
3	0x3cd15713	0.025554216
4	0xbcfd1b2e	-0.03089675
5	0xbdef161d	-0.1167414
6	0xbc80c3fe	-0.015718456
7	0xbdd40548	-0.1035257
8	0xbdc8425b	-0.09778281
9	0xbdc1550c	-0.094400495
10	0xbe00a88c	-0.12564296
11	0xbe2750a9	-0.16339363
12	0x3e01d9fd	0.12680812
13	0xbe20ad93	-0.15691213
14	0xbcbf402c	-0.02334603
15	0xbdf533d6	-0.119727775
16	0xbe02af95	-0.12762292
17	0x3df6105d	0.1201484
18	0x3d3602f4	0.04443641
19	0xbd91f77f	-0.07127284
20	0x3d89e9a6	0.06734018
21	0x3e1b1c40	0.15147495
22	0x3d4fe6ca	0.050757207
23	0xbe0222eb	-0.12708633
24	0xbe14ab3e	-0.14518449
25	0x3e6c420d	0.23072071
26	0xbcf65b0c	-0.030072711
27	0x3e273293	0.16327886
28	0xbda7fd36	-0.08202593
29	0x3e24ff10	0.16112924
30	0x3d9a4363	0.07532384
31	0xbda5f814	-0.08103958
32	0xbddb8b13	-0.10719886
33	0xbe271c27	-0.16319333
34	0x3e2c2ce1	0.16813995
35	0x3c2eae78	0.010661714
36	0xbe5241aa	-0.20532861
37	0x3d2ceef9	0.04222009
38	0xbcca8561	-0.024721803
39	0x3db3c33c	0.087774724
40	0xbd80d992	-0.06291498
41	0x3d23a7de	0.039955013
42	0xbd507c2d	-0.050899673
43	0xbe1bcb0e	-0.15214178
44	0x3e15a7a4	0.14614731
45	0x3e68aa14	0.2272113
46	0x3dd66114	0.10467735
47	0x3d800e18	0.06252688
48	0x3deb6a13	0.114948414
49	0xbd654f39	-0.055983756
50	0x3d84c45b	0.06482764
51	0xbce81ca8	-0.028333977
52	0x3e229132	0.158757
53	0xbd8ff2c3	-0.07028725
54	0x3e4f5454	0.20247012
55	0xbe0e5cd3	-0.13902597
56	0x3e576c79	0.21037473
57	0xbdcaf148	-0.09909302
58	0xbe138258	-0.14405191
59	0xbe253b63	-0.16135935
60	0x3c99bdd6	0.018767279
61	0xbd0d8816	-0.03455361
62	0x3e5abb05	0.21360405
63	0xbda37030	-0.079803824
64	0x3d6c53a7	0.057696965
65	0x3d26db80	0.040736675
66	0x3eaeb1e6	0.341201
67	0x3e646317	0.22303425
68	0xbe84625d	-0.25856295
69	0x3e1c3df0	0.15258002
70	0xbca9d7ff	-0.020732878
71	0xbd66016e	-0.056153707
72	0x3dd73982	0.105090156
73	0xbd80c346	-0.062872455
74	0x3df39c99	0.11895103
75	0xbe3139d4	-0.17307216
76	0xbe67d44e	-0.22639582
77	0x3e4125a2	0.18862012
78	0xbde71e46	-0.11285071
79	0x3d99c944	0.075090915
80	0xbe27db1a	-0.16392174
81	0x3e053742	0.1300936
82	0xbd91044d	-0.070808984
83	0x3d54d499	0.05196056
84	0xbd81cc61	-0.0633781
85	0x3caa2042	0.020767335
86	0x3e29a926	0.16568431
87	0xbe30f800	-0.17282104
88	0x3d8f1475	0.06986324
89	0x3e070c1d	0.13188215
90	0xbded5c22	-0.115898386
91	0x3df29eba	0.11846681
92	0x3e280603	0.16408543
93	0xbd59f190	-0.053208888
94	0x3e4a3b40	0.19749165
95	0x3af655ac	0.0018793843
96	0xbe3dee0d	-0.1854784
97	0xbcbd4747	-0.023105277
98	0x3e863404	0.2621156
99	0x3e07624e	0.13221094
100	0xbe29f328	-0.16596663
101	0x3c555383	0.013020399
102	0xbb8096b4	-0.003924215
103	0x3da4fd0f	0.080560796
104	0xbda608ea	-0.08107169
105	0x3dca0fa5	0.09866265
106	0xbc600ed2	-0.013675408
107	0x3d669864	0.056297675
108	0xbe3a7963	-0.18210368
109	0xbdc3bddf	-0.095576994
110	0xbd48b3b5	-0.048999507
111	0x3e6b9799	0.23007049
112	0x3d898ad7	0.06715935
113	0x3d198359	0.03747878
114	0x3d842638	0.06452602
115	0x3c18779d	0.009305862
116	0xbe098dbc	-0.13432974
117	0xbdf22b16	-0.11824624
118	0x3e0f7c4b	0.14012258
119	0x3d94a5bd	0.072581746
120	0x3e8508eb	0.25983366
121	0xbdc843b1	-0.09778536
122	0xbebffd61	-0.37498
123	0xbded88cf	-0.1159836
124	0xbdaa6841	-0.08320666
125	0x3d881c90	0.06646073
126	0x3dc9a5e8	0.09846097
127	0xbd460403	-0.04834367
128	0x3d89c430	0.06726873
129	0xbd77cec5	-0.060499925
130	0xbe28a27e	-0.16468236
131	0xbd30c30e	-0.04315477
132	0xbe135c7c	-0.14390749
133	0x3e11770a	0.14205566
134	0xbcd6a457	-0.02620141
135	0xbe0e40b9	-0.13891877
136	0xbd71fa71	-0.05907673
137	0xbe1c761e	-0.15279433
138	0x3db25d28	0.087091744
139	0x3e06964f	0.13143276
140	0xbd4e1c54	-0.050319985
141	0xbe166906	-0.14688501
142	0xbe22683e	-0.15860078
143	0xbce2a09c	-0.027664475
144	0x3d956f84	0.072966605
145	0xbc6f8af3	-0.01462053
146	0xbdaf090c	-0.085466474
147	0xbdccd0ff	-0.100008
148	0xbda5e56b	-0.08100399
149	0x3d9e10b7	0.07718032
150	0x3ddf6b04	0.109090835
151	0xbe1397b4	-0.14413339
152	0x3db7792b	0.08958658
153	0xbdf8aa89	-0.12141902
154	0x3e217c89	0.15770163
155	0xbdd65073	-0.10464563
156	0xbe0ff2e6	-0.14057502
157	0x3e34c867	0.17654572
158	0x3e1bcb61	0.15214302
159	0xbdfe1d51	-0.124079354
160	0xbcb8a9ab	-0.022541841
161	0xbdac5dc8	-0.08416325
162	0x3e175063	0.14776759
163	0xbdf2b847	-0.11851554
164	0xbc0a564b	-0.008443425
165	0xbe212fe4	-0.15740925
166	0x3c19a1fc	0.009376999
167	0x3d72bc47	0.059261587
168	0xbe2e1471	-0.16999985
169	0xbd845008	-0.06460577
170	0xbe01d4b3	-0.12678795
171	0x3de4ac47	0.11165672
172	0xbe2e3c08	-0.17015088
173	0xbd110c5f	-0.03541219
174	0x3e055c74	0.1302355
175	0xbd94b5a9	-0.072612114
176	0x3e186f5c	0.1488623
177	0x3cb309fa	0.021855343
178	0x3e031fa2	0.12805036
179	0x3d48ae5f	0.04899442
180	0xbd8ccdc4	-0.06875184
181	0xbc727bb3	-0.0148
182	0x3d15b63d	0.03655075
183	0xbe0e86d7	-0.13918625
184	0x3be81377	0.0070823985
185	0xbe10f3be	-0.1415548
186	0xbe178dff	-0.14800261
187	0x3d75e654	0.06003411
188	0xbe038de7	-0.128471
189	0xbce460d7	-0.027878208
190	0xbd2c7aac	-0.042109177
191	0x3dcc3368	0.099707425
192	0x3e603a6e	0.21897289
193	0xbe08cb29	-0.1335875
194	0xbe31ee8b	-0.17376153
195	0xbdba15b8	-0.09086174
196	0xbdbbdbd8	-0.09172791
197	0x3e042a00	0.12906647
198	0x3d3d439a	0.046207048
199	0xbc7d62fc	-0.015465494
200	0x3dd9bae6	0.10631351
201	0xbcb45118	-0.022011325
202	0x3d95ac8c	0.07308301
203	0x3d2707f1	0.040779058
204	0x3dafd63e	0.08585785
205	0xbe2ab489	-0.16670431
206	0x3dab031a	0.08350201
207	0xbe2405a6	-0.1601778
208	0x3d832dde	0.06405233
209	0x3be186a0	0.0068825036
210	0x3e2595d5	0.16170438
211	0xbdadccb0	-0.08486307
212	0xbdb19da5	-0.086726464
213	0x3c5b1c9e	0.013373522
214	0x3de5f63c	0.11228606
215	0x3debd3d7	0.115150146
216	0xbe1a5ab8	-0.15073669
217	0x3d65c838	0.056099147
218	0x3e779c1b	0.24180643
219	0xbc3271c0	-0.010891378
220	0xbd40189b	-0.046898466
221	0x3ddfcec9	0.10928113
222	0x3dfff75d	0.12498353
223	0xbd00c9e7	-0.03144255
224	0x3e454568	0.19264758
225	0xbd25352d	-0.040333916
226	0x3c372f44	0.011180703
227	0xbe666e87	-0.225031
228	0x3e56e718	0.20986593
229	0x3e0900ee	0.13379261
230	0xbe190c47	-0.1494609
231	0x3d469775	0.048484284
232	0x3d365ca4	0.044521943
233	0xbe2cc413	-0.16871671
234	0xbe227287	-0.15864001
235	0x3deba703	0.11506464
236	0x3e64360d	0.22286244
237	0x3d995d7f	0.07488536
238	0x3dcded84	0.10055068
239	0xbe9dd125	-0.30823627
240	0xbd58284e	-0.052772813
241	0x3beb27c0	0.0071763694
242	0xbd245a08	-0.040124923
243	0xbdba6700	-0.09101677
244	0x3d560fc8	0.052261144
245	0xbe07fe61	-0.13280632
246	0x3c0890e3	0.008335325
247	0x3e23e596	0.16005549
248	0xbdcd7fbd	-0.1003413
249	0x3e844374	0.25832713
250	0x3d882b33	0.066488646
251	0xbcdc9873	-0.026928162
252	0x3d515c39	0.05111334
253	0x3ccf3b64	0.025296874
254	0x3e2d79af	0.1694095
255	0x3df2c2cc	0.11853561

fc2_1.bias f4 [64]
0	0x3df08d6b	0.11745723
1	0x3d3bd9c3	0.04586197
2	0xbce5277a	-0.027972925
3	0x3d6efe99	0.058348272
4	0x3d47822b	0.048708122
5	0x3df65053	0.120270394
6	0xbdbe28f4	-0.09285155
7	0xbdf7e2e8	-0.12103826
8	0x3ca7d559	0.020487474
9	0x3d89a341	0.06720591
10	0xbd55539d	-0.052081693
11	0x3bcc06cb	0.0062263957
12	0x3c5658e1	0.013082714
13	0x3e12524e	0.14289209
14	0xbcdae6ed	-0.026721442
15	0x3e41afc7	0.1891471
16	0x3d9d8ff0	0.076934695
17	0x3c1e7cff	0.009673356
18	0x3e31c73a	0.17361155
19	0x3ddaf308	0.10690886
20	0xbc5d3c54	-0.013503153
21	0xbe0b5bc7	-0.13609229
22	0xbcd1fbee	-0.025632825
23	0x3dd93d57	0.10607403
24	0x3ee44614	0.44584715
25	0xbd035aea	-0.032069124
26	0x3e031e2e	0.12804481
27	0xbbb9468a	-0.005654161
28	0x3e04412e	0.12915489
29	0xbe47ecc1	-0.19523908
30	0x3c840e62	0.01612014
31	0x3e273243	0.16327767
32	0xbd9018c4	-0.07035974
33	0x3e52e406	0.20594797
34	0x3dd2f021	0.10299707
35	0xbdb34402	-0.08753206
36	0xbc841b33	-0.01612625
37	0x3e1808fa	0.14847174
38	0x3c4ff414	0.01269247
39	0xbebd3b91	-0.36959508
40	0xbd7db6f6	-0.061942063
41	0x3dd27b47	0.102774195
42	0x3e0a4259	0.13501872
43	0xbde3a9a0	-0.11116338
44	0x3df7f8c0	0.12107992
45	0xbcafc5e7	-0.021456672
46	0x3e4de7a4	0.20107895
47	0x3df45516	0.11930291
48	0x3d9d877d	0.07691858
49	0x3d0ec605	0.034856815
50	0x3e22932b	0.15876453
51	0xbdc56fca	-0.09640463
52	0x3e547049	0.20745958
53	0x3db39a99	0.087697215
54	0x3cbce378	0.023057684
55	0xbcf80f4b	-0.03028073
56	0x3e73cb40	0.23808002
57	0xbe019dc9	-0.12657847
58	0x3d362c28	0.044475704
59	0xbe3b6a77	-0.18302332
60	0x3d70ea95	0.058817465
61	0xbde2b88a	-0.11070354
62	0xbda4fa32	-0.080555335
63	0x3952093e	0.00020030604

fc2_1_1.weight f4 [64, 64]
0	0x3d66f119	0.056382272
1	0xbd44a75e	-0.048011176
2	0xbe012d38	-0.12614906
3	0xbd94f874	-0.07273951
4	0xbb53e640	-0.0032333285
5	0xbd95454d	-0.07288609
6	0x3e2d5656	0.16927466
7	0x3d373739	0.0447304
8	0xbc8279a8	-0.01592715
9	0x3df43f3c	0.119261235
10	0xbc026b0c	-0.007960092
11	0x3d8dc634	0.0692257
12	0xbbc2e471	-0.0059476425
13	0xbd7e90f7	-0.062149968
14	0xbdb5111a	-0.088411525
15	0xbd86e593	-0.065867566
16	0xbde10e85	-0.109890975
17	0x3d003eb1	0.031309787
18	0x3defb9fd	0.11705396
19	0xbcf0f476	-0.029413443
20	0xbdb43ae3	-0.08800294
21	0xbd2bbc83	-0.041927826
22	0x3d24903a	0.040176608
23	0xbc8c0279	-0.017091023
24	0xbd346767	-0.044043925
25	0x3c7d4260	0.01545772
26	0xbce7c721	-0.028293194
27	0x3d70f0fb	0.058823567
28	0x3c3165db	0.010827507
29	0x3d3fa9e2	0.046792872
30	0x39d26879	0.0004013216
31	0x3db9d4ce	0.090737924
32	0x3d2cc0ef	0.042176183
33	0x3e01c5ad	0.12673064
34	0x3e1f716c	0.15570611
35	0xbdabf8c4	-0.08397058
36	0x3d727750	0.059195817
37	0xbd88fd42	-0.0668893
38	0x3e046d4d	0.1293232
39	0x3d348aca	0.044077672
40	0x3e1788a6	0.14798221
41	0xbd8c1179	-0.0683927
42	0xbc39b68b	-0.011335026
43	0xbdac3ec7	-0.08410411
44	0x3df21628	0.11820632
45	0xbdb6ca22	-0.089252725
46	0xbe4dbba2	-0.20091107
47	0x3dc93278	0.09824079
48	0x3db58be6	0.08864574
49	0x3e4146c7	0.18874656
50	0xbca305be	-0.019900199
51	0xbd37c81f	-0.044868585
52	0xbd76594a	-0.060143746
53	0x3cd0887d	0.025455708
54	0xbc1c3672	-0.009534465
55	0x3da2536b	0.07926067
56	0xbc470d00	-0.012149096
57	0xbd6e59b7	-0.058191027
58	0x3e2ad463	0.16682582
59	0x3d3ee0f0	0.046601236
60	0x3c123df8	0.008925907
61	0xbde1cddc	-0.11025593
62	0xbdd0b866	-0.10191421
63	0x3de2b2c4	0.11069253
64	0x3c134155	0.008987744
65	0x3dd15d62	0.102228895
66	0x3daf2b6a	0.085532025
67	0x3d6b9965	0.057519335
68	0x3de4b9b0	0.111682296
69	0x3df4d13e	0.11953972
70	0xbd77d4a7	-0.060505535
71	0xbc9dc810	-0.019260436
72	0xbc911280	-0.017709017
73	0x3e14cb71	0.14530732
74	0x3db61388	0.08890444
75	0xbe4017c8	-0.18759072
76	0x3e16d769	0.1473061
77	0x3d43c9d0	0.047799885
78	0x3da618bf	0.08110189
79	0x3e448e80	0.19194984
80	0x3d9eaa2e	0.07747303
81	0x3d17f52e	0.037099056
82	0x3e841a81	0.2580147
83	0xbd861691	-0.06547273
84	0x3b7acb3c	0.003826811
85	0xbda74ddb	-0.081691466
86	0x3da47b52	0.08031334
87	0xbceeda17	-0.029156728
88	0xbdeb64df	-0.11493849
89	0xbcb3c1c8	-0.021942988
90	0xbdd6cb9c	-0.10488054
91	0x3db3efe3	0.08785989
92	0xbb3cc22a	-0.0028802254
93	0x3b851677	0.004061516
94	0x3d7cb319	0.06169424
95	0x3cb2c4e3	0.021822399
96	0x3d54615a	0.051850654
97	0xbe78e0d1	-0.2430451
98	0xbba93d81	-0.0051648025
99	0xbcc7fc6a	-0.024412353
100	0x3e4904ec	0.19630784
101	0xbd4b8640	-0.049688578
102	0xbd2bdc3a	-0.04195807
103	0xbcb95304	-0.022622593
104	0xbdf61613	-0.12015929
105	0xbdae2b8f	-0.08504402
106	0x3c979470	0.018503398
107	0x3e3e389d	0.18576284
108	0x3e7b1fd4	0.2452386
109	0x3d87877e	0.0661764
110	0xbcb5389a	-0.022121716
111	0xbd849abc	-0.06474826
112	0x3d853ce6	0.06505756
113	0x3a3eba86	0.0007275719
114	0xbd9f396e	-0.07774626
115	0x3d8e5939	0.069506116
116	0xbc698814	-0.014253635
117	0xbc22a7eb	-0.00992773
118	0x3d11deb7	0.035612788
119	0xbdcbcfaf	-0.09951722
120	0xbe1581c1	-0.14600278
121	0xbe13112d	-0.14362021
122	0xbd5d445e	-0.05402028
123	0xbdd6ab2c	-0.10481867
124	0xbc000e27	-0.007815874
125	0xbccf1990	-0.025280744
126	0x3da571fa	0.0807838
127	0xbbec8844	-0.0072183926
128	0x3d2562b2	0.040377326
129	0x3cd9bdc4	0.026579745
130	0x3e10d82b	0.14144962
131	0xbe0bc99b	-0.13651125
132	0xbc630640	-0.013856471
133	0xbdb379c5	-0.0876346
134	0x3e4804b8	0.1953305
135	0xbbeae91f	-0.0071689035
136	0xbdb7dfaa	-0.089782074
137	0xbe56cbcf	-0.20976184
138	0xbdbea650	-0.09309065
139	0x3d473204	0.048631683
140	0xbd4a6964	-0.049416915
141	0xbd245776	-0.04012247
142	0xbdcada01	-0.09904862
143	0xbe112fc9	-0.14178385
144	0xbdd65a06	-0.10466389
145	0x3d3a964e	0.045553498
146	0xbddca6e5	-0.1077402
147	0xbddae03e	-0.10687302
148	0xbdeaed51	-0.11471046
149	0xbdb77b27	-0.08959036
150	0xbdb5cf75	-0.0887746
151	0x3bd49fa8	0.006488759
152	0x3d88095c	0.0664241
153	0x3d489730	0.04897231
154	0x3cbc1158	0.022957489
155	0xbdc755df	-0.097331755
156	0x3ca8904d	0.02057662
157	0x3d1dd053	0.03852875
158	0xbdc18d0a	-0.09450729
159	0xbd438ab2	-0.047739692
160	0x3dd4c401	0.10388947
161	0x3d828eb1	0.063748725
162	0x3d109be0	0.035304904
163	0xbd3cc2d3	-0.046084236
164	0x3dba13df	0.09085821
165	0x3d8a25ec	0.06745514
166	0x3c96f1c2	0.018425826
167	0xbdd43086	-0.103608176
168	0xbcc8c6ba	-0.024508823
169	0xbd003eda	-0.03130994
170	0xbe2fcd91	-0.17168261
171	0xbdfdb9ca	-0.12388952
172	0x3d1beabd	0.03806566
173	0xbdbe97b2	-0.09306277
174	0x3d8bf5be	0.06833981
175	0x3d8b4c5f	0.06801676
176	0x3d8f0734	0.06983796
177	0x3d0b66ae	0.03403347
178	0xbd55750a	-0.05211357
179	0x3d49cddf	0.0492686
180	0xbe016f7a	-0.12640181
181	0x3d6d564a	0.05794362
182	0x3e137fa2	0.14404157
183	0x3e042abf	0.12906931
184	0x3c9c6490	0.01909092
185	0x3de85f75	0.11346332
186	0x3dc6e544	0.09711698
187	0xbab936fa	-0.0014130764
188	0xbd9ad66a	-0.075604275
189	0x3dd5405a	0.10412665
190	0x3d577704	0.052603737
191	0xbdccf2fb	-0.10007282
192	0x3d2f85cf	0.04285222
193	0xbdd5c765	-0.10438422
194	0xbc5beaf1	-0.013422714
195	0xbe1b744d	-0.15181084
196	0xbc41d010	-0.011829391
197	0x3ccf0e1b	0.02527528
198	0x3d8c5d6d	0.06853757
199	0x3da1b76e	0.078963146
200	0xbd8c2df0	-0.068446994
201	0xbe1525fb	-0.1456527
202	0x3d50e46b	0.050999086
203	0x3d0919db	0.033471923
204	0x3de0b864	0.1097267
205	0xbdd9f9f1	-0.10643376
206	0xbd8ed717	-0.06974619
207	0xbcbaaeaa	-0.022788364
208	0xbda9d2b8	-0.082921445
209	0x3d61f302	0.05516339
210	0xbe0944f2	-0.13405207
211	0xbe31a465	-0.17347868
212	0xbe0fca1f	-0.14041947
213	0x3e257e68	0.16161501
214	0x3c0c1339	0.008549505
215	0x3d0ba81d	0.034095872
216	0x3d66fccd	0.056393433
217	0x3d65994a	0.05605439
218	0x3dca01cd	0.09863625
219	0xbe39d384	-0.18147093
220	0x3e273c14	0.16331512
221	0x3d5a26c8	0.05325964
222	0xbd58dc10	-0.052944243
223	0xbd03ae11	-0.032148425
224	0x3dc50d16	0.096216366
225	0x3e065b6b	0.1312081
226	0x3c2cc9d3	0.0105461655
227	0xbd25560e	-0.04036527
228	0x3d894d8d	0.06704245
229	0x3d6fb62a	0.058523335
230	0xba2be559	-0.0006557308
231	0x3d6ef2ba	0.05833695
232	0xbd045cbd	-0.032315005
233	0xbcf48b2e	-0.029851522
234	0xbdeba5fa	-0.11506267
235	0xbe0b7a74	-0.13620931
236	0xbd46ab04	-0.048502937
237	0xbc7a1f87	-0.015266306
238	0x3df07ea8	0.11742908
239	0xbc7455fe	-0.01491308
240	0x3df46222	0.1193278
241	0x3e15bb1b	0.14622156
242	0x3d887519	0.066629596
243	0x3e186250	0.14881253
244	0xbd8c3b60	-0.068472624
245	0x3def0027	0.11669951
246	0x3de29d86	0.110652015
247	0x3cb62e99	0.022239016
248	0x3e3f64c6	0.18690786
249	0x3c8624eb	0.016375026
250	0xbd271cb9	-0.040798876
251	0x3bd93185	0.0066282176
252	0x3e227eb7	0.1586865
253	0x3ddeecb8	0.10884994
254	0x3d005fa4	0.03134121
255	0x3cbc2ad2	0.022969637

fc2_1_1.bias f4 [64]
0	0x3d93433a	0.07190557
1	0x3d7acc75	0.06123014
2	0xbcac34de	-0.021021303
3	0x3dda1ecf	0.106504075
4	0xbd8f504e	-0.06997739
5	0x3d688353	0.056765866
6	0x3dfcfea2	0.12353255
7	0x3d465ac9	0.048426423
8	0xbe028cc2	-0.12749007
9	0xbd14f78b	-0.036368888
10	0x3d5f3faa	0.054504074
11	0x3dd54f3c	0.104155034
12	0x3daefa1d	0.08543799
13	0xbc3ebdb9	-0.011641913
14	0x3db1fece	0.08691178
15	0x3d7267af	0.05918091
16	0xbcda3dd0	-0.026640803
17	0x3de2fb09	0.110830374
18	0x3c7a60af	0.01528184
19	0x3e00fff5	0.1259764
20	0x3b9856ad	0.0046490044
21	0x3ce4f015	0.027946511
22	0x3c8ebfba	0.017425407
23	0x3d364d03	0.044507038
24	0xbe2bb177	-0.16766916
25	0xbc93235a	-0.017961193
26	0xbdd2d55c	-0.10294601
27	0xbdad5b0d	-0.08464632
28	0x3db86b75	0.09004871
29	0xbe1ff32f	-0.15620111
30	0x3dc309ce	0.095233545
31	0x3d443d0d	0.047909785
32	0xbdcb361d	-0.09922431
33	0x3de69c71	0.112603076
34	0x3d162d72	0.036664434
35	0xbd8c2f99	-0.06845016
36	0xbc9895fd	-0.018626207
37	0x3cacbc44	0.021085866
38	0xbe084796	-0.13308558
39	0x3d610f1e	0.054946057
40	0xbdcd0d12	-0.100122586
41	0xbdc2616c	-0.09491238
42	0xbdc708f7	-0.09718507
43	0x3d8de746	0.069288775
44	0xbcead848	-0.028667584
45	0xbd4a13f1	-0.049335424
46	0xbca0f4e8	-0.01964803
47	0x3db0eaef	0.0863856
48	0x3dbcc042	0.09216358
49	0xbd8cb274	-0.06869975
50	0xbd62ac4d	-0.0553401
51	0xbc860240	-0.016358495
52	0x3c109925	0.008825575
53	0xbddf041b	-0.10889455
54	0xbd86f648	-0.06589943
55	0x3dc390cc	0.09549102
56	0x3cfba29e	0.03071719
57	0xbcba0412	-0.022707019
58	0xbd84a3c0	-0.06476545
59	0xbdcd9214	-0.10037628
60	0xbe965a90	-0.2936597
61	0x3dfbe4e1	0.122995146
62	0x3bd81203	0.006593944
63	0x3d9eba54	0.07750383

fc2_1_2.weight f4 [32, 64]
0	0x3de9f0a8	0.11422855
1	0x3ea2df6b	0.3181108
2	0xbe12e2f2	-0.14344385
3	0xbcf9a796	-0.030475419
4	0x3d9ae149	0.07562501
5	0xbdbf7e03	-0.09350207
6	0x3e6750c9	0.22589411
7	0xbcc998c7	-0.024608983
8	0xbde1a448	-0.11017662
9	0xbdab55a2	-0.083659425
10	0xbd9d7775	-0.076888
11	0xbc02576b	-0.007955412
12	0x3d9301b2	0.07178058
13	0xbc322671	-0.010873423
14	0xbd479375	-0.04872461
15	0xbe176789	-0.1478559
16	0xbe05b22a	-0.13056245
17	0xbd1b22ec	-0.0378751
18	0x3d90d8e5	0.07072619
19	0x3dd53d44	0.10412076
20	0xbd4e8b98	-0.050426096
21	0x3c967680	0.018367052
22	0xbee68f0a	-0.45031005
23	0xbd7f802b	-0.06237809
24	0x3dc99737	0.09843295
25	0xbd6802ff	-0.056643482
26	0xbe3f05d2	-0.18654564
27	0x3baa8be3	0.005204664
28	0x3e477fb6	0.19482312
29	0x3eb23520	0.34806156
30	0x3e416c95	0.18889077
31	0x3e5edf64	0.21764904
32	0x3d2313ad	0.039813686
33	0xbddbb9c9	-0.10728795
34	0x3c235234	0.009968329
35	0x3ddb6ede	0.107145056
36	0xbe62bcd6	-0.22142348
37	0x3e862f4b	0.26207957
38	0xbcdac7d5	-0.026706615
39	0xbccf3c5c	-0.025297336
40	0x3e15abac	0.14616269
41	0xbdf806ac	-0.121106476
42	0xbd879bd6	-0.0662152
43	0x3d26c73e	0.040717356
44	0x3da7aab2	0.081868544
45	0xbebadcd1	-0.36496595
46	0x3e0a713c	0.13519758
47	0x3e860ead	0.26183072
48	0x3e133424	0.14375359
49	0x3d9d22fc	0.07672688
50	0x3ca2a921	0.019856038
51	0x3e689034	0.22711259
52	0x3d741c5f	0.05959737
53	0xbca0ea23	-0.019642895
54	0xbe088a68	-0.13334048
55	0xbe867129	-0.2625821
56	0x3d7770a0	0.060410142
57	0xbef73a7c	-0.48286808
58	0x3dd0054a	0.10157259
59	0xbd8e93b1	-0.06961764
60	0x3ec7cec1	0.39024928
61	0x3dcc9258	0.0998885
62	0x3dbc6561	0.09199024
63	0x3c1f8cb9	0.009738141
64	0x3e28be87	0.1647893
65	0x3d5f4f9d	0.054519285
66	0x3df8a8f9	0.12141604
67	0x3e1f989b	0.15585558
68	0x3c987d7a	0.01861452
69	0x3e07346b	0.1320359
70	0xbcf28356	-0.029603641
71	0x3db2112b	0.08694681
72	0x3cb3086d	0.021854604
73	0xbdd17752	-0.10227837
74	0x3d19c951	0.037545506
75	0xbdfd79e6	-0.12376766
76	0xbd676c82	-0.056499965
77	0x3e17bf56	0.14819083
78	0x3d498aff	0.049204823
79	0xbd5cc5e8	-0.053899676
80	0xbe13da8a	-0.14438835
81	0xbd9df0e2	-0.077119604
82	0xbd905761	-0.07047916
83	0xbc1fcd25	-0.0097535
84	0xbcd005b6	-0.025393348
85	0x3d3e1849	0.04640988
86	0x3da8091e	0.08204864
87	0x3daca4da	0.084298804
88	0xbdc901c6	-0.098147914
89	0x3d1c4032	0.03814716
90	0x3d92d91b	0.07170316
91	0xbdac606f	-0.08416831
92	0xbdac8e42	-0.08425571
93	0xbdd1e42f	-0.10248601
94	0x3d8c9a82	0.068654075
95	0xbdd48272	-0.10376443
96	0xbdae6784	-0.08515838
97	0xbd3beab3	-0.045878123
98	0x3d5c17aa	0.053733505
99	0x3c8134c1	0.015772225
100	0x3d8cc380	0.06873226
101	0xbd14bb53	-0.03631146
102	0x3bdaafe4	0.0066738
103	0x3e20a464	0.1568771
104	0xb91bf8fa	-0.00014874703
105	0x3d01ea24	0.031717435
106	0xbdaeb527	-0.08530646
107	0x3d55b8f0	0.052178323
108	0xbd804974	-0.0626401
109	0xbddad5df	-0.10685324
110	0x3d0c270a	0.034216918
111	0xbdc44039	-0.09582562
112	0xbc87fcd7	-0.016600056
113	0xbca48721	-0.020083966
114	0x3e0ae661	0.13564445
115	0x3dee4b5a	0.11635466
116	0xbdd94b99	-0.10610122
117	0x3cab8f7b	0.02094244
118	0xbe0e2afb	-0.13883583
119	0xbd8d213b	-0.06891104
120	0x3d41bd59	0.047299717
121	0xbcdec679	-0.027194249
122	0xbde84dc8	-0.113429606
123	0x3e187338	0.14887702
124	0xbd001d00	-0.031277657
125	0xbdd77151	-0.1051966
126	0x3e23ddd2	0.16002586
127	0xbc939ead	-0.018019998
128	0x3e02165d	0.12703843
129	0xbd4994b9	-0.0492141
130	0x3d7c4cd2	0.0615967
131	0x3df17daa	0.11791547
132	0x3dcb0ad1	0.099141724
133	0x3e01c525	0.12672861
134	0x3d8cebb5	0.06880895
135	0x3bc14e30	0.0058992133
136	0x3d9c7c8f	0.07640945
137	0x3dce072d	0.100599624
138	0x3e078134	0.13232881
139	0x3d89ebc0	0.06734419
140	0x3d7ff4f0	0.06248945
141	0x3e1483bb	0.14503376
142	0x3e0c24a0	0.13685846
143	0x3cfdc6e2	0.030978624
144	0xbe264c09	-0.16239943
145	0x3d01a5d6	0.031652294
146	0x3d8848e9	0.066545315
147	0x3da791ca	0.08182104
148	0x3d2b7dcb	0.041868012
149	0x3d88ad54	0.06673685
150	0xbbe685c9	-0.0070349914
151	0x3dc52281	0.09625722
152	0xbd5df854	-0.054191902
153	0x3c070981	0.008242012
154	0x3e05f836	0.13082966
155	0xbdac459f	-0.08411717
156	0x3d5a8c2c	0.053356335
157	0x3dd95f3a	0.10613866
158	0x3d8a34d2	0.06748356
159	0x3da3e9ec	0.080036014
160	0xbc88c867	-0.016697122
161	0x3e1f2a64	0.15543514
162	0x3cb040dc	0.021515302
163	0x3c34242a	0.01099495
164	0xbe39c058	-0.1813978
165	0x3dd27678	0.10276502
166	0x3d81ec80	0.06343937
167	0x3cbbfe7a	0.022948492
168	0x3e24cc30	0.16093516
169	0xbcc539d0	-0.024075419
170	0x3d516984	0.05112602
171	0x3d86cc07	0.06581884
172	0xbde5dab6	-0.112233564
173	0x3d19d094	0.03755243
174	0x3d8726fb	0.06599232
175	0x3da7608c	0.08172712
176	0xbe01367e	-0.12618443
177	0x3da2e980	0.07954693
178	0xbc2ed8c3	-0.010671797
179	0x3db23dc8	0.0870319
180	0x3e072aac	0.13199872
181	0xbdc15a8a	-0.09441097
182	0xbda6f6d4	-0.081525475
183	0x3c6c7fe7	0.014434791
184	0xbd9a52d0	-0.075353265
185	0xbbe6339b	-0.007025195
186	0x3c50ddd1	0.012748198
187	0x3dea7936	0.114489004
188	0xbdb7693b	-0.08955618
189	0xbde9a3ae	-0.114081725
190	0xbd2f2a61	-0.042765025
191	0xbddf0620	-0.1088984
192	0x3d9628b1	0.0733198
193	0x3dc1f599	0.09470672
194	0xbd762bce	-0.06010037
195	0xb8554681	-5.084882e-05
196	0x3dbf4f66	0.09341316
197	0x3def969d	0.11698649
198	0x3bd2344c	0.0064149257
199	0xbd8f67f7	-0.070022516
200	0xbd77cafa	-0.060496308
201	0xbb446d92	-0.0029972536
202	0x3dfbe137	0.12298816
203	0x3dee04a1	0.11621977
204	0xbc2e8d01	-0.010653735
205	0xbd6420d8	-0.055695385
206	0x3d8a125b	0.06741782
207	0xbda1f7a3	-0.07908561
208	0xbc59a172	-0.0132831205
209	0x3db8b092	0.09018053
210	0x3c98c4ae	0.018648472
211	0x3dad641b	0.08466359
212	0x3d3d1887	0.04616597
213	0x3d776649	0.06040028
214	0xbda805c7	-0.08204227
215	0xbd71e7f7	-0.05905911
216	0x3d20130b	0.03908066
217	0xbd88a946	-0.06672911
218	0x3c1fe5a9	0.009759345
219	0x3dd6298d	0.10457144
220	0x3c743488	0.014905103
221	0x3e767b74	0.24070531
222	0x3dfe0609	0.12403495
223	0x3d1f6f31	0.0389244
224	0x3cb49be5	0.022046993
225	0x3d6803e5	0.05664434
226	0x3db8f0bd	0.09030292
227	0x3de4998c	0.11162099
228	0x3d34d900	0.04415226
229	0xbd22bee0	-0.039732814
230	0xbd3e9d13	-0.046536516
231	0x3c950553	0.018191015
232	0x3cf3389c	0.02969008
233	0x3c98e1e0	0.018662393
234	0xbd4864bf	-0.048924204
235	0xbe07bece	-0.1325638
236	0x3ca70c80	0.020391703
237	0xbe3025a2	-0.17201856
238	0x3dd8bf41	0.10583354
239	0x3e0cb34d	0.13740273
240	0x3e38a50f	0.18031715
241	0x3dd6882a	0.1047519
242	0xbcfdb268	-0.03096886
243	0x3c97cc04	0.0185299
244	0xbdc99e69	-0.098446675
245	0x3db425b5	0.087962545
246	0xbd9a4503	-0.07532694
247	0xbe1a45d1	-0.15065695
248	0xbb627c8f	-0.0034559106
249	0xbe0dfece	-0.13866732
250	0x3da084d0	0.07837832
251	0x3d174dd2	0.03693945
252	0x3e2bd945	0.167821
253	0xbd9abdb1	-0.07555712
254	0xbc471bdc	-0.012152638
255	0x3cec867c	0.02887272

fc2_1_2.bias f4 [32]
0	0xbe5f2696	-0.21792063
1	0xbd380553	-0.044926953
2	0xbd7b1c3b	-0.06130622
3	0x3de91016	0.11380021
4	0xbe316dcc	-0.1732704
5	0xbc9ae6a6	-0.01890881
6	0x3d6969de	0.05698573
7	0x3e165d3c	0.14684004
8	0x3de7c99d	0.113177516
9	0xbde52340	-0.11188364
10	0x3cae957d	0.021311516
11	0x3d719f4d	0.05898981
12	0xbe52ae81	-0.2057438
13	0x3dd567bf	0.104201786
14	0x3dccea32	0.10005607
15	0x3dc7aa67	0.097492985
16	0xbd07154b	-0.03297929
17	0xbdb4ae71	-0.088223346
18	0x3d1320b4	0.03591986
19	0xbd676532	-0.05649299
20	0x3be03946	0.006842765
21	0xbdb6db87	-0.0892859
22	0x3de595e2	0.112102285
23	0x3d3c2f9e	0.04594385
24	0x3e29a1c5	0.16565616
25	0x3dafc699	0.08582801
26	0x3cef905d	0.029243642
27	0x3d1638ce	0.036675267
28	0x3d18a882	0.037270077
29	0xbd70252b	-0.058629196
30	0x3dad9a55	0.08476702
31	0xbd7f3dbc	-0.062314734

fc2_2.weight f4 [16, 32]
0	0x3e90679d	0.2820405
1	0xbb52540c	-0.0032093553
2	0x3e3edba5	0.18638475
3	0xbd1d0a57	-0.03833994
4	0xbd68de42	-0.056852587
5	0xbde11648	-0.10990578
6	0x3d9b8680	0.07594013
7	0xbda7f32e	-0.0820068
8	0xbdcf336d	-0.101172306
9	0xbdd3b629	-0.10337479
10	0x3dd73a5e	0.105091795
11	0xbe728fc6	-0.23687658
12	0x3e99f1f6	0.30067414
13	0xbca08c58	-0.019598171
14	0xbdc45aad	-0.095876075
15	0x38f36b65	0.00011607147
16	0x3de1072d	0.10987697
17	0xbda9d4a5	-0.08292512
18	0x3e2ac6b7	0.16677366
19	0x3ea58cd0	0.32333994
20	0x3e392ce0	0.18083525
21	0x3d95311b	0.07284757
22	0xbdc13777	-0.09434407
23	0x3dcc844d	0.09986172
24	0xbc102765	-0.008798455
25	0x3db8a2b2	0.09015407
26	0xbdf82f9e	-0.12118457
27	0x3e81599f	0.25263688
28	0xbdb99871	-0.09062279
29	0xbd6ff862	-0.058586486
30	0x3e872844	0.26397908
31	0x3c801cb1	0.015638681
32	0x3e144dfc	0.14482874
33	0xbe1a2f76	-0.15057167
34	0x3e204b50	0.1565373
35	0x3e2e5387	0.1702405
36	0xbd233cb2	-0.039852805
37	0xbbb3d33b	-0.005487827
38	0xbe00ff0f	-0.12597297
39	0x3e824727	0.2544491
40	0x3e081c60	0.13292074
41	0xbdcdf00c	-0.10055551
42	0x3dbada51	0.09123672
43	0xbd9128a5	-0.070878305
44	0x3e8741eb	0.2641748
45	0x3e80815d	0.25098696
46	0xbcd0655f	-0.025438963
47	0x3d03abe5	0.032146353
48	0xbe0b1e74	-0.13585836
49	0x3d1ddee8	0.038542658
50	0x3e04191e	0.12900206
51	0x3dd148d5	0.1021897
52	0x3e731f72	0.23742464
53	0x3c0ae157	0.008476577
54	0x3c88dc77	0.016706688
55	0xbd9ee8fa	-0.077592805
56	0x3d16a247	0.036775853
57	0x3cb6362d	0.02224263
58	0xbe600df3	-0.21880321
59	0x3d88da6b	0.06682285
60	0xbdbf061a	-0.09327336
61	0xbdf0e789	-0.11762912
62	0x3e401a45	0.18760021
63	0x3e414e03	0.18877415
64	0xbd4e6adb	-0.050394874
65	0x3e56109f	0.20904778
66	0x3de98b5f	0.11403536
67	0xbcdae1c7	-0.026718987
68	0x3dfd3174	0.12362948
69	0x3d702d88	0.058637172
70	0xbbed7629	-0.007246752
71	0x3e7eeeca	0.24895778
72	0x3e3e8101	0.18603899
73	0x3df46fc1	0.11935378
74	0xbc882c29	-0.01662262
75	0xbcb145f8	-0.021639809
76	0xbe15ab44	-0.14616114
77	0xbdbed56e	-0.09318052
78	0xbd0f477b	-0.03498028
79	0x3e1498ef	0.14511465
80	0xbc6f9a2f	-0.014624163
81	0x3c500a9d	0.012697843
82	0x3d3a57ad	0.04549377
83	0xbd8db28f	-0.06918823
84	0x3d3d9bba	0.04629109
85	0xbd8cb31c	-0.068701
86	0x3e4b8fe1	0.19879104
87	0x3e43ba73	0.19114093
88	0x3d0526f2	0.032507844
89	0x393c0cd7	0.0001793386
90	0x3b731ede	0.0037097256
91	0x3dfb4a7c	0.12270066
92	0x3e1984e7	0.14992104
93	0xbc8c64c0	-0.017137885
94	0xbe01a77a	-0.12661543
95	0xbdb0d86f	-0.086350314
96	0xbdc98dad	-0.09841476
97	0xbc8d1e65	-0.017226407
98	0x3e15fee8	0.1464802
99	0xbdb19d93	-0.08672633
100	0x3cc70ff9	0.024299609
101	0xbce3cb85	-0.027807007
102	0x3bb3c862	0.005486534
103	0x3d14cf24	0.036330357
104	0x3df91c12	0.12163557
105	0x3d51270d	0.051062632
106	0xbc0b3ab7	-0.008497885
107	0x3e422331	0.18958737
108	0xbdbbd954	-0.091723114
109	0x3d986d8c	0.074427694
110	0x3e1022c6	0.14075765
111	0xbdc9ecdc	-0.098596305
112	0xbae41ebe	-0.0017404181
113	0x3e030081	0.12793161
114	0x3cc659de	0.024212774
115	0x3e0c5dc5	0.13707645
116	0xbe600104	-0.21875387
117	0x3e455b5c	0.19273132
118	0x3cfb4eec	0.030677281
119	0x3e5aa904	0.21353537
120	0xbca5e370	-0.020250052
121	0x3be2ac0c	0.0069174822
122	0x3e324dff	0.17412566
123	0xbd5402ca	-0.051760472
124	0x3e356d27	0.1771742
125	0x3e454e11	0.19268061
126	0xbd77bc31	-0.060482208
127	0x3dd83c15	0.10558335
128	0xbc36b499	-0.011151456
129	0x3c9e83f9	0.019350039
130	0x3de66f2d	0.11251674
131	0xbe3fb79a	-0.18722382
132	0x3def7c60	0.116936445
133	0x3e1344b8	0.14381683
134	0xbce000be	-0.027344104
135	0xbe136dac	-0.14397305
136	0xbd6f8cb6	-0.0584838
137	0xbe086577	-0.13319956
138	0xbcc95610	-0.02457717
139	0x3d59c0e2	0.053162463
140	0xbdfe715f	-0.124239676
141	0x3d823677	0.063580446
142	0xbe09e129	-0.13464798
143	0xbb2d50c7	-0.0026445852
144	0x3db19c43	0.08672383
145	0xbaee2410	-0.0018168706
146	0xbe13f9a6	-0.14450702
147	0xbe2b8b5f	-0.16752385
148	0x3de94fb5	0.11392156
149	0x3d50d08c	0.050980136
150	0x3dc12b3a	0.09432073
151	0xbd8c3eea	-0.068479374
152	0xbe463caa	-0.19359079
153	0xbe383154	-0.17987567
154	0xbdaef68e	-0.0854312
155	0x3e05763e	0.13033387
156	0xbd6e9896	-0.058250986
157	0xbdb966d2	-0.090528145
158	0x3d7a3dda	0.061094142
159	0xbe1f24f7	-0.15541445
160	0x3e104a70	0.14090896
161	0xbd653bc2	-0.055965193
162	0x3d0c1e61	0.03420866
163	0xbdaa0cc4	-0.08303216
164	0x3ddd9473	0.1081933
165	0x3e0b8afb	0.13627236
166	0xbd2fd7a8	-0.042930275
167	0xbe1444ae	-0.14479324
168	0x3e2713f7	0.1631621
169	0x3ce06db7	0.027396066
170	0xbdcf9429	-0.10135681
171	0x3e0d95f9	0.13826741
172	0x3ddde094	0.108338505
173	0xbda73215	-0.08163849
174	0x3da633d4	0.08115354
175	0x3dd28105	0.10278515
176	0x3e0606af	0.13088487
177	0x3d091869	0.033470545
178	0xbb3f8fd4	-0.0029230015
179	0x3dfd1124	0.12356785
180	0xbda45e1f	-0.08025765
181	0x3e004b3b	0.12528698
182	0x3b897aff	0.0041955705
183	0x3e29c0b3	0.16577415
184	0x3df2a490	0.11847794
185	0xbdb05dcb	-0.086116396
186	0x3e3c1aa0	0.18369532
187	0xbdeef584	-0.11667922
188	0x3e42bce4	0.19017369
189	0x3e78e9f6	0.24307999
190	0x3e2e1f5e	0.17004153
191	0x3dd9f29e	0.10641979
192	0xbd92bb29	-0.07164604
193	0xbe34db43	-0.17661767
194	0xbe6081ac	-0.21924466
195	0xbcc0549b	-0.023477843
196	0xbe273cb4	-0.1633175
197	0x3c98afe8	0.018638566
198	0x3e2b9d2e	0.16759178
199	0x3e555838	0.20834434
200	0x3dc00952	0.09376778
201	0xbe47c444	-0.19508463
202	0x3e496eef	0.19671224
203	0xbdfbeedd	-0.12301419
204	0x3da11c19	0.07866687
205	0x3e79a1ec	0.24378175
206	0x3dfcc801	0.12342835
207	0x3e8082de	0.25099844
208	0xbde89412	-0.11356367
209	0xbbf10d82	-0.0073563466
210	0xbb5324ef	-0.003221806
211	0x3e4fd256	0.2029508
212	0x3db15918	0.086595714
213	0xbd9f6ab4	-0.07784024
214	0xbd909a99	-0.07060737
215	0x3b9ba10b	0.0047494224
216	0x3d097f2d	0.03356855
217	0xbce90584	-0.028445013
218	0xbd093d6d	-0.033505846
219	0x3e741f8b	0.23840158
220	0x3d8f73bd	0.07004497
221	0xbc8350b3	-0.016029691
222	0x3e4e24b3	0.20131187
223	0x3e44bdbe	0.19213006
224	0x3d08361c	0.033254728
225	0x3e09bd76	0.1345118
226	0xbdbf02b5	-0.09326688
227	0x3e15ee6c	0.14641732
228	0xbe01728f	-0.12641357
229	0xbca6e615	-0.020373384
230	0xbce00521	-0.027346196
231	0x3c158d7f	0.009127974
232	0x3dc87d7c	0.09789559
233	0x3e35aedb	0.17742483
234	0xbe3ce45d	-0.18446489
235	0x3e1c0b19	0.15238608
236	0xbd875673	-0.06608286
237	0xbe43bbfd	-0.1911468
238	0x3e7399cf	0.23789142
239	0x3d8334c7	0.06406551
240	0x3e0b0ab5	0.13578303
241	0x3dfa8810	0.12232983
242	0xbd5222e0	-0.05130279
243	0x3d98077e	0.07423304
244	0x3b94ebe6	0.004544723
245	0xbd26e3cf	-0.0407446
246	0x3e5d1698	0.2159065
247	0x3e5c0a97	0.21488415
248	0x3e4ad083	0.19806103
249	0x3e399cc7	0.18126212
250	0x3e931f63	0.28734884
251	0xbe017744	-0.12643152
252	0xbd2a5814	-0.041587904
253	0x3d17bb04	0.037043586
254	0xbd050574	-0.032475904
255	0xbd3e7546	-0.04649856

fc2_2.bias f4 [16]
0	0x3e3f75da	0.186973
1	0x3e016928	0.1263777
2	0x3e08be9f	0.13353966
3	0xbdad6bea	-0.084678486
4	0x3d8d8521	0.06910158
5	0x3dbd5892	0.09245409
6	0x3d20c36e	0.039248876
7	0x3e0d9609	0.13826765
8	0xbd875d66	-0.06609611
9	0xbbd325f3	-0.006443733
10	0xbda553a0	-0.08072591
11	0xbd091ceb	-0.033474844
12	0x3b822d62	0.003972695
13	0x3c586064	0.013206575
14	0xba6e8152	-0.000909825
15	0x3deef0dd	0.11667035

fc3.weight f4 [30, 16]
0	0xbe964bb3	-0.2935463
1	0xbf14a2d1	-0.5806094
2	0x3e9b035f	0.3027601
3	0x3eb9f425	0.3631908
4	0xbe307664	-0.17232662
5	0x3e4aa90c	0.19791049
6	0xbee9e3d8	-0.45681643
7	0x3ec7b2e5	0.39003673
8	0x3e0b6a12	0.13614681
9	0x3ed2ba12	0.41157585
10	0x3e787bbd	0.24265952
11	0x3eab00b3	0.3339897
12	0x3d8ec9ee	0.06972109
13	0xbefff464	-0.49991143
14	0x3e088e59	0.13335551
15	0x3edc65c4	0.4304639
16	0xbd7c96ae	-0.061667137
17	0xbc3e335c	-0.011608925
18	0x3d12c133	0.03582878
19	0xbdf9fbe1	-0.12206245
20	0x3dcb36c3	0.09922554
21	0x3e8d3cbb	0.27585396
22	0xbcfc82f3	-0.03082416
23	0x3e343d0b	0.17601411
24	0x3e3725c8	0.17885506
25	0x3c8e1d7b	0.017348042
26	0x3e5c5a08	0.21518719
27	0xbe030e3d	-0.127984
28	0xbe077fe6	-0.13232383
29	0xbd47b4de	-0.048756473
30	0x3dc2efaa	0.095183685
31	0xbd8d279b	-0.0689232
32	0x3e3b8c5d	0.18315263
33	0xbe4a3447	-0.19746505
34	0xbd738975	-0.05945726
35	0x3e563b14	0.20920974
36	0x3e0b56d2	0.13607338
37	0xbd806859	-0.06269903
38	0x3e14921a	0.14508858
39	0xbe088d30	-0.13335109
40	0x3d4d3845	0.05010249
41	0x3dac7ae2	0.084218755
42	0xbe6de6f1	-0.23232628
43	0x3e26301e	0.16229293
44	0x3e84718b	0.25867876
45	0xbda9e3f2	-0.0829543
46	0x3d7430a8	0.059616715
47	0x3c8c0ae0	0.01709503
48	0x3e392f73	0.18084507
49	0xbdc85ff7	-0.09783929
50	0xbe4fe450	-0.20301938
51	0x3ddd5f03	0.10809138
52	0x3d69e97d	0.057107437
53	0xbe68249b	-0.22670214
54	0xbdbbe3f1	-0.09174336
55	0x3dafccc2	0.08583976
56	0xbd2c4a69	-0.04206315
57	0xbe69e6f1	-0.22842003
58	0x3e838674	0.25688517
59	0xbd67969a	-0.05654011
60	0x3e23ca0e	0.15995046
61	0x3bce45a1	0.0062949215
62	0x3e6e4754	0.23269397
63	0x3dbcf005	0.092254676
64	0xbcf58c6e	-0.029974189
65	0x3e7a5917	0.24448048
66	0x3e2394cf	0.15974735
67	0x3dd19aa9	0.10234577
68	0x3e75f53b	0.24019329
69	0x3dab294d	0.08357487
70	0xbe5bc2f4	-0.21461087
71	0xbe53a824	-0.2066961
72	0x3d8e0758	0.069349945
73	0xbbc3cb76	-0.005975182
74	0x3d10100d	0.035171557
75	0x3dbea1eb	0.09308227
76	0x3c184543	0.009293857
77	0x3cae0ffa	0.021247853
78	0xbda7b4d7	-0.08188789
79	0xbc6227e3	-0.013803455
80	0xbbbaf045	-0.005704912
81	0xbdb3c713	-0.08778205
82	0x3e484089	0.19555868
83	0xbdcb8865	-0.099381246
84	0xbe3ab1cf	-0.18231891
85	0x3e04c625	0.12966211
86	0x3d8eb8b4	0.06968823
87	0xbe07a06e	-0.13244793
88	0xbe3bcbe6	-0.183395
89	0xbd8c2bd0	-0.06844294
90	0xbdeac3b8	-0.11463112
91	0x3e823ee6	0.25438613
92	0x3e103a5b	0.14084761
93	0x3b76dbf8	0.0037667733
94	0x3cd6c583	0.026217228
95	0xbd1f17d0	-0.03884107
96	0xbd8fb866	-0.07017593
97	0x3e5a5c8f	0.21324371
98	0x3d8b852d	0.06812511
99	0x3e6a3702	0.22872546
100	0xbbb9114f	-0.0056478153
101	0xbb5c780b	-0.0033640887
102	0xbe6f2991	-0.233557
103	0xbd6bc675	-0.05756231
104	0xbe7686d4	-0.2407487
105	0x3e1d6c5b	0.15373366
106	0x3d9ed21f	0.07754921
107	0xbda719c2	-0.0815921
108	0x3dd2b89b	0.10289117
109	0xbcba2e26	-0.022727083
110	0xbe2c6488	-0.16835225
111	0xbe06f55e	-0.13179538
112	0x3e424f6b	0.18975608
113	0xbd3cbfd2	-0.04608137
114	0x3e37095a	0.17874661
115	0x3d9d4364	0.07678869
116	0x3d823201	0.06357194
117	0xbe4f3a41	-0.20237066
118	0xbd6ffcab	-0.058590572
119	0x3e54f362	0.20795968
120	0xbda0f444	-0.0785909
121	0xbdad86fe	-0.08473013
122	0xbe49ae26	-0.19695339
123	0xbd5eb7b9	-0.05437443
124	0x3d1e8b4d	0.038707066
125	0x3cf7f8f4	0.030270077
126	0xbe3623b9	-0.17787065
127	0x3e3963fb	0.18104546
128	0x3d48c895	0.049019415
129	0xbc58dfec	-0.013236981
130	0xbdf6f999	-0.12059326
131	0xbe10dab5	-0.1414593
132	0xbe2e000d	-0.16992207
133	0x3e3e67be	0.18594262
134	0x3dff6a2a	0.12471421
135	0xbe267cb9	-0.16258515
136	0xbd70d800	-0.058799744
137	0xbd545654	-0.05184014
138	0x3dbf82d0	0.093511224
139	0x3e475398	0.19465482
140	0x3c82285e	0.01588839
141	0xbe53a03b	-0.20666592
142	0x3e2b0a1e	0.16703078
143	0x3da1a03b	0.0789189
144	0x3e8a9fd7	0.27075073
145	0xbe06e8c8	-0.13174736
146	0xbd492ec4	-0.049116865
147	0xbe4117ed	-0.18856783
148	0x3dbd7aa1	0.09251905
149	0x3e2e9662	0.17049554
150	0x3c06e8d5	0.008234222
151	0xbdd75923	-0.10515048
152	0x3c8120cc	0.01576271
153	0x3e5cf2ed	0.21577044
154	0xbe550be4	-0.20805317
155	0x3d79af28	0.060958058
156	0xbe1a73c7	-0.15083228
157	0xbdfc6197	-0.12323301
158	0x3d8e3f46	0.06945662
159	0x3dbf28d3	0.093339585
160	0x3d8b2bd2	0.067954674
161	0x3e0bfd86	0.1367093
162	0xbe243407	-0.16035472
163	0x3ce49678	0.02790378
164	0x3e7a1978	0.24423778
165	0xbc6ca65f	-0.014443963
166	0xbe8ef7b0	-0.27923346
167	0x3e93933e	0.28823274
168	0x3e1d112e	0.15338585
169	0xbe593235	-0.21210559
170	0x3e661072	0.22467211
171	0x3d88a004	0.066711456
172	0xbe19cbbc	-0.15019125
173	0x3e3f1e34	0.18663865
174	0x3da6e68b	0.08149441
175	0xbe25b314	-0.16181594
176	0x3dcd3950	0.10020697
177	0xbe062d83	-0.13103299
178	0x3b81c89b	0.0039606816
179	0xbc71f4be	-0.014767824
180	0x3d4a9621	0.04945958
181	0x3ca67a41	0.020321967
182	0x3e0e881b	0.13919108
183	0xbd47d5ad	-0.04878776
184	0xbe21d4d1	-0.1580384
185	0xbdb8ab3c	-0.09017035
186	0x3e37feef	0.17968343
187	0x3e4569db	0.19278662
188	0x3e7c4123	0.24634223
189	0xbe2480d2	-0.16064766
190	0xbde9874e	-0.114027604
191	0x3d5d00ce	0.053955846
192	0x3e743609	0.23848738
193	0xbd0de4c4	-0.034641996
194	0x3e3551d6	0.17706999
195	0x3cfb0fff	0.030647276
196	0xbd1d9e68	-0.038481146
197	0xbe1f15f7	-0.15535723
198	0xbe435836	-0.19076619
199	0xbe2776f0	-0.16353965
200	0x3e22d05e	0.15899798
201	0x3d863e0b	0.065548025
202	0x3c9e2fba	0.019309867
203	0x3d0d882d	0.034553695
204	0x3df744ff	0.12073707
205	0xbd6e4963	-0.058175456
206	0x3e1aae8c	0.15105647
207	0xbb2d7af7	-0.0026470998
208	0xbd0eebc1	-0.0348928
209	0xbd3b4eb2	-0.045729347
210	0x3d9ea423	0.0774615
211	0x3e002a10	0.12516046
212	0xbe3ba211	-0.18323542
213	0x3ceb4c3c	0.028722875
214	0x3dfd7f36	0.12377779
215	0x3d81054b	0.06299838
216	0xbe84e0c9	-0.25952747
217	0xbca3d916	-0.020000976
218	0x3dac6f58	0.08419675
219	0x3d32135e	0.0434755
220	0x3da03dc6	0.07824282
221	0x3d09b590	0.033620417
222	0xbdb96b1f	-0.09053635
223	0xbe2d8321	-0.16944553
224	0x3d02c675	0.031927545
225	0xbd970211	-0.07373441
226	0xbd42f84b	-0.047600072
227	0xbdc7237c	-0.09723565
228	0xbe182775	-0.14858802
229	0xbe23793d	-0.15964217
230	0x3c8f96cf	0.017527966
231	0xbddc68f0	-0.10762203
232	0x3e1b53f6	0.15168747
233	0x3e83ecde	0.25766653
234	0x3e5d8a8d	0.21634884
235	0x3d5cc657	0.05390009
236	0x3e3cb994	0.18430167
237	0xbb9dec3a	-0.00481942
238	0xbe378137	-0.17920385
239	0x3d7e9cf6	0.06216141
240	0x3e36d351	0.17854048
241	0xbde963a3	-0.11395957
242	0x3bbedde6	0.005824792
243	0xbe7ffcfe	-0.24998853
244	0xbe70188a	-0.23446861
245	0x3e39bd2b	0.18138568
246	0xbd94a456	-0.07257907
247	0x3de4a39b	0.11164018
248	0xbc49c71e	-0.01231554
249	0x3e2efe6a	0.17089239
250	0xbe72ee27	-0.2372366
251	0xbc494c09	-0.012286195
252	0x3b750489	0.0037386736
253	0x3d65256f	0.055943903
254	0x3c6c2929	0.01441411
255	0xbd2e1df2	-0.042509027

fc3.bias f4 [30]
0	0xbcba3f8e	-0.022735383
1	0xbe64d243	-0.22345833
2	0xbe4b6250	-0.19861722
3	0x3e2cefd8	0.16888368
4	0x3d6bd5a2	0.057576783
5	0x3e4a595e	0.19760653
6	0x3e305f15	0.17223771
7	0x3d3fcc36	0.04682561
8	0x3d38ba17	0.045099344
9	0xbd583d7d	-0.052793015
10	0xbe391bc7	-0.18077002
11	0x3d704339	0.05865786
12	0xbdcf951d	-0.10135863
13	0x3e3f3b24	0.18674904
14	0x3d9a4da7	0.07534342
15	0x3b6695fd	0.0035184615
16	0xbcd86759	-0.026416468
17	0x3dd5923c	0.104282826
18	0x3e0f03d0	0.13966298
19	0x3e83b097	0.25720665
20	0xbe0659f1	-0.13120247
21	0x3e13f82d	0.1445014
22	0xbe0d9c70	-0.13829207
23	0xbdbfcd35	-0.09365312
24	0x3defb1bf	0.11703824
25	0xbcca5ac0	-0.024701476
26	0xbb72e388	-0.0037061889
27	0xbe5114cd	-0.20418091
28	0xbe7752f9	-0.24152745
29	0x3ca84fca	0.020545859
