Heater_Results/uniform_S10_constant_Iter20_Epoch10.onnx (onnx, 41615 bytes, 14 tensors)

fc1.weight f4 [8, 3]
00000000: 487d 8d3e 982a e63e 177e f2be 63e0 373f
00000010: cdcf a83b a16e 313d f0f0 fb3e 5842 0a3f
00000020: 0673 08bf 1d04 063f e35d 3bba 2805 61bd
00000030: ca42 3cbf c4d2 d43e 353e 9dbe e3b3 6c3e
00000040: 0236 bebc c779 e4be 2ef7 39bf 24d5 e73e
00000050: 396a cabe 3f49 d0be 240c 05bf 991b d8be
0.27634645 0.4495437 -0.47361824 0.7182676 0.005151725 0.043318395 0.49207258 0.5400748
-0.5330051 0.52350026 -0.0007147474 -0.054936558 -0.7353941 0.4156705 -0.30711523 0.23115496
-0.023219112 -0.4462416 -0.7264279 0.452798 -0.39534166 -0.40680882 -0.5197165 -0.42208555

fc1.bias f4 [8]
00000000: 72be 16bf 1b09 c5be 5fa7 07bf 98ce bd3e
00000010: 79ff 63be 0d87 11bf 9fa3 86be e7a6 dc3d
-0.58884346 -0.3848351 -0.52989763 0.3707168 -0.22265424 -0.56846696 -0.26296708 0.107740216

fc2.weight f4 [32, 8]
00000000: a188 d2bd 2aa2 af3d 27ab 1abf c64c 0abf
00000010: 1df7 f8bd 1b1f 3f3d ee51 07be 502c 9bbe
00000020: be45 80bd 3e7c d13d 767a 73be b660 9d3e
00000030: ffbb d1bd 9bb1 353e 259b 6cbe 18e1 583d
00000040: 8be5 82bc 7d05 4e3d b47a 9b3d f699 08bf
00000050: f2eb 4c3e bf04 27be a421 91be 5f42 7ebd
00000060: 3451 68bd ff2e 31be a21d 35be 266d 953e
00000070: 0b74 e73e 521b 7fbd a57f d8bd 6ef5 c63d
00000080: 9b24 3cbe a4e4 cb3d 1e1a 383e d868 db3e
00000090: 7296 133d 1588 9abd 8306 1ebe 767c 11bd
000000a0: 919c 6ebc 0c8d 27be 6ea1 a9be 88ae 4e3d
000000b0: 9486 4b3e 6e2b ffbd 9968 1b3e 19e4 a63d
000000c0: a51f e8bd 2a2f efbd cd30 013e 3641 5fbe
000000d0: 2981 0dbc a35c f33d 486e 4fbe edcc 643e
000000e0: b62d 99be f61e 893c 307f 8ebe d479 99be
000000f0: 8866 b4bd 43e4 c23d 895b a33c 4ab0 b1be
00000100: eb84 5e3e 856e 54be aeed 34be 3d1f 17be
00000110: 4fc8 6cbe b42e 803c 5479 dc3d 4968 88be
00000120: 82fb 523e 3989 60bd 8ee7 a2be 84b4 183d
00000130: 5df8 f43d d2d2 1bbe ae22 123e 830a aebe
00000140: 926c 8abe da15 9a3c 454c 793d 8212 79be
00000150: 58c6 1f3e 1bd9 dfbd b3c7 a63d 9cc1 90be
00000160: 05ea b3be 853e cb3d 7e71 8c3d 41ca 02bf
00000170: 672d d03d d1e8 02be eb0f 433d bd54 ae3e
00000180: 717d 0b3e c191 abbe 40c7 df3d 43a5 ac3e
00000190: 4e78 413d 6220 37be b820 8dbe faba 80bd
000001a0: cf62 ae3e b1dd 5cbd 618f 71be 9c66 cd3e
000001b0: c935 0abd 201b 8d3e bbc1 503c a766 61bd
000001c0: 1e9c 413e 935e 20be f3e8 d2bd b5b8 b2bd
000001d0: a852 54be c009 a43e 86dd a8bd aaef b1be
000001e0: 1f7b 903e 3960 adbe 474a 1f3d b887 823e
000001f0: 6bcd bdbc ad56 133e 8a29 90be 6d0d 2a3e
00000200: a303 f3bd eb1c 38bd 52aa 2dbe 6b6d 54bd
00000210: 35ae 783e 6020 973c 9612 483e e0e9 4abd
00000220: ae82 923e c04a 5e3d e257 9f3e 4f04 b43e
00000230: 9f89 d4be c078 9e3c 5916 55be 7180 173e
00000240: 93c3 2abe 616f 7d3c 1770 8c3e cd91 61be
00000250: 8ef3 253e 65e2 1a3e c8fa a7be 5f5b 8fbd
00000260: ba30 fdbd f087 c2be 5921 2c3e f2ad a1bd
00000270: 42a9 12be 09a2 ad3e f0df 263d 5c14 3a3e
00000280: c2e1 55be 3181 dabe a735 80be 5fac 9cbe
00000290: 244d 213e 0271 5a3e 581f 9f3e 04fe 57be
000002a0: 6973 1dbf c6d6 d53c 7e30 d9bd 7343 3a3e
000002b0: fef7 debe a21d 8bbd 7ca0 99bc 628b 9f3e
000002c0: 079c 95bd 6f00 593e 482f 7bbe 10ec 58bf
000002d0: 484a 903e 6cec 49bd c305 2b3e a310 3c3e
000002e0: 954e dfbd 0508 c93d 4fb9 cdbd 660a 1ebf
000002f0: a1cd 6b3d 65e9 1f3e 5e45 6cbc ee27 633c
00000300: cf41 a53c 03c9 8a3e d96d 53bd 130b 363f
00000310: 2971 11be aa06 4cbd 4bba 923e 204e 353e
00000320: c674 4b3e 83b9 723e 80a3 9bbc 1770 373f
00000330: 2428 99bd 1529 82be 6e74 67bc 1d52 d2bd
00000340: 7759 823e 66f9 d3bd 414d 303e adc9 eb39
00000350: dc6d 55be 6e6c 073d 526e 43be fcc6 2a3e
00000360: 5046 74be d795 173e a6de 9cbd e39f afbd
00000370: 1245 4b3e 7c2a 9cbe 2fc2 263e aab7 3fbe
00000380: 5b04 85be 73ea a3be f8c9 acbe 3f97 80bd
00000390: e6be a5be 9648 3ebd ac8d 993e 9a50 08bc
000003a0: 18eb 92be 94b4 953d 775f 53be 85f2 8abf
000003b0: b89a ec3e 5514 69be 960c 033e 46bc 9fbe
000003c0: 51c5 443e 14ea 803c b7c4 3dbe b368 20bf
000003d0: 9625 e53d 20ad b63d bc7f fb3c fe60 963e
000003e0: 7cbd 63be c1fd 173b f391 12bf 7202 f8be
000003f0: a4d5 11be 5d5a ab3e 9d6b 10bd 3884 2c3e
-0.10279966 0.08575852 -0.6041741 -0.54023397 -0.12156508 0.046660524 -0.13214847 -0.30307245
-0.06263302 0.102287754 -0.23777184 0.30737847 -0.102409355 0.17743532 -0.23106058 0.05294904
-0.015978595 0.050298203 0.07591763 -0.53359926 0.20011881 -0.16310404 -0.28345978 -0.062075015
-0.056718066 -0.17303084 -0.17687085 0.29184836 0.4520572 -0.062281914 -0.10571221 0.09714781
-0.18373339 0.09955719 0.17978713 0.42853427 0.036032148 -0.07545487 -0.15432172 -0.035519086
-0.0145636955 -0.16362399 -0.33130974 0.050459415 0.19875556 -0.124594554 0.1517662 0.08148975
-0.11334161 -0.11678918 0.12616272 -0.2180222 -0.008636751 0.118829034 -0.20256913 0.22343798
-0.29917687 0.016738396 -0.2783141 -0.2997576 -0.08808619 0.09516194 0.019941108 -0.3470481
0.21730392 -0.20745285 -0.17668793 -0.1475801 -0.23123287 0.01564727 0.10765329 -0.26642063
0.20603755 -0.054818366 -0.31817287 0.037281528 0.11961434 -0.1521714 0.14271042 -0.33992395
-0.27035958 0.018809248 0.060863752 -0.24323466 0.15603006 -0.109300815 0.08143558 -0.28272712
-0.3513948 0.09924034 0.068575844 -0.51089865 0.1016491 -0.12784125 0.047622602 0.34049025
0.13622071 -0.3350964 0.10926676 0.33719835 0.047233872 -0.17883447 -0.27564025 -0.06285663
0.3405976 -0.05392236 -0.23589851 0.40117347 -0.0337427 0.27559757 0.012741501 -0.055029538
0.1890721 -0.15661077 -0.10298338 -0.08726636 -0.20734656 0.3203869 -0.08245377 -0.34753162
0.28218934 -0.33862475 0.038889196 0.2549417 -0.02316924 0.14388533 -0.28156692 0.16606684
-0.11865928 -0.044949453 -0.16959503 -0.05186216 0.24285205 0.018448055 0.1953834 -0.049539447
0.28615326 0.054270506 0.31121737 0.35159537 -0.41511247 0.019344687 -0.20809306 0.1479509
-0.16676168 0.015468449 0.27429268 -0.22028275 0.1620619 0.15125425 -0.32808518 -0.069998495
-0.123628095 -0.37994337 0.16809596 -0.078945056 -0.14322379 0.33912686 0.040740907 0.18171829
-0.20886901 -0.4267669 -0.25040933 -0.3060026 0.15752083 0.21332172 0.310786 -0.21092993
-0.61504227 0.026103389 -0.10604952 0.18189792 -0.43548578 -0.067927614 -0.018753283 0.31161028
-0.073051505 0.21191572 -0.24529755 -0.847352 0.28181672 -0.049297735 0.16701417 0.18365721
-0.1090366 0.09815983 -0.100451104 -0.61734617 0.05756915 0.15616377 -0.014420835 0.0138645
0.020172982 0.27106485 -0.05161843 0.7111065 -0.14203323 -0.049811043 0.28657755 0.17705584
0.19868764 0.2370358 -0.018998861 0.7165541 -0.07478359 -0.25421968 -0.01412688 -0.10269568
0.2545888 -0.10350303 0.1721697 0.00044972953 -0.2084269 0.03306239 -0.19085053 0.16677469
-0.23854947 0.14803253 -0.07659654 -0.08575418 0.19850567 -0.30501163 0.16285013 -0.18722406
-0.25979885 -0.32014808 -0.3374784 -0.06278848 -0.32372206 -0.046455942 0.299909 -0.008319998
-0.28694987 0.07309833 -0.20641886 -1.0855261 0.4621179 -0.22761662 0.1279777 -0.3119833
0.19215895 0.015736617 -0.18532072 -0.6265976 0.111888096 0.0891974 0.030700557 0.29370874
-0.22240251 0.002319202 -0.5725395 -0.48439366 -0.14241654 0.3346738 -0.035258878 0.16847312

fc2.bias f4 [32]
00000000: ce06 4abd 2afe 1abe dbbb 1a3d bbe5 d23d
00000010: a11b 2ebe 76a1 e53e d64b f63e 90a1 c43e
00000020: b475 6fbe 9d49 bf3e 44b6 26be a3b1 57be
00000030: 5cda df3d eb0d b63d 4c0a 7dbb b91a d73e
00000040: b7be c73e 997a 06bf 9510 0ebf dd86 70be
00000050: 6e15 56bd 847c 8fbe 69c6 36be c5c0 ca3d
00000060: e961 8dbb 4654 d4bd 5f99 11bf 54d0 eabc
00000070: 4ac2 4cbe cf60 9b3e 4671 753e 5db9 a43e
-0.049322896 -0.15136018 0.03777681 0.10297724 -0.17002727 0.44849747 0.48104733 0.38404512
-0.23384744 0.3736085 -0.16280466 -0.21063857 0.109303206 0.088893734 -0.0038610874 0.42012575
0.3901269 -0.5253082 -0.5549405 -0.23488946 -0.05226653 -0.28024685 -0.17849125 0.09900049
-0.0043146503 -0.103676364 -0.5687465 -0.028663792 -0.1999599 0.30347297 0.23968992 0.3217267

fc2_1.weight f4 [64, 32]
00000000: 1f23 3bbd 7d66 bd3d 8abd 443d cf23 cbbd
00000010: d7f3 63be 52cc 983d 9053 c6bd 694b 84bc
00000020: aa1b e83d afdc 27bd 1413 7abd 151f 6d3c
00000030: 107f 07be 9d5f 303d fd5e 213e 2d9d 563c
00000040: d095 58be ae46 9abd 6c00 6bbd 8a29 5c3d
00000050: 70c8 403d 4d00 47be 9dc6 7b3c 283c ac3d
00000060: 38a4 56be 8d81 3abe 58d7 bb3c 6401 b63d
00000070: 5d61 d23d 8d90 aa3c 6cae ef3d 3abd 973d
00000080: 65dc 20be 44cc dd3d 90d7 d4bc 8571 97bd
00000090: bfc8 073c 6c76 66bd 77da 9dbd 2a43 0f3d
000000a0: dc03 2f3e bcb2 183d 9a61 6fbe 7ffd 9f3d
000000b0: 2837 febd 20cc 853d 537c dcbc 92ad 13be
000000c0: ac5b f93d 4518 f33d 9fbd 08be cbca 66bc
000000d0: 857e 25be 508f 3bbb 2431 a9bd e81a c53d
000000e0: 4108 bdbd 1b41 4d3d d30f c3bd 194e 05be
000000f0: 23f3 7c3d be25 67be 505d 6dbd b065 3abe
00000100: 6016 4b3d 4ed9 2fbe 37f5 a5b9 71b6 10bd
00000110: 5042 093d 41c6 b3bd b647 bfbd 1613 a6bd
00000120: 38d1 b63d 40ef f9bd ce7f 053c 91e6 2c3e
00000130: 013d f23d cec9 86bc 0b0f b4bd a219 89be
00000140: c822 6abe 3f69 863d 8bef 98bd 0d0a a33d
00000150: 847e 4dbd a42a 71bd 0e3f f9bd 155b 3dbd
00000160: f602 7e3d 6833 1cbb 90c1 07bd f489 033e
00000170: e9b3 12be 6149 b2be 35fd ffbd d1fd 22bd
00000180: f03e 133e d824 fcbd f922 f33d 9b1c 783e
00000190: 0d61 a33b 623b 243e 3a87 d8bd 330e 843d
000001a0: 03e2 fe3d d833 d13c 535c 413d c608 b2bc
000001b0: fb68 1bbe 6b98 1ebe ecf6 893d 7459 14bd
000001c0: b722 813d 0360 e53d a8a3 33bd d738 3d3d
000001d0: adfe 403e 25fe 4d3b c3e6 8a3b 382e 733e
000001e0: 4f26 9fbd ccff f6bd e93e 13be 5fc2 1e3e
000001f0: 5bdd 2f3d b48a 5c3e 935a 343e 4727 403e
00000200: 3f10 7a3e 4fd2 343d b76f 01bd 756d a83d
00000210: 1e67 7abd 3658 cc3d cce2 aa3d 3276 0d3e
00000220: 8e18 23bd f3b6 c23d de58 6cbd aaf1 7e3c
00000230: c74a 513e 9410 2a3e 60b4 1d3e d421 1abd
00000240: af6a 1bbc a700 ac3d 177a cf3d 616b 11be
00000250: 95a5 383e 77c7 90bd 210b 523e f270 f53d
00000260: 3c84 f5bd 6ba2 0abe c0e4 ab3c 6af4 983c
00000270: fb4e 213e d631 733d 1397 d8bd 19ae 633e
00000280: 1253 683e 09b0 4f3e 4010 623e 3b06 883e
00000290: 533e 12be 8046 ab3e 467e c0bd c39d 173e
000002a0: 9c69 ab3d e15a c93d 726a bc3a 7c67 f9bd
000002b0: bb4c 473d 16b6 bbbc 2819 c73c 81fe d83d
000002c0: 0d37 663e a289 1abe 308d 1f3c 3085 b7bd
000002d0: f6fc 083d 316b 233d 9690 c13d 28a8 ed3d
000002e0: ff97 3fbd 370f 92bd 2b32 a6bd b88a 073e
000002f0: 2278 84bd eaff 1d3e 8d3d e4bd e11c cb3e
00000300: 3f2f 093e ea2d 82be a463 40be 7d35 6cbe
00000310: 9e87 39bd f3e0 c0bd 616d e8bd 1ea5 a7be
00000320: 5d5a c03d d06a 63bd a27c 41be d7de 7dbd
00000330: a34b 40bc 2a19 c9bd 3c08 8d3d 8db2 80bd
00000340: 75f1 233e f43d 12be 0170 c33d 9f89 553e
00000350: d319 0c3e 64fd 92bd 7bbb 1fbe a796 6bbe
00000360: e819 ce3d b9c2 f6bd f672 873d 806b 4fbd
00000370: 5b65 d13d 8138 f23d d16b db3d 0470 5abe
00000380: 22cc 7abe 6ad3 493e d35d 06be 73c0 a93e
00000390: 01d7 aebd d28a e83e 7337 b63e b2be 82bd
000003a0: dfe8 76bd b123 463d 3954 28bd 7be8 183e
000003b0: d414 e8bc 3461 86bc 4724 acbd bc17 cbbd
000003c0: 0bda 03bd 49d0 28be a0e7 05bd 2a88 92bd
000003d0: 7181 eebb 0692 f0bd 0e25 4dbe 35e4 9cbe
000003e0: 9de8 f23d 676c 3b3d 9cbe 3fbe d30f b23d
000003f0: b167 18be 0c77 54be 4db2 25be aa2e 93be
-0.04568779 0.09248064 0.04803232 -0.09918939 -0.22260986 0.07460846 -0.09683907 -0.01614924
0.113334015 -0.040981945 -0.06105335 0.014472743 -0.13232064 0.043059934 0.15758891 0.013098997
-0.21150899 -0.07533012 -0.05737345 0.053750552 0.047066152 -0.19433708 0.015367177 0.084099114
-0.20961082 -0.18213482 0.022929832 0.08886984 0.10272477 0.02082088 0.1170319 0.07409139
-0.15709074 0.10829976 -0.025981694 -0.07394699 0.008287608 -0.05626528 -0.077076845 0.034976162
0.17091316 0.03727983 -0.23377076 0.078120224 -0.12412864 0.065330744 -0.026914751 -0.1442168
0.12175688 0.118698634 -0.13353585 -0.014086436 -0.16161545 -0.0028619356 -0.08261326 0.096242726
-0.0923009 0.050110918 -0.095245026 -0.13018073 0.06175531 -0.22572991 -0.057950318 -0.18202853
0.049581885 -0.17172739 -0.00031653952 -0.03533024 0.033510506 -0.08778048 -0.0933985 -0.08109109
0.08926624 -0.122038364 0.008148147 0.16884829 0.11828042 -0.01645365 -0.08791932 -0.2677737
-0.2286483 0.06563043 -0.07467564 0.079609014 -0.050169483 -0.058878556 -0.1217023 -0.04622944
0.062014543 -0.0023834351 -0.03314358 0.12845594 -0.14326443 -0.3482161 -0.12499467 -0.03979284
0.14379478 -0.12311715 0.11871905 0.24229662 0.0049859346 0.16038278 -0.105726674 0.06448021
0.12445452 0.025537416 0.047207188 -0.0217327 -0.15176766 -0.1548783 0.0673655 -0.03621812
0.063054495 0.111999534 -0.043857247 0.046196785 0.18847151 0.0031432 0.0042389347 0.237481
-0.07770979 -0.12060508 -0.14379467 0.15503834 0.04293571 0.21537286 0.17612676 0.18764983
0.2442026 0.04414588 -0.03160068 0.08224002 -0.061133496 0.099777624 0.08344039 0.13814619
-0.03981834 0.09507551 -0.057701938 0.015560547 0.20438682 0.16607887 0.15400839 -0.037629917
-0.009485885 0.08398562 0.10130709 -0.14201118 0.18031915 -0.07069295 0.20512058 0.11984433
-0.11988112 -0.1353852 0.0209831 0.018671233 0.15752785 0.0593737 -0.1057569 0.22234382
0.22687939 0.20281996 0.22076511 0.26567253 -0.14281587 0.33452225 -0.09399085 0.14806275
0.08369753 0.09831787 0.0014374985 -0.12177941 0.04865716 -0.022913974 0.024303988 0.10595418
0.22481938 -0.15091565 0.009738252 -0.089609504 0.033444367 0.039897148 0.09451406 0.11604339
-0.046775814 -0.07131808 -0.081150375 0.13236511 -0.06468226 0.15429655 -0.111445524 0.3967047
0.13396929 -0.25425655 -0.1878801 -0.23067279 -0.04529535 -0.09417906 -0.11348987 -0.32743162
0.093922354 -0.055521786 -0.188952 -0.061980095 -0.011736783 -0.09819253 0.06886336 -0.06284056
0.16010077 -0.14281446 0.095428474 0.2085328 0.13681726 -0.07177237 -0.15598862 -0.23006688
0.10063535 -0.12048859 0.06613724 -0.05063963 0.1022441 0.118271835 0.10713924 -0.21331793
-0.24491933 0.19709554 -0.13121729 0.3315464 -0.085371025 0.45418411 0.3558918 -0.063840285
-0.060280677 0.04837388 -0.041095946 0.14932434 -0.028330244 -0.016403772 -0.08405357 -0.09916636
-0.032190364 -0.16485704 -0.032691598 -0.071548775 -0.007278614 -0.11746602 -0.20033666 -0.30642858
0.11860774 0.045757677 -0.18725055 0.086944245 -0.14883305 -0.20748538 -0.16181298 -0.2874654

fc2_1.bias f4 [64]
00000000: 790e 0a3d dc1a b43b 900a a83d ffcb 823d
00000010: 27b0 163e d0ed 01be 3981 80bd b18e 103e
00000020: d7f2 eebb 88bd 7cbd 9bf6 95bd ab31 9a3c
00000030: d881 ae3d f334 5cbd 52e5 5cbe 27c1 dd3e
00000040: e152 923d 47c0 92bd 3744 563e 59c5 27be
00000050: ba19 2c3c 1933 c7be 60c3 803e 5cec 6bbe
00000060: d778 a9be 7d70 943c 9ad3 55be 0294 a43d
00000070: db56 a0bd 4938 75be ad91 423e 950e 663e
00000080: ad95 dfbe 5707 92be e987 b8bd 6256 57be
00000090: 9ec5 b2bd 67e4 70be 2d82 73be 46dc c33c
000000a0: 38cd ef3d d0f7 25bd 9d30 11bd 38ef cf3d
000000b0: 93be 31bd 93dd 193e 14b5 333e 0a6f 483e
000000c0: c0e5 d83d f68a b03e e9f2 7d3e 70d5 903e
000000d0: 3d84 b43c e75b 84be 3c5a 1b3e 6067 21be
000000e0: 187b 57be 5187 043d 0081 fd3d f10f 453e
000000f0: aa01 d5bd cd20 b33e d45f 153e 8f44 4ebe
0.03370521 0.005496366 0.0820514 0.063865654 0.14715634 -0.12688375 -0.06274647 0.14116932
-0.0072921324 -0.06170419 -0.07322427 0.018822512 0.085208595 -0.053761434 -0.21571854 0.43311426
0.07144714 -0.0716558 0.2092446 -0.16383876 0.010504181 -0.38906172 0.2514906 -0.23039383
-0.33100006 0.018120045 -0.20881501 0.08036043 -0.07829066 -0.23947252 0.19000883 0.224665
-0.4366888 -0.28521225 -0.09010298 -0.21029046 -0.08729099 -0.23524629 -0.23780127 0.023908745
0.11709064 -0.040519536 -0.035446752 0.10153049 -0.043394636 0.1502593 0.17549545 0.19573608
0.10590696 0.3448102 0.24799694 0.2828784 0.022035712 -0.25851366 0.1517114 -0.1576209
-0.2104305 0.03235561 0.123781204 0.19244362 -0.10400708 0.34985963 0.14587337 -0.2014334

fc2_1_1.weight f4 [64, 64]
00000000: ae8f 5b3d 9d4d 39be 1668 d1bd 7511 e6bd
00000010: 83eb fbbd 2392 febd 2926 dabc 0b16 b23c
00000020: a0b7 de3c 0f60 c63c 9b05 03bd 6309 9a3d
00000030: e7a7 3abe 7005 97bb c1e9 063e c3cb 77be
00000040: 43f2 2abc 9376 153e 044e 66be 401f 9d3d
00000050: 0972 92be b183 543d fb86 c2bd b794 433c
00000060: 8eb0 cf3c b264 afbd 070d 093e 5787 b33d
00000070: bce4 c23c 30bc 1c3c d155 ebbd b250 7fbd
00000080: 7dd7 f23d 7035 ab3d 65c1 62bd 0aa9 723d
00000090: 9142 293d d24b b33d 92dc 563e c7e8 7a3c
000000a0: 4872 28bd 92d4 c53d 91d1 fb3d 2545 5ebe
000000b0: 7f77 5fbd 69af 28be 023e aabd 94ce 833c
000000c0: 833e 5d3d b547 73be 8a6d 4bbd 6045 3a3d
000000d0: 1f6b 183e b420 d2bc 75cf 5bbd db6c e2bc
000000e0: 8057 203e 331b d3ba dff7 86bc 4682 71be
000000f0: 1d32 2a3e e788 23be 2c40 1fbd f447 f33d
00000100: bf3d 4abc c692 27bd 7358 7a3c f3dd 813d
00000110: b3bd 55bd e111 94be 95b0 bc3d 3a38 9fbe
00000120: 9aa8 e6bc 340c 1fbe 9dbb 383d 9fb1 e5bd
00000130: 58a5 ed3d 4c95 82bd 901d 3c3d b4de a43d
00000140: aec5 fcbc c00d e2bd f678 093d 4d0d bcbd
00000150: c496 c5bc 4ba5 fa3c 5541 3d3d 244d a1bb
00000160: 2686 be3d c4d5 febd b203 58bd a5a5 cc3d
00000170: 9193 44be 3bd6 ea3c a2de fd3c b055 5bbd
00000180: 68fb 8c3d 4175 ea3d 3a02 0ebe cc4a ecbc
00000190: a1ad 403e 765a adbd 472a 0c3d 5265 30bd
000001a0: a525 09bd 2c3d 0b3e 9624 27bb 1b30 efbd
000001b0: d98e 58be d56d 203e 9d95 54be 0927 aabd
000001c0: f389 703d 5338 75be fd66 05be cf9c a0bc
000001d0: 3459 3f3e a167 423d 4c64 9abd 8dde 80bd
000001e0: 83a6 76bd 1c6d b33c ce7f 8a3b ee78 f23b
000001f0: bf36 373e 8a86 03be 27f6 64be 2c2e d0bd
00000200: 4354 543a 57f9 953d 3ca8 8a3e 8ad5 f1bd
00000210: dfce b3bd 370d 41be 33fc 02bd e352 6cbe
00000220: f565 55bd 2a2b efbd 622c f6bd 53d4 a13d
00000230: ff3e 9b3d 7a24 14be bfeb 5a3d 7d71 d9bd
00000240: 9d84 453d 3b8e 97bd c3fa 79bd b992 e6bd
00000250: f9e2 59bd 9dfe 9c3d 25e8 12bb 5e20 b3bd
00000260: 2745 e13d 4354 8f3d bead 0dbd 467c d83c
00000270: c620 e53c ba78 0e3d 2455 8ebd 9d95 4ebc
00000280: 9cc7 be3d 5830 cbbd 81bd 243e 7acb 943c
00000290: 774c 823c 9b05 db3d 2f60 b2bd 3c51 07be
000002a0: 19cb 99bb 3969 583e 1fb4 9fbd f0f4 28bc
000002b0: e4b7 a53d 5fa0 693d fe22 31be d23a bf3d
000002c0: 4b4a 4f3c 01ec 3abe 0ab7 8abd dfed a1bd
000002d0: 9468 2b3e b28e 27bd dd8d d7bd f4b9 643d
000002e0: 9808 f3bd e508 8d3d a25a 793d 4cdc 72bc
000002f0: 5475 703b fca0 f4bc 5eb8 91bd b6b4 d9bd
00000300: 0652 3f3e 98a7 ab3d a1b9 b33d f0c4 0a3d
00000310: 9b9b 09be 3f25 50be 9040 c73c a13d 25be
00000320: 1d8e dbbd 4149 14be 710a da3d 6fc5 2fbe
00000330: 7e43 903d 439f 3dbe 954f b53c fb73 fcbd
00000340: de0b 3abd 48b3 0b3c 8741 393d 2324 bdbd
00000350: d9d6 54be 8e5f fcbd 3734 83bc 7a1c 59bc
00000360: 8bb3 e23c 4e1b 003d f60d 12bd cbdc 40bd
00000370: 51bb 3cbd c041 c1bd e701 ea3b be70 94bd
00000380: fab9 98bd 7655 b03d 8978 83be 39bb 4abe
00000390: 05d1 bf3d 24c9 8dbd f519 19be 9a4a 303c
000003a0: d23f f9bd e6fc dbbd 2e84 9dbd b40e a8bd
000003b0: 8911 99bd ec91 783d 8be0 fbbd 331f 86be
000003c0: 54a9 1a3d 27a8 b1ba 5926 0abd 4776 6dbe
000003d0: 7c86 663e 33cf 2dbe e37b ebbd 8651 b2bd
000003e0: a613 56be 0e8a 913d 393f 09be 2526 8bbc
000003f0: 00ad 3a3e 009d 61bd 13df 34be ed88 333d
0.05360382 -0.18096013 -0.10224931 -0.112337984 -0.1230078 -0.12430217 -0.026629524 0.021739027
0.027187169 0.024215726 -0.031987768 0.075213216 -0.18228112 -0.0046088025 0.13175108 -0.24198823
-0.010433736 0.14596014 -0.22490698 0.07671976 -0.28602627 0.051883403 -0.09498402 0.011937312
0.025352743 -0.08564128 0.13383876 0.087660484 0.02379071 0.009566352 -0.114909776 -0.062332816
0.118575074 0.08359802 -0.055360217 0.05924324 0.04132325 0.08754696 0.20982578 0.0153142875
-0.041124612 0.09659685 0.12295831 -0.21706064 -0.05455732 -0.16473164 -0.08312608 0.016089715
0.054014694 -0.23757823 -0.04966501 0.045476317 0.14884613 -0.02565036 -0.053664643 -0.027639797
0.15658379 -0.0016106128 -0.016475616 -0.23584852 0.16620679 -0.15970193 -0.03887956 0.11878958
-0.012343823 -0.04091146 0.015279877 0.063411616 -0.052182864 -0.2891989 0.09213368 -0.31097585
-0.028156567 -0.15531999 0.045100797 -0.11215519 0.116038024 -0.06376132 0.04592663 0.0805029
-0.03085598 -0.11037779 0.033562623 -0.091822244 -0.024119742 0.030596396 0.046204884 -0.004922526
0.093029305 -0.12443116 -0.0527379 0.09992532 -0.19196917 0.028666606 0.030989949 -0.053548515
0.068838894 0.11448146 -0.13868037 -0.02884426 0.18816234 -0.0846452 0.034220006 -0.043065377
-0.033483166 0.13597554 -0.0025503985 -0.11679097 -0.21148242 0.15666898 -0.20760198 -0.083082266
0.05872531 -0.23947267 -0.13027568 -0.019606022 0.18686372 0.04746211 -0.07538661 -0.06292448
-0.06021739 0.021902613 0.0042266613 0.00739967 0.17891978 -0.12844291 -0.22359525 -0.101650566
0.0008099714 0.073229484 0.27081478 -0.118083075 -0.08779692 -0.18852697 -0.031978797 -0.23078494
-0.052099187 -0.11678155 -0.12020184 0.07901826 0.07580375 -0.1446704 0.05344748 -0.10617349
0.048222173 -0.07400175 -0.06103016 -0.11258454 -0.053194974 0.07665751 -0.00224162 -0.08746408
0.10999518 0.069984935 -0.03458952 0.026426446 0.02796973 0.034783103 -0.06949833 -0.012608913
0.09315416 -0.0992133 0.16087915 0.018163431 0.015905602 0.106944285 -0.08709752 -0.13214582
-0.0046934006 0.2113389 -0.07798027 -0.010312304 0.08091715 0.057037707 -0.17298505 0.09337391
0.01265199 -0.18254091 -0.06773193 -0.079066984 0.16739112 -0.04090757 -0.10525105 0.0558414
-0.118668735 0.06886462 0.06087745 -0.014823031 0.0036691027 -0.02986192 -0.071152434 -0.10630171
0.18683633 0.08381575 0.0877564 0.03387922 -0.13438265 -0.20326708 0.024322778 -0.16136791
-0.10720465 -0.14481069 0.10646523 -0.17165159 0.07044123 -0.18517785 0.022132674 -0.12326809
-0.045421474 0.008526631 0.045228507 -0.09235408 -0.20785083 -0.12322913 -0.016016109 -0.013251418
0.027673503 0.03127604 -0.035657845 -0.047085565 -0.046077076 -0.09436369 0.00714134 -0.07248066
-0.07457347 0.086100504 -0.256779 -0.19797982 0.09366039 -0.0692313 -0.14951308 0.010759974
-0.12170376 -0.10741596 -0.07691227 -0.082059294 -0.07474048 0.060686037 -0.122986875 -0.26195678
0.03775914 -0.0013554142 -0.033727977 -0.2318965 0.22512239 -0.16973571 -0.11498239 -0.087069556
-0.20905933 0.0710641 -0.13403024 -0.016985962 0.18230057 -0.055081367 -0.17663221 0.043831754

fc2_1_1.bias f4 [64]
00000000: 4dfd 7d3c 82a2 f13d 0e71 6a3d 0403 033e
00000010: f3ca 573d 6296 0abe bdd7 dabd 733e 933d
00000020: 67a0 f13d cb65 3cbe 7065 8c3e 0208 a63d
00000030: 95b1 9b3d b5b3 31be f6c5 133e 3ae2 a33d
00000040: afc7 6cbd 15d3 083e f6ec 2a3d 9c61 303e
00000050: 4cb0 363e 5c37 903e f99c ad3c f5d7 8f3d
00000060: 4746 e5bd 28fd 0abe fcd6 74bd 6c7c 2dbe
00000070: 353f 1d3e 0a68 403e e589 84bd a7f6 bb3d
00000080: 8f52 1f3d 269c 0bbd e527 95bd 39e3 7a3d
00000090: 0978 8bbd 6c3e 06be d7d9 73bd 4e7f 1ebe
000000a0: da15 843d 4e78 2a3e 49df 67bd 0d5f ccbd
000000b0: b4d5 f73d e334 a9bc e0c5 aebd ce44 b9bd
000000c0: c1e7 03be 531c f43d e270 9fbd 5084 213d
000000d0: ea46 333d 3408 b3bd 29d0 9cbc 10d9 8e3e
000000e0: de8e 2c3d 0ee2 98bd e643 513d ee4c 42be
000000f0: 4b54 2bbe acb8 f639 7bf4 84bc 5290 7139
0.015502286 0.11798574 0.057236724 0.12794119 0.05268378 -0.13533929 -0.1068568 0.071896456
0.117981724 -0.18398206 0.2742114 0.08106996 0.076022305 -0.17353709 0.14430985 0.08002134
-0.05780762 0.13361771 0.04172989 0.17224735 0.1784069 0.28167236 0.021193014 0.070236124
-0.11195045 -0.13573134 -0.059775338 -0.16941994 0.15356143 0.18789688 -0.06471614 0.091779046
0.038897093 -0.03408446 -0.07283 0.061251853 -0.06810004 -0.1310975 -0.05953392 -0.1547825
0.0644948 0.16647455 -0.056609426 -0.09979067 0.121013075 -0.020655101 -0.085338354 -0.090463266
-0.12881376 0.11919465 -0.077852026 0.039432824 0.0437688 -0.08741799 -0.019142227 0.2789998
0.042128436 -0.074649915 0.051090144 -0.18974659 -0.16731374 0.00047058368 -0.016229859 0.00023037315

fc2_1_2.weight f4 [32, 64]
00000000: bb91 d6bc eb14 653e dcac 033e 895d a6bd
00000010: 6018 0cbe 5088 2cbe 58e1 5cbd 2475 233d
00000020: 5451 37bd 16c1 023e c299 4abf 0f2d 3b3d
00000030: 90c9 13bd d9a1 a63d 0700 97be 9e76 b03d
00000040: 3cb9 a03d 748e c6bd 25f7 acbd df07 38be
00000050: 28d7 7e3d 6121 a0be 3de5 6cbd d151 223e
00000060: 3848 923d cc2d 2ebe a21f 10be a6ca f03c
00000070: 28ef 0bbd c60c 27be 31a1 8dbd 1c97 11be
00000080: cfbc 93bd 1e35 56be cba5 13be d726 49be
00000090: 6c9c 403d 83ef 703d e76a a13d 0e4d 2dbe
000000a0: 07c5 31bd a839 07be 1ef4 9c3d 14e1 183d
000000b0: 0328 91bd c6dd 55be d674 ddbc 0794 9abd
000000c0: 7abf de3d 6daa 98bd 8407 e5bd caee df3d
000000d0: b34c b63d f5ee 1b3b 4802 46bd 133a 45be
000000e0: d7d8 15be c957 ab3c 4f3e f43c 875f b7bc
000000f0: c60b c1bd e757 603d a680 90bd a240 48be
00000100: 1a65 7e3b 9cb1 d9be 5cbb e8be 2794 09be
00000110: 4a1a 013e 7e55 b63d 0a33 e9bc 7fc4 52be
00000120: 3ca5 80bd 6f41 08bd 6f27 aebd ca28 11bf
00000130: c4da 60be edfc 88bd 0b34 49bd 33b3 15be
00000140: 0c31 ed3c 6b72 77be 2f43 8fbe a9db fbbd
00000150: 42dc 9dbe 7f32 abbd 009c cdbe a0b3 a5be
00000160: e5b4 c53d 53a3 19bd 11cd 2c3e 8d4e 613e
00000170: 5abf 79be fbd1 a63c 264e 9e3d 1c69 d9be
00000180: 9655 88bd 05af fdbd f2d8 313e 9364 8ebd
00000190: 42af 743d 8cad ba3e 6aad 94bd 9afe b539
000001a0: 0fd5 56be 0ade 38be 952e 25be 9783 3cbe
000001b0: 8312 073d ddc7 243b 4880 833c a06b 56bd
000001c0: 5a84 9e3e bb02 96be 8a10 2c3d b2c0 1e3d
000001d0: 7b4a 18be 09eb 813b 0dc9 40bc fb71 03bb
000001e0: 46dd 84be d5a9 02be dc8b 913d 0d8f 6f3b
000001f0: c973 7dbd b560 cb3d 550b e13d 40ba f1bd
00000200: fa72 34bd 5486 febd fb04 84be 465e d8bc
00000210: 4353 c03d 3295 5fbe 985b efbd 9650 313d
00000220: e317 2b3e 897c 8fb9 d14b 193d 54e0 abbd
00000230: 91b5 b93d 1332 dabd 731d bcbd 0dcb 56bc
00000240: aee6 f63c ebbe 47be 598a a4bd c4bb cabd
00000250: 0370 8bbd d9d3 14bd f587 a6be 6ac0 76be
00000260: d039 1aba d33d be3d bd54 2b3d a206 aebc
00000270: 0bf4 a8bd c905 cc3c a572 b9bd bca2 b0bd
00000280: 2071 c23c d269 4cbe f1e0 463c 038e 99bd
00000290: 6b12 dbbd 479d 84bd 55cc 983c 1f57 4bbd
000002a0: 6603 3ebd e302 f3bc 2944 2cbe c23c 5b3b
000002b0: e204 b2bd f69b 5dbc e942 aebd 83d9 003c
000002c0: 6520 2ebe b740 7cbe cc2b 603d 40c4 883d
000002d0: 35d3 303d d361 7bbd 4cde a23d f4b8 a7bb
000002e0: e500 6fbe c4d6 21bd 058e c6bc d553 c9bd
000002f0: 81ad 323d 3f79 5ebd ddca 11bd 4b1f 9d3d
00000300: 4b78 b63d 0976 853e 00fc dbbc 3b1d 7d3c
00000310: 133c 193e 212d cdbd b08d e43d faaf a5bd
00000320: 5442 24bd 22f2 563e 1d8c 21be ae4c 25bd
00000330: d9c5 fcbd 5c1a 08be 07bc 7bbc 0589 213d
00000340: d0bf d43d c12e f8bd f8c1 023e a14b 76bd
00000350: 0fa0 273a 4399 c3bc af0a 8fbd 9742 c13d
00000360: 2fdf 5dbe eb93 c13d cb16 83bc 7350 28bd
00000370: ed24 87bd 8746 82bc 3e00 20be 7383 b3bd
00000380: ade9 8e3d 5189 48be e764 16be f57f 2dbe
00000390: 447e 94be 4191 423e ed90 b03d 893b c4bd
000003a0: ea08 0e3d 4280 c2b9 3ffe 51bd 4647 04be
000003b0: 7189 dbbc 8445 89be 755d 08be 388c aabd
000003c0: 66b1 c4bd 72ea 09be c6ce af3d 37f2 aa3d
000003d0: 9c79 8d3c 1295 57bc 1a9c 8dbe 1cfb 15bc
000003e0: f02c efbd 5906 a3bd 57e5 6d3c e2a0 74be
000003f0: aa14 82be f9bb b43d bdbb 73be 371a 94bd
-0.026192537 0.22371261 0.1285891 -0.08123309 -0.13681173 -0.16848874 -0.053925842 0.039906636
-0.044755295 0.12768969 -0.79140866 0.045697268 -0.036080897 0.08136339 -0.29492208 0.086163744
0.07847831 -0.096951395 -0.084455766 -0.17971753 0.062216908 -0.31275466 -0.057835806 0.15851523
0.07142681 -0.17009658 -0.14074567 0.029393505 -0.034163624 -0.16313466 -0.069155104 -0.142178
-0.07213747 -0.209187 -0.14418714 -0.19643722 0.047024176 0.058822166 0.07881718 -0.16923925
-0.04340079 -0.13205588 0.07663749 0.037324026 -0.0708771 -0.20885381 -0.02703325 -0.07547765
0.10876365 -0.07454381 -0.11183074 0.10934217 0.08901348 0.0023793553 -0.04834202 -0.19260435
-0.14633499 0.020915883 0.029814867 -0.022384418 -0.09426074 0.05477133 -0.07055788 -0.19555905
0.0038817585 -0.42518318 -0.45455444 -0.13435422 0.12607685 0.08903025 -0.02846672 -0.2058277
-0.06281516 -0.033265527 -0.08503615 -0.56702864 -0.21958452 -0.06688867 -0.049121898 -0.1461914
0.028954051 -0.2416474 -0.27980945 -0.12297756 -0.30832106 -0.08359241 -0.4015808 -0.32363605
0.096536435 -0.037509274 0.16875102 0.22002621 -0.24389401 0.020363798 0.077297494 -0.42463005
-0.06656949 -0.12386898 0.17367914 -0.06952777 0.05973745 0.3646053 -0.072596386 0.00034712703
-0.20979713 -0.18053451 -0.16131051 -0.18409573 0.03297664 0.0025143542 0.01605238 -0.052348733
0.3096035 -0.29298958 0.04200796 0.038757987 -0.14872162 0.003964786 -0.011766684 -0.0020056951
-0.25950068 -0.12760098 0.07106754 0.003655377 -0.061878 0.09930555 0.109884895 -0.118031025
-0.044054963 -0.12427965 -0.2578505 -0.02641214 0.09390881 -0.21834257 -0.11687392 0.043289743
0.16708331 -0.0002736787 0.03742582 -0.083923966 0.09067834 -0.10654082 -0.091853045 -0.0131099345
0.030139294 -0.19506423 -0.080342 -0.09899095 -0.06808474 -0.036334846 -0.32525602 -0.24096838
-0.00058832485 0.09289136 0.04182886 -0.021243397 -0.082496725 0.024905102 -0.0905507 -0.08624789
0.023735583 -0.19962242 0.012138591 -0.0749779 -0.10696872 -0.06475311 0.01865212 -0.049643632
-0.04638996 -0.029664462 -0.16822876 0.0033452963 -0.086923376 -0.0135259535 -0.08508856 0.007864359
-0.17004545 -0.24634062 0.054729268 0.06678057 0.043170173 -0.06137259 0.07952556 -0.0051184837
-0.23340185 -0.039511457 -0.024237642 -0.09830443 0.043622497 -0.054314848 -0.035593856 0.07671984
0.08909663 0.26066616 -0.026853561 0.015448864 0.14964323 -0.10018373 0.11159837 -0.080902055
-0.040102318 0.20990804 -0.15776105 -0.04035633 -0.12342424 -0.13291305 -0.015364653 0.039437313
0.10388148 -0.121182926 0.12769306 -0.06013072 0.0006394395 -0.023876792 -0.069844596 0.09436529
-0.21667169 0.09452041 -0.01600208 -0.041092347 -0.0659884 -0.01590277 -0.15625092 -0.08765306
0.06978164 -0.19583632 -0.14686929 -0.16943343 -0.29002583 0.19000722 0.086213924 -0.09581668
0.03467647 -0.00037098123 -0.05126786 -0.12917814 -0.026798936 -0.2681085 -0.13316901 -0.08327526
-0.096041486 -0.1346834 0.08584361 0.0834698 0.017269902 -0.0131581 -0.2765816 -0.009154107
-0.11678493 -0.07960195 0.014520011 -0.23889497 -0.2540639 0.088249154 -0.23802085 -0.072315626

fc2_1_2.bias f4 [32]
00000000: 1c74 603e 05bf b0bc 34aa 02bd d456 513e
00000010: 77d7 b13e 16f7 4abd 4749 a53e 3fcd 393e
00000020: cd63 6f3d 020f 913e e31f b53e d3bf 0e3e
00000030: c83f 9a3e 2f6d ae3b 8c98 d13d 5869 e83e
00000040: 59ad 3cbe d0fa 81be 5e08 403c 2201 333e
00000050: e008 86bd a4a1 3dbd 3605 793e cb93 703e
00000060: 7b6a 813e 82c8 983e 2251 4f3e 8761 e5bd
00000070: c63d 6c3d 19b9 a13d 8539 923d ce18 b33e
0.21919292 -0.02157546 -0.0319006 0.20443279 0.347347 -0.049552046 0.3228247 0.18144701
0.058444787 0.28331763 0.3537589 0.13940363 0.30126786 0.0053230743 0.10234174 0.4539287
-0.18425502 -0.25386667 0.011720745 0.17480901 -0.065446615 -0.04629673 0.24318394 0.23493879
0.2527655 0.29840475 0.20245793 -0.112002425 0.0576761 0.07896633 0.07139877 0.34979862

fc2_2.weight f4 [16, 32]
00000000: 477e 3c3c 88b6 13bd c11a c53d 9fd9 b7bd
00000010: e71c 923d 2bd4 90bd 8b3a c5bd 4081 53bc
00000020: 3420 03be ad12 f53c 82b7 ba3d 2c6c cabb
00000030: 1d5d 73be b912 b9bc 2d10 90bd 9671 f93d
00000040: e19c e1bc 6d1a 84bd f1ab 8fbd 1251 4cbd
00000050: 79ca c0bd 6762 f3bd 7d8e de3d 9a55 f6bd
00000060: 61da 32be f651 27bd fe0b d53c b0e6 89bc
00000070: 0bb6 98bc 30d3 3f3d 294a 3cbd 0cf7 513d
00000080: 22fa 76bd cc32 49bd 83cd 0a3d bba5 c6bc
00000090: 10a3 3dbe d141 e0bc 36dc 11be 5d40 ea39
000000a0: db3c a3bd 9f3b 88bc a9f7 48be 9959 0abe
000000b0: 590f 5b3d ee40 82be 44d6 d73c 3928 34be
000000c0: 9613 7fbe f87a 0b3d 016b e7bb 8762 9dbd
000000d0: d296 61be 1719 81bd 028f 8dbe 2d94 ecbd
000000e0: a331 dbbd f56e a4bc bd0c 65bd 61df 1e3d
000000f0: 93ad 95bb d0ef 9dbd 8aff 63bd ee4a 6fbe
00000100: 6b0a dc3d 00f9 6e3d bcc3 cfbd bbc9 1d3e
00000110: b255 a83d f703 753c a80b 6f3e 2e43 81bd
00000120: 0d12 97be d740 a03e 186b 7f3d b028 973d
00000130: 5ea8 dbbd e6c9 f5bc 5bdc 56be d1f7 7f3c
00000140: 50c3 96be 0341 59be f504 16be 963a 00be
00000150: 2225 9a3c 74a9 67be 8c71 2e3d d9c9 743e
00000160: e61e a13e 304d 3ebe 2b37 0f3e e522 8d3d
00000170: cb71 8c3d ed08 47be de0b 803d 181f 0b3e
00000180: 60f1 50bd cfab 4fbc e717 8dbc 02dd 8dbd
00000190: ebec 24bd 17dc 033d 4856 08be be7b 0abe
000001a0: 6324 69bc eadd eb37 fda3 aebc 89af 08be
000001b0: b7b0 893d 815d dbbe a473 25bc bcb4 6bbd
000001c0: 2180 e0be 28e7 99bd fc16 f1bd ecc5 9cbe
000001d0: 9aa1 cebe 7441 02bd 4595 8ebe 4562 debd
000001e0: 5d60 8dbe 01e8 8a3b c8a6 b2be 551f 2abe
000001f0: 0a4d b5bc 54ea 9abc f21a a2bc 2c61 17be
00000200: 93d4 303e 8b69 4dbc b326 58bd 31ac 2f3e
00000210: 02d9 153e 00d7 173e 24a4 2e3e 07e6 36be
00000220: 8bdc 80be 0d1c 4e3e 09c7 233d f2ce 1ebe
00000230: 46f6 86bd 76cc 98bd a9a7 853d ad08 7a3e
00000240: c6ed 933e 3f59 e7be 5550 10be 91ad 3d3e
00000250: 8df6 41bd 8699 3fbe adcc 4d3d 3f49 023e
00000260: d2c2 8e3d f6b6 9abe ff8d 573e 66b4 9ebe
00000270: 54f5 29be 224d bc3d 66c4 b03d 93f0 dc3d
00000280: d369 4cbd 537b 5dbd 464c 363d 79e0 0f3e
00000290: df96 8ebc 682a 71bc 846a f4bd a3d2 91bd
000002a0: df15 01be 509c 7cbd 6545 4b3c 8576 b7bd
000002b0: ae24 b8bd 1389 04be fe3c c5bc 547f ccbd
000002c0: 0350 34bc a779 c1bd ba18 2abe 1940 a83d
000002d0: 3905 513d f3a4 893d 9855 a33d 21f5 e4bd
000002e0: 4978 c4bd 3efe 1cbe df49 b63d b6dd 9abc
000002f0: 46bf eb3c c2ee 053c 04c5 ad3c ab27 aebd
00000300: aac1 653e b39a 2fbd 0592 07bc 20ac 053d
00000310: 9a26 233e 56d7 0a3e 82d8 1b3e 43f8 5d3d
00000320: 8895 483e ba0d 243e 9970 9c3e 0541 7b3d
00000330: cb4b 64be ceec 2b3e 3eff 6e3e cc5f cf3c
00000340: b72e 7abe 2ac6 b4bd c3b2 10be 8037 8c3e
00000350: edae 4a3d 22fc 4e3e 9d11 423e dfa0 543e
00000360: 3b37 ddbd 8e71 37be a534 15be d914 0dbe
00000370: 9e90 47bc e9cc 533e 2a21 d03d f057 7d3e
00000380: 5d71 25bd 4b23 9abc 756b 81bd 3a3a fa3d
00000390: c3ea 8cbe e391 6dbd ba27 c5bd 50ce 1f3c
000003a0: 9eb5 293e 95c7 45be 094f e4bd 1159 fc39
000003b0: a50f 08be d2e8 d8be 3128 6bbd 1c50 d1be
000003c0: ed3b c8be 5888 3bbd e554 3bbd a8e6 953c
000003d0: 8490 67be b034 0c3c dd25 e6bd 06f3 953d
000003e0: f57a f8bd a0a0 bf3d 58b0 39be f708 ccbd
000003f0: 7bbc 6039 9099 c6ba 895b ccbd 3c9a cdbe
0.011504716 -0.036062747 0.096242435 -0.08977055 0.07134419 -0.07071718 -0.09630307 -0.012909234
-0.12805253 0.029916132 0.091170326 -0.006177446 -0.23765989 -0.022591935 -0.07034335 0.12179868
-0.027540626 -0.06450353 -0.07015217 -0.049882002 -0.094136186 -0.11884003 0.10867021 -0.12028046
-0.17466117 -0.04084965 0.026006695 -0.016833633 -0.018641492 0.046832263 -0.045969162 0.051260993
-0.06029714 -0.04912071 0.033887397 -0.024248948 -0.18519235 -0.027375134 -0.1424416 0.00044679912
-0.07970592 -0.016629992 -0.19625725 -0.13510741 0.053481434 -0.25440162 0.026347287 -0.17593469
-0.24909815 0.03405282 -0.0070623164 -0.07684808 -0.2203019 -0.06303614 -0.2764817 -0.115517
-0.10702827 -0.02007244 -0.05592035 0.03878725 -0.004567811 -0.07711756 -0.055663623 -0.23368427
0.107441746 0.058342934 -0.10144755 0.15408985 0.0821947 0.014954559 0.2334429 -0.06311642
-0.2950596 0.3129947 0.062357992 0.073808074 -0.10725473 -0.0300035 -0.20982496 0.015623049
-0.29445887 -0.21216206 -0.14650328 -0.12522349 0.018816534 -0.22623235 0.042588755 0.23905124
0.31468886 -0.18584132 0.13985889 0.06891421 0.06857642 -0.19436999 0.062522635 0.1358608
-0.051011443 -0.01267524 -0.017223312 -0.069269195 -0.040265005 0.032192316 -0.13314164 -0.13523766
-0.014229867 2.811752e-05 -0.02131843 -0.13348211 0.06723159 -0.42844775 -0.010098372 -0.05754541
-0.43847755 -0.07514793 -0.11771962 -0.30619752 -0.40357667 -0.031800702 -0.2784826 -0.10858587
-0.27612582 0.004239083 -0.3489287 -0.16613515 -0.022131462 -0.018910564 -0.01978824 -0.14783162
0.1726859 -0.01253737 -0.05277128 0.1715553 0.14633563 0.1482811 0.17054802 -0.17861186
-0.2516826 0.20127888 0.039984737 -0.15508631 -0.06589942 -0.07460873 0.06526119 0.24417372
0.28892344 -0.45185277 -0.14093144 0.18523242 -0.04735427 -0.18710908 0.050244022 0.12723254
0.06970753 -0.30217713 0.21050261 -0.30997008 -0.16597492 0.091943994 0.0863121 0.107880734
-0.04990561 -0.05407269 0.044506334 0.14050473 -0.017405925 -0.014719583 -0.11934379 -0.07120254
-0.12606 -0.06167251 0.012406682 -0.08958153 -0.08991371 -0.12942915 -0.024076935 -0.099852234
-0.011005404 -0.094470315 -0.16610995 0.08215351 0.05103037 0.06720915 0.0797531 -0.11179567
-0.09593255 -0.1533136 0.089008085 -0.018904548 0.02877773 0.0081746 0.021212108 -0.0850366
0.22437158 -0.042872142 -0.00827456 0.032634854 0.15932694 0.13558707 0.1521931 0.05419184
0.19588292 0.16020861 0.30554655 0.061341304 -0.22294538 0.16789553 0.23339555 0.025314234
-0.24431883 -0.08826859 -0.14130692 0.27386093 0.04948323 0.20213369 0.18952031 0.20764492
-0.1080155 -0.17914411 -0.14570864 -0.13777484 -0.0121804755 0.20683636 0.101625755 0.24740577
-0.040391315 -0.018815657 -0.06319324 0.12218137 -0.2752286 -0.058000457 -0.09626718 0.009753779
0.16573188 -0.19314416 -0.11147887 0.00048131545 -0.13287218 -0.42365128 -0.057411376 -0.4088143
-0.3910822 -0.045784324 -0.04573526 0.018298462 -0.22613722 0.008557484 -0.112376906 0.07321744
-0.12132827 0.09356809 -0.18133676 -0.099626474 0.00021432519 -0.0015151966 -0.099783964 -0.40156734

fc2_2.bias f4 [16]
00000000: 9930 72be 0a5b 403e d6e7 1b3e 6bc3 3c3e
00000010: 49fc 423e 56e2 173c dbc4 423d 5e07 303e
00000020: c895 b2bd 85e3 4c3e 1e56 973e 3dfe ea3d
00000030: c720 393d c0ef 6d3e dbd2 2f3e 21e9 bc3d
-0.23651351 0.18784729 0.15225157 0.18433921 0.19041552 0.009270271 0.047551017 0.1719031
-0.08719975 0.20008667 0.2955789 0.11474273 0.045197275 0.23235989 0.17170279 0.09224153

fc3.weight f4 [30, 16]
00000000: 8bef 32be 7e7f 28be 971d 833e 2290 18be
00000010: 1f37 743e 30ea 3c3e 374b 023e 0d0e c2bd
00000020: f666 87bc cda9 663e f66f 813e 8aef 6c3e
00000030: 7f6e 8d3d b914 acbd 1e3a 8b3b 0769 b1bc
00000040: ee4e 86bd 292a 4fbe 60ca 783e 2ce3 35be
00000050: 93f5 663e 60a9 d1bd 26f0 013e 06fd fdbd
00000060: b05f aabc 3868 653e 1611 623e e53a 613e
00000070: 2b3a ae3d addd e0bd d026 843b a369 dfbc
00000080: 7580 e7bd 6a0c 80be 44fa 663e 4318 55be
00000090: bb6b 483e 23d3 b83d 2c66 063e 1f83 2ebe
000000a0: 39c1 acbc 691c 4d3e 26b6 463e 6fef 473e
000000b0: d460 dd3d cf72 05be f491 e0bb 8c90 14bd
000000c0: f10b e43d 426f 95be c192 3b3e a131 5fbe
000000d0: ea51 183e 5ff0 c63c 0eae 0a3e fbf1 4ebe
000000e0: 2682 213c f7ac 213e c87c 1f3e e3be 233e
000000f0: da6b 1b3e 74d1 0cbe 63ce 06bd ae1f 22bd
00000100: 39d4 37be 6cc2 9dbe 1e86 0f3e 6e94 5abe
00000110: 6d6b da3d 148a 53bd 5d84 063e b098 7ebe
00000120: 6392 123d 8b44 073e d1e6 003e 7551 0b3e
00000130: c397 4a3e ab1f 14be 9ec1 26bd 5c70 13bd
00000140: 7a39 39be 4b4a aabe d87d e43d 4b47 5dbe
00000150: 6723 bc3d 8bd9 463e 6ff1 063e d5fb 8ebe
00000160: a88f b73d e406 d23d efb1 bf3d 88e4 d53d
00000170: 597e 7c3e ae81 f1bd 3566 1dbd f981 06bc
00000180: 027a 4bbd 0d9b b9be 9a07 803d 4dbd 60be
00000190: b80a 5c3d 4e8a afbc c8c8 f93d 810f 92be
000001a0: 6ec7 f53d b61b 833d b188 943d 8c43 a13d
000001b0: efc7 973e bfb1 adbd 78a2 5dbd a772 063d
000001c0: e7d5 073c 4b68 d6be af22 de3c 9906 8abe
000001d0: 9872 f33c bfc5 653e 3d92 dc3d 0ada 98be
000001e0: 827b 193e 5e92 973c d148 143d 79b2 323d
000001f0: 4400 9f3e 4925 8abb a390 9cbd d9d8 bb3d
00000200: 984b 05be 42c2 f3be bcb6 523b 2e08 a4be
00000210: 2781 163c 8421 983e 4e8c b63d 40d8 85be
00000220: 797f 473e e6be 46bc bbb1 b13b 7f7d 653c
00000230: f4e9 9d3e 02d8 d83d c56f babd 84ee 113e
00000240: 92ef e6bd 913a fcbe 4e99 2fbc 080d c1be
00000250: 2140 c5bb d2e5 8f3e b819 a03d 6d8a 65be
00000260: 59e1 503e 2136 e9bc a5bc 93bc da3b 10bc
00000270: 3c58 973e 777a 553e f6fe e0bd 28fc 233e
00000280: 3480 94bd e017 02bf ce4f e2bc 408e e3be
00000290: 9fe4 eebc 8988 b93c d05d 8b3d 0027 ebbd
000002a0: e217 533e 305d 21bd 4429 e6bc cb18 eabc
000002b0: 2f26 893e 6da2 a53e f498 16be 7061 363e
000002c0: 51f1 1fbd 5c63 f4be 3a84 81bd 9010 fdbe
000002d0: dbcd 41bd 9401 1a3e 1bc1 3d3d b56f dabc
000002e0: f6a5 443e dc3f 5bbd 29fd 4abd 8694 85bd
000002f0: b1f7 803e 9cd4 dd3e f5c3 31be 664f 3d3e
00000300: ee4e 0d3d e059 ebbe 3434 a6bd cf04 06bf
00000310: 9196 6abd e6ae f3bb c9cb d13c 7c8c 193d
00000320: 0b38 3a3e c0ea 93bd c662 50bd 2f52 a5bd
00000330: e533 763e f952 f63e 435f 45be 9b63 3f3e
00000340: 6ec5 2cbd cdb4 d6be 7f27 babd e0bc 06bf
00000350: 307e 8dbd f42d 8d3e d08a a03c 769d cb3d
00000360: 8fa5 283e 4fa1 a9bd a4e3 7dbd f5e4 b3bd
00000370: e289 633e a044 0b3f d82f 69be 87cc 3e3e
00000380: 5046 abbd 3679 bcbe bc9e cdbd e3dc fcbe
00000390: b4db aabd 68c1 923e dda0 153c 8f3e 2b3e
000003a0: 437d 1e3e b6e2 b2bd 0aa6 84bd 4ac8 c5bd
000003b0: db11 533e bc1e 0f3f 6d98 89be 9683 3b3e
000003c0: 9983 3cbc 7555 9ebe 54b3 dbbd 8a68 e9be
000003d0: b23c c6bd 35de 423d 04f4 21bc 27bc 783e
000003e0: 9123 0d3e fe65 c5bd 2e6a 9fbd 4283 cfbd
000003f0: 9890 433e 19e8 133f 6230 a2be b212 303e
-0.17474191 -0.16454884 0.25608513 -0.14898732 0.23849152 0.1844871 0.12724005 -0.09475336
-0.016528588 0.22525711 0.25280732 0.23138252 0.06905841 -0.0840239 0.0042488715 -0.021656526
-0.065580234 -0.20230927 0.2429595 -0.1776244 0.22554617 -0.10237384 0.12689266 -0.12401776
-0.02079758 0.22403038 0.2207683 0.21995123 0.085071884 -0.10979781 0.004032947 -0.027272051
-0.11303798 -0.2500947 0.22556406 -0.20810036 0.19572346 0.09024646 0.13124913 -0.17042206
-0.02108823 0.20030369 0.19405422 0.1952493 0.10809484 -0.13032077 -0.0068533365 -0.036270663
0.1113509 -0.29186445 0.18317701 -0.21796276 0.14874998 0.02428454 0.13542959 -0.20209496
0.00985769 0.15788637 0.15574944 0.15990786 0.15177861 -0.13751775 -0.03291167 -0.039580993
-0.1795205 -0.30812395 0.14016005 -0.21345684 0.10665021 -0.051645353 0.1313643 -0.24862933
0.035784137 0.13209741 0.1258805 0.13605292 0.19784455 -0.14465205 -0.04071199 -0.035995826
-0.18088332 -0.33259806 0.11156815 -0.21609227 0.0918644 0.19418924 0.13178037 -0.27926508
0.08962947 0.102552205 0.0936011 0.104439795 0.24657573 -0.117923126 -0.03842755 -0.008209699
-0.049676903 -0.36251107 0.0625145 -0.21947213 0.05372116 -0.021428254 0.12196499 -0.28527454
0.12000929 0.0640177 0.07252634 0.07874212 0.29644725 -0.08481168 -0.05411002 0.032824185
0.008290744 -0.41876444 0.027116148 -0.2695816 0.029717728 0.22438715 0.1077008 -0.2985385
0.1498852 0.01850241 0.036202256 0.043627236 0.3105489 -0.0042158705 -0.07644775 0.0917222
-0.13017118 -0.47609144 0.0032152375 -0.3203749 0.009186066 0.2971307 0.0891348 -0.26141548
0.1948222 -0.012130475 0.0054227985 0.014006971 0.30842555 0.10588075 -0.091033496 0.14251143
-0.11276163 -0.49263433 -0.010717703 -0.37705255 -0.0060196077 0.28105026 0.078174055 -0.22416086
0.20398463 -0.028468193 -0.018034289 -0.008803332 0.29559505 0.20847498 -0.1098613 0.16014159
-0.07251015 -0.5081768 -0.027625944 -0.44444466 -0.02916175 0.022648113 0.06805003 -0.11482048
0.2061458 -0.03939551 -0.028095849 -0.028576275 0.26786944 0.32350484 -0.14706784 0.17810607
-0.039048497 -0.47732055 -0.06324048 -0.494267 -0.04731546 0.15039665 0.046326738 -0.026664594
0.19203934 -0.053527698 -0.04955784 -0.06522469 0.25188974 0.4332627 -0.17359908 0.1848732
0.0344991 -0.45967007 -0.08115426 -0.5235109 -0.057272498 -0.007436621 0.025609868 0.037487492
0.18185441 -0.072225094 -0.050875448 -0.08072316 0.24043234 0.48110178 -0.1927462 0.1869034
-0.04218047 -0.41934815 -0.090895645 -0.5263195 -0.06908834 0.27574122 0.019597441 0.09942143
0.16469406 -0.0828272 -0.061984673 -0.087839045 0.22220567 0.5440159 -0.22772157 0.18632708
-0.083630204 -0.36811227 -0.10040042 -0.49387273 -0.08342686 0.28663182 0.009132591 0.16723083
0.15477471 -0.08734648 -0.06476982 -0.09657343 0.2061228 0.5590627 -0.26874104 0.18311915
-0.011505985 -0.30924574 -0.107275635 -0.4558757 -0.096795455 0.047575194 -0.009884838 0.24290524
0.13783099 -0.09638594 -0.07783924 -0.10132457 0.19098127 0.5777603 -0.31677538 0.17194632

fc3.bias f4 [30]
00000000: abd1 7a3d dfa3 b13d 1929 eb3d 542d 0e3e
00000010: 3f61 1e3e 2f91 2d3e ced0 3b3e b45b 643e
00000020: c9b9 843e 07c8 913e 9891 a33e 3da0 b53e
00000030: aab5 c23e b092 cf3e f98d db3e f98c ee3e
00000040: 40a5 003f c915 0a3f 384e 103f 80ba 173f
00000050: 4960 1d3f d72a 253f b66f 303f ae42 383f
00000060: 477e 473f 6638 503f 8e37 5a3f 47a5 613f
00000070: c03f 673f 84d7 6a3f
0.06123511 0.08673834 0.11482448 0.13884479 0.15466784 0.16949914 0.18341371 0.22300607
0.25922993 0.2847292 0.31947017 0.35473815 0.38029224 0.405416 0.42881754 0.4659193
0.5025215 0.5393949 0.5636935 0.5926895 0.61475044 0.64518493 0.6892046 0.71976745
0.7792706 0.8133606 0.8524102 0.8814282 0.9033165 0.917351
