Heater_Results/uniform_S10_vshape_Iter20_Epoch15.pth (torch, 44224 bytes, 14 tensors)

fc1.weight f4 [8, 3]
0.3218571 0.0074076545 -0.19283633 -0.15069148 0.47367477 -0.02310353 -0.38045973 0.01846086
-0.45632342 0.4421409 0.37504315 -0.48624247 -0.49438977 0.28978845 0.40942588 -0.21696672
-0.56812716 -0.3585635 -0.052116126 -0.12625033 0.20929925 -0.20394301 0.33035055 0.15845433
00000000: 74ca a43e e9bb f23b e376 45be de4e 1abe
00000010: 8085 f23e 9d43 bdbc 9ecb c2be 3b3b 973c
00000020: 39a3 e9be 4b60 e23e a805 c03e c6f4 f8be
00000030: a820 fdbe 275f 943e 45a0 d13e 862c 5ebe
00000040: c870 11bf a395 b7be b877 55bd c447 01be
00000050: 8b52 563e 70d6 50be b523 a93e da41 223e

fc1.bias f4 [8]
0.5217655 -0.4454348 0.4813499 -0.024381695 -0.24069779 0.33379933 0.2581908 -0.5561215
00000000: 6c92 053f 0810 e4be 7e73 f63e 1fbc c7bc
00000010: 7b79 76be bfe7 aa3e 9631 843e fb5d 0ebf

fc2.weight f4 [32, 8]
-0.192502 -0.19892383 0.1282368 0.257119 -0.17142157 -0.07069855 -0.26712465 0.28281558
0.026339374 -0.34670332 0.105637915 0.17642187 0.25768438 -0.11449794 -0.24394816 -0.3464155
-0.039554708 -0.019714534 -0.13296711 -0.26432857 -0.025632186 -0.31090727 0.1419775 0.10848656
-0.35239604 -0.18791817 -0.20905511 0.16212805 -0.34821457 0.13453333 0.089170046 -0.22959326
-0.278719 -0.24750134 0.06972185 0.012338533 0.15817557 0.21957117 0.21525756 0.018226633
0.04361379 -0.0632315 0.08379396 0.10214461 0.18182309 -0.029104885 -0.10345668 -0.31742802
-0.24098286 -0.054542616 -0.2764524 0.19822752 -0.27045608 0.34203508 0.31272557 0.11148674
0.2194784 -0.10798062 0.21216214 0.19420822 -0.2885452 0.09332724 0.3392234 0.32688546
0.029637594 0.18886775 -0.1535553 0.22181956 -0.2327704 -0.04744049 0.29560345 -0.2155916
-0.021394163 -0.10964147 -0.28984633 0.16586359 0.12107143 0.10341526 -0.31448358 0.10604175
0.22082089 0.21185973 -0.0033013204 0.09118837 -0.08623825 0.012570297 0.36767325 0.10221255
0.18016413 0.20779434 0.17403167 -0.37963557 0.20781589 -0.24058238 0.063755825 -0.14361757
-0.037505932 -0.21860765 -0.031199794 0.2378148 0.08567458 0.2339064 -0.028030518 -0.2873864
0.25017217 -0.28198975 -0.3437944 -0.10733758 0.040600825 0.16440111 -0.07106152 0.18377025
-0.21164921 -0.28062913 -0.21996106 0.12820907 -0.25985664 0.16889915 -0.090171285 -0.27068993
0.36689517 0.2547845 0.25474495 0.20308745 -0.30367178 0.27032587 0.124006376 -0.2513468
-0.14686933 0.24399137 -0.2968662 -0.105005816 0.042382054 -0.20166461 0.03281228 -0.27228463
-0.15698323 -0.08473323 0.24531446 -0.22684655 0.12940653 0.28185067 0.24162613 0.030833647
0.12838206 0.024790524 0.058531687 0.24183595 -0.055418614 -0.17348558 0.13801727 -0.0036137863
-0.23826906 -0.21761331 -0.017594201 -0.29660925 0.22446357 -0.12905824 -0.18980615 -0.19299616
0.308901 0.2683299 0.31363654 0.14065126 0.05153286 -0.08246629 -0.12836717 -0.09051752
0.022570532 -0.25418207 0.025861897 0.112316474 0.083495475 0.08484358 -0.1805057 -0.108196184
-0.04077619 0.31964415 0.25695327 0.07952901 -0.17907175 0.19178429 -0.23118897 -0.27334443
-0.104777835 0.17066473 0.18913865 0.062221784 0.18826222 0.19304504 0.026027424 0.20783603
-0.12076842 0.021301903 -0.32172155 -0.29913995 -0.2990345 -0.01348716 0.051289596 -0.14131868
0.15686882 -0.109824 0.33327326 0.27504662 0.22720313 0.1711361 0.17681377 -0.261549
0.31042603 0.22812416 0.11760931 0.08003866 -0.1060298 0.047400117 0.007252868 -0.24812652
0.16633719 0.1456808 0.30276486 -0.28342888 -0.06622679 0.24627827 0.19093597 0.33571386
0.22903752 0.21506378 -0.008977152 0.3104562 0.027336758 -0.15308616 -0.27457902 -0.21397525
-0.1250888 -0.18587203 -0.30866015 -0.27954406 -0.11648141 -0.15273212 0.1742281 -0.029344575
0.32438794 0.13173473 -0.28394917 -0.18373874 -0.17070657 -0.30869898 -0.13217649 0.32283682
0.28148142 0.09338629 0.20464297 -0.11353312 0.20212017 0.23590316 0.24035321 -0.07630176
00000000: 3f1f 45be b0b2 4bbe 8250 033e 1aa5 833e
00000010: 2389 2fbe 67ca 90bd 90c4 88be 34cd 903e
00000020: acc5 d73c 1983 b1be b158 d83d efa7 343e
00000030: 35ef 833e e57d eabd 8ccd 79be 5f5d b1be
00000040: 1e04 22bd 6080 a1bc 8828 08be 1356 87be
00000050: 97fa d1bc 3d2f 9fbe 8d62 113e 342e de3d
00000060: 416d b4be 9f6d 40be 8b12 56be e504 263e
00000070: 2e49 b2be 1bc3 093e c99e b63d 7f1a 6bbe
00000080: 42b4 8ebe fe70 7dbe 54ca 8e3d 8f27 4a3c
00000090: c7f8 213e 44d7 603e 7a6c 5c3e 0550 953c
000000a0: 60a4 323d 847f 81bd 2b9c ab3d 3131 d13d
000000b0: d52f 3a3e 5e6d eebc 19e1 d3bd ed85 a2be
000000c0: 36c4 76be 1468 5fbd 2b8b 8dbe 28fc 4a3e
000000d0: 3879 8abe 391f af3e 911d a03e 2953 e43d
000000e0: f2be 603e f124 ddbd 0841 593e 85de 463e
000000f0: 32bc 93be 5a22 bf3d b1ae ad3e 885d a73e
00000100: 8aca f23c 8c66 413e 9a3d 1dbe ab24 633e
00000110: 5d5b 6ebe f650 42bd 5659 973e 0bc4 5cbe
00000120: d042 afbc b58b e0bd bd66 94be 25d8 293e
00000130: 4cf4 f73d 61cb d33d fe03 a1be 6b2c d93d
00000140: df1e 623e c2f1 583e f75a 58bb f8c0 ba3d
00000150: ae9d b0bd a6f3 4d3c ab3f bc3e d054 d13d
00000160: f27c 383e 0ac8 543e 5c35 323e 985f c2be
00000170: b0cd 543e 3a5b 76be 6a92 823d 7c10 13be
00000180: d29f 19bd afda 5fbe b696 ffbc b985 733e
00000190: 2776 af3d 2985 6f3e 42a0 e5bc 4f24 93be
000001a0: 9116 803e f660 90be d205 b0be ced3 dbbd
000001b0: 0d4d 263d c458 283e b488 91bd 452e 3c3e
000001c0: 92ba 58be 9fae 8fbe 793d 61be 3d49 033e
000001d0: ee0b 85be e6f3 2c3e b9ab b8bd df97 8abe
000001e0: afd9 bb3e 1d73 823e ee6d 823e 28f6 4f3e
000001f0: de7a 9bbe 2768 8a3e 0ef7 fd3d 87b0 80be
00000200: ea64 16be e0d8 793e d9fe 97be 4a0d d7bd
00000210: ce98 2d3d 2b81 4ebe 2b66 063d e468 8bbe
00000220: 36c0 20be 9e88 adbd b733 7b3e 764a 68be
00000230: 2583 043e bb4e 903e d76c 773e d896 fc3c
00000240: 9676 033e 7f15 cb3c ecbe 6f3d d8a3 773e
00000250: a1fe 62bd 34a6 31be 6654 0d3e 46d5 6cbb
00000260: cefc 73be 06d6 5ebe b721 90bc 2bdd 97be
00000270: c7d9 653e d827 04be 8b5c 42be c9a0 45be
00000280: 4628 9e3e 8962 893e f894 a03e e206 103e
00000290: 1f14 533d 16e4 a8bd af72 03be 4061 b9bd
000002a0: d6e5 b83c 2724 82be 54dc d33c 2e06 e63d
000002b0: adff aa3d 79c2 ad3d 7cd6 38be f695 ddbd
000002c0: ef04 27bd 66a8 a33e 618f 833e 1be0 a23d
000002d0: 965e 37be 1a63 443e cdbc 6cbe cdf3 8bbe
000002e0: c395 d6bd bcc2 2e3e 90ad 413e 45dc 7e3d
000002f0: d0c7 403e 99ad 453e 7737 d53c f8d2 543e
00000300: 6f55 f7bd 5481 ae3c b0b8 a4be df28 99be
00000310: 0d1b 99be 40f9 5cbc 0a15 523d d8b5 10be
00000320: 38a2 203e 68eb e0bd cba2 aa3e e9d2 8c3e
00000330: f0a7 683e 4d3e 2f3e ab0e 353e c0e9 85be
00000340: 29f0 9e3e 6199 693e 26dd f03d 4feb a33d
00000350: 2726 d9bd a026 423d 77a9 ed3b e114 7ebe
00000360: 4c54 2a3e 592d 153e ff03 9b3e 971d 91be
00000370: e9a1 87bd 5f30 7c3e b884 433e b0e2 ab3e
00000380: d088 6a3e ae39 5c3e e814 13bc 1df4 9e3e
00000390: 56f1 df3c 9ec2 1cbe 9f95 8cbe 541c 5bbe
000003a0: 4717 00be 3d55 3ebe b408 9ebe 6620 8fbe
000003b0: ce8d eebd cf65 1cbe da68 323e 0964 f0bc
000003c0: 2d16 a63e 78e5 063e c961 91be 0226 3cbe
000003d0: b4cd 2ebe cb0d 9ebe 4659 07be de4a a53e
000003e0: 551e 903e 5041 bf3d ed8d 513e 0d84 e8bd
000003f0: 97f8 4e3e 9990 713e 271f 763e 1944 9cbd

fc2.bias f4 [32]
0.23978566 -0.07845537 -0.08069376 -0.34360516 -0.3289421 0.24630734 0.11836223 -0.23814121
-0.015089136 -0.022984434 -0.074045435 0.13316588 -0.056448705 0.24563663 -0.34006304 0.3446632
0.22939561 -0.21168078 -0.13460995 0.18105398 0.31876105 -0.21430406 0.2426896 0.19870085
-0.23372939 0.20064145 -0.06939492 0.1818791 0.13698573 0.0064074933 0.06687086 -0.26884162
00000000: 5f8a 753e 36ad a0bd c542 a5bd 04ed afbe
00000010: 196b a8be fe37 7c3e e667 f23d 4adb 73be
00000020: 6c38 77bc da49 bcbc 22a5 97bd a35c 083e
00000030: c236 67bd 2b88 7b3e be1c aebe b277 b03e
00000040: afe6 6a3e d9c2 58be 31d7 09be 3766 393e
00000050: a634 a33e 8672 5bbe 9f83 783e 3c78 4b3e
00000060: c256 6fbe f474 4d3e ec1e 8ebd 843e 3a3e
00000070: fd45 0c3e f3f5 d13b 97f3 883d 9ca5 89be

fc2_1.weight f4 [64, 32]
0.037235882 -0.0710917 0.0996702 -0.076294035 -0.0789048 0.03318657 -0.1657984 0.15041207
-0.0032440496 0.11666832 -0.058651343 0.08232005 0.09540947 -0.116509035 -0.013117616 -0.027741471
-0.09465952 -0.06763813 -0.17165436 -0.05722386 -0.02735415 -0.12144659 0.14749551 -0.1464081
0.019500693 0.006696957 -0.03760289 0.08329693 0.033241037 0.17040554 -0.14197035 -0.12589814
-0.14718375 0.09859516 -0.11483925 0.14506726 0.15654248 0.21107294 -0.06946197 -0.07633618
-0.107662395 -0.15983617 0.042987946 -0.13523386 0.0040374934 0.18892725 0.04619145 0.17124969
-0.0856192 -0.046342194 0.13468638 0.026846197 0.032283988 0.07725753 0.0060746586 0.15033598
-0.16651104 -0.05970751 0.05078307 -0.08152226 0.14921226 0.0123579735 -0.09455979 0.09707821
-0.036364462 0.15747935 0.046229117 0.031478364 -0.09447424 0.06569755 -0.14941803 -0.05920101
-0.08904833 -0.08284393 -0.09039808 -0.11259462 0.009054758 0.14748713 0.1308891 -0.13020708
-0.034842327 -0.02486753 0.06687204 -0.008533343 -0.12170775 0.048048206 0.032997295 -0.017676586
0.1661086 0.17511843 -0.013965618 -0.14647697 -0.06204119 0.13143596 0.10753292 -0.11132444
-0.051001348 -0.14441876 -0.16029692 0.123807 -0.046067897 -0.15569659 0.14342315 0.18935171
0.070472576 0.10142628 -0.04773149 -0.027955249 -0.12551364 -0.058180604 0.11953143 0.10530808
-0.103853785 0.14949785 0.07376604 -0.15577178 0.051584437 -0.05792882 0.06967903 0.0029736618
-0.13993126 0.07066061 0.04443509 0.078727074 -0.11892364 0.18376383 0.16246258 -0.1616472
-0.023281408 0.15211083 0.0107444925 -0.12085476 0.05402834 -0.09997217 0.08079955 0.09491786
0.09010726 0.01314116 0.1936248 0.20843352 -0.030481108 0.026804276 -0.08933545 -0.17547786
0.019822944 0.054133274 -0.017402075 0.1854455 -0.12699084 -0.068500176 0.08668469 -0.07668008
0.04914114 -0.015388538 -0.1492755 -0.13113426 0.077332325 -0.11923571 0.018580182 0.13379468
-0.054989435 0.17454539 -0.10814024 -0.008200659 -0.14685264 0.023645394 -0.043454412 -0.09282988
-0.055662815 -0.10315958 -0.07984299 0.080329634 -0.15583958 0.14613378 -0.097369015 -0.13885441
0.14522013 -0.10584797 -0.084172584 0.09896963 0.07802842 -0.14336434 0.15440379 -0.15992518
-0.019872196 0.06849198 0.062040053 -0.17624842 0.09157853 -0.07111145 0.15708812 -0.026028166
0.043381833 0.10373848 -0.01322391 0.0017067156 0.053985447 -0.048908263 -0.09504774 -0.12524883
-0.17390092 -0.01929835 -0.08523667 0.11779059 0.009735886 -0.03173212 0.1342282 -0.0061847935
-0.20644207 0.07147805 -0.14022343 0.17139588 0.031744726 0.14873758 0.08599533 0.005455492
-0.046921898 0.03610383 -0.107845694 0.039006073 0.006285071 0.046543162 -0.050061796 0.06359304
-0.051773675 0.09455788 -0.16728245 0.01967006 -0.069632195 -0.05038147 0.17363481 0.051613905
0.018038433 0.16020438 0.03638828 -0.074231446 -0.12668964 -0.060794607 -0.096913286 0.12555167
0.23679928 -0.030415464 -0.1291888 -0.032192376 0.13483046 -0.1651902 -0.008800977 0.11182603
0.13006872 0.14948577 0.034733366 -0.085050896 -0.14080676 0.01967451 -0.08025378 -0.07557187
00000000: a784 183d 8698 91bd e41f cc3d 0c40 9cbd
00000010: d798 a1bd a4ee 073d 0ec7 29be 9f05 1a3e
00000020: 1f9a 54bb cdef ee3d 643c 70bd 6a97 a83d
00000030: 0a66 c33d 4a9c eebd 45eb 56bc 1542 e3bc
00000040: dadc c1bd dc85 8abd 29c6 2fbe 9163 6abd
00000050: cf15 e0bc fdb8 f8bd 1009 173e 01ec 15be
00000060: ebbf 9f3c 2672 db3b 7d05 1abd 9597 aa3d
00000070: c127 083d ca7e 2e3e ad60 11be 71eb 00be
00000080: 56b7 16be 42ec c93d d730 ebbd 838c 143e
00000090: ac4c 203e 8123 583e 1442 8ebd 2556 9cbd
000000a0: 1a7e dcbd 18ac 23be 2114 303d bf7a 0abe
000000b0: f34c 843b 2576 413e 3f33 3d3d 145c 2f3e
000000c0: 1e59 afbd 50d1 3dbd 3aeb 093e 8eec db3c
000000d0: 373c 043d 3239 9e3d ee0d c73b adf1 193e
000000e0: df81 2abe dd8f 74bd e901 503d 25f5 a6bd
000000f0: 19cb 183e 1979 4a3c 90a8 c1bd f1d0 c63d
00000100: e7f2 14bd 4442 213e be5a 3d3d 75ef 003d
00000110: b67b c1bd 708c 863d 0a01 19be c27c 72bd
00000120: f95e b6bd 14aa a9bd a122 b9bd 0298 e6bd
00000130: 685a 143c de06 173e cb07 063e 0155 05be
00000140: d4b6 0ebd feb6 cbbc 35f4 883d 6fcf 0bbc
00000150: ea41 f9bd 32ce 443d 2c28 073d 7dce 90bc
00000160: 5f18 2a3e 3f52 333e 0cd0 64bc 0ffe 15be
00000170: e71e 7ebd 2697 063e 383a dc3d 11fe e3bd
00000180: cae6 50bd 83e2 13be e024 24be 868e fd3d
00000190: b1b1 3cbd ed6e 1fbe 85dd 123e 6ae5 413e
000001a0: ed53 903d 95b8 cf3d 1882 43bd 6802 e5bc
000001b0: a686 00be c94e 6ebd e5cc f43d c3ab d73d
000001c0: 4bb1 d4bd f715 193e a612 973d a382 1fbe
000001d0: 344a 533d c546 6dbd e1b3 8e3d c4e1 423b
000001e0: 244a 0fbe 83b6 903d 9201 363d a93b a13d
000001f0: 3d8e f3bd 962c 3c3e 975c 263e d886 25be
00000200: a7b8 bebc f1c2 1b3e ab09 303c b382 f7bd
00000210: d24c 5d3d 36be ccbd 3c7a a53d 4c64 c23d
00000220: 288a b83d 054e 573c 9445 463e 996f 553e
00000230: 84b3 f9bc a494 db3c 81f5 b6bd 78b0 33be
00000240: ba63 a23c daba 5d3d cc8e 8ebc 6de5 3d3e
00000250: e309 02be d249 8cbd be87 b13d 720a 9dbd
00000260: 3848 493d 3520 7cbc addb 18be 0f48 06be
00000270: 6960 9e3d da31 f4bd 7735 983c 7901 093e
00000280: 9a3c 61bd 07bc 323e a178 ddbd 0f5c 06bc
00000290: 8a60 16be fcb3 c13c 41fd 31bd 981d bebd
000002a0: b1fe 63bd 5445 d3bd b984 a3bd dd83 a43d
000002b0: 6994 1fbe 18a4 153e 6869 c7bd da2f 0ebe
000002c0: 96b4 143e d2c6 d8bd ad62 acbd 97b0 ca3d
000002d0: 5dcd 9f3d 1ace 12be 071c 1e3e 6dc3 23be
000002e0: 04cb a2bc 8645 8c3d b61d 7e3d 777a 34be
000002f0: 868d bb3d e1a2 91bd b5db 203e 0539 d5bc
00000300: 26b1 313d d774 d43d 19a9 58bc dfb3 df3a
00000310: d81f 5d3d 0854 48bd 64a8 c2bd 3b41 00be
00000320: 1513 32be 9317 9ebc 9090 aebd 313c f13d
00000330: 4483 1f3c 8af9 01bd 1e73 093e cfa9 cabb
00000340: 8d65 53be 1563 923d bb96 0fbe 6782 2f3e
00000350: c206 023d aa4e 183e 521e b03d fcc3 b23b
00000360: 2d31 40bd 9ce1 133d 34de dcbd d5c4 1f3d
00000370: fff2 cd3b 0ba4 3e3d 990d 4dbd 113d 823d
00000380: a210 54bd 90a7 c13d 174c 2bbe 1b23 a13c
00000390: 539b 8ebd cd5c 4ebd 53cd 313e 1a69 533d
000003a0: 56c5 933c 9e0c 243e e10b 153d a806 98bd
000003b0: eeba 01be c403 79bd 797a c6bd 9e90 003e
000003c0: 837b 723e da29 f9bc 124a 04be 27dc 03bd
000003d0: ff10 0a3e 9f27 29be f931 10bc 0c05 e53d
000003e0: bc30 053e cc12 193e 9344 0e3d 2a2f aebd
000003f0: a62f 10be 702c a13c 185c a4bd 6dc5 9abd

fc2_1.bias f4 [64]
0.07481258 0.07822747 0.1988192 0.18049715 -0.13884807 -0.13632263 -0.07452493 0.11627748
0.07259456 0.012403844 -0.16015339 0.18186332 -0.04381722 0.064905725 -0.08822979 -0.15401782
-0.084711924 0.00016649143 0.085289046 -0.11605819 -0.14518867 0.1299754 -0.10413129 -0.007927777
-0.019963617 0.07344328 0.15768753 0.13118117 -0.052916195 0.064690545 -0.045034733 -0.06782429
0.017189508 0.10712277 0.06555717 0.0020479257 -0.06939628 -0.117986746 0.027106093 -0.085926875
-0.013095014 -0.14098299 0.06608297 -0.08183023 -0.106213346 0.08956932 0.06969886 0.1644013
0.088527925 0.018210096 -0.17601165 0.08684379 0.011864298 -0.10188284 0.17803724 -0.10496542
-0.20058998 -0.0688793 0.20241287 0.15869623 -0.07392772 0.04530423 -0.006110226 -0.19095956
00000000: 5737 993d b935 a03d 4397 4b3e 3fd4 383e
00000010: 302e 0ebe 2998 0bbe 87a0 98bd e322 ee3d
00000020: 75ac 943d 7e39 4b3c 40ff 23be 613a 3a3e
00000030: af79 33bd 4bed 843d d2b1 b4bd d9b6 1dbe
00000040: 727d adbd 3494 2e39 06ac ae3d ebaf edbd
00000050: 57ac 14be 4518 053e c942 d5bd 82e3 01bc
00000060: bd8a a3bc 6e69 963d d778 213e 5b54 063e
00000070: a7be 58bd 7a7c 843d 5776 38bd 76e7 8abd
00000080: 03d1 8c3c 2f63 db3d d642 863d 7e36 063b
00000090: a31f 8ebd 09a3 f1bd 990d de3c 6efa afbd
000000a0: 788c 56bc d85d 10be 8256 873d 9c96 a7bd
000000b0: 6286 d9bd 1f70 b73d 47be 8e3d d058 283e
000000c0: 214e b53d 572d 953c 663c 34be 28db b13d
000000d0: 7962 423c f3a7 d0bd 654f 363e 1cf8 d6bd
000000e0: 7667 4dbe 9710 8dbd 5245 4f3e 4481 223e
000000f0: 6b67 97bd ee90 393d 4a38 c8bb e78a 43be

fc2_1_1.weight f4 [64, 64]
0.08824253 0.0862948 -0.08192511 -0.07718753 0.015184158 0.04397461 0.024403602 -0.16114837
-0.045910195 -0.095400706 -0.07097341 0.06432776 0.040099926 0.055244833 -0.09333092 -0.04326502
-0.10016888 -0.028595453 0.04436569 -0.061755195 0.06649368 0.05359299 0.06885333 -0.073595986
0.07812949 0.034666702 -0.07407081 -0.007362195 0.08813989 0.0030919611 -0.10208977 -0.07170862
-0.073632345 -0.13047323 -0.10188235 0.07338436 0.044869035 0.016135596 -0.03443157 -0.09104553
0.10446634 0.07468259 0.08241859 0.11635507 0.10226758 -0.080502845 -0.08232709 -0.120881446
0.031029746 0.06476943 0.09628531 -0.16539083 0.071643904 0.07723093 -0.028587667 -0.08659031
0.067316644 0.07602511 -0.030107448 0.106820814 -0.07696789 0.1288539 0.09854775 0.06939745
0.04759829 -0.055380527 -0.1006345 -0.040735397 0.0077150557 -0.101786375 -0.005953874 -0.018535987
-0.066545784 -0.09565073 0.078576036 -0.0639997 0.090638 -0.09303291 0.070884064 -0.07117481
-0.09082451 -0.10634577 0.038529553 0.040085107 0.028724933 0.012948826 -0.09666206 0.11447366
0.078001894 0.06345303 0.079161584 0.09415991 0.08832672 0.008762941 -0.0047706175 -0.022451699
0.102994926 0.065467 -0.011955067 0.11034464 0.027569413 -0.09113155 0.0863035 0.07310234
0.077335365 -0.024983026 -0.060407784 0.057479955 -0.096983805 -0.07580482 -0.109169215 0.009126628
0.096109696 -0.038555294 -0.071962826 0.113074526 -0.01049526 -0.09359187 -0.12108009 -0.08933155
-0.005412654 -0.07652899 0.0852399 -0.054924354 -0.09507968 -0.09677506 0.088999234 -0.103902005
-0.040091243 -0.062585734 0.07205869 0.00852996 0.04724365 -0.073834345 -0.10265328 -0.1068767
0.04112275 -0.06988178 -0.03402864 -0.095126666 -0.012390899 -0.09919888 0.017023638 -0.007136212
-0.08556064 -0.053434405 0.065930694 0.097259626 0.12898691 -0.02733246 0.08505958 0.068237714
-0.08641661 0.042162385 0.04616651 0.13366465 -0.026088977 0.008162037 0.11931486 0.09640235
0.008748194 -0.13141176 -0.18295632 0.103075065 0.08498263 0.07727968 0.014904766 0.10131484
0.0710106 -0.07695857 0.044858743 0.09044775 -0.046963528 -0.030170428 0.04800437 -0.023046806
0.08683394 -0.007642419 0.086897835 -0.029696532 -0.029144475 0.058111206 -0.09607631 -0.08153543
-0.0148773305 0.04300196 0.08031351 0.124509096 0.09047681 -0.050431136 0.1313962 -0.012306107
-0.09687403 0.13700473 0.09433135 -0.059855957 0.046437494 -0.035937533 0.0788828 -0.10450107
-0.073042415 0.014540674 0.11293463 -0.044155445 -0.028103968 0.0057298555 -0.07997541 0.08917122
0.070870906 -0.051934488 -0.11031562 0.00799194 0.10143779 -0.09288826 0.027358204 -0.09230535
-0.11291867 0.008943446 -0.10926443 0.121141136 -0.08325561 -0.0088504255 0.04302419 0.07055387
0.05096186 -0.09708479 0.019880535 0.095015876 0.09466179 -0.03418265 -0.08719228 0.024927247
0.06377776 -0.021253645 0.07390388 -0.06451442 -0.020936113 -0.092863336 0.124981984 0.118841104
0.021434873 -0.016692543 0.14389288 -0.050626095 0.11830984 0.11234918 0.115603164 0.0038409014
-0.04658804 -0.013004189 -0.10724931 -0.055077124 0.019608755 0.019820461 -0.08673934 -0.05808881
00000000: 80b8 b43d 54bb b03d 5ac8 a7bd 7f14 9ebd
00000010: fac6 783c b81e 343d 10ea c73c 1404 25be
00000020: 540c 3cbd 7261 c3bd 825a 91bd 46be 833d
00000030: d23f 243d 6848 623d 4824 bfbd a936 31bd
00000040: 5725 cdbd 0341 eabc ccb8 353d 04f3 7cbd
00000050: d72d 883d 5384 5b3d fa02 8d3d 7eb9 96bd
00000060: 5b02 a03d acfe 0d3d 70b2 97bd 913e f1bb
00000070: b082 b43d 80a2 4a3b 7114 d1bd f8db 92bd
00000080: 8ecc 96bd c69a 05be b2a7 d0bd 8a4a 963d
00000090: 98c8 373d cc2e 843c 1e08 0dbd 1476 babd
000000a0: 73f2 d53d 30f3 983d 14cb a83d 914b ee3d
000000b0: aa71 d13d adde a4bd 1b9b a8bd b190 f7bd
000000c0: 1832 fe3c d6a5 843d 3c31 c53d 375c 29be
000000d0: 0aba 923d 402b 9e3d af30 eabc 4356 b1bd
000000e0: 4fdd 893d 0eb3 9b3d e5a3 f6bc dfc4 da3d
000000f0: 57a1 9dbd 47f2 033e 67d3 c93d 4020 8e3d
00000100: 6df6 423d b1d6 62bd 7619 cebd 29da 26bd
00000110: 94ce fc3b 6075 d0bd b718 c3bb c8d8 97bc
00000120: 2849 88bd 88e4 c3bd 79ec a03d 4612 83bd
00000130: 6aa0 b93d 0a88 bebd aa2b 913d 19c4 91bd
00000140: 3302 babd d0cb d9bd 2ad1 1d3d 4830 243d
00000150: 8d50 eb3c 5027 543c c2f6 c5bd 2b71 ea3d
00000160: 75bf 9f3d aaf3 813d 781f a23d e9d6 c03d
00000170: a4e4 b43d 7092 0f3c d752 9cbb a0ec b7bc
00000180: 01ef d23d 9013 863d 2fdf 43bc 5ffc e13d
00000190: 40d9 e13c 2ea3 babd e4bf b03d aeb6 953d
000001a0: 0162 9e3d 34a9 ccbc 276e 77bd 1a70 6b3d
000001b0: 729f c6bd 8f3f 9bbd 1c94 dfbd da87 153c
000001c0: 29d5 c43d 28ec 1dbd 3f61 93bd 9e93 e73d
000001d0: 50f4 2bbc 18ad bfbd d7f8 f7bd 76f3 b6bd
000001e0: a25c b1bb 3bbb 9cbd 4292 ae3d 5cf8 60bd
000001f0: 23b9 c2bd 0132 c6bd 3b45 b63d 93ca d4bd
00000200: b736 24bd f32c 80bd 8293 933d 3fc1 0b3c
00000210: 8f82 413d 7636 97bd e23b d2bd 2ce2 dabd
00000220: 5470 283d 2e1e 8fbd 9d61 0bbd c5d1 c2bd
00000230: 3203 4bbc c828 cbbd 2875 8b3c e3d6 e9bb
00000240: 6b3a afbd 09de 5abd ac06 873d 0e30 c73d
00000250: 2515 043e 53e8 dfbc b833 ae3d 37c0 8b3d
00000260: 31fb b0bd 77b2 2c3d 1819 3d3d 63df 083e
00000270: 8db8 d5bc 10ba 053c 595b f43d 986e c53d
00000280: 9654 0f3c ce90 06be e758 3bbe 0519 d33d
00000290: 600b ae3d cf44 9e3d 1f33 743c 287e cf3d
000002a0: 016e 913d 749c 9dbd cdbd 373d ac3c b93d
000002b0: d45c 40bd f927 f7bc 3ba0 443d a8cc bcbc
000002c0: fed5 b13d 426d fabb 7ef7 b13d 2446 f3bc
000002d0: 65c0 eebc 0406 6e3d a8c3 c4bd 0cfc a6bd
000002e0: 0cc0 73bc d322 303d 697b a43d a0fe fe3d
000002f0: e84b b93d e190 4ebd ba8c 063e 8e9f 49bc
00000300: e465 c6bd f84a 0c3e cb30 c13d 852b 75bd
00000310: 3e35 3e3d 3c33 13bd 4e8d a13d a804 d6bd
00000320: 4397 95bd 023c 6e3c 454a e73d 57dc 34bd
00000330: 4b3a e6bc 83c1 bb3b 26ca a3bd 679f b63d
00000340: c424 913d 42b9 54bd 28ed e1bd a0f0 023c
00000350: 9ebe cf3d 333c bebd 501e e03c 960a bdbd
00000360: e741 e7bd 8887 123c 08c6 dfbd d818 f83d
00000370: eb81 aabd 6001 11bc 223a 303d 8c7e 903d
00000380: 62bd 503d 64d4 c6bd 81dc a23c af97 c23d
00000390: 0ade c13d 1b03 0cbd de91 b2bd 3a34 cc3c
000003a0: ea9d 823d 201c aebc eb5a 973d 2320 84bd
000003b0: 3682 abbc 222f bebd 8ef6 ff3d f762 f33d
000003c0: 3098 af3c cdbe 88bc a858 133e 4f5d 4fbd
000003d0: 6e4c f23d 5417 e63d 5ac1 ec3d a2b7 7b3b
000003e0: 1ad3 3ebd 860f 55bc 87a5 dbbd 8d98 61bd
000003f0: 8aa2 a03c 855e a23c 65a4 b1bd 88ee 6dbd

fc2_1_1.bias f4 [64]
0.002434026 0.15863153 0.024678484 -0.08879202 0.026697623 0.022316396 0.051724095 -0.092629306
-0.12767254 0.07699449 -0.054606512 0.11842958 -0.072716795 -0.07433242 0.064479865 -0.06375733
-0.06478207 -0.10221206 0.05141282 -0.039746553 -0.029202914 0.017864747 0.056241196 0.021549104
0.07936158 -0.052064586 -0.046508446 -0.067880996 -0.13424283 0.050338034 -0.009180396 -0.041461006
-0.049602255 -0.06610961 0.069747776 0.05941831 -0.13595669 0.048050016 0.041668177 0.012964655
-0.07843582 -0.0065165563 -0.09515874 -0.08880934 -0.09332774 -0.059617 0.02400669 0.046724062
-0.013686076 -0.032946732 -0.057147183 0.011656223 0.08843614 0.014350433 0.10489815 -0.104592375
-0.110272974 0.08636497 -0.021601418 -0.10312195 0.14212716 -0.031203259 0.15576689 -0.042504724
00000000: 2e84 1f3b 4e70 223e 882a ca3c 97d8 b5bd
00000010: f9b4 da3c e0d0 b63c a5dc 533d 6fb4 bdbd
00000020: 97bc 02be 4aaf 9d3d 14ab 5fbd 358b f23d
00000030: 8bec 94bd 993b 98bd 050e 843d 3493 82bd
00000040: 76ac 84bd 8e54 d1bd 4096 523d 48cd 22bd
00000050: f33a efbc 1759 923c 2b5d 663d bf87 b03c
00000060: 5388 a23d ad41 55bd a47f 3ebd 3105 8bbd
00000070: f476 09be 412f 4e3d 5f69 16bc 04d3 29bd
00000080: bc2b 4bbd 7a64 87bd ecd7 8e3d 9d60 733d
00000090: 3b38 0bbe 18d0 443d 40ac 2a3d b469 543c
000000a0: f6a2 a0bd d688 d5bb 96e2 c2bd ace1 b5bd
000000b0: 9d22 bfbd f530 74bd aea9 c43c bb61 3f3d
000000c0: 903b 60bc 27f3 06bd 2a13 6abd bef9 3e3c
000000d0: 021e b53d 141e 6b3c d7d4 d63d 8734 d6bd
000000e0: ccd6 e1bd 1ee0 b03d 75f5 b0bc 9a31 d3bd
000000f0: c889 113e fa9d ffbc 5b81 1f3e 6f19 2ebd

fc2_1_2.weight f4 [32, 64]
0.10344772 -0.0015730464 0.004131103 -0.012331868 0.071662694 0.07814093 -0.09975902 -0.09167034
-0.0653303 -0.124170415 0.06642384 0.002184107 0.01579085 0.10799032 0.113987006 0.02841629
0.03721291 -0.11620349 0.03335114 0.0085726725 0.07677119 0.094765134 -0.07780761 -0.012729959
0.070047505 -0.081793 0.05712676 0.059062798 -0.14504512 0.106496245 -0.03868321 0.06330687
-0.079664275 0.06335968 0.025738161 -0.026812423 -0.05864838 -0.09578043 -0.09147397 0.10517329
0.0155507885 -0.056656398 0.07630649 -0.018362368 0.012162183 0.037745398 0.049804006 -0.032847036
0.10370733 0.10421544 -0.09902885 -0.108280145 0.110959835 0.04062798 -0.04852168 0.010580289
0.07197289 0.033105038 0.035663817 -0.0031792265 0.058809556 0.062904805 0.04942818 -0.028822843
0.12562056 0.09471599 0.110328674 -0.06424695 -0.04065593 -0.017538413 -0.071090564 -0.018541692
0.030290822 0.04416663 -0.09400512 -0.100847855 0.09257847 0.10619302 0.057838835 -0.0106625855
0.06086299 -0.059516717 -0.11469444 0.09065061 0.092496105 -2.1186388e-05 0.02404512 -0.011048735
-0.10070748 0.101313956 0.0045502335 -0.040094692 0.021847071 0.05266817 -0.0025102468 -0.0911181
-0.10371379 -0.03403617 -0.013244894 0.021596191 0.031114811 0.06961582 0.024310255 -0.062054627
-0.06594458 -0.1124017 -0.025630087 0.026712382 -0.06856485 0.033597853 0.03166495 0.005698922
0.09808129 0.11211145 -0.10697064 -0.035351984 0.0704662 -0.006100156 -0.12936091 -0.009458076
-0.06018254 0.0007181257 -0.057005614 -0.1310685 -0.06560528 0.05284612 -0.14589539 0.093757555
-0.021410227 -0.121724464 0.0050363075 0.11195737 -0.06782638 -0.09471743 0.0036585543 0.06898167
0.11280846 -0.023636015 0.054493386 -0.10532341 0.08072719 -0.016510105 0.108304575 -0.08481881
-0.075309396 -0.072922215 -0.012955171 -0.08795779 -0.048508987 0.08385474 0.09312427 0.05311211
-0.08396977 -0.07844187 0.0030576289 -0.066208705 -0.064918794 -0.026737126 0.09596029 -0.073513255
-0.017970119 0.0960459 -0.007071541 -0.043686725 -0.106252074 0.13162541 -0.055824563 -0.051254805
-0.018490689 -0.07667294 -0.0811367 -0.020330342 0.05202538 -0.06475735 0.09561515 0.100694515
0.017662391 0.07419584 -0.042418864 0.08245073 0.05449542 -0.10674009 -0.08664253 0.019953927
0.08498438 0.06542916 -0.049452942 0.12320111 -0.04599661 0.07477645 0.0932665 -0.001084325
-0.0014429588 0.03803491 -0.088939026 -0.13420554 -0.019718254 0.08549802 -0.008197142 0.038763005
0.008935577 0.07015889 -0.11627507 0.12869059 -0.12036648 -0.08315959 -0.095370665 -0.08393808
-0.012199432 -0.037118696 -0.042359915 0.032172527 0.04737507 -0.10606648 -0.003502334 -0.007945998
-0.05701022 0.050249115 -0.12401518 0.07754684 -0.040808458 -0.08513415 -0.020014979 -0.097747535
0.030567583 -0.030891242 0.0016611858 0.05689964 -0.064815596 0.094636045 -0.023125922 -0.05495645
0.07539432 -0.057313275 -0.0951152 0.11047762 0.11361925 -0.11969582 0.09677652 0.073366
0.0211443 -0.0155396685 0.037203345 -0.026760079 -0.06621462 -0.025656486 -0.085890315 -0.054493498
0.04780154 -0.023735233 0.033017337 -0.13586819 0.057816833 -0.11078348 0.10715919 0.013816092
00000000: 66dc d33d ae2e ceba 345e 873b 9a0b 4abc
00000010: e4c3 923d 5a08 a03d 754e ccbd a9bd bbbd
00000020: e4cb 85bd 0f4d febd 3909 883d 3c23 0f3b
00000030: d05b 813c 072a dd3d 0572 e93d 48c9 e83c
00000040: 906c 183d 18fc edbd 349b 083d 6574 0c3c
00000050: 373a 9d3d 3914 c23d 9959 9fbd 5191 50bc
00000060: 1175 8f3d 1783 a7bd c0fd 693d d5eb 713d
00000070: b586 14be b41a da3d 4972 1ebd 08a7 813d
00000080: 0627 a3bd b8c2 813d d6d8 d23c baa5 dbbc
00000090: 4939 70bd 8828 c4bd b456 bbbd 1865 d73d
000000a0: bcc8 7e3c 8a10 68bd 9446 9c3d ad6c 96bc
000000b0: e543 473c eb9a 1a3d 49ff 4b3d 9d8a 06bd
000000c0: 8264 d43d e86e d53d a3cf cabd fbc1 ddbd
000000d0: e93e e33d 8669 263d abbe 46bd f358 2d3c
000000e0: 8666 933d 2699 073d 3914 123d 925a 50bb
000000f0: 4ae2 703d 3cd4 803d 3475 4a3d e21d ecbc
00000100: ada2 003e 75fa c13d 00f4 e13d e893 83bd
00000110: d586 26bd b8ac 8fbc ee97 91bd bfe4 97bc
00000120: 7524 f83c 11e8 343d c285 c0bd 5289 cebd
00000130: c899 bd3d ba7b d93d 6ae8 6c3d 20b2 2ebc
00000140: 784b 793d cdc7 73bd ebe4 eabd 07a7 b93d
00000150: 996e bd3d 6cb9 b1b7 46fa c43c c105 35bc
00000160: b93f cebd b17d cf3d 201a 953b 553a 24bd
00000170: a1f8 b23c 94ba 573d f482 24bb 209c babd
00000180: e567 d4bd 8369 0bbd 1d01 59bc 7fea b03c
00000190: 7de4 fe3c bd92 8e3d 4d26 c73c fe2c 7ebd
000001a0: f40d 87bd dd32 e6bd 30f6 d1bc edd3 da3c
000001b0: ba6b 8cbd e79d 093d 1bb3 013d 06be ba3b
000001c0: d8de c83d b09a e53d 6c13 dbbd 3ecd 10bd
000001d0: 9550 903d d1e3 c7bb 3077 04be 0cf6 1abc
000001e0: f881 76bd 9a40 3c3a b87e 69bd d236 06be
000001f0: 105c 86bd 2c75 583d 9a65 15be f603 c03d
00000200: 8064 afbc ad4a f9bd 9c07 a53b e849 e53d
00000210: 8fe8 8abd 36fb c1bd 5bc4 6f3b 4346 8d3d
00000220: 1f08 e73d 51a0 c1bc 7534 5f3d cdb3 d7bd
00000230: 4c54 a53d 3340 87bc cace dd3d 7cb5 adbd
00000240: d03b 9abd 3e58 95bd ed41 54bc 3723 b4bd
00000250: 5cb1 46bd 09bc ab3d f0b7 be3d 158c 593d
00000260: 58f8 abbd 22a6 a0bd 8062 483b 6e98 87bd
00000270: 25f4 84bd d107 dbbc d486 c43d 1e8e 96bd
00000280: 1236 93bc b6b3 c43d 63b8 e7bb daf0 32bd
00000290: b09a d9bd d0c8 063e 4ca8 64bd 8ff0 51bd
000002a0: c979 97bc b406 9dbd 002b a6bd d18b a6bc
000002b0: 9118 553d 809f 84bd e0d1 c33d ed38 ce3d
000002c0: b8b0 903c fdf3 973d 67bf 2dbd eedb a83d
000002d0: 9736 5f3d 8c9a dabd a471 b1bd 6b76 a33c
000002e0: 4a0c ae3d b9ff 853d 2b8f 4abd dd50 fc3d
000002f0: f166 3cbd 6524 993d 8202 bf3d e91f 8eba
00000300: aa21 bdba 7eca 1b3d aa25 b6bd 2d6d 09be
00000310: 2d88 a1bc 9619 af3d 4e4d 06bc f5c5 1e3d
00000320: 8766 123c 77af 8f3d a021 eebd 77c7 033e
00000330: b382 f6bd 934f aabd b251 c3bd bae7 abbd
00000340: 20e0 47bc c609 18bd 9781 2dbd 57c7 033d
00000350: 5d0c 423d 6239 d9bd 6a87 65bb ee2f 02bc
00000360: 8c83 69bd 04d2 4d3d acfb fdbd e1d0 9e3d
00000370: c526 27bd d05a aebd 74f6 a3bc dc2f c8bd
00000380: de68 fa3c a10f fdbc 25bc d93a 990f 693d
00000390: 0abe 84bd 8bd0 c13d 9372 bdbc 041a 61bd
000003a0: 5668 9a3d 53c1 6abd c2cb c2bd 1742 e23d
000003b0: 36b1 e83d 1523 f5bd c532 c63d ea40 963d
000003c0: d036 ad3c 189a 7ebc 8962 183d f437 dbbc
000003d0: 889b 87bd 8d2d d2bc 43e7 afbd 9334 5fbd
000003e0: 8ccb 433d 6470 c2bc 303d 073d 0821 0bbe
000003f0: 58d1 6c3d 73e2 e2bd 4776 db3d e45c 623c

fc2_1_2.bias f4 [32]
-0.10428679 0.031551927 -0.06641544 0.051061176 -0.025508419 -0.05636222 -0.06479893 0.038275737
0.07339146 0.016300486 0.1012023 0.04394829 -0.07085214 0.10763375 -0.019204387 -0.015068422
0.0390097 -0.04467453 -0.04010809 -0.066113584 0.09414576 0.09361015 -0.12902495 -0.062920935
0.034174133 -0.0082653705 -0.12275255 0.107982844 0.021679757 -0.08686961 0.049836073 0.05011526
00000000: 5094 d5bd 983c 013d d104 88bd 8625 513d
00000010: 08f7 d0bc 12dc 66bd 4db5 84bd 05c7 1c3d
00000020: 434e 963d 9988 853c 2743 cf3d 1f03 343d
00000030: ed1a 91bd 156f dc3d 8552 9dbc 8be1 76bc
00000040: a3c8 1f3d a4fc 36bd 6148 24bd 8f66 87bd
00000050: 7ecf c03d aeb6 bf3d 1e1f 04be b1dc 80bd
00000060: 2dfa 0b3d 7a6b 07bc b065 fbbd 1c26 dd3d
00000070: bf99 b13c b2e8 b1bd e920 4c3d a945 4d3d

fc2_2.weight f4 [16, 32]
0.06950777 -0.055627424 -0.012824249 -0.060500026 0.18756495 0.009087398 0.06551884 0.0984163
-0.060728878 0.013669668 0.09547753 -0.084297195 0.15669492 -0.1760631 0.00942884 -0.12874874
-0.1519705 -0.15877871 -0.140524 -0.016310979 0.024778763 -0.045585085 -0.015434083 -0.045496996
-0.15500258 0.08068478 0.17246206 -0.08193116 0.06296687 -0.14081962 -0.13192917 -0.08293324
-0.035547484 0.10155126 -0.10961073 0.08808499 0.122212775 0.10728851 0.074213825 0.07752533
-0.049412087 0.11967312 0.02606184 -0.14540271 0.15429112 -0.15778732 -0.1570836 0.110738955
0.13310231 -0.031847745 0.11782151 0.08451296 0.20032957 -0.08353596 -0.016553802 -0.14783908
-0.022410681 -0.10714178 -0.06846161 -0.14306042 -0.14206879 0.21685338 -0.050210934 -0.12421955
-0.0011471984 -0.10094671 0.07556734 -0.06250585 0.022863569 0.1442145 -0.016928174 -0.012364437
-0.08884293 -0.05750166 0.07382302 -0.035054736 0.06629922 0.15714437 0.1484295 -0.07445353
-0.10930419 0.130787 0.20724177 0.1246169 -0.048784498 -0.044330984 -0.12883657 0.068016216
-0.12743574 0.004658645 0.06464614 0.12065171 -0.10102046 0.07409119 0.039400812 0.04816642
-0.110231794 0.19498135 0.02567461 0.015909892 -0.08654265 0.014544139 0.00085503166 -0.105607234
0.06902014 -0.10340094 -0.08966012 0.081406616 0.04262229 0.048077498 -0.04894193 0.027963037
0.029614715 -0.000387118 -0.102749206 0.049661532 -0.037613336 -0.1004413 0.03368818 0.047136605
0.1709084 -0.097747006 -0.08958382 0.15757664 0.15122245 0.015316869 -0.10588565 0.058313336
0.003946681 0.018528307 -0.15121973 -0.058014005 -0.060955204 0.043661762 0.10052587 0.11190744
-0.092636175 -0.09046292 0.13656065 -0.13554834 0.043892376 -0.07019936 -0.16545783 0.005342464
0.071906835 0.026101803 0.031588383 -0.1593236 -0.14440753 -0.12461241 0.060324486 0.070074864
-0.123637065 -0.17319301 0.03716033 0.09981364 -0.18112506 -0.13990232 -0.098379426 0.08539067
-0.015006683 -0.17002152 0.03969863 0.11402041 -0.03845153 0.09400267 -0.14880827 0.13554011
-0.15907119 0.030635344 0.156885 0.07384125 -0.08880514 0.0766172 -0.09946648 -0.04208279
0.023856299 -0.107449695 0.11016664 -0.032851953 -0.0473793 0.08859153 0.12769206 -0.017348569
-0.010331914 -0.0292784 0.0073752175 -0.02169043 -0.009103418 0.06976324 -0.042374 -0.13544095
-0.006925383 0.19742258 -0.03370713 -0.1324359 -0.11954317 -0.121730335 -0.117217116 0.14406735
0.099774264 0.0077092596 -0.18114462 0.046684694 0.108292915 0.08368804 0.000124626 0.039222497
0.111283615 0.14259958 -0.04662359 -0.10182751 -0.1222742 0.08734393 0.10068392 0.056311674
0.01573345 -0.08480544 -0.050720673 0.03861865 0.08590988 -0.034245048 0.19635653 -0.09927135
-0.06968458 0.15062454 -0.18926685 0.107692204 -0.08423533 -0.0698446 0.12997493 -0.038766686
0.0057278923 0.0866675 0.13037968 -0.09583919 0.04224511 -0.121703476 -0.14165206 -0.021623462
0.010373843 -0.1602843 0.09878533 0.025872214 0.06283936 0.1695645 0.02939875 -0.040020786
0.055179268 0.02686707 -0.09004626 -0.13103423 0.13910449 -0.16460118 0.13516438 -0.03208508
00000000: 175a 8e3d 95d9 63bd cd1c 52bc e0ce 77bd
00000010: 0711 403e 4fe3 143c be2e 863d 7c8e c93d
00000020: d8be 78bd bef6 5f3c b989 c33d 02a4 acbd
00000030: a274 203e e349 34be 6c7b 1a3c b6d6 03be
00000040: 289e 1bbe e396 22be 86e5 0fbe 9a9e 85bc
00000050: d5fc ca3c 6db7 3abd 3cdf 7cbc 0f5b 3abd
00000060: ffb8 1ebe 103e a53d e599 303e 86cb a7bd
00000070: c6f4 803d 0533 10be 7118 07be e7d8 a9bd
00000080: 3d9a 11bd 1bfa cf3d 977b e0bd e765 b43d
00000090: b14a fa3d 14ba db3d 6bfd 973d 9ac5 9e3d
000000a0: 5464 4abd 2e17 f53d a47f d53c 73e4 14be
000000b0: 7efe 1d3e 0093 21be 86da 20be 1bcb e23d
000000c0: f94b 083e c872 02bd 674c f13d 2115 ad3d
000000d0: 3223 4d3e e714 abbd d79b 87bc 2163 17be
000000e0: 9b96 b7bc 266d dbbd 9a35 8cbd 6e7e 12be
000000f0: 7b7a 11be d00e 5e3e fba9 4dbd d266 febd
00000100: 975d 96ba 26bd cebd 0dc3 9a3d 1103 80bd
00000110: 614c bb3c f7ac 133e f4ac 8abc 3594 4abc
00000120: 48f3 b5bd dc86 6bbd 8630 973d 8e95 0fbd
00000130: e3c7 873d 74ea 203e e7fd 173e 187b 98bd
00000140: e0da dfbd 07ed 053e 3037 543e 2537 ff3d
00000150: 41d2 47bd 6894 35bd bced 03be 164c 8b3d
00000160: 847e 02be 8ca7 983b 3265 843d 3e18 f73d
00000170: d1e3 cebd 1fbd 973d bf62 213d 274a 453d
00000180: 35c1 e1bd 31a9 473e 8f53 d23c 7655 823c
00000190: 463d b1bd 8a4a 6e3c 3424 603a 9b48 d8bd
000001a0: 6e5a 8d3d dfc3 d3bd ba9f b7bd 83b8 a63d
000001b0: b694 2e3d e9ec 443d 5577 48bd bd12 e53c
000001c0: 8f9a f23c 19f6 cab9 2d6e d2bd e469 4b3d
000001d0: 7110 1abd 2bb4 cdbd 9efc 093d 5012 413d
000001e0: 9d02 2f3e 952f c8bd b977 b7bd c55b 213e
000001f0: 0fda 1a3e 9bf3 7a3c 93da d8bd f7d9 6e3d
00000200: 2953 813b adc8 973c 58d9 1abe 18a0 6dbd
00000210: 2aac 79bd add6 323d 82e0 cd3d ba2f e53d
00000220: 09b8 bdbd a044 b9bd 8ed6 0b3e 2fcd 0abe
00000230: 7ec8 333d afc4 8fbd c76d 29be d60f af3b
00000240: e443 933d 73d3 d53c d262 013d ba25 23be
00000250: 91df 13be cb34 ffbd cf16 773d 6983 8f3d
00000260: 6e35 fdbd 8259 31be 6e35 183d 186b cc3d
00000270: d978 39be 8e42 0fbe 277b c9bd 4ee1 ae3d
00000280: 97de 75bc 1f1a 2ebe 089b 223d 8883 e93d
00000290: 5a7f 1dbd 7984 c03d 3261 18be 07cb 0a3e
000002a0: 8fe3 22be f9f6 fa3c 76a6 203e 153a 973d
000002b0: 78df b5bd 7be9 9c3d 15b5 cbbd 015f 2cbd
000002c0: 496e c33c 960e dcbd 0c9f e13d c58f 06bd
000002d0: cc10 42bd 7a6f b53d b5c1 023e 961e 8ebc
000002e0: 3047 29bc 41d9 efbc cfab f13b 21b0 b1bc
000002f0: 8126 15bc 08e0 8e3d 5c90 2dbd 08b1 0abe
00000300: 53ee e2bb 2529 4a3e 7d10 0abd 479d 07be
00000310: 0dd3 f4bd c14d f9bd 870f f0bd 6486 133e
00000320: 7356 cc3d f59d fc3b fa7d 39be 7338 3f3d
00000330: adc8 dd3d a364 ab3d 0aae 0239 c5a7 203d
00000340: aae8 e33d a005 123e 61f8 3ebd f18a d0bd
00000350: e56a fabd 60e1 b23d 5f33 ce3d 12a7 663d
00000360: 70e3 803c 79ae adbd 7bc0 4fbd 972e 1e3d
00000370: 85f1 af3d 8944 0cbd b011 493e c74e cbbd
00000380: cab6 8ebd 523d 1a3e 2bcf 41be bb8d dc3d
00000390: 9383 acbd b00a 8fbd 2618 053e d1c9 1ebd
000003a0: 0bb1 bb3b bb7e b13d 4082 053e 5647 c4bd
000003b0: 3509 2d3d ac3f f9bd 3d0d 11be b023 b1bc
000003c0: 0df7 293c 9121 24be f74f ca3d f7f1 d33c
000003d0: ecb1 803d 51a2 2d3e a6d5 f03c d6ec 23bd
000003e0: a803 623d 5418 dc3c 2c6a b8bd d62d 06be
000003f0: 6871 0e3e 368d 28be 8868 0a3e a56b 03bd

fc2_2.bias f4 [16]
0.018613294 -0.076284535 -0.009611885 -0.021971729 0.19197498 0.028121114 0.034382597 0.04886831
0.21269208 -0.16058668 -0.047341898 -0.05423693 -0.022813216 0.00957597 -0.009519555 0.052797858
00000000: e87a 983c 113b 9cbd 2b7b 1dbc 0efe b3bc
00000010: 1795 443e 405e e63c c4d4 0c3d 232a 483d
00000020: f4cb 593e d670 24be 94e9 41bd 8b27 5ebd
00000030: c8e2 babc 87e4 1c3c e8f7 1bbc 9142 583d

fc3.weight f4 [30, 16]
-0.117393084 -0.13378549 0.2611408 0.23363946 -0.14424123 -0.14379515 0.005697289 -0.26069808
-0.088120304 -0.10313726 0.18625857 0.12140875 0.11146247 0.08284335 0.26259094 -0.15538439
-0.0912768 -0.195855 0.20292525 0.13529152 -0.18040876 0.20438041 0.21278545 -0.14827295
0.14853108 -0.25500637 0.0015719173 0.10318006 0.34325844 0.14493175 0.17544672 0.23025654
-0.13297585 0.06874269 0.3098734 0.121168464 0.071266584 0.09393249 0.06762333 0.06823498
-0.18284054 -0.10874409 0.2144739 -0.2442882 0.23763125 0.24860385 0.10405725 0.11024821
-0.034067318 0.020044569 0.31531835 0.06610346 -0.16189854 -0.025324762 -0.06468753 -0.005195525
0.018864363 -0.024588374 0.08095236 0.023493368 0.16016203 0.20582752 0.20540039 0.11518536
0.18356931 -0.30193138 0.12174281 0.3488427 -0.07626711 -0.054439113 0.15631963 -0.11924201
-0.15823394 0.23057412 0.32617682 -0.19342966 0.064566106 0.17996515 0.13448307 -0.025129816
-0.19824417 -0.19801112 0.20918843 0.07330311 -0.20984085 0.13529834 0.054272823 -0.04608164
-0.108586565 -0.2016191 0.15571809 0.09103593 0.22676186 0.096549325 0.25328654 -0.0684651
0.14620382 -0.32494664 0.12749818 0.056723103 -0.07015121 0.10163368 0.010999461 0.094910085
-0.18362546 -0.23995745 -0.011475228 -0.17041028 0.18794005 0.26062125 0.12408585 0.18060976
0.11141906 -0.14661083 0.2580237 0.3179274 -0.020020781 0.221234 0.27957323 -0.24228387
0.08074518 -0.022370767 0.123160705 -0.27441624 0.15818922 0.069649704 0.22568868 -0.15724851
0.0016887508 -0.07523016 0.017202897 0.26395684 -0.18440242 0.07932258 0.13085644 0.007126363
-0.23613146 0.17582053 0.28201118 -0.06477407 0.037389085 0.10050063 0.0117951855 -0.061602637
0.0512943 0.12973201 0.06430711 0.14923376 -0.011157718 -0.097104184 0.030092802 0.0031527858
-0.328257 0.19388497 0.080534324 -0.30890724 0.16564141 0.058612198 0.25370443 -0.23811439
-0.27199396 -0.09639051 0.21422476 0.07763294 -0.11770243 0.16374029 0.041230794 -0.1684247
-0.09216355 0.1902543 0.3052626 -0.031498246 0.17850024 0.16050264 0.15753874 -0.0264109
-0.10720132 0.13391152 0.17523491 0.32444903 -0.02699115 0.03224651 0.23201539 -0.29246873
0.079065904 -0.040926103 0.023030961 -0.29408985 0.044909548 0.13876799 0.30221805 0.19680724
0.0030211168 -0.19116606 0.37625733 0.23280929 0.29882482 0.21607171 0.24932636 -0.09560421
0.06919184 -0.13049445 0.2616906 -0.045127913 0.17146033 -0.014913599 0.26976946 0.11113837
-0.26360947 -0.016560739 0.26467398 0.08949297 -0.12420064 -0.18441762 0.16857806 -0.0010870497
0.024314076 -0.11113637 0.24593303 0.043378357 0.10356873 0.055082012 0.22604695 -0.05977555
-0.06417817 -0.20694993 0.18950526 0.25351045 -0.21109724 -0.13233633 0.12617922 -0.14776428
-0.11961405 -0.1921127 -0.03591797 -0.27381617 0.14628339 0.1829457 -0.037766006 0.115588024
-0.010930635 0.029442709 0.0037786756 0.16835363 -0.14728233 -0.19244021 0.21822105 -0.29832378
-0.09002789 0.1997507 0.21326232 -0.26670766 0.014913777 0.08992083 0.17116629 0.18346284
00000000: c96b f0bd 10ff 08be 3fb4 853e 2f3f 6f3e
00000010: f9b3 13be 093f 13be 53b0 ba3b 387a 85be
00000020: 6b78 b4bd a139 d3bd 91ba 3e3e 27a5 f83d
00000030: 6f46 e43d c6a9 a93d 5272 863e 161d 1fbe
00000040: 55ef babd 378e 48be a3cb 4f3e dc89 0a3e
00000050: 13bd 38be 1949 513e 6ee4 593e ddd4 17be
00000060: 8818 183e 3290 82be cb08 ce3a 1150 d33d
00000070: 92bf af3e fd68 143e 4ea8 333e 5fc8 6b3e
00000080: d22a 08be f8c8 8c3d baa7 9e3e 2c27 f83d
00000090: 37f4 913d ad5f c03d 1a7e 8a3d c8be 8b3d
000000a0: 8d3a 3bbe 39b5 debd 0c9f 5b3e b026 7abe
000000b0: 9b55 733e 0292 7e3e f81b d53d d0c9 e13d
000000c0: 2c8a 0bbd 8234 a43c 6871 a13e 4061 873d
000000d0: bbc8 25be e075 cfbc e57a 84bd 393f aabb
000000e0: 7089 9a3c 8f6d c9bc 5aca a53d 2a75 c03c
000000f0: 8401 243e 73c4 523e 7b54 523e 4de6 eb3d
00000100: 98f9 3b3e c096 9abe 4b54 f93d 839b b23e
00000110: ee31 9cbd 8cfb 5ebd 4112 203e 2835 f4bd
00000120: 1408 22be 9f1b 6c3e a600 a73e 6d12 46be
00000130: 3c3b 843d c948 383e eeb5 093e 0bdd cdbc
00000140: 8500 4bbe 6dc3 4abe 7e35 563e f11f 963d
00000150: 85e0 56be a68b 0a3e 2e4d 5e3d 1ac0 3cbd
00000160: a262 debd 3d75 4ebe 9074 1f3e 0c71 ba3d
00000170: 4334 683e a7bb c53d c6ae 813e 6e37 8cbd
00000180: 74b6 153e 685f a6be e28e 023e 7c56 683d
00000190: 70ab 8fbd 5225 d03d 1537 343c 3860 c23d
000001a0: 5008 3cbe 68b7 75be 9802 3cbc 0880 2ebe
000001b0: 5b73 403e 2670 853e b920 fe3d c4f1 383e
000001c0: ad2f e43d 2621 16be af1b 843e 61c7 a23e
000001d0: 9f02 a4bc 2a8b 623e 3924 8f3e 4319 78be
000001e0: bb5d a53d e642 b7bc ae3b fc3d 4980 8cbe
000001f0: 5bfc 213e 81a4 8e3d ef1a 673e c105 21be
00000200: 1359 dd3a 4512 9abd 17ed 8c3c 5a25 873e
00000210: fdd3 3cbe e073 a23d 3bff 053e 4484 e93b
00000220: 72cc 71be 4c0a 343e c563 903e 45a8 84bd
00000230: 4c25 193d 46d3 cd3d 9840 413c 0c53 7cbd
00000240: f919 523d 78d8 043e 72b3 833d bcd0 183e
00000250: dcce 36bc 8fde c6bd 2e85 f63c f89e 4e3b
00000260: 4d11 a8be c889 463e 2eef a43d 1729 9ebe
00000270: e79d 293e 5813 703d 8ce5 813e 42d4 73be
00000280: cb42 8bbe 6368 c5bd bc5d 5b3e 05fe 9e3d
00000290: f90d f1bd 89ab 273e 9fe1 283d 8677 2cbe
000002a0: 3ec0 bcbd 06d2 423e 614b 9c3e 4e04 01bd
000002b0: c4c8 363e ce5a 243e d651 213e ac5b d8bc
000002c0: 5e8c dbbd 1a20 093e c870 333e 2f1e a63e
000002d0: 8b1c ddbc eb14 043d 7195 6d3e 76be 95be
000002e0: 4eed a13d 21a2 27bd 6dab bc3c f292 96be
000002f0: 13f3 373d 3219 0e3e 53bc 9a3e d687 493e
00000300: eefd 453b 09c1 43be cda4 c03e 8f65 6e3e
00000310: 91ff 983e e741 5d3e 694f 7f3e 24cc c3bd
00000320: 74b4 8d3d 56a0 05be 4ffc 853e 0cd8 38bd
00000330: 4c93 2f3e 2b58 74bc 391f 8a3e 849c e33d
00000340: d2f7 86be 63aa 87bc 5983 873e 1748 b73d
00000350: e85c febd f9d7 3cbe ba9f 2c3e 567b 8eba
00000360: 502e c73c 779b e3bd ded5 7b3e 81ad 313d
00000370: d81b d43d ad9d 613d da78 673e 35d7 74bd
00000380: d86f 83bd afea 53be ab0d 423e 1fcc 813e
00000390: e029 58be 2d83 07be 2035 013e 854f 17be
000003a0: 36f8 f4bd 31b9 44be b91e 13bd a231 8cbe
000003b0: 50cb 153e 1e56 3b3e 87b0 1abd 6ab9 ec3d
000003c0: 6816 33bc d631 f13c a8a3 773b e564 2c3e
000003d0: 2ed1 16be 0c0f 45be 5775 5f3e e5bd 98be
000003e0: 8b60 b8bd 738b 4c3e 7061 5a3e e88d 88be
000003f0: ea58 743c 6a28 b83d 3746 2f3e afdd 3b3e

fc3.bias f4 [30]
0.2082184 0.11941476 0.11930931 0.19503435 0.15543781 0.17536241 0.1785098 0.09206702
0.21164644 0.21875341 0.14294688 0.12296421 0.016516775 0.15592343 0.18656918 0.20361699
0.103827246 0.0062381253 0.03509824 -0.04405942 -0.05050589 0.03610427 0.0070896014 -0.06827081
-0.19287103 -0.076957226 -0.19305633 -0.20499134 -0.17856516 0.046881832
00000000: 3437 553e ba8f f43d 7158 f43d 16b7 473e
00000010: 172b 1f3e 3492 333e 46cb 363e a28d bc3d
00000020: d8b9 583e e500 603e ab60 123e a9d4 fb3d
00000030: 304e 873c 64aa 1f3e fe0b 3f3e f980 503e
00000040: 61a3 d43d 3069 cc3b 2cc3 0f3d a677 34bd
00000050: 44df 4ebd 12e2 133d e34f e83b 91d1 8bbd
00000060: fc7f 45be c09b 9dbd 8fb0 45be 40e9 51be
00000070: c9d9 36be 2a07 403d
