Heater_Results/uniform_S10_vshape_Iter20_Epoch10_best.pth (torch, 44224 bytes, 14 tensors)

fc1.weight f4 [8, 3]
00000000: 7fb5 f73d f9cb 913e ab48 8f3d cd4a cf3e
00000010: 2226 f73e 30df 63be fe65 0d3e f2ac 0c3f
00000020: 6977 12be a0d4 0ebf 5635 07bf c6bc 7cbe
00000030: cc76 8c3e 2f09 69be 4aed 003f bc58 f93e
00000040: 8243 3b3b 6f1a c63e 1de9 56be 727e 903d
00000050: ebec b03e 7ea1 c13e f199 953e a926 b33e
0.120951645 0.2847593 0.06996282 0.40486756 0.4827128 -0.22253108 0.13808438 0.54951394
-0.14303364 -0.5579319 -0.5281576 -0.24681386 0.27434385 -0.2275741 0.50362074 0.4870051
0.0028574173 0.38692042 -0.20987363 0.070553675 0.34555754 0.3781852 0.2921901 0.34990433

fc1.bias f4 [8]
00000000: 725c 243f 9418 9d3d 95ef e1be bbec fc3e
00000010: 9a1d 8f3e 17a1 a5bd ed76 cc3e 40f3 a43e
0.6420356 0.076707035 -0.441281 0.4939936 0.27952272 -0.08087366 0.39934483 0.32216835

fc2.weight f4 [32, 8]
00000000: 024f ff3d e2ba 76be 1661 84bd 99e5 09bd
00000010: 7218 0c3d a2bc a6be 9817 7b3d fd2c e23d
00000020: f959 87be a585 183d 1f1c 673e 8501 f5bc
00000030: a708 d4bd 5f22 bf3d 0fb3 d63d f198 7bbd
00000040: d72e 9e3e eb31 703d 76f9 85be 083f 373e
00000050: c7b1 de3a 18fc 89bd 17b7 99bd 2580 8abe
00000060: 6e0a 613e 9a71 68be 9f9b 093e 887c febd
00000070: f1ae e93d a338 5d3e 4b79 fb3d 12f0 1f3e
00000080: e321 4cbd 0327 5dbe b7f3 a73d ddea b03e
00000090: 9c5d 4f3e 957f aebe ea9d d1bd 2020 ad3d
000000a0: 035f cf3d 6553 82be c281 37be 7bd1 81be
000000b0: 4f86 aa3d 7702 60bc 036e aa3d 1429 9e3e
000000c0: f2ee 0cbe 02ea b8bc 22b2 1fbc cf86 083e
000000d0: f7ec 5abe 48e7 8d3e b0ef 833e e9a1 19be
000000e0: f647 a8be 7d07 143d 97e4 29bd a0f1 88be
000000f0: a8f2 89be ddba 8b3e 3823 a9be 08f0 50bd
00000100: dc14 143e 09a9 403e 53c7 55be 2ce7 983e
00000110: 2dc4 953e 86e9 61be edb8 693e cb73 5e3e
00000120: d821 e13d 7a12 013e 9667 8fbe 1dba b3be
00000130: c91a 1c3d 6a46 13be 9701 7c3e 776a 833d
00000140: 2743 813e 843c c13e 89dd 8cbe 0714 91be
00000150: ab7c 1ebe f66c 0e3e ee4c c9bd 69cb a93d
00000160: 8bf9 973d c9d5 b4be 4817 ecbd 282a 253e
00000170: 4ceb a9be b4d0 893e e32a 5dbe b12b 933e
00000180: 0d01 2b3e 10e7 243d 1c5b 60be 08cf a9be
00000190: ea06 8ebe 667f e8bb 3f99 423e 118b 953e
000001a0: b84b d83d e80a c0bd f16a 933e e2c3 c3bd
000001b0: 3fbc a0be d669 963e bc6f 293e d157 67bd
000001c0: ef49 263e b87f 85bd cd3d babe 3da0 2c3e
000001d0: e3f0 a13e 4c55 503e 3591 76bd e509 b2bd
000001e0: c889 e7bd b379 a33e 6daa 883e c64a afbe
000001f0: 17fd a73e c05e 833e 1a9a 303e b4dc 45be
00000200: 72cc debd 48ac cb3d 104d 883e 0b2a 8a3e
00000210: 2783 453e f0eb 71be 6644 f23d e777 d0bd
00000220: eda7 0f3e 540a 883e 8c35 853e 4022 df3d
00000230: 52e0 a93e a87b 103e c808 3abe 5d64 0b3e
00000240: 4b07 37be 9140 5f3d 51e0 2bbe 1626 933e
00000250: 556e 13be 99ea f53c 04e7 873e 6bb4 27be
00000260: f595 9ebe 41b1 8cbd ae61 74be bce9 783e
00000270: fa73 aa3e 6dc0 f3bc 4622 a83d 5ff1 8bbe
00000280: 3197 93be c7ca 653e a11b 9f3d 39f5 3f3d
00000290: ac3b 233c 0144 963e d1a5 ab3e 28d1 8a3e
000002a0: 9aad acbc 7cb0 8c3e 599a 7bbc 3d30 9f3e
000002b0: 864b 70be dfa5 ef3d 4234 8abe 226d 1abe
000002c0: 9631 743d b03a 093d 706c ac3d d92b 62bc
000002d0: 9233 6e3e ed8f 1dbe 7b0f 903e 68de 6d3e
000002e0: 9e52 97be 5978 253c 04f0 52be 9a7a 27be
000002f0: e3ab a73e c08e 3a3d 6ef6 e73c debd 5c3e
00000300: bfc0 563e 0ac3 4a3e 8e57 873e ed57 39bc
00000310: b5be 67be d2ce d23d 1955 7ebd e6fe 43be
00000320: 6a65 9a3c eef7 61be 360f b03e e0a5 80bd
00000330: 4b63 0fbe e558 293d d7dd 7dbe e68a abbe
00000340: 5f61 b8bd 2031 173e ca70 8dbe 65b4 a53c
00000350: 26c0 573e 53ef 38be a970 013c 79f8 d0bc
00000360: b812 ac3c 143c c2bd e1aa c1bd b649 143e
00000370: 5b08 9dbe bd85 d5bc 9d89 173e 78ad 42be
00000380: 45b6 93be ce03 c83e 9b00 9abe 0f1e a53e
00000390: 2bd6 2e3e d93a 083e 3764 91bd bdfe 4cbe
000003a0: f4f4 ad3e 22cf 81be d1c7 fcbd 90f2 933e
000003b0: c970 3bbe d9a2 a7bd d275 fa3c 8b33 823e
000003c0: cb21 49be 67b3 a9bd dd72 5abd 6e64 6abe
000003d0: d2cc 0abe ce95 42be 0393 a8be 8297 8ebe
000003e0: a23b bbbc 8682 ffb9 0b05 543e c1a9 04be
000003f0: 1df5 82be 0164 a33e fedd 203e 88eb 9d3e
0.124662414 -0.24094728 -0.0646383 -0.033666227 0.034203 -0.3256579 0.061301798 0.11043737
-0.2643583 0.03723683 0.22569321 -0.029907951 -0.10353213 0.09332728 0.104833715 -0.061425153
0.3089511 0.058641355 -0.26166886 0.17895138 0.0016990238 -0.06737536 -0.07505625 -0.27050892
0.21976635 -0.22699586 0.13438271 -0.12426096 0.114103206 0.21603636 0.12278994 0.15618923
-0.049837004 -0.21596913 0.08200782 0.34554186 0.20250553 -0.34081712 -0.10235198 0.08453393
0.10125544 -0.2545425 -0.17920592 -0.25355133 0.083263986 -0.013672463 0.08321764 0.30890715
-0.13763025 -0.022572521 -0.00974706 0.13332675 -0.21379457 0.27715516 0.25768805 -0.1500317
-0.32867402 0.036139954 -0.041477766 -0.26746845 -0.26942945 0.27291003 -0.33034682 -0.05101016
0.14461082 0.18814482 -0.20876817 0.2986387 0.29251233 -0.22061738 0.2282445 0.21723859
0.10992783 0.12604704 -0.28008717 -0.3510293 0.03811148 -0.1438233 0.24609981 0.06416791
0.25246546 0.37741482 -0.27512768 -0.28335592 -0.15477245 0.13908753 -0.09829126 0.082907505
0.074206434 -0.35319355 -0.11527878 0.16129363 -0.3318733 0.2691704 -0.21598391 0.2874427
0.1669962 0.04025942 -0.21909755 -0.33165765 -0.2773965 -0.007095265 0.19003771 0.29207662
0.10561317 -0.0937708 0.28792527 -0.09558846 -0.3139362 0.2937762 0.1654653 -0.056480233
0.16239141 -0.06518501 -0.36375275 0.16858001 0.31629094 0.20345038 -0.060197074 -0.086932935
-0.113055766 0.31928787 0.26692525 -0.34236735 0.3281028 0.25658226 0.17246285 -0.19322473
-0.108788386 0.099449694 0.26621294 0.269852 0.19288312 -0.2362516 0.11829452 -0.101791196
0.14028902 0.2657038 0.26017416 0.108952045 0.33178955 0.14109671 -0.18167412 0.13612504
-0.17873876 0.054504935 -0.16784789 0.28739995 -0.14397557 0.030019091 0.26543438 -0.16377418
-0.30973783 -0.06869746 -0.23865387 0.24307913 0.33291608 -0.029754842 0.08209662 -0.2733259
-0.28826287 0.22440635 0.07768942 0.046864722 0.009962957 0.29348758 0.33524945 0.271127
-0.021078873 0.27478397 -0.015356624 0.3109149 -0.2346631 0.11701559 -0.26992995 -0.15080693
0.0596176 0.033503234 0.0841912 -0.013804399 0.2326186 -0.15386935 0.2813681 0.23229373
-0.2955522 0.010099494 -0.20599371 -0.16355363 0.32748327 0.045546293 0.028315749 0.21556804
0.20971964 0.19800964 0.26433986 -0.011312467 -0.22631343 0.10293354 -0.062092874 -0.19140205
0.018847186 -0.22067234 0.34386605 -0.06281638 -0.14002721 0.041344542 -0.24791656 -0.3350441
-0.09002947 0.14764833 -0.27625114 0.02022762 0.21069393 -0.18060045 0.007900395 -0.025509106
0.02100502 -0.09484115 -0.09456421 0.14481243 -0.30670437 -0.026064748 0.14798589 -0.19011486
-0.28849998 0.39065403 -0.30078587 0.32249495 0.17073886 0.13303699 -0.070991926 -0.2001905
0.33975947 -0.25353342 -0.123427995 0.28895998 -0.18304743 -0.081853576 0.03057376 0.2542995
-0.19641797 -0.082861714 -0.0533322 -0.22889873 -0.13554695 -0.19002458 -0.3292466 -0.27849966
-0.022855584 -0.00048734638 0.20705049 -0.12955381 -0.25577632 0.31912234 0.15709683 0.3084376

fc2.bias f4 [32]
00000000: b43f 883d 087a 7b3e 0e18 11be f511 413e
00000010: edde 70be 10e3 49bc 7eb8 313e 14c2 a33e
00000020: 6114 463e f9f5 a53e 4937 babc 77bf 0c3e
00000030: 7ab8 5abe dbb9 203b 196c 31be 64cd 923e
00000040: 5957 d93e f6c0 95bd aef0 843e 827c fcbd
00000050: e059 a3be 25da 3e3e 32c5 a5be 1e94 803d
00000060: 2f32 cf3e df29 f03b 7d7a 293e 61d9 373d
00000070: f1ad 98be 1676 ccbc 6bce 7b3e 0937 97be
0.066527754 0.2455827 -0.14169332 0.18854506 -0.2352254 -0.012322202 0.17355534 0.31984007
0.19343711 0.32414225 -0.02273144 0.13744913 -0.21359435 0.002452484 -0.17326392 0.28672326
0.42449453 -0.07312195 0.25964874 -0.123284355 -0.31904507 0.18637903 -0.3237701 0.06278251
0.40467975 0.00732921 0.16550632 0.044885043 -0.29820207 -0.024958652 0.24590461 -0.29534176

fc2_1.weight f4 [64, 32]
00000000: 82cd 9abc 1720 d4bd cbcd 8abc 49af 253e
00000010: 39af dc3d c74d aa3c f9c0 e03b e788 1fbe
00000020: bc2c ea3c c8e1 0cbe 78b0 f6bd 2284 93bd
00000030: d921 833d b4c4 98bd 5ec1 463e 1ed6 edbd
00000040: f7c2 0dbe 5c96 7ebc 0dff 26be 945c 633e
00000050: c6e6 203e 6cb7 853d fb53 663d 8a6a 023d
00000060: 7d2d 723d f913 d5bd 78c8 95bb 63c6 25be
00000070: 41d9 d1bd f0d8 25bd d748 1e3d cbbb adbd
00000080: 94f6 29bd 204f a53d 9191 23be 1df5 6e3d
00000090: 2d39 763d 13ca 27be a21e 01be 71ba d13b
000000a0: a8bb 02be 8023 3abd 98d5 2d3e ebb2 41bd
000000b0: 2323 073e 6ddf 95bd 8742 073e 1c8c 87bd
000000c0: 5445 d33d 1f35 07bd e767 ce3d 714c 38bd
000000d0: 7009 f0bc 8eec a73b 231d cbbd 66b9 dc3d
000000e0: 158b d2bc 61c6 fe3c 7353 0cbd b78b f1bd
000000f0: 7804 ed3c c04c 7bbd 2bbe 11be b353 1abd
00000100: 6f14 3ebd 410e 703d f60a f0bd 6469 81bd
00000110: 80a0 b13d 2dbd b33d e782 9ebd 6913 e63d
00000120: f3ac a63d c114 f9bb cc2d a03d dbc6 1dbe
00000130: 23e1 d5bd 2830 1fbe 37df 8c3d 10cc 7e3d
00000140: 7879 093d 0c2f dbbd 9650 073d cbde a2bc
00000150: 11bf 98bc b65f 31be 596d 413e 1dab 38bd
00000160: cec4 163e aa6c 12be 7575 243e 01f5 2b3e
00000170: a218 ae3c 3d2c f4bc 4072 96bc 7103 13be
00000180: 9532 933d 1ac5 1dbd 4335 1c3e ffde 013e
00000190: 5392 81bd 1748 0b3e d392 0bbd a1c3 ebbb
000001a0: 5ea2 4b3d 49b5 76bc cc4e a0bd d449 85bd
000001b0: 0822 f53d 99c7 04bc 0c7c ba3b 78ce 73bd
000001c0: 04e1 54be 12ba cb3c 583c 533d 6678 ab3d
000001d0: b901 d93d d207 1c3e d0ad e63c 208f dc3d
000001e0: 018e fe3c fd81 113d 62e5 9abc 3c11 af3d
000001f0: 8e09 103b 9db2 1abd 74e4 653d 29a2 bfbd
00000200: a76e 9539 8d6e d2bd 315a 033e bc42 123e
00000210: 5a52 8c3c a816 14be 8eee a7bb fde2 23be
00000220: 2b38 50bc 2375 03bd 2b24 7f3d dfdf 913d
00000230: 5a90 67bd e12a a93d 315e 0e3d a00a f53d
00000240: 62d2 bf3d 89cc 813c f2d3 18be c484 09be
00000250: 5231 92bd 2f02 8d3d b0bb 323c b696 fe3d
00000260: 8491 d8bc dcf9 833d 3b7f 723d 670f dbbd
00000270: 8f9f 1a3e a80b 2bbd 0c17 283e fb1a 633c
00000280: 0dca 433d 9a16 a63c c97e ef3d d0d1 d23c
00000290: 6e72 e5bc d82c ecbd b275 553d f63b f0bd
000002a0: f912 cf3c 3ed7 653d d257 cbbd c99b b3bd
000002b0: 4c29 293d c3ee 11be 9857 153d 9cd4 23bd
000002c0: b8fe f5bc c9ed 8f3c cdd1 e3bd 429f a1bd
000002d0: c9a2 723d f0d0 8e3d c68f 0d3e eb62 153e
000002e0: dab1 e1bd e7f6 0dbc 8bdd 023e 5013 0dbe
000002f0: 6659 0bbe 3cd4 343c dca0 01be 06b8 f7bd
00000300: e918 7fbd 712c 56bd 08e8 15bd e0af d63a
00000310: 377c bc3d 7a0b 2abe bf2b da3d b57b 25be
00000320: 75d3 98bd c23e 1abe 2596 d3bc 80cf 87bd
00000330: 4803 72ba 8108 533d 4f07 00be fc79 2bbd
00000340: da33 33be 58de edbd 8538 2b3e 4afa 3ebd
00000350: 7ff9 98bd 1ad0 323d 2fcd 8d3c 5b53 b8bd
00000360: 4e31 163d 992a 283e 5308 8cbd ef28 dd3d
00000370: 8684 c4bc c484 903d 65fb 2a3e 016f 26be
00000380: 9383 e7bc c49f 1ebe ef16 bebd 486d 023e
00000390: abdf bb3d 0022 eebc f578 143e 9103 153e
000003a0: 785d 1abd b1d6 af3d 9b8e 91bc e1d8 e63d
000003b0: 307d 21be d557 a13c 5c94 143e 76b7 6a3d
000003c0: 73b2 bf3b f74e b1bd 7171 11be 2ddf 5d3d
000003d0: f13b 1fbd 985d 83bd 1393 183e 37bc 213e
000003e0: 2c1e 07be f0d6 10be 5588 233e dea6 22be
000003f0: 691b 0cbe 130a 233e 8d05 1bbd a231 84bd
-0.018896822 -0.10357683 -0.016943833 0.16180147 0.107756086 0.02078904 0.0068589416 -0.15579568
0.028585784 -0.13758004 -0.120453775 -0.07202937 0.0640294 -0.07459393 0.19409701 -0.11613105
-0.13843904 -0.015538778 -0.16308232 0.22203285 0.15713033 0.065291256 0.056232434 0.031839885
0.059125412 -0.104042 -0.004571017 -0.1618896 -0.10246516 -0.04049009 0.038643684 -0.08483084
-0.04149492 0.080717325 -0.15973498 0.058339227 0.06011312 -0.16385679 -0.12609342 0.0064003994
-0.12766898 -0.04544401 0.16976011 -0.04728977 0.13196997 -0.07318006 0.13208972 -0.066185206
0.10315958 -0.033009645 0.100784115 -0.044994775 -0.029301375 0.005124635 -0.09917667 0.107775494
-0.025701085 0.031100454 -0.03425927 -0.117942266 0.028932795 -0.06135249 -0.142327 -0.037677478
-0.046406206 0.058607344 -0.11720841 -0.0631893 0.08673191 0.08776317 -0.077398114 0.11234171
0.08138456 -0.007601351 0.07821235 -0.15407889 -0.10443332 -0.15545714 0.06878512 0.062206328
0.033563107 -0.10702333 0.033035837 -0.019881627 -0.018645795 -0.17321667 0.18889369 -0.04508506
0.14723513 -0.14299265 0.16060431 0.1679268 0.02125198 -0.02980625 -0.018365026 -0.14356782
0.07187382 -0.03851805 0.15254693 0.12682723 -0.06326737 0.13601719 -0.03407557 -0.0071949516
0.049715392 -0.01505787 -0.07827529 -0.06508222 0.119693816 -0.008104228 0.005691057 -0.059523076
-0.20788962 0.024868999 0.05157122 0.083725736 0.10596032 0.15237358 0.028159052 0.107694864
0.031073572 0.035524357 -0.018908206 0.08548209 0.0021978351 -0.037767995 0.056126073 -0.093571015
0.00028501937 -0.10274992 0.12827374 0.1428327 0.017129112 -0.14461768 -0.0051248735 -0.16004558
-0.012708704 -0.032094132 0.06229035 0.07122778 -0.05653415 0.082601316 0.034757797 0.11964917
0.09366299 0.0158446 -0.149246 -0.13429552 -0.07138313 0.06885182 0.010909006 0.124310896
-0.026436575 0.06444141 0.059203368 -0.10696297 0.1509993 -0.041759163 0.16415042 0.013861413
0.047800113 0.02027445 0.11694104 0.025734812 -0.028008666 -0.11531991 0.052114196 -0.11730187
0.025277602 0.056113474 -0.0992886 -0.08769948 0.04129915 -0.14251237 0.03646049 -0.039997682
-0.030028686 0.01756944 -0.11124001 -0.07891704 0.059237275 0.069734454 0.13824376 0.14588515
-0.110202506 -0.008664823 0.12779824 -0.13776898 -0.13608322 0.011036929 -0.12659019 -0.120956466
-0.062279616 -0.052288476 -0.036598235 0.0016379319 0.092033796 -0.1660594 0.10652875 -0.16160472
-0.07462207 -0.15063003 -0.02582843 -0.06631374 -0.00092320563 0.05152178 -0.12502788 -0.04186438
-0.17500249 -0.11614674 0.16720779 -0.046625413 -0.074694626 0.043655492 0.017309753 -0.09000274
0.036668114 0.164225 -0.06837525 0.10798823 -0.023988973 0.07056573 0.16697462 -0.16253282
-0.028260982 -0.15490633 -0.09281718 0.12737 0.09173521 -0.029068947 0.14499266 0.14552142
-0.037686795 0.08585871 -0.017768195 0.11271835 -0.15770411 0.019695202 0.1450972 0.05730387
0.00585013 -0.086576395 -0.1420343 0.054167915 -0.038875524 -0.06414336 0.14899854 0.15794455
-0.13195103 -0.14144492 0.15969975 -0.15883967 -0.13682331 0.15921812 -0.03784709 -0.06454779

fc2_1.bias f4 [64]
00000000: 683d d73d de4f 1f3e 7a37 003e 4d74 2cbe
00000010: 2246 8e3d 6cf6 f4bd fd1a af3c 9d3b 4bbd
00000020: 6f36 983e d89e 413d 3987 5cbd bb8c 79bd
00000030: c802 123e 63a5 ea3d 1887 97bd 5df1 cbbd
00000040: 50b0 7f3d 4223 4dbe 1b42 bfbc 5d95 73bc
00000050: f341 f8bd 60f1 1fbe d1b8 04be 64b9 d93c
00000060: bdd0 433e fe1e d0bd 6cf6 763e 4ae5 603e
00000070: 37c2 fa3d 09eb e23c 89c9 d93d 52b0 273d
00000080: cb36 8f3d 0376 e1bd 9e8e 7cbd b8cf 22be
00000090: 1879 bd3c 3614 e6bc e03b fdbc e414 bbbd
000000a0: 6457 c0bd 9814 af3d 3885 0d3d a726 f73d
000000b0: dd5a f3bd 8d2e 1f3d d973 2fbc 2928 113d
000000c0: 9e3c 46be 8b2e 40bd 3ffd 15be 5725 bd3c
000000d0: 1bad f7bd e3bb 18bd 0082 d9bd 03bf cb3d
000000e0: de4e 78bd 5065 8bbd fc29 2cbd addf 293e
000000f0: cd70 92bd 72fc 373c 9c4e b5bd 08ab 48be
0.10509759 0.1555781 0.12521163 -0.1684124 0.069469705 -0.11961064 0.021375174 -0.0496174
0.2972903 0.047270626 -0.053839896 -0.060925227 0.14258873 0.11457326 -0.07398814 -0.09958146
0.062424004 -0.20032981 -0.023346951 -0.014867154 -0.12121954 -0.15619421 -0.12961127 0.026577659
0.19122596 -0.10162161 0.2411744 0.21962467 0.12244075 0.027699964 0.10634143 0.040939637
0.06992873 -0.11008837 -0.061659448 -0.15899551 0.023129031 -0.02808581 -0.03091234 -0.09134844
-0.093916684 0.0854885 0.034550875 0.12067919 -0.11882565 0.038862754 -0.010708773 0.03543869
-0.19359061 -0.046919387 -0.14647387 0.023089094 -0.12093564 -0.037288558 -0.10620499 0.09948542
-0.06062209 -0.06806433 -0.042032227 0.16589232 -0.07150421 0.011229621 -0.08852884 -0.19596493

fc2_1_1.weight f4 [64, 64]
00000000: 428a cdbd 261d c13d 781e e73d 40db 7c3c
00000010: 5f85 1b3d cfde e53d 682d bd3d 6ea5 0a3d
00000020: f333 e5bd 15f1 9fbd d84e edbc 8662 fe3d
00000030: a004 f6bc 01e1 05be 9325 05bd 43a5 8abc
00000040: f465 d93d 62b8 0b3d e88b c33c 005f 0ebd
00000050: 3b85 8d3d c80a 953d da53 e43d d221 02be
00000060: 806c 533b 6bde 70bd 85a7 06be d00c a93d
00000070: ca03 a1bd 6072 d8bc 3097 fcbd 84e5 7abd
00000080: fc79 e13b e86b 853c 6e4d acbd 5659 be3d
00000090: 8a70 e1bd cc67 d4bd 6cda fbbb cecd 42bd
000000a0: 406d 13bd 006d ac3d 4857 383d bc58 31bd
000000b0: f4ea 1abd 33ea bc3d f473 8ebd a06f 20ba
000000c0: 8285 ec3d 6871 df3c 161f b23d 6a74 0fbc
000000d0: c8d1 a4bd 5e1e a0bd 2714 acbd 37a0 7f3c
000000e0: 34a3 bcbd 09a6 b23d e577 81bd ef74 d5bd
000000f0: 6045 4abd 2f25 a63d 6870 e43d bb05 b8bd
00000100: 12d9 b73d 0095 5d3c c9ba f73d a4b8 70bd
00000110: 25ac 903d b7a9 3fbd a066 2d3c 2653 e9bc
00000120: f14d 89bd 8144 bfbc f843 393c 2c4b 60bd
00000130: a569 03be aeb4 d33d 6830 bd3d 7368 4b3c
00000140: 3a0e 963d b17c 073c 76bd ef3d 7f4d 503d
00000150: 1da3 aabc 98f4 7c3d 6091 cb3d 4df7 6fbc
00000160: 100f 0ebe 760f 023d 7d73 6e3d a362 04bd
00000170: 776c 76bd f4ab 84bd 54fb 653d acd1 7abd
00000180: 91b1 6a3d cee3 aebd 1f3a 0abe 8654 f03d
00000190: c479 a23d b8c7 4bbd 1304 b23d 4c30 353d
000001a0: 27f6 a0bd fe8f 903d 72a8 d0bd 0044 fb3b
000001b0: a6f6 e8bd 45d9 0ebd 26ed f43d bcf8 ad3c
000001c0: e25a d4bd 9695 9bbd 7823 cabd 84f0 5ebd
000001d0: e029 03bc 889d f53d 2847 2d3d af23 3cbd
000001e0: 805d a7ba cb32 563d dfea 12bd 85b0 e43d
000001f0: 4077 793d 2180 a4bd 7596 85bd 24e7 843d
00000200: cfef de3d 812b 1d3d b7cb ee3c 0890 66bd
00000210: d77c 73bd da72 49bd 9c48 d5bd 53e1 2f3d
00000220: bb0f 0e3e eda6 323d c08d ce3d 1cc3 263d
00000230: ba13 7abd 76a3 463d c565 c3bd 8418 a9bb
00000240: e2e3 c33d b9e8 99bc ceb0 a03d 0053 f1bc
00000250: 15cd c6bd 3c48 5e3d 0edd a9bd 900b a53d
00000260: a175 8ebd 3f73 d1bd 463c c03c 885e d83d
00000270: 046c 893d 7189 51bd 8bb9 cd3d a08c 473c
00000280: c155 013a d845 edbd 8b05 863d 8e01 c93d
00000290: 1029 e23c 947c a83d 92db d1bd 702a e8bc
000002a0: 951f 4c3d b86b 90bc 8341 ebbd e03b 10bc
000002b0: 311b a9bc c0fd 6ebc 5bf4 00be 13c2 2dbd
000002c0: 2342 c03c e800 8b3d ba43 f0bd 9da4 f0bd
000002d0: 5091 893c 5e9b e7bd 2f1c 62bd d614 05bd
000002e0: 00b7 fbbd d1a1 753c b73f 523d f71e d1bd
000002f0: 6090 b4bc 1554 be3d e042 d83d e6f6 623d
00000300: 9154 19be a0a9 dc3b 1009 6abd 4a53 92bd
00000310: 246e d5bd 6350 bbbd 8011 5dbd 50a0 09bc
00000320: c96a 3cbd 7125 fa3d 123d 87bd 2244 c33d
00000330: cc71 c83d 8ff7 84bd 3ac6 8abd 634d b3bd
00000340: 8caf a73d 4c11 ebbd a01e 2b3d 472a 8cbb
00000350: 74c7 e33c 08f0 05bd 80c1 aebd 20ae debd
00000360: 2966 893d 29d6 0f3d f020 f53d 3556 00bb
00000370: 3809 afbd 9f0b a13d 7678 6dbd de17 da3d
00000380: 97a0 b0bd 7050 bebc c3a4 273e 04f6 2bbd
00000390: 3031 8ebc c0c0 413e 7ce3 5cbd 2053 6ebd
000003a0: aace d6bd 3015 39bc 03d0 5bbb 4ccd 46bd
000003b0: 7ef1 e83d 47e3 043d 99c5 b63d 97eb bfbd
000003c0: 5d2d 843c 36b0 d0bd 088d 813d f6bb a73d
000003d0: 38be c03c 6695 99bd d038 023e d8fa a93d
000003e0: b8a0 d53d 57f8 4fbb b6f8 90bc 65a1 cabc
000003f0: 005d 3a3a 7e5c 333d f458 09bd a5d2 e33d
-0.10036136 0.09429388 0.11285108 0.015433133 0.03796899 0.11224138 0.09237176 0.033849172
-0.11191549 -0.078096546 -0.02896826 0.124211356 -0.030031502 -0.13074113 -0.032506537 -0.016924506
0.10615149 0.034111388 0.023870423 -0.034758568 0.06910177 0.07277447 0.11148806 -0.12708214
0.0032260716 -0.058805864 -0.13149841 0.08254397 -0.07862051 -0.026421726 -0.12333524 -0.06125404
0.0068809967 0.016286805 -0.08413206 0.09294383 -0.11007793 -0.1037136 -0.00768595 -0.047559552
-0.03599286 0.084192276 0.045005113 -0.043297514 -0.037821725 0.092243575 -0.0695571 -0.0006120149
0.11548902 0.027275756 0.086973354 -0.008755783 -0.08047825 -0.07818292 -0.08402281 0.015602163
-0.09210816 0.08723075 -0.06321696 -0.10422694 -0.049382567 0.08112561 0.11154252 -0.08985468
0.0897695 0.013524294 0.12096173 -0.058769837 0.07064084 -0.046792712 0.01058355 -0.028482031
-0.06704319 -0.023348095 0.011307709 -0.05475919 -0.12833269 0.10337196 0.092377484 0.012415039
0.07326932 0.008269475 0.11706059 0.050855156 -0.020829732 0.0617567 0.099398375 -0.014646363
-0.13872933 0.031753026 0.058215607 -0.03232063 -0.060162034 -0.0647811 0.05614789 -0.061235115
0.057298247 -0.08539544 -0.13498734 0.117348716 0.07933381 -0.049751014 0.08692183 0.044235513
-0.0785945 0.07058714 -0.101883784 0.0076680183 -0.113751695 -0.034875173 0.11959295 0.02123677
-0.10368897 -0.07596891 -0.098700464 -0.054428592 -0.008005589 0.11992937 0.042304188 -0.045932468
-0.0012768954 0.052294534 -0.03586852 0.11166481 0.06090474 -0.08032251 -0.06522838 0.06489399
0.108855836 0.038371567 0.029149873 -0.056289703 -0.05944523 -0.049181797 -0.1041424 0.042939495
0.13873188 0.043616224 0.100856304 0.040713415 -0.06105397 0.048495732 -0.095408954 -0.005160393
0.095649496 -0.018787729 0.07846223 -0.029458523 -0.09707085 0.054268107 -0.08294116 0.08058846
-0.0695603 -0.102270596 0.02346624 0.105649054 0.067100555 -0.051156465 0.10045155 0.012179524
0.0004933738 -0.11585587 0.06544026 0.0981475 0.02760747 0.082268864 -0.10246958 -0.028340548
0.049834806 -0.01762949 -0.11487105 -0.008803338 -0.020642849 -0.014586866 -0.12593214 -0.04242141
0.023469036 0.06787282 -0.11731668 -0.117501475 0.016792923 -0.11308931 -0.05520266 -0.032490574
-0.12290764 0.014992193 0.051330294 -0.10210984 -0.0220415 0.09293381 0.105596304 0.055411242
-0.14973666 0.006734088 -0.05713755 -0.071447924 -0.10421398 -0.09146192 -0.053971767 -0.008400038
-0.046000276 0.12214173 -0.06603445 0.0953448 0.0978733 -0.064925306 -0.0677609 -0.08754995
0.0818778 -0.114779085 0.041777253 -0.004277501 0.027805068 -0.032699615 -0.08533001 -0.108730555
0.06708939 0.03511635 0.11969173 -0.0019582633 -0.0854668 0.07863545 -0.05797621 0.106490836
-0.0862438 -0.023231715 0.16371445 -0.041982666 -0.017357439 0.18921185 -0.053927884 -0.058184743
-0.10488637 -0.011296555 -0.0033540733 -0.04853563 0.11374186 0.03244331 0.089244075 -0.09371107
0.016134912 -0.101898596 0.06325728 0.081901476 0.023528203 -0.074991986 0.12716985 0.08299798
0.10431045 -0.0031733715 -0.01769672 -0.024735162 0.0007109195 0.04378938 -0.033532098 0.11124162

fc2_1_1.bias f4 [64]
00000000: 43b8 fabd 97e9 2f3d 4912 4b3e 44fb b3bb
00000010: 8d47 373c 1514 c7bd da74 e8bd f396 873d
00000020: b6e5 393b 712d 8e3d 9021 703d 280c bdbd
00000030: e997 c83d 331f 723d 4819 cebd 58bb 973c
00000040: 178f b93d 0d52 6fbd 2559 fb3d 095e 8ebd
00000050: 8a9e 643d 2b6a 043d 1f10 9d3d b025 113c
00000060: cf0a 05be 7f59 9b3b 215e bf3c d41c dabc
00000070: a7eb c0bd 60b9 e3bc 8f28 a3bd be0d 66bd
00000080: d651 183d a152 f2bd 47e5 863c 11d3 053d
00000090: 8a81 093e 4432 cabd fa5c e43d 00ff b0bd
000000a0: 2cba 043d 2ec1 c23d 59a2 6abd 0064 f0bd
000000b0: 882d 653d 1012 a9bb d839 f1bc 26ed 2b3d
000000c0: 5002 043e aa19 b33c b05a d4bd 8d57 72bd
000000d0: 430f 003e 7aa6 b73d 66db be3d 89e1 5ebd
000000e0: c893 dfbd baa9 8a3c c000 92bd 5fd9 003e
000000f0: cdb5 f63d aa67 84bd 08cf d03c 61f8 6f3b
-0.122421764 0.042947378 0.19831194 -0.0054925997 0.011186493 -0.09720627 -0.11350413 0.06620588
0.0028365678 0.06942261 0.058625758 -0.09230834 0.097945996 0.059111785 -0.10063416 0.01852195
0.09060495 -0.05842786 0.12272862 -0.069515295 0.055815257 0.032327812 0.076690905 0.008859083
-0.12992404 0.0047408934 0.023360314 -0.026625074 -0.09419947 -0.027798355 -0.0796672 -0.05616545
0.03718742 -0.118321665 0.01646675 0.03267199 0.13428321 -0.09872869 0.11150546 -0.086423874
0.03240411 0.09509502 -0.057283733 -0.117378235 0.055951625 -0.005159624 -0.029446527 0.04197421
0.12891507 0.021862824 -0.1036886 -0.059165526 0.12505822 0.089673 0.09319191 -0.054414306
-0.10916859 0.016926635 -0.07129049 0.1258292 0.120463945 -0.06465085 0.025489345 0.0036616551

fc2_1_2.weight f4 [32, 64]
00000000: c1a6 953d 8113 35bd e00f 533c a3ab 35bd
00000010: 17cd c6bd 4534 1abe 164d cdbd dda3 dfbc
00000020: 340a a33d 022c debc 94dd 013d a67d a3bb
00000030: 0edd 92bd 80ca aebd e9eb f53c 9844 d73d
00000040: 6a60 c2bc 45a1 afbd 5945 2abd 4202 bf3d
00000050: aed9 d0bd 8841 d4bc a30f 973c 1c0e 4cbd
00000060: 6c57 0d3b d53f 893d 27cd d0bc cffa b5bd
00000070: 58a7 f4bd 8856 263d b9b0 c0bd 2663 76bd
00000080: 310a 0cbd 2ca1 863b e285 60bd 837d 79bd
00000090: 8ddf b73a 5e85 f2bc 8c12 c53d eb48 88bc
000000a0: 4887 2e3b d81d c33d 531c d8bc 60c0 ebbc
000000b0: 7905 4f3d d4f4 af3d 92fc 89bd aa65 68bd
000000c0: 6d22 d3bd 108c 4ebd 9fbf 0b3e 0979 afbd
000000d0: 2fab a93d c6d9 acbd 105e 843d bff1 cebd
000000e0: fa8c c8bd 5f28 22bd d438 18bd d98b 8a3d
000000f0: b108 0fbe 0079 363c 9886 ed3c 02da c9bc
00000100: cd04 d4bd 3e89 51bd 6dad f2bd dc25 4d3c
00000110: 962d 80bc 9e8c 34bd 0c50 e33d 02f3 a93d
00000120: ea27 f23d 19e4 b1bd 3deb 903d 580d 7ebd
00000130: 2345 e0bd fec9 fe3d 5245 433d d4f8 a83d
00000140: 5851 45bd 333f 3fbd aabd 823d f7a0 04be
00000150: 3d58 333d 1e11 023e 99ae cdbc 98d6 49bd
00000160: 987f 9d3d d20e d43d c8f0 8f3c e40e 123d
00000170: 8f6a 9fbd 4278 f1bd 2d5b 3ebc ae9c a23d
00000180: 5faf 983d ba0e 003c b41c 43bd 07cb c8bd
00000190: 6cba 213d f25e 0dbc 2238 403d d7c7 b43d
000001a0: 7605 39bd ac26 cf3d 46d5 743d e092 1fbd
000001b0: 24a2 a93d f098 7f3d a034 23bd 0769 80bd
000001c0: 835b a1bd ff5d 17bd 7ad3 bebd 5852 cb3d
000001d0: 9b33 8bbd 63f9 e33c e867 80bd c73c ae3d
000001e0: a8a7 1ebd 738c bebc 6df1 cfbd ade5 2abb
000001f0: 0e42 01bc a4ac c7bd a409 b33d 8af6 88bc
00000200: 94b0 9ebc 33e3 453d 0847 a9bd 1d54 65ba
00000210: a71a cdbd 0d9b 1c3d 680d 77bd 255a f6bb
00000220: 731f 64bd c6b9 913d 460e 573d f804 313d
00000230: fc8f 4cbd 37a4 3b3d b467 773d 4e60 893d
00000240: 989f 12be c3e5 0bbd 52dd 9a3c 3173 07bd
00000250: 5efc 2b3d 3af6 02be 9ab9 bdbb 2620 ed3d
00000260: 434c 7abd 00e4 51b9 f5b8 7bbd 95c1 d13c
00000270: 6314 f93d fe7f 0ebd edf8 9dbd e35e 4c3d
00000280: 0254 cabd 0aeb afbd 336a b43c 9fd6 ee3c
00000290: 5d39 c7bc d677 883c 9856 c1bd eaa9 9f3b
000002a0: 18a2 f3bd 9a1c 0cbd 9f28 173d f0ef c0bc
000002b0: 5720 e23d 8943 123e f674 8dbd 5d9f cbbd
000002c0: 4142 1abd 913e 5f3d b84f e5bd c5ba 043d
000002d0: 0887 e7bd 1934 7c3d c4ac bcbd c4cd c03c
000002e0: e019 553d b31f 6f3d b20c 903d 1e4d 1cbe
000002f0: ef68 573d 0071 d7ba b851 333d c96e afbd
00000300: 2eaf 9e3d b4ba a9bd 91c1 8e3c d005 45bc
00000310: c5eb 073e 8c43 d2bc ac69 09bd b5f3 c3bc
00000320: 70ba e8bd 9f6d 26bc ac69 91bd 2a53 a1bb
00000330: efa0 8d3d bd02 893d 476b fdbd 0025 bdbd
00000340: b556 103c cd1c 40bd 7cf3 e13d f012 533d
00000350: 0147 3f3d 4599 70bd ae8d 98bd 0683 8d3d
00000360: 96ca 823d 5028 783d aef8 5fbd 3b05 a23d
00000370: 7418 eb3c b804 a3bc 680b 303d 51b0 d13c
00000380: 237f 9ebd eb46 d73d f0a8 b6bd 6505 11be
00000390: f62e 503d f62d 633d 1e03 dfbc 31b8 5fbd
000003a0: 69ce acbc b5e0 b0bd eda5 0fbe 7cbe 5c3d
000003b0: 38e1 e23d 3053 863d c4ba ea3d 87f9 3cbd
000003c0: a295 ccbd df63 c2bd c481 cc3d 69d2 673d
000003d0: 9958 60bd 9ca3 343d a02c fb3b 0e3a acbc
000003e0: 80ad d3bd 20d2 97bd ef14 bbbc c962 a0ba
000003f0: 4ea6 42bc 5069 52bc a0c8 9a3d 074f c63d
0.073071964 -0.044208053 0.012882203 -0.04435314 -0.097070865 -0.15059002 -0.100244686 -0.027299816
0.079609305 -0.027120594 0.031705454 -0.0049893437 -0.07171069 -0.085347176 0.030019717 0.1051113
-0.023727614 -0.085756816 -0.04157004 0.093266025 -0.10197769 -0.025910154 0.018440073 -0.049818143
0.0021567 0.06701628 -0.02548845 -0.088857286 -0.11945981 0.040609866 -0.09408707 -0.06015315
-0.034189407 0.0041085687 -0.05481518 -0.060910713 0.0014028415 -0.02960461 0.09622678 -0.016636332
0.0026630927 0.095271766 -0.026380694 -0.028778255 0.05054233 0.08591619 -0.06737627 -0.05673758
-0.103093006 -0.050426543 0.13647316 -0.085680075 0.08284604 -0.084399745 0.064632535 -0.10104703
-0.09792514 -0.039589282 -0.03716357 0.06764955 -0.1396816 0.011137247 0.028994843 -0.024640087
-0.10352478 -0.051156275 -0.118494846 0.012521233 -0.015646737 -0.044079416 0.11099252 0.08298303
0.11824019 -0.08686084 0.07076118 -0.062024444 -0.10950687 0.12440871 0.04767353 0.08250585
-0.04817328 -0.04669113 0.06383832 -0.12952028 0.043785322 0.12701842 -0.025107669 -0.04927692
0.07690352 0.10354389 0.017570868 0.035658732 -0.07783996 -0.117905155 -0.011618418 0.079400405
0.074553244 0.007816011 -0.047634795 -0.098043494 0.039484426 -0.008628594 0.046928532 0.08827179
-0.045171224 0.10114798 0.059773706 -0.03895843 0.08282879 0.062401712 -0.03984511 -0.062700324
-0.078787826 -0.036954876 -0.0931768 0.09927815 -0.06796952 0.027828878 -0.062698185 0.08507686
-0.03873411 -0.02326033 -0.1015347 -0.002607684 -0.007889284 -0.097497255 0.08742073 -0.016719121
-0.019371308 0.048312377 -0.08265501 -0.00087481906 -0.10014849 0.038233805 -0.06031552 -0.0075180703
-0.055694055 0.071155116 0.052503847 0.04321763 -0.049942 0.045810904 0.060401633 0.06707822
-0.14318693 -0.034154665 0.018904362 -0.03306884 0.041988723 -0.1278924 -0.0057899477 0.115783975
-0.061107885 -0.0002001673 -0.061455686 0.025605002 0.121620916 -0.03479003 -0.077134944 0.04989518
-0.098793045 -0.08589752 0.022023296 0.029155074 -0.024319345 0.016658705 -0.094403446 0.0048725503
-0.11896151 -0.034206964 0.036903974 -0.023551911 0.110413246 0.14283575 -0.06907074 -0.099425055
-0.03766084 0.054503027 -0.11196846 0.03240468 -0.11305052 0.06157312 -0.0921264 0.023535617
0.05202663 0.05837984 0.070336714 -0.15263793 0.052590307 -0.0016436875 0.043779105 -0.085660525
0.077482566 -0.08287564 0.017426284 -0.012025312 0.13273533 -0.025666974 -0.033548042 -0.02391992
-0.11363685 -0.010157972 -0.071002334 -0.004923244 0.06915461 0.066899754 -0.12373977 -0.09235573
0.008809735 -0.046902467 0.11032769 0.051531732 0.046698574 -0.05873992 -0.07448898 0.06909756
0.063862965 0.06058532 -0.05468052 0.07911154 0.028698184 -0.019899711 0.042979628 0.02559677
-0.07739093 0.105115734 -0.08918941 -0.14162214 0.050826035 0.055463754 -0.027223166 -0.054619018
-0.021094518 -0.086366095 -0.1402814 0.053892598 0.11078113 0.065588355 0.11461404 -0.046136405
-0.09989478 -0.09491705 0.09985688 0.056597147 -0.054771993 0.044101343 0.007665232 -0.021023776
-0.10335827 -0.07413125 -0.02283713 -0.0012236472 -0.01188047 -0.012842491 0.075577974 0.09683042

fc2_1_2.bias f4 [32]
00000000: 150d c93d 9436 17bc 525d a53d c5d8 b3bc
00000010: cda7 8fbd 35f3 9c3d e6a0 b03d 0712 5fbd
00000020: 92cc 353d e63b 433d 048d 963d aff7 abbc
00000030: d1f8 013e 75ff 433d 8073 313e 5289 56bc
00000040: d873 8a3c a1b5 4d3d a03c adbd a447 583d
00000050: 27a1 283c 92f7 d3bd 9a1f 0dbd dd6e febc
00000060: ee0a 123a 3e95 abbc 231c 313e 2e7e 6ab9
00000070: 0208 30bd 436e 8dbd 0c54 a2bc 212d f5bd
0.09816948 -0.009229321 0.0807444 -0.02195395 -0.07014427 0.076635756 0.08624439 -0.05446055
0.044384547 0.047664545 0.07351115 -0.020992128 0.12692572 0.047851045 0.17329216 -0.013094263
0.016900942 0.050222043 -0.08458829 0.052802697 0.010292328 -0.10349955 -0.034453966 -0.031058723
0.00055710867 -0.020945188 0.1729589 -0.00022362985 -0.042976387 -0.069057964 -0.019815467 -0.11971498

fc2_2.weight f4 [16, 32]
00000000: cdd0 32be 23b4 293d ffe7 e4bd 8bdb d4bd
00000010: ff0f 29be fa85 64bc 4091 eabd 933b dc3c
00000020: a401 46be 72d5 ee3d 1f9b 25be 6a48 73be
00000030: a5f0 c53d 3f75 00bd bb66 72be b884 30be
00000040: dbfa 49be c653 d33d 6eee 22be ed0c a63d
00000050: 4148 ecbd 3076 6a3d d4e7 c63d f107 b1bd
00000060: 6474 a03d 04a8 15be 0b86 803d 0ae7 703d
00000070: 9fc3 09be 0527 5fbe 1ae5 37be 4df4 07be
00000080: 9eee 0abe 8be9 e7bc 4dec 933d f68c 10bd
00000090: 9e5c ef3d 389f c53d 8e3e 893d f64a f93d
000000a0: aaa1 39be a577 03be 59ff a63c b1b1 153e
000000b0: b067 b83d 225c 9fbd 2608 4abd c27d 933d
000000c0: a480 273e 856b 613d cdf3 9abc d04d 0d3d
000000d0: dbdd b3bd 7713 bb3d 4ce2 403d a2c8 aebd
000000e0: a094 433e d5c1 943d 8217 a0bd 7262 2e3d
000000f0: cb19 fb3c 36e4 f83d 64a2 013e e623 acbd
00000100: e38d 073e b8de 523d 1a36 0ebd 2aee f33d
00000110: 9ec8 9ebc 1452 55bd 4d98 263e 0a34 1f3e
00000120: caea e53c e3aa 293e 1f71 403e 789a 133d
00000130: d0fa 083c 6954 d63c ba26 ce3d e50b 773b
00000140: b6fe 7abd 9df0 e93d c762 9ebd dd73 2e3e
00000150: 8ccc cb3d 63cd 8fbd 3879 553e b8d8 cebc
00000160: 7030 eabd b5f0 56bc 0d16 5cbd 101a 30bd
00000170: 3768 fd3d 3e89 4c3e 3f21 993d 8c72 dfbc
00000180: e893 14be c0d2 b4bd 9bbc 213d 7d5d 57bd
00000190: 8a33 253e 5e7e 84bc 2cb1 853d 4e7c c93c
000001a0: adc2 d6bd 9788 c83c ce36 173e eec7 2c3d
000001b0: 92a9 0bbe dd86 ec3d 1bd8 b7bb 3733 46bd
000001c0: fa74 a83d 2657 1c3e d9ef 143e f52d 773d
000001d0: 6b56 003e 9c6f 243d 1c57 463d a39c 0abe
000001e0: eb06 023c dacd 473e 0394 32be 31e4 5e3d
000001f0: fa49 ef3d e72d 57bd c3ca 2e3d f25a 193d
00000200: e873 ae3d d206 08be 8448 21be 4117 5ebc
00000210: ccb8 02be 3667 e6bd 1907 92bd 2948 063c
00000220: 8a11 99bd 19e0 2fbe e57e 923d 50dd fabd
00000230: c8a4 42bd 4882 c239 35ce 1ebe 9c0d cbbd
00000240: 1672 3a3c a604 103e ce32 28be 7707 37be
00000250: d097 1dbd 5664 0dbe d794 e8bd 9921 253e
00000260: 4314 993d 8e8e 823d cfd9 ecbd 9cf3 8ebd
00000270: df8b ba3d 9f51 203c bf58 3fbe fb24 2e3d
00000280: a48a a5bd 2ca6 3bbe 4d24 8a3d 66a7 efbd
00000290: 26a4 3fbe d3ac 43be e678 04be 96de aebd
000002a0: fa86 e6bd 6d12 8e3c f920 01be 9abf a9bd
000002b0: 5e28 14bd 362c acbd a822 a93c 57a4 083e
000002c0: f287 efbc aea9 623d b173 ff3b be1e dbbd
000002d0: ae49 a53d 3aed b4bd 0022 4ebc f5b3 123d
000002e0: 5726 a93b 33aa 20be f55e da3d 6849 813d
000002f0: d730 05be d55b d8bc 4af2 87bd adf1 52bd
00000300: 4dbe 23bd 80fc ddbd 019e c63d 8f14 d23d
00000310: 72ec 38bd 31e2 bcbd 8273 993d 0d53 b73d
00000320: bb06 d3bc c02f 45bc d4a0 19bd b851 19be
00000330: 5165 9d3d 38d8 cf3d 8312 a33d 7f0e 2fbe
00000340: aee7 a23d 2636 1d3e 9ef6 35bd b4de 13bd
00000350: 6b42 1a3e 6798 993a 3549 0cbd 9b6c 7b3c
00000360: d298 3fbd cf18 38b9 8813 613d f7a6 a23d
00000370: 63c9 2bbe c3b7 25be 1154 dfbd 0513 cd3c
00000380: e79a b13c 6dd6 acbb 4309 e23d d5c5 b5bd
00000390: de4a c7bd 1f4c c9bc 03c4 98bb b3a6 96bd
000003a0: d92e 623c 8c77 ffbb 533f 983d 49f4 163e
000003b0: ab14 ecbc 81bb 313e 85ec af3c d12d 9b3c
000003c0: e68b 033d bf1d 873c dbce 3c3e 94cb e33c
000003d0: 124b 59bc 1bb4 083e 153f b2bd 088e 793d
000003e0: b7f4 e03c f126 92bd 9f4d 19be 2a26 d03d
000003f0: b9d1 18be 28fe 653d c4de 573d 4363 2c3e
-0.17462464 0.041431557 -0.11177062 -0.10393437 -0.16510008 -0.013947958 -0.114534855 0.026883876
-0.19336563 0.11661805 -0.16172455 -0.23758093 0.0966504 -0.031361815 -0.23672001 -0.17238128
-0.197246 0.10318713 -0.15911266 0.08107934 -0.11537219 0.05724162 0.097121865 -0.08644093
0.078347 -0.14614874 0.06275567 0.058814086 -0.1345353 -0.21792229 -0.17958489 -0.13276787
-0.13567588 -0.028309604 0.07222805 -0.03529068 0.11687587 0.09649509 0.067013845 0.12172501
-0.18128076 -0.1283861 0.020385431 0.14618565 0.09004152 -0.07781245 -0.049324177 0.07201721
0.16357666 0.05503418 -0.018915081 0.034498036 -0.0878255 0.09134572 0.047090814 -0.085343614
0.19099665 0.07263533 -0.07816984 0.042574354 0.030651947 0.12152903 0.12659603 -0.084052846
0.13237719 0.051481932 -0.034719564 0.119106606 -0.019382771 -0.05208023 0.16269036 0.15547195
0.028066058 0.16569094 0.18793152 0.036035985 0.00836058 0.026163297 0.1006598 0.0037696299
-0.061278068 0.114228465 -0.07733684 0.17036386 0.099511236 -0.07021596 0.20847023 -0.025249824
-0.1143502 -0.0131189125 -0.053731967 -0.042993605 0.12373393 0.19974229 0.07477044 -0.0272763
-0.14509547 -0.0882926 0.03948651 -0.05257939 0.16132942 -0.016173538 0.065279335 0.024595406
-0.1048635 0.024479194 0.14767 0.042182855 -0.13638905 0.11549161 -0.0056104786 -0.048388686
0.082254365 0.1526762 0.1454462 0.060346562 0.12532966 0.0401455 0.048422918 -0.13536315
0.00793622 0.1951212 -0.17439274 0.05441684 0.11684032 -0.05253401 0.042673837 0.037440248
0.08518201 -0.13283852 -0.15750319 -0.013555349 -0.12765807 -0.11250155 -0.0713026 0.008195915
-0.074740484 -0.1717533 0.071531095 -0.12249243 -0.04752043 0.0003709963 -0.15508349 -0.09914705
0.011379739 0.14064273 -0.1642563 -0.17873941 -0.038474858 -0.13807806 -0.11356514 0.16126098
0.07474568 0.063748464 -0.11564981 -0.069800586 0.091087095 0.009785085 -0.18686198 0.042515736
-0.08083084 -0.18325108 0.06745205 -0.117018506 -0.18714961 -0.19108896 -0.12936744 -0.08538549
-0.112562135 0.01734277 -0.12610234 -0.08288498 -0.03617131 -0.0840687 0.020646408 0.1334394
-0.029239628 0.0553376 0.007795774 -0.10699223 0.08070694 -0.0883431 -0.012581348 0.03581615
0.005162041 -0.15689926 0.10662643 0.06312829 -0.13006912 -0.026410976 -0.0663801 -0.05150001
-0.039976407 -0.10839176 0.096981056 0.102578275 -0.045147367 -0.0922283 0.074927345 0.089513876
-0.025760045 -0.01203531 -0.037506893 -0.1497258 0.0768534 0.10148662 0.07962515 -0.17095374
0.07954346 0.15352687 -0.044424646 -0.036101058 0.15064399 0.0011718393 -0.034249503 0.015345718
-0.0467766 -0.0001755685 0.054950267 0.07942002 -0.16776042 -0.16183381 -0.10904706 0.025033483
0.021680309 -0.005274585 0.11036923 -0.08875624 -0.09731077 -0.02457243 -0.0046620383 -0.07356014
0.013805115 -0.0077962335 0.07433953 0.14741625 -0.028818449 0.17356683 0.021475086 0.018942745
0.03211584 0.016493676 0.18438284 0.027807035 -0.013262527 0.13349955 -0.08703438 0.060926467
0.02746044 -0.07136334 -0.14971016 0.10163529 -0.14923753 0.056150585 0.05270268 0.1683474

fc2_2.bias f4 [16]
00000000: bd0f 133d 6f02 e33c add1 6cbd a670 403d
00000010: 2e9d 6fbd 2121 80bd 9619 3abd 5608 903d
00000020: 5223 873d efb7 483c 486e ae3d 9fcb 24bd
00000030: 643e afbd eb37 343d 8abd 873d 3394 aebd
0.03590368 0.027711121 -0.05781715 0.04698243 -0.058499508 -0.06256319 -0.045434557 0.0703284
0.06598534 0.012250884 0.08517128 -0.04023325 -0.08556822 0.04399864 0.066279486 -0.085243605

fc3.weight f4 [30, 16]
00000000: 2d95 d83d 7b76 703e 3dbe 453e b387 7c3e
00000010: bbb4 95bd 9e78 f7bd 4305 143c 6c2b 943e
00000020: c2a8 4c3e 2e36 67bd 51c0 1b3e c775 493e
00000030: 13f7 d73d 8bc4 3e3e a9c6 c43d fd9e 3d3e
00000040: 59f4 ab3b ee04 b33d d4a5 803e 27a6 303e
00000050: aa35 81ba cc0f d63c 73ed f63d 550f 4c3e
00000060: 16f8 183e 6833 643e 7654 f23c e857 db3d
00000070: 0462 663e 24bb 143e 4d10 9d3e 8060 543e
00000080: 8e2e 4dbe 396b b43d 9638 0e3e c69c 3c3e
00000090: e21a 293e c289 2cbe f97d 8d3d 994e bf3d
000000a0: cb79 953d 5f2f 05be 9c75 aabc fab0 853e
000000b0: fa8d 813e 42aa 073e 5ef6 843e 8032 773e
000000c0: 285b 0f3d bcf7 9c3e 188c 4b3e 8ce3 173e
000000d0: c565 5dbe 6ebd 453d bf83 91bd 61f8 8f3e
000000e0: dafe 3f3d 57a5 14bd ce0d 6b3e e8ec 363e
000000f0: 5029 2b3e 6391 1f3e aee9 603d d64e 6e3e
00000100: 191e 253e 9846 6a3d 4263 6e3e b2f3 1b3e
00000110: 7fbf 12be bac7 a13c e4c7 87bd 227f 9c3d
00000120: 85dd 9b3d c522 97bd dc43 353d 325d 843e
00000130: f900 0d3e 2de2 373e e385 7c3e 0a6b 3e3e
00000140: f9ab 6fbe 6daa 9d3e 064e 943d 1e2f 0a3e
00000150: 4211 ce3d bd84 9bbd dbac 19bb f3bb 933d
00000160: 797f 583e 7128 acbd 6d45 5c3d 87e7 fc3d
00000170: 761b a03e 38e3 b73d 7146 9b3e 5d38 773e
00000180: 8dd0 243e 5d3c 543e d26b 123e 71df 0a3e
00000190: 22c2 7f3e 2583 bfbd 014e 853c af07 0a3e
000001a0: b63f 3f3d c13f 4c3d fca0 52bc d25e 403e
000001b0: 15bf 7c3e 70c6 1e3e 24e7 ba3d 9dcc 2d3e
000001c0: 20bb 50bb f7a2 123e 0780 d83d f403 e53d
000001d0: a1cc 39bd 8e00 b5bd daf9 603e 5338 1b3e
000001e0: a2a4 123e d4f5 cfbd b40d a93d c609 4f3e
000001f0: d151 523e 01c3 153e 4880 5b3e b9d2 433e
00000200: f3cf 3cbe 15ae 903e add8 043e 4362 d73d
00000210: 2e07 2e3c a18d 88bd fe7e 133e 5520 563e
00000220: ca24 6a3e e731 863e 66f5 153e 06b2 353e
00000230: 0ae2 0f3e e289 f83d 7684 683e fc35 173e
00000240: 921c 143e 76e4 443e a560 973d f21b 9d3d
00000250: 4e21 57be c1d5 c33d cdd0 783e 2120 023e
00000260: 7261 e33d 08f0 07bd 1003 c23c e0bb 523e
00000270: 13f2 743e 5b02 143e 1c2a 603e ad85 1f3e
00000280: a392 65bd 1fa7 343e 9b49 063e e5ed 113e
00000290: f965 1dbe 618a ed3d 0494 65ba 32fb 053e
000002a0: 6192 8dbd e709 98bb 82d1 23bd f236 f23d
000002b0: 5290 f13d 37d9 143e f85e 3d3e d80a 3a3e
000002c0: aade 37be 81d4 673e 4673 0a3e d4bb e43d
000002d0: 6bf1 3b3e 4cec 633e e18b 1c3e 7321 0f3e
000002e0: 6c3c 673d 7787 643e c962 873d 2801 2f3e
000002f0: 44d1 6d3e dd62 013e 2157 393e 9bc9 b93d
00000300: eba0 dabd cb32 cb3d 0626 793e 2334 563e
00000310: 193b 5dbe 623f 0abd 73ba 7d3e 3df4 253e
00000320: 6efd 6a3e 28b7 9cbc 321d 653e 0078 a83d
00000330: 8178 443d b8ed 363e 5819 0a3e d764 ec3d
00000340: f808 b6bd dd19 123d 1cdb 493e 9ab9 3b3e
00000350: 49ac 2cbe 8969 63bd 0ea2 a93d 7232 293e
00000360: 4de5 82bd 33d7 e23d 6e4f 8bbd f6bc ab3d
00000370: f22e b63d c67a 143e 4926 213e b760 0c3e
00000380: 55f3 70be 2f22 723d 71b4 583e 26e0 253e
00000390: ecf1 a4bd 2027 30be 2e6b 55bd eeb9 cb3d
000003a0: 9201 583e 1b93 5d3e 59a8 693d 7dc0 123e
000003b0: eb53 373e ffa1 043e 2be3 603e 7379 813d
000003c0: e08b b1bc e245 4a3e b235 ae3d c627 003e
000003d0: e762 a1bd eaf0 c8bd d0eb 7b3e df8a b43d
000003e0: d069 153e b472 913d 633a 793d 0406 3a3e
000003f0: 3970 813e 7efa 113e 11e7 a73d 14a0 d13d
0.10575328 0.23482697 0.19310851 0.2466114 -0.07309862 -0.12083553 0.009034458 0.28939378
0.19986251 -0.056448154 0.15210082 0.19673835 0.105451725 0.18629663 0.09608204 0.1851768
0.0052476344 0.08741175 0.25126517 0.17250882 -0.0009857912 0.02613058 0.120570086 0.19927724
0.14938387 0.22285235 0.02958129 0.10710126 0.22498327 0.14524513 0.306765 0.20739937
-0.2003729 0.088095136 0.13888773 0.1841918 0.16514161 -0.16849425 0.06908793 0.09341163
0.07298621 -0.13006352 -0.020808034 0.26111585 0.25303632 0.13248542 0.25969213 0.24140358
0.034999043 0.30657756 0.1987766 0.14832896 -0.21620853 0.048276357 -0.07105207 0.28119186
0.046873905 -0.036290493 0.22954485 0.1786381 0.16714978 0.15582804 0.054910354 0.23272261
0.16124763 0.05719623 0.23280051 0.15229681 -0.14330862 0.019748557 -0.06629923 0.07641436
0.07610611 -0.07379679 0.04425417 0.25852352 0.13769902 0.17957373 0.24660449 0.1859552
-0.23405446 0.30794087 0.07241444 0.13494536 0.100618854 -0.07593677 -0.0023448977 0.07213583
0.21142377 -0.08406151 0.053777147 0.12348848 0.3127095 0.089788854 0.3032718 0.24142595
0.16095181 0.20726152 0.14298943 0.13561799 0.249764 -0.09351186 0.016272547 0.13479494
0.04669162 0.049865488 -0.0128557645 0.18786171 0.24682267 0.15505385 0.09126118 0.16972585
-0.0031849816 0.14319979 0.10571294 0.111823946 -0.045361165 -0.088379964 0.21970311 0.15158205
0.14320615 -0.1015431 0.08254567 0.20218572 0.20539023 0.1462517 0.21435654 0.19123353
-0.18438701 0.28257814 0.1297328 0.10516789 0.010621829 -0.066676386 0.14403912 0.20910771
0.22865596 0.26209947 0.14644393 0.17743692 0.14051071 0.12135674 0.2270678 0.14766687
0.14464024 0.19227776 0.0739148 0.07671346 -0.21008798 0.09562255 0.24298401 0.12707569
0.111025706 -0.033187896 0.023683101 0.20579481 0.23920469 0.14454024 0.21891063 0.15578337
-0.056048047 0.17641877 0.13114016 0.14250906 -0.1537093 0.11598659 -0.0008757713 0.13084105
-0.06912685 -0.0046398523 -0.039994724 0.11826886 0.11795105 0.14535986 0.18493259 0.18168199
-0.17956033 0.22639658 0.13520536 0.11168638 0.18353812 0.22258109 0.15287735 0.13977604
0.056454107 0.223173 0.06610639 0.17090285 0.2322436 0.1263537 0.18099643 0.09071656
-0.10675224 0.09921797 0.24330911 0.20918326 -0.21604575 -0.033751853 0.24778156 0.16206451
0.22948238 -0.019130304 0.22374418 0.08226013 0.047966484 0.1786412 0.1348623 0.11542671
-0.088884294 0.035669196 0.1971249 0.1833252 -0.16862597 -0.055520568 0.082828626 0.1652315
-0.06391392 0.11076202 -0.068022594 0.08385651 0.08895673 0.1449996 0.15737261 0.13708769
-0.23530324 0.05911463 0.21162583 0.16198787 -0.080539554 -0.17202425 -0.052104168 0.09947573
0.21094349 0.21638148 0.057045314 0.14331241 0.17903106 0.12952422 0.21961658 0.06321993
-0.021673143 0.1975322 0.08506335 0.12515172 -0.07880192 -0.09811576 0.24601674 0.0881555
0.14591146 0.07101956 0.060846698 0.18166357 0.25280932 0.14255711 0.08198369 0.102356106

fc3.bias f4 [30]
00000000: 5782 8d3d 95a9 c03d 80e2 e63d e89e 683d
00000010: c49e d03d d1cd b73d 7452 da3d 0b01 b43d
00000020: b9a2 843d f873 ca3d 6286 f63d f96e bc3d
00000030: b58b 803d 368b 013e 885a c43d 2dc6 c63d
00000040: db50 f5ba cc1a 233c b14d cc3b 59d8 e83b
00000050: e758 b13b 33d0 2a3b 4451 77bd cf4e 86bb
00000060: a148 bfbc cdc0 55bd f5d0 86bd a697 8abd
00000070: e26e a4bc b0a9 5a3a
0.06909626 0.09407345 0.1127367 0.05679217 0.10186532 0.08974803 0.10660258 0.087892614
0.064763494 0.098854005 0.1203735 0.09200854 0.06276647 0.12650761 0.0958758 0.09705768
-0.0018716113 0.009955119 0.0062348475 0.007105869 0.0054122093 0.0026064038 -0.060380235 -0.00409875
-0.023350062 -0.052185822 -0.06582824 -0.06767206 -0.020072404 0.00083413254
