Heater_Results/uniform_S50_vshape_Iter40_Epoch10.pth (torch, 44224 bytes, 14 tensors)

fc1.weight f4 [8, 3]
00000000: caaa aa3e da38 09bf 6ab8 12be fb4e 22be
00000010: dea4 83ba ef66 a03e 9e56 12bf d20e 753e
00000020: 2292 90be e02d ffbd 1332 063f 38c0 c33d
00000030: 530a bdbe 232d 0dbe 54db 5d3e a7b4 d63e
00000040: a896 72be 6720 8b3e d549 c33e 932a f33e
00000050: de77 8cbe 641d d73e 3596 983e 6ab9 aabe
0.33333427 -0.53602374 -0.14328161 -0.15850441 -0.0010043641 0.31328532 -0.5716342 0.23931435
-0.2823649 -0.12459922 0.5242016 0.09558147 -0.3692194 -0.1378675 0.21665698 0.41934702
-0.23690283 0.2717316 0.38142267 0.4749342 -0.274352 0.4201461 0.298021 -0.33344585

fc1.bias f4 [8]
00000000: a5ed 113f b1c5 0f3f e68b c83e c561 77bc
00000010: 9e60 b7bd e184 9e3e d82b 13bf 320d 0cbf
0.5700324 0.5616103 0.39169234 -0.015098994 -0.08953975 0.30960754 -0.57488775 -0.54707634

fc2.weight f4 [32, 8]
00000000: 42fb 60be ddce e63b 58c1 5c3d 6932 303c
00000010: 911f bf3e ed59 a63e 3b66 1f3c f293 8e3e
00000020: cd3a 17be a206 363e 0e21 983d 057b 913e
00000030: ef85 8c3e a574 15be 69d8 383e 6300 46be
00000040: 86e1 47be 64a6 9fbe f307 7d3e 64a7 173e
00000050: 04ae 243e 9acd 973d f5f8 dcbc 0226 403e
00000060: adab 023d 2c4d 723d c13d 2abe 4756 a6be
00000070: 31cf 9e3d 468c 93be fe37 74be 241c 1ebe
00000080: ad5b a83e 7ad8 54be 0d17 15be 548d 71bd
00000090: 8038 2bbe 11c7 e0bd da34 83bd dc6d 30be
000000a0: fbf0 fe3b 61dd 0b3d 3d92 54be af19 b43d
000000b0: 42f1 5e3e 9204 d9bd 4962 35be 2752 9cbe
000000c0: 6fea 21be f433 813e 7d1c 953d 0aa3 0c3c
000000d0: c17e 31be 2bfd a2be 5310 2f3e 8576 a63e
000000e0: d911 86bd b67e 383d 213b ad3d 6286 80be
000000f0: db1a 85bd df08 9b3e 78cc bebd 195f e33d
00000100: 3729 9c3e 062d b63d 496a 1b3e daf5 753e
00000110: c784 f33d c2e4 5a3d 8749 7e3d f4f6 f9bd
00000120: 0b81 863e af01 c53a f74c a53e c3af 41be
00000130: 49d9 9abe 1b7f 97be 05af 2fbe c7bc 97be
00000140: ab1c 72bc 6d35 fbbd 4437 2fbe 90bd 2d3e
00000150: 7b6e 6bbe 8be7 7e3e af04 8bbe 96ef ae3e
00000160: 5567 a33e 7fe8 74be 3fc7 753d c450 93be
00000170: cc35 b7bd d21f 4ebe 4a2c 36be 8a7d 663e
00000180: 8f57 5ebe 302b ae3e 685d b23e 1f80 5c3e
00000190: 5317 d1bd 31f9 843e 4338 92be fd95 873e
000001a0: 2a08 59bd 3e45 a0be 3cee 89be 4469 e0bd
000001b0: 1b64 a73d 24b6 6fbe b138 98be 2c02 b4be
000001c0: e77f 893d 2fe5 983e cb3a d4bd ebde 0d3e
000001d0: 9363 9ebe 133b 2bbe 6d5d 493e 5612 a93d
000001e0: ac97 55bd 356c 68be 6118 ad3e 73d4 a2bd
000001f0: f800 913d 26c5 8a3e d081 ae3d 5b5e 88bd
00000200: fbc3 37be 46f3 51be 613b 58be e13f f53d
00000210: 369e 68be 9747 03be 31c6 30be 9a73 c8bd
00000220: 355a 93be 7dd6 a23e b4d7 803e e26a 98be
00000230: 831e 963d a9e9 78be 9641 90be 1d0e 253e
00000240: 7a54 54be 6198 ae3e 28f7 433e ece9 ce3d
00000250: 5574 9dbe abd1 ed3d 1d0c ab3e 6c46 843e
00000260: 2b6e 9f3e 1be7 6c3e 53f3 32bd d157 ce3d
00000270: 7fed c03e 4f0d ac3d d221 88be 8489 6a3e
00000280: 1241 713e 9881 5dbe 4b55 bb3d 2628 603e
00000290: 07f3 9abd e7c5 8cbe 6ec1 ae3e ca4f 56be
000002a0: 2363 913e bf84 443e 9c51 efbd cc56 87be
000002b0: c065 a63b f8ee ebbd cd4a 393e bb8a fe3d
000002c0: 0c57 90bd 8f97 953e b119 4c3e 1aae dcbd
000002d0: 3ceb 783e 204e 90bc 294f d9bd d72d 373d
000002e0: b908 b53e f91a 0c3e 66c1 4dbe da32 17be
000002f0: 01b6 82be 77ed 73be 99a3 b6bc 6807 86be
00000300: acc9 83be f70b 693e e9ed 8ebe f10a a43e
00000310: b1f8 d7bb 0a56 b7bd 73a9 5bbe 9ce3 be3c
00000320: 40e6 83be 5f1f b53d 7792 efbc 8b53 9bbe
00000330: 8c32 c33e cb1f 86bd b104 ff3c 8cde 8ebd
00000340: 0b21 793e 5aeb 95be 78ef 9f3d ff1e b0be
00000350: 214f 92be 2b94 1abd a1c3 7f3e 89ef 273d
00000360: 496e 44bc 9fe7 8c3e fdd6 b0bd 02b0 45be
00000370: 01ae af3e ffa7 c83d 388c 60be b9d0 b0bd
00000380: a27c e43d 5b9a 883e 8552 ebbd 45c2 123e
00000390: 7e2c f7bd 021f 0abd 3552 63bd eee4 4f3e
000003a0: aeb0 99bd 1fd4 b1be b1a7 423e 08a3 f439
000003b0: 58b2 e8bd 2df9 72bc 22af aabc 272f 14be
000003c0: 2d80 86be fc32 5e3e e121 403e d495 8c3e
000003d0: 3d41 393e ba99 db3c 3fbd 9e3e 6aa0 0cbe
000003e0: b39c 023e c419 803e 7794 c7bd c49f d0bb
000003f0: 0574 9bbe f096 24bd 3226 38be 6477 063e
-0.21970847 0.007043703 0.053895324 0.010754206 0.3732877 0.32490483 0.0097289635 0.27847248
-0.14768524 0.17775968 0.0742818 0.2841417 0.27445933 -0.14595278 0.18051304 -0.19336085
-0.19519624 -0.31181633 0.24710064 0.14809948 0.16082007 0.07412262 -0.02697418 0.18764499
0.031902004 0.059155628 -0.1662512 -0.324877 0.077543624 -0.28817958 -0.23849484 -0.15440422
0.32882443 -0.20785704 -0.14559574 -0.05897267 -0.16720772 -0.10975469 -0.06406565 -0.17229408
0.007780192 0.03414667 -0.2075891 0.08793961 0.2177172 -0.10596575 -0.17713274 -0.30531427
-0.15812086 0.2523495 0.07280824 0.008583793 -0.17333509 -0.31833777 0.17096071 0.32512298
-0.06546373 0.045042716 0.084585436 -0.25102526 -0.06499263 0.30280206 -0.09316343 0.11102123
0.30500194 0.08895306 0.15177263 0.24019566 0.1189056 0.053440817 0.06208184 -0.12205306
0.26270327 0.0015030409 0.32285282 -0.18914704 -0.302439 -0.2958916 -0.17156608 -0.29636213
-0.014777343 -0.122660495 -0.17110926 0.16966844 -0.22991364 0.24893014 -0.2715201 0.34167165
0.31914774 -0.23916815 0.06000447 -0.28772557 -0.08945808 -0.20129326 -0.17790332 0.22508827
-0.21713088 0.34017324 0.34836888 0.2153325 -0.10209527 0.25971368 -0.2855855 0.2648162
-0.0529863 -0.31302828 -0.2693957 -0.10957578 0.081733905 -0.23409325 -0.29730752 -0.35157907
0.067138486 0.29862353 -0.10362776 0.13854568 -0.30935344 -0.16721754 0.19664545 0.082554504
-0.0521466 -0.22697528 0.33807662 -0.07950678 0.07080263 0.27103537 0.085208535 -0.06658622
-0.17945854 -0.20502958 -0.21116401 0.119750746 -0.22716603 -0.12820278 -0.17263104 -0.09787674
-0.2877976 0.31804267 0.25164568 -0.29769045 0.073300384 -0.24307884 -0.28175038 0.16118665
-0.2073535 0.3410063 0.19137251 0.10103211 -0.30752817 0.116122566 0.3340768 0.25834978
0.3113874 0.23135035 -0.043689083 0.100753434 0.37681195 0.08400976 -0.26588303 0.2290402
0.23559979 -0.21631467 0.09147128 0.21890315 -0.07565885 -0.27494738 0.3413195 -0.20928875
0.28395948 0.19191264 -0.11685488 -0.26433408 0.0050780475 -0.11520189 0.1809494 0.124288045
-0.07047853 0.29217193 0.19931675 -0.10775395 0.24308485 -0.017615378 -0.10610802 0.04472145
0.35358217 0.13682164 -0.20093307 -0.14765492 -0.25529483 -0.23821054 -0.022294806 -0.26177526
-0.257398 0.2275847 -0.27915886 0.32039598 -0.0065909256 -0.089519575 -0.21451358 0.023301892
-0.25761604 0.08843874 -0.029244645 -0.30337176 0.38124502 -0.06549033 0.031130167 -0.06976041
0.24329011 -0.29281121 0.07809347 -0.34398648 -0.28575996 -0.03773896 0.2497697 0.040999923
-0.011989185 0.27520463 -0.08634756 -0.19305423 0.34312442 0.09797668 -0.21928489 -0.08633561
0.11156584 0.26680264 -0.11490349 0.1433192 -0.12069033 -0.033720978 -0.05549832 0.20302173
-0.07504402 -0.34732148 0.19009282 0.00046660774 -0.11362141 -0.014829916 -0.020835463 -0.14471112
-0.26269665 0.21699136 0.18762924 0.2745806 0.18091293 0.026806701 0.31003758 -0.13733068
0.12755089 0.25019658 -0.09745114 -0.006366702 -0.30361953 -0.040183008 -0.1798332 0.13131481

fc2.bias f4 [32]
00000000: 1379 9dbd fbe8 f73d 7a38 863d 4bb6 8c3d
00000010: 9922 71bd 979d 553d b37d d43d 6bc7 c43d
00000020: f6d0 5e3e 5b54 d93d d48a b63e 6221 8abe
00000030: 1921 f73d ed80 783e 01b3 03bd f092 28be
00000040: 9106 0abe 857b 233e 362a 68bd 48c4 f1bd
00000050: 0338 90be df03 2ebe 9bd7 96be 7b7e 7e3e
00000060: 3d55 95bd 414a 81be 2c0d 57be 694e 843d
00000070: 28e6 c1bd 1a00 d83b 181c 1bbe 73a5 2bbe
-0.07689109 0.121049844 0.06553741 0.06870707 -0.058870886 0.052152243 0.10375538 0.096083485
0.217594 0.10611793 0.35652792 -0.26978594 0.1206686 0.24267931 -0.032153133 -0.16462302
-0.13479067 0.15965088 -0.05668088 -0.11805016 -0.28167734 -0.16993664 -0.2946137 0.24852936
-0.072916485 -0.25251964 -0.21001118 0.06460268 -0.09467727 0.006591809 -0.15147436 -0.16762333

fc2_1.weight f4 [64, 32]
00000000: fe87 0b3e 0ce0 b53c 0275 a53d 7137 21be
00000010: 5855 0ebd b0d9 c8bd 4459 b4bd 80ca 013e
00000020: 1495 c8bd a49f 61bd 5463 cfbd fbee c6bd
00000030: adc1 e2bd c606 48bd 2be8 333e 85e5 d73d
00000040: 4f60 33bd b1eb e13c e23b 373e d3f6 5cbd
00000050: c8b5 b7bd fc42 69bd 87c6 283d f236 0dbe
00000060: 6b01 8dbd 2fd8 cdbc 2d51 edbd eef3 ccbb
00000070: e51c ecbd 230c 62bd b7d4 de3c 39fa de3c
00000080: dde4 07be fec5 ebbd 4f74 103e ea45 2c3e
00000090: ea3d 893d 6f7d 213e 6aee e6bd dd60 23be
000000a0: c74d babd d2a3 7abd ef37 fbbc cb56 14be
000000b0: 40e7 063e 129e 0dbb 8065 273a 37dd 153e
000000c0: 4f04 f0bc e0d4 29be 3088 c9bd f579 023d
000000d0: 4cbf ebbc 3423 303e 8acf eb3d 5fd1 63bc
000000e0: fdbd e63d d3ea c63d 62ab 15be f3af fa3b
000000f0: 1ccf d83c d239 aa3d d505 f2bd 0aeb 8c3d
00000100: 1684 e13d d815 0b3e d3fb 7fbc e81d 7b3c
00000110: 4360 113e 591f 3c3e 3fd0 a93d 0908 6bbd
00000120: 0652 6ebc b7c5 bf3d 63f7 eebd 6f40 ca3d
00000130: 2396 10be 869e adbd 2c56 df3d 5e5b a33d
00000140: a3a5 313e a666 f13d 0df6 da3d 24e1 a23c
00000150: 4372 273d f39d 1fbe e03e 11bc 000d c03c
00000160: 450a 923d 3dd8 243e 2136 1dbe 13e3 c0bd
00000170: b544 93bd d401 cfbd c339 65bc ea4f 433e
00000180: 243f 8f3b 12cc 223d fb3e 23be 0388 f3bd
00000190: 0036 27be a775 bcbd 647e 5cbc b786 243e
000001a0: 7884 333d bc38 31be 19de 2abd 7cc5 823c
000001b0: 4fde 25be 9df2 b53d 8b3e 25be 842d 97bc
000001c0: 64de 013d 5116 a7bd 0f57 bf3b 37e7 c53d
000001d0: 7221 febc a801 f0bd 79fe bfbc 36b3 253d
000001e0: e63d 12be be7a 9dbd c1b1 1e3e e399 91bd
000001f0: 172b 313d 8542 22be 4a73 813d 4c47 05be
00000200: 00be f23d 52e0 973d 6c63 1abd f97c 08bb
00000210: cecc 7f3c c08a b23d 20f2 e6bc bc3b 20be
00000220: b05f 00be aadb 9a3d 34e9 7ebd 26d7 48bc
00000230: 06ba 5dbd bb3d 04be f809 0abe aa56 573d
00000240: ecae f83d 7e5f 9c3d c5a8 80bc f073 27be
00000250: 8037 2e3d 99c4 203e 757d 2a3a cb01 283e
00000260: 4e1d 03be 8dbd 01be 7a7b 9a3d ba33 063e
00000270: b771 09be d34f 37bd 462f 51bd 3674 6bbd
00000280: 474d e3bd cb3a 02be ec7c 06be e62c 073d
00000290: b863 32be 3e25 82bc af30 eabd 6f29 df3d
000002a0: 96dd f03d 9acb 113e 7c8a c13d f633 f6bc
000002b0: ad65 753c cdee ddbd c6c3 0fbe 7d52 22bd
000002c0: 2f0f bd3d aa81 24bc 375b efbd 3609 e23d
000002d0: 890b e0bc 2146 23be 7d9d 81bd e6d1 cabd
000002e0: 9a1e 433d d41b 2b3e ebc0 083e 5063 463e
000002f0: 503e 463d 032c b43d 2818 403e 78e3 873d
00000300: 336d 0abe c715 fa3d 8455 9cbc cb8b 19be
00000310: 78ce 0cbd 87c4 fe3d 1b98 2ebd 1855 bebd
00000320: 4b1a 043d 79bb a2bd 7eb2 06be c570 87bd
00000330: 3404 c4bd 993f 633d 7cab ae3d 8cec e6bd
00000340: 2316 0b3e 1f65 0f3e e1f8 0b3e 3b6f 11be
00000350: f55b 31be d286 033e d4f8 f1bd e8ae d33d
00000360: e713 003e a3e1 343d 9d53 31be ed1b 22be
00000370: 8298 213e f60e 153e 9b1a acbd d21b 1bbe
00000380: 1229 1b3e 63dd 283e 2cce 42be 3cd6 8239
00000390: ebc7 0a3d a283 bfbd de72 df3d 97c9 10bd
000003a0: edea 2b3d ac02 abbd 704c 8fbb 7621 e43d
000003b0: 79f4 4bbd f124 5c3d ff16 a5bd 4212 8cbd
000003c0: 19a0 a1bd 0e40 1c3e 01a8 c93d 2239 8f3d
000003d0: 11da a33d b20f 79bc 8a13 64bd 574d 0abe
000003e0: 8e72 35be 56a4 a33d be82 64bd 3189 8bbd
000003f0: 0125 80bd 0fd6 2ebe f1d8 b33c dd87 f3bc
0.13626096 0.02220156 0.08078958 -0.15743805 -0.03474936 -0.098071456 -0.088060886 0.12674904
-0.097940594 -0.055083886 -0.10126367 -0.09713551 -0.11072097 -0.048834585 0.17569034 0.10541824
-0.04379302 0.027578207 0.17893937 -0.053946327 -0.08970219 -0.056948647 0.041204955 -0.13790491
-0.06885036 -0.025127498 -0.11587749 -0.0062546646 -0.11528949 -0.055187356 0.02720104 0.027218925
-0.13270898 -0.115123734 0.14106868 0.16823545 0.06701262 0.15770505 -0.112759426 -0.15954919
-0.09096866 -0.061191387 -0.03066632 -0.14486234 0.13174152 -0.002160911 0.0006385669 0.14635168
-0.02929893 -0.16585112 -0.09840429 0.03185459 -0.02877774 0.17200929 0.11514194 -0.013904898
0.11266706 0.09712758 -0.14616159 0.0076503693 0.026465945 0.083118096 -0.118175186 0.06880768
0.110115215 0.13582551 -0.015624004 0.015326954 0.14196877 0.18371333 0.08291673 -0.05738071
-0.014545923 0.09363883 -0.11668279 0.09875571 -0.14119773 -0.084775016 0.10905108 0.07976411
0.17348342 0.11787157 0.10691462 0.019882746 0.040880453 -0.15587597 -0.008865088 0.023443699
0.07130865 0.16098113 -0.1535268 -0.09418311 -0.07190839 -0.101077706 -0.013990822 0.19073454
0.0043715406 0.039745398 -0.15941994 -0.118911766 -0.16329193 -0.09202128 -0.013457868 0.16067015
0.043827504 -0.17306799 -0.041715715 0.015963309 -0.16198085 0.088841654 -0.1613714 -0.01845432
0.03170623 -0.081585534 0.0058392356 0.09663241 -0.031021807 -0.11719066 -0.023436772 0.040454112
-0.14281425 -0.07689427 0.15497495 -0.0710943 0.043253984 -0.15845688 0.06320818 -0.13015479
0.11852646 0.074158326 -0.037692472 -0.0020826443 0.015612794 0.08717871 -0.028191626 -0.15647787
-0.12536502 0.07561429 -0.06223412 -0.012258327 -0.054132484 -0.12914173 -0.13480365 0.052572884
0.12142739 0.07635401 -0.015705476 -0.1635282 0.042533398 0.15699996 0.000650368 0.16406934
-0.12804148 -0.12669964 0.075430825 0.1310567 -0.13422285 -0.04475386 -0.051070474 -0.057483874
-0.11098724 -0.1271774 -0.13133591 0.033001803 -0.17420852 -0.0158869 -0.11435067 0.10896575
0.11761014 0.14237824 0.09450242 -0.030054074 0.014977855 -0.10836563 -0.14039525 -0.03962945
0.09231412 -0.01004068 -0.1168732 0.11036913 -0.02734925 -0.15944721 -0.06328867 -0.09903316
0.047636606 0.16709834 0.13354842 0.19373822 0.04839927 0.08797457 0.18759215 0.06635183
-0.13518219 0.12211185 -0.019083746 -0.14994733 -0.03437659 0.12439828 -0.042625528 -0.09293574
0.032251637 -0.07945914 -0.13154027 -0.06613306 -0.09571114 0.055480573 0.08528802 -0.112755865
0.13582663 0.14003418 0.13669159 -0.14202587 -0.17320235 0.12844399 -0.11815038 0.10336095
0.12507592 0.044160496 -0.17317052 -0.15830965 0.15780833 0.14556488 -0.08403512 -0.15147331
0.15152386 0.16490702 -0.19023961 0.0002495515 0.033882063 -0.09351279 0.10910581 -0.0353485
0.04197209 -0.08350119 -0.0043731257 0.11139195 -0.049793694 0.053746168 -0.08061027 -0.0683942
-0.07891864 0.1525881 0.09846497 0.06993319 0.08000577 -0.015201496 -0.055682696 -0.13506065
-0.1771948 0.07990329 -0.055788748 -0.068132766 -0.06257058 -0.17073844 0.021954032 -0.02972787

fc2_1.bias f4 [64]
00000000: 5d8d e93d 9def 083c 54bb 363a 9df8 e93d
00000010: 5ae6 a8bd da4a 223e a819 5f3d 6530 8fbd
00000020: 71cb 543e 5615 073e d354 0f3c 90b5 92bc
00000030: e981 093e 0a81 2fbe 2353 9c3d 7737 c13d
00000040: bfbd 02bc 9b0d 213e 0914 ef3d 1acd a23c
00000050: 31bd f93d ef96 913d 01b5 853c 6306 233e
00000060: 400d 3a3e 621d c8bd 35a1 1d3e b90f fbbc
00000070: 3afc f9bd b3bb 15be ead7 acbb 6173 cb3d
00000080: b841 ef3d a6d5 133e d603 d4bc 5bba bb3d
00000090: 0f91 b63d 628a b1bd 02b3 8bb8 5c09 ffbd
000000a0: a1e6 093e a217 b2bd 27f5 d5bd b99a 873d
000000b0: 4524 fd3d 244d 9a3b 3ecd 063e 1ba1 af3c
000000c0: 191c 283e 1869 f0bd 5185 ef3d d835 c2bd
000000d0: e0da 94bd e63a 18be 13fa 383e 6017 443d
000000e0: 649e 613d 5447 463c 5db6 723b 1861 863d
000000f0: 7e32 53bb 548e bdbd d975 c03d 8e05 27bd
0.11403916 0.0083579095 0.0006970663 0.11424372 -0.08247061 0.15848866 0.054467827 -0.069916524
0.20780732 0.13191733 0.008748251 -0.017908841 0.13428463 -0.17139068 0.076330446 0.09434407
-0.007979809 0.15727846 0.11673743 0.01987319 0.121942885 0.071088664 0.016321661 0.15920405
0.18169117 -0.09771229 0.15393527 -0.030647146 -0.122063115 -0.14622383 -0.0052747624 0.09934116
0.11682457 0.14436969 -0.025880735 0.09166404 0.089143865 -0.086689726 -6.661379e-05 -0.12452957
0.13466884 -0.08695914 -0.1044715 0.06621308 0.123604335 0.004708903 0.13164231 0.021439126
0.16416968 -0.11738795 0.1169535 -0.09482926 -0.072683096 -0.14866218 0.18064146 0.047873855
0.055082694 0.012101967 0.0037034967 0.06561488 -0.003222614 -0.092556626 0.09397478 -0.04077678

fc2_1_1.weight f4 [64, 64]
00000000: 361e 823d 64cc ddbd 0021 29bc 4080 9abc
00000010: bee9 90bd f4c0 b63d e0f6 3f3d d8e1 d43c
00000020: 84bc 9dbd 26ef 81bd 0a10 82bd 009f 003a
00000030: 2af1 f7bd 0021 a23b 4856 e93c 5681 953d
00000040: e406 ec3d b40e afbd 4012 2fbb 3409 bcbd
00000050: e429 c2bd 4a3b 93bd 1abb dabd 0867 d13c
00000060: 92f2 cfbd 7abd d3bd c0e6 19bc 1a9b f2bd
00000070: fceb b5bd 7c17 123d 2804 323d 501a 5fbc
00000080: 38a1 4dbd ac90 f8bd ca6a aabd f0f8 06bc
00000090: 34dd 7e3d 48a8 c83d f683 e43d 1ca3 12bd
000000a0: da54 efbd 7c25 0d3d 9c90 563d 54d5 743d
000000b0: 60f6 75bd 5022 8bbc 8460 a23d 28c7 45bd
000000c0: 3c24 a5bd acfc 7bbd 80d1 e43d dce1 02bd
000000d0: 8e49 d23d c0e5 11bb e48f 8dbd c0c3 d8bc
000000e0: 2802 32bd 20e6 5abd 1838 c03c c426 1a3d
000000f0: 780b 94bc e0b8 043c 68bd 8bbd 9cc3 5d3d
00000100: 70a3 b33d a8ef e43d e56f 92bd e1d2 ad3d
00000110: dc3f 5dbd 6184 64bd d860 f63c 8363 2abc
00000120: f71e 453d c28b c93c ba53 8fbd b393 e23d
00000130: bf4e 37bc a602 be3d 84e6 663d c0de 983b
00000140: b0bf e9bc d15d c73d 1bed f7bc 01b4 bb3c
00000150: 984f 323b 3fb8 9a3d 42ac aebd cf7d e23c
00000160: 9936 fe3c c447 da3d 072f b93d 9789 be3d
00000170: 3554 c0bc 6e88 dbbd aca3 79bd ccf7 043e
00000180: d7e1 a7bd 6e9e 113e 205e 823c 3986 f3bd
00000190: 3e46 3c3d 9cfd b23d a7ee ab3c 1703 733c
000001a0: a065 f23d 2c04 0abe ce27 9abd 7d7a 08bd
000001b0: 903c 4bbd 7a4e ba3d 95dd 933d 0e8a 27bd
000001c0: 0465 e73c 66b4 41bb c273 f4bd 11e8 5dbc
000001d0: 4e15 4c3d b8c6 353d aad2 0d3d 307f 8fbc
000001e0: 2a3d 62bd 8bd9 943d ce52 c1bd 8e9f 753d
000001f0: 8f56 843d a7ad e3bd 44f0 5d3d 700a c83c
00000200: 7541 f93d d692 f2bd e9b0 0ebd 4ec6 f73d
00000210: 68d0 30bd e795 8abd 56b2 ef3d d5d0 923d
00000220: a117 89b8 d5da 823d c52b 17bc a041 0e3b
00000230: be2f 76bd 70a7 d0bc 8486 ff3d 9c39 783d
00000240: baef 9abd 09f8 c9bd a639 e03c 50ac a13d
00000250: a297 a6bd 076f ff3d 7b00 79bb fb4e c7bc
00000260: 4821 e93d 9254 733d 69f6 9a3d 2e4e fcbc
00000270: 327c 9a3d e5ad 393d 08af ddbd 88e2 07bd
00000280: 2ca4 b4bd ddd5 ca3d 0e49 eebd 02d2 b23b
00000290: f4ed e1bd 70cc 363d 5a54 933d 1aef d0bd
000002a0: dc97 8a3d 4bb7 633d 8047 57bb 9a93 063c
000002b0: 1874 ff3c 3130 6c3c eeab e4bd ffe5 b43d
000002c0: c8e6 88bd 3c91 483a 6ef1 ffbd 5363 a5bc
000002d0: b676 bd3d 84ae 7ebd c5ab eebd 162e c83d
000002e0: 0ba1 ff3d 2d7b 313d 91ed 773d 0bee f53c
000002f0: a4e0 a13c 0e40 85bc 8329 193d 6030 7cbd
00000300: 1a92 ef3c f2a1 abbd 7a18 1a3c f235 923d
00000310: 3cdc c73d c46b 0a3c b38c d2bd e53e a9bc
00000320: 7e87 23bd db5a 083b f364 63bd 2783 e4bd
00000330: 7738 babd 24ec a03d 6a60 9abd e83f 653d
00000340: d061 dc3d 5d4f ea3d 1355 38bc b448 6abd
00000350: 7c82 833b 7d3b 063e 5e7a ae3c 340b 4f3d
00000360: ad55 a83d ee79 cbbd b443 b73b 5871 22bd
00000370: ab0b 893a 0342 ad3d 9239 f83d af64 00be
00000380: ec44 103e 50c8 15bc dc79 ec3d bb13 de3d
00000390: 2f67 513d a0b2 423d fad9 2f3d 9c25 6cbb
000003a0: 7789 aa3d 0b11 5bbd f049 31bd 46c7 e8bd
000003b0: 5866 d73d 825a 3ebd fcba 833c 2ea0 6c3c
000003c0: fc75 ac3d 3e20 d53d 28b9 d3bd 8467 83bd
000003d0: d171 883d 5c1e be3d a9a6 e43d 2ab0 74bd
000003e0: 62e5 c9bd cfca 69bd d24b f63d e6e3 d43d
000003f0: 52ae 923c db37 a6bd 3b7a 3cbd b864 c93d
0.063534185 -0.1083 -0.010322809 -0.018859982 -0.07075833 0.08923522 0.046866298 0.025986597
-0.07701972 -0.06344442 -0.063507155 0.00049065053 -0.12106545 0.0049477816 0.028483525 0.073000595
0.11524752 -0.08547726 -0.0026713759 -0.09181443 -0.09480646 -0.07189043 -0.10680218 0.025561824
-0.101536885 -0.10338874 -0.009393394 -0.118459895 -0.08882901 0.035666928 0.043460995 -0.013617113
-0.05020258 -0.12136969 -0.0832115 -0.008238062 0.062222674 0.09797722 0.11157982 -0.035800084
-0.11686106 0.034459576 0.052384004 0.059773758 -0.060049415 -0.016984135 0.07928565 -0.048285633
-0.08063552 -0.061520264 0.111727715 -0.031953678 0.10267936 -0.0022262186 -0.069122106 -0.026460528
-0.043459088 -0.05344212 0.023464248 0.037634626 -0.018071875 0.008100718 -0.06823236 0.054141626
0.087714076 0.11178523 -0.071502484 0.084874876 -0.05401598 -0.05579031 0.030075476 -0.010399702
0.048125234 0.024602775 -0.069983914 0.11063328 -0.011188208 0.09277849 0.05637218 0.0046652257
-0.028533787 0.09734691 -0.030264428 0.022912981 0.0027208086 0.075546734 -0.08528949 0.02764788
0.031031894 0.106582195 0.09042173 0.09303587 -0.023477653 -0.10719381 -0.060947105 0.12985152
-0.081973724 0.14220592 0.015914023 -0.11890835 0.045965426 0.087397784 0.020987822 0.01483228
0.1183579 -0.13478154 -0.075271234 -0.03331994 -0.049618304 0.090969995 0.07219998 -0.040903144
0.02824641 -0.0029556989 -0.119361416 -0.0135440985 0.049825005 0.044378966 0.034624733 -0.017516702
-0.05523411 0.072680555 -0.09439622 0.059966616 0.06461822 -0.11117106 0.054184213 0.02441904
0.12170688 -0.11844413 -0.034836683 0.120983705 -0.0431675 -0.06766873 0.11703937 0.07168738
-6.53707e-05 0.06389395 -0.009226744 0.0021706596 -0.060104124 -0.025470465 0.12476829 0.060601816
-0.075652555 -0.09861762 0.027371239 0.07894194 -0.081343904 0.12472349 -0.003799467 -0.024329653
0.11383301 0.059406824 0.0756653 -0.030798998 0.075432196 0.045331854 -0.108244 -0.03317502
-0.08820376 0.099040724 -0.11635028 0.005457164 -0.11031714 0.04462856 0.07193823 -0.10201855
0.06767246 0.055594724 -0.0032849014 0.008213902 0.031183288 0.014415787 -0.111656055 0.08832931
-0.06684643 0.0007651036 -0.12497221 -0.020188963 0.09251158 -0.06217815 -0.11653856 0.09774415
0.124818884 0.04333036 0.060529295 0.030020734 0.019760437 -0.016265895 0.037393104 -0.06156957
0.029244471 -0.08380498 0.00940525 0.071391955 0.09758803 0.008448545 -0.102807425 -0.020659873
-0.039924137 0.0020806107 -0.055516195 -0.11157828 -0.09092801 0.0785754 -0.07537921 0.05596915
0.10760844 0.114409186 -0.011250752 -0.05719824 0.0040133577 0.1310863 0.021298584 0.050547794
0.08219466 -0.099353656 0.0055927876 -0.039658874 0.0010455748 0.08459856 0.12120356 -0.12538408
0.14088792 -0.0091419965 0.1154668 0.10843607 0.051123794 0.04753363 0.042932488 -0.003603316
0.083270006 -0.05348305 -0.043283403 -0.113661334 0.105175674 -0.046473034 0.016080372 0.014442487
0.08420941 0.1040654 -0.1033805 -0.064162284 0.06662334 0.09283134 0.111646004 -0.059738316
-0.098582044 -0.05707818 0.1202618 0.10395031 0.017905388 -0.08116122 -0.046015006 0.09833664

fc2_1_1.bias f4 [64]
00000000: 88ec a2bd e8ff e93d 9c74 e3bc a2fa 883d
00000010: 394e edbc 087f 4a3c f64d 213d 6a1d f8bd
00000020: acee c53d ece3 153d 3875 efbd 0e89 bbbb
00000030: 181e 9a3d ee9d 543d bccf a8bd c815 cfbc
00000040: f285 8ebc 7b40 cb3c 8350 a2bc 3a27 f0bd
00000050: ca8e 5e3d da1d 163c d89c f4bd 85d2 a9bc
00000060: 4859 c53d 3e89 5b3d 2838 c1bb ee56 f4bd
00000070: f01b a63c 001e dbbd 1c11 f2bd 3123 5d3c
00000080: 9861 3a3d 7e12 c43c aeaa d63d 040b a4bd
00000090: af48 72bd 0090 ab39 f0c5 a33d b791 153b
000000a0: 3a32 483b c037 433d 65f9 84bd c2e5 b7bd
000000b0: 623b 9abd 55f5 e4bd 92e6 33bd 1faa 86bc
000000c0: 35bc e3bd df36 3fbd 48a7 6a3c 9180 833d
000000d0: 6605 be3d da96 823d b351 203d 86bc c13d
000000e0: 6850 a43d ec22 5c3c 60b5 f63d f464 de3d
000000f0: 7450 b2bd 7659 963d aeb7 6d3d 0cd4 9a3c
-0.07955271 0.11425763 -0.027765565 0.066884294 -0.028967964 0.012359388 0.03938099 -0.12114985
0.09664664 0.036594316 -0.116922796 -0.0057231253 0.07525271 0.051908426 -0.08242747 -0.02527894
-0.017397854 0.02481102 -0.019813782 -0.11726232 0.054335393 0.009162391 -0.11943978 -0.020730266
0.0963617 0.05359768 -0.005896587 -0.11930643 0.020276994 -0.106990814 -0.118196696 0.01349716
0.04550323 0.023934599 0.10481773 -0.080099136 -0.059151348 0.0003272295 0.07996738 0.0022822449
0.0030547515 0.04766059 -0.06492881 -0.0897937 -0.075308576 -0.11179606 -0.04392106 -0.016438542
-0.11119882 -0.04668319 0.0143221095 0.064210065 0.092783734 0.06376429 0.039140414 0.09459786
0.08023149 0.01343606 0.12046313 0.10859099 -0.087067515 0.07341282 0.0580365 0.01889994

fc2_1_2.weight f4 [32, 64]
00000000: 0c53 063d d4f4 ccbd bc51 60bd 8676 013e
00000010: 0a6b 123c 5cf4 c4bd bb19 acbd 8fe1 61bd
00000020: 075c 823a 58bc f83d 4d1d 963d 484b 7dbd
00000030: 9648 be3c ce97 c33d 5cec 24bd 2403 993d
00000040: cc02 0abc 1541 8c3d 3455 3a3d 80f2 513c
00000050: 7936 0d3d ee77 6a3b 2b9b a7bb ba1d e0bd
00000060: 7f4c 53bd f5e4 be3d 094e d23d e450 a2bd
00000070: 2c64 f03c 7c9c bebc f3b6 823d 9c4a a83d
00000080: f6ba d2bd 6cbe 9dbd dfd5 01be 5c29 c43d
00000090: 37ae 823d 503b 1c3d 3ff9 ce3d 4064 1f3e
000000a0: 2b6a db3d a57a e4bd de7f eabd b111 d6ba
000000b0: 508e 83bc c722 f63d 93a5 adbd 9b59 9f3d
000000c0: 7545 60bc d9fd 823d 5a11 c43d d40a ed3d
000000d0: 5b5f 97bc 9c32 753c 70dd e03a c5f9 863d
000000e0: 5b86 5dbd e786 993d b77e c8bd 26ce 02bd
000000f0: 689c b73d b8a2 9abd eff3 ef3d b47e 5a3d
00000100: c895 dfbd 2b9b 74bc 66ce 103c 4e6c 193e
00000110: 6175 d6bd c1ed cbbd 34d7 da3d 34ec 033d
00000120: e0cd 553d c775 1e3d 405e f63c c77b 2cbd
00000130: 86d7 843d 1982 77bd 542b 4dbd 88e3 c43d
00000140: e611 c9bc c791 e4bd be23 c13d 88f1 dc3c
00000150: 162e b1bd 3f3d 353d 4788 9c3c 3e8b 4d3d
00000160: bebb 0dbd f3e0 9b3d ce41 033c 5e62 f5bd
00000170: af11 fcbc 2932 d4bd c864 e3bb fa04 c53d
00000180: 1017 9b3d e796 54bc 07ba 853d 4040 583d
00000190: 15ba 193d 40e7 d43c 0fea e23d bc81 c93d
000001a0: 5331 ac3d f73e b8bd 64f3 51bd 7120 263b
000001b0: 2c93 e0bc f3a2 03be c64a bfbd e5a5 d3bd
000001c0: cae4 fdbd a591 04be 3e7e 9d3d 8178 59bd
000001d0: 3faf ae3c 00d4 ccbd 43ed 30bc 801a bb3d
000001e0: def4 afbd 2bfb 963d ec31 0f3b c0c3 3abc
000001f0: 9a6b c33d 1a9d f1bd da04 a73d 9a1a 173e
00000200: 0e21 b53d f82d 0c3d 1ed3 d4bd 5ce2 3bbd
00000210: 446d e0bd 0904 c5bd 9075 593d 2df7 4d3c
00000220: 151a 15bc ebd5 b9bd 9508 973c 7874 c83d
00000230: a60e e4ba 0b8e 95bd e26d 99bd 2d89 a73c
00000240: 77a3 e33c 5e98 23bc 2bfd d9bd 707b 8abd
00000250: 9087 29bd 9ff3 e8bc 79cf 3ebd ae84 23bd
00000260: 9d3f e23c 3e0c 89bd aa7f f9bd 9931 87bd
00000270: 48cb 8e3d 0264 72bd ce6c 04bc 9618 613d
00000280: 90b4 d83d 2c5b 843c 02ca 893d 40aa 9dbc
00000290: 640e febb 127a adbd 5d9a d0bc e7ca ec3d
000002a0: 4fc1 853d 2e35 89bd c8f3 5dbd 3d07 69bd
000002b0: c3ef 993d 613c 5f3d acc7 5abc fbb0 d73d
000002c0: 79d4 0abe e5db ca3d 6cbe b6bd 687d dc3d
000002d0: 085d af3d 95d8 2ebc 2ca4 24bb 94b9 34bd
000002e0: 4169 713c 4ef4 643d be13 d2bd 4259 c73c
000002f0: 3017 58bc aa9e afbc 2654 81bd 799e c4bd
00000300: 943b ab3d 9195 1a3d bf42 2bbc 3740 71bc
00000310: 9355 0e3d 4844 7dbd 8a79 b2bd 77f2 e43d
00000320: 63d3 27bb f11c cdbc 8f30 913c 5eba d4bd
00000330: 5aaa 07bd 7464 e7bd 80f8 d1bc dfd2 08be
00000340: eced 073d 62f6 02bd 8072 03be a43c 663d
00000350: c822 8fbd 3899 8bbd c649 a7bc 1cd6 233d
00000360: 70b9 aa3d 7a72 56bd 831f 763d 4580 533d
00000370: 3e6f 13bc e3bb 7b3d bdfb 493c 5e97 933d
00000380: 30eb 48bd 9fc3 b03d 6a4e 963d 9484 cb3d
00000390: 4ce4 a2bd 066f 873d 6e13 e4bc 0812 9ebd
000003a0: 50cf bf3c da30 623d db93 8dbd 3202 5d3d
000003b0: d26e ac3d 65db b73c 5d40 a5bd 3c59 3e3d
000003c0: b275 c3bd e331 073d 94c1 bb3d 4a84 bebc
000003d0: 8e0b fabc 0b17 9fbd 0f46 4e3d 29d2 cc3b
000003e0: 0287 5d3c f051 d5bb 14e1 a1bd 39b0 a83d
000003f0: e0f5 bc3d 2918 d1bd 3b77 e0bd 65fb 813d
0.032794043 -0.10007635 -0.054765448 0.1264287 0.008936653 -0.0961692 -0.08403345 -0.05514675
0.0009945639 0.12145299 0.073298074 -0.061839372 0.023227971 0.09550439 -0.040264472 0.07471302
-0.008423518 0.06848351 0.045491412 0.012814164 0.034475777 0.003577705 -0.005114933 -0.1094317
-0.051586624 0.09321014 0.1026879 -0.07925585 0.02934464 -0.023267977 0.06382551 0.082173556
-0.10289566 -0.07702336 -0.12679242 0.09578201 0.06380885 0.038142502 0.10106134 0.15565586
0.10713609 -0.11156205 -0.1145017 -0.0016332177 -0.01605907 0.12018352 -0.084788464 0.07780763
-0.013688435 0.06396074 0.09573622 0.11574331 -0.018478086 0.0149656795 0.0017155837 0.065906085
-0.05408321 0.07496434 -0.09789794 -0.03193488 0.08965379 -0.075505674 0.117164485 0.05334349
-0.109172404 -0.014929573 0.008838272 0.14982721 -0.10471607 -0.09957457 0.10685578 0.032207683
0.05219829 0.03868654 0.030074239 -0.04211023 0.0648642 -0.060426805 -0.05009015 0.09613711
-0.024544667 -0.11160617 0.094306454 0.02697064 -0.08651368 0.044247862 0.01910795 0.05018162
-0.034602873 0.07611265 0.0080112945 -0.11981653 -0.030770151 -0.1036113 -0.0069395043 0.0962009
0.07572758 -0.012975431 0.065296225 0.05279565 0.037530977 0.025989175 0.110797994 0.09839198
0.08407845 -0.089963846 -0.051257506 0.0025348926 -0.027413927 -0.12855129 -0.09340434 -0.10334376
-0.12397154 -0.12946184 0.076900944 -0.053093437 0.021323798 -0.10001373 -0.010798755 0.09135914
-0.085916266 0.07372125 0.0021849824 -0.0113992095 0.09542008 -0.11797543 0.08155222 0.14756241
0.08844195 0.034223527 -0.1039183 -0.04587017 -0.10958341 -0.0961991 0.053090632 0.012571138
-0.009100457 -0.09074005 0.01843671 0.0978784 -0.0017399385 -0.07302483 -0.074916616 0.020451153
0.027787907 -0.009985058 -0.10643991 -0.06761825 -0.041389048 -0.02843648 -0.04658458 -0.039921455
0.027618224 -0.06691788 -0.12182553 -0.06601257 0.069723666 -0.059177406 -0.008082582 0.054955088
0.105813146 0.016156755 0.06727983 -0.01924622 -0.0077531803 -0.08470549 -0.025464231 0.11562138
0.06531011 -0.06699596 -0.054187566 -0.05689167 0.07516434 0.05450094 -0.01335327 0.10531803
-0.13557614 0.09905223 -0.08923039 0.10766107 0.08562666 -0.010671754 -0.0025122268 -0.044122294
0.014734567 0.05589705 -0.10257672 0.024334554 -0.013189122 -0.021437962 -0.06314878 -0.09600539
0.08360973 0.037740294 -0.010452925 -0.014724783 0.03474958 -0.061832696 -0.08714588 0.11179059
-0.0025608174 -0.025038214 0.01772335 -0.10387109 -0.033121444 -0.11298457 -0.02563119 -0.13361691
0.033185884 -0.03197325 -0.12836647 0.056210175 -0.06989056 -0.068163335 -0.02042092 0.039999112
0.08336151 -0.052355267 0.060088646 0.051636 -0.00899869 0.06145848 0.0123280855 0.072066054
-0.049052417 0.08631062 0.07339175 0.09937397 -0.079537004 0.06612973 -0.027841296 -0.07718283
0.023414284 0.05522237 -0.06912967 0.05395717 0.08419575 0.022443483 -0.08068917 0.04647182
-0.09543933 0.03300656 0.091677815 -0.02325644 -0.030523088 -0.07768067 0.05035978 0.006250639
0.013520958 -0.006510012 -0.07904258 0.08236737 0.092265844 -0.10209686 -0.109602414 0.06346778

fc2_1_2.bias f4 [32]
00000000: b7ce a93d 8864 c43d 51f6 61bd 9cc2 a43d
00000010: 622a 0d3b 0850 873d f291 9cbc 2f14 b1bc
00000020: b755 873d 3a12 dc3d d98a d6bd 2a75 863d
00000030: 0097 64bd ccf2 813d 8e0b 04bd f5b4 103d
00000040: 2651 4ebd d628 683d 0a89 ed3d 8011 f0bc
00000050: 698f 973b e8e5 30bd 3795 45bd 15b5 93bd
00000060: 1557 9bbc 6644 6dbd 966e 963d dcb3 ff3d
00000070: 6bfc 67bb f5d7 79bd 640f 7e3d 1586 73bd
0.08291381 0.09589487 -0.055166546 0.08044931 0.0021540155 0.066070616 -0.01911256 -0.02161607
0.06608146 0.10745664 -0.10475702 0.06565316 -0.055808067 0.06345138 -0.032237582 0.035328824
-0.050370358 0.05667957 0.11598404 -0.02930522 0.00462525 -0.043188006 -0.048238005 -0.07212273
-0.018962422 -0.057926558 0.07345311 0.12485477 -0.0035398256 -0.06099697 0.062026396 -0.059454042

fc2_2.weight f4 [16, 32]
00000000: b6cd 00be 6db6 eebd 91eb 22be 25f9 8c3d
00000010: 3731 263e db25 3d3d 51a1 f43d f583 b1bb
00000020: d075 01bc 8eb5 d0bd dae7 30be 9eda dcbd
00000030: 88f1 093e 8200 2abe cc03 d43d 8167 fc3d
00000040: ee3f cfbd 5f32 af3d 113c 7dbd 0dc8 963d
00000050: 8ce6 0fbe 4195 823d f47f 07be 17a8 30be
00000060: db4a 27be 3ea2 b03c e826 6fbc f75a 3bbc
00000070: 847d ac3d 9301 4e3c 97df a73d 570c 7e3d
00000080: eb1c 35be 453a 3ebe 6519 af3d b208 a3bd
00000090: 0cb8 1cbe b85c c6bd 9061 d03d fb31 a2bd
000000a0: fd11 5d3d 07aa ad3d 3a05 1c3c 9990 cf3d
000000b0: 82d6 5bbd 0733 a5bd d392 003e 9b10 133e
000000c0: 2956 f5bd 4fbf 44bd 1791 053e 06ee 5d3c
000000d0: 2392 883d 2586 2ebd 2de4 8abb a296 03be
000000e0: 0217 253e 47bb 9d3c ed40 813d 5cd6 c4bd
000000f0: 195f 3abe d7e4 bdbd a4bb 03be 410f 5e3d
00000100: 3def d1bd b2fc 5b3d f5cb 1dbd 1aa1 053e
00000110: b9ed 113e 325a 213e 0fa0 253e fc11 21bc
00000120: 9d4f e1bd b774 113d 70bf 0fbe b850 c0bd
00000130: 6ddf fb3d 9378 1a3e a057 3fba ef8f 7a3c
00000140: 8139 cc3d 740b e73c bbb5 3d3e 36cf b73c
00000150: a074 cabd 959d 723d 37e9 0bbe 6406 0a3e
00000160: f269 14bd a370 28bd 477c a0bd 8893 13bd
00000170: aca5 c83c 31cb 6e3b 9a81 0e3e 752b 7dbc
00000180: 9736 37be 1fcb 043d 7fd0 bdbd 038f 093d
00000190: 5a4a 2cbe 7899 06be f45b 0ebe a170 233e
000001a0: 12de 723d 324f ebbd cb88 6ebd 4855 41bd
000001b0: 8de6 303d 0c6f 2bbd 4356 0fbe eb98 253d
000001c0: cb6c ad3d 96cf bf3b dca8 2abb 9e78 133e
000001d0: a6a8 ff3d 3a02 edbc 669f 993d 1b02 f2bd
000001e0: fbb8 2ebe 8d8d e83c 4ce2 04be 20fc ab3d
000001f0: 2962 d53d b75d 1d3e 6ec5 42be f88d 1e3d
00000200: f1cb 0c3e 434d 2e3d 4cc7 cbbc 9c71 e6bd
00000210: ea5f 0f3e 01b5 913b ed5a e23b 3528 9fbd
00000220: f183 163e 3045 2ebe da65 e13d a11b c9bc
00000230: 1f68 95bd ab5f f3bd ce6a 173d 1bd6 cebc
00000240: c773 a23d f62e 41bd 205b 1e3e 5d70 f3bd
00000250: 146b 0dbe 9a58 bebd 45e3 22be 75b6 f5bd
00000260: 6bf7 0bbe c728 133e 2bd8 253e 9e52 0f3d
00000270: 798e ddbd 6e06 17be 76fa 053e 7599 cb3d
00000280: 5e92 c43d 037f 9fbd bab5 0b3e ed42 123e
00000290: bd95 7e3d ed03 293c 76e5 f33d 18b4 cb3d
000002a0: 17f8 d83d 7c62 42bd af38 05bc 6942 19be
000002b0: 8666 143c 62f0 363d fb69 fe3d 5611 21be
000002c0: f60a 163e 8f16 e4bd a6a6 1abe ec13 263e
000002d0: fdcc e7bd d97b 503d 7eaf c43c 5870 38bd
000002e0: c820 153e 3caf 02bd 1963 efbb 5a05 0f3e
000002f0: 1084 ecbd ec9c a33d 399e a23d 8916 193d
00000300: c9ec babb 6b24 153e 8ec4 343e 3b13 74bd
00000310: fc06 f23c 51c5 17be ee46 95bd fe5e d43d
00000320: 3ea5 b0bd 958a ec3d ea68 533d cce7 bcbc
00000330: 3b5f 253e 7006 0dbe c2ee 253e b1da c13d
00000340: eaa5 913d 2765 9c3d 63e0 c23d b667 6c3d
00000350: bed7 463e 86a3 7bbb 5e6c 313e a6d0 ffbc
00000360: 8c1a f8bd c186 d4bd 04f8 4d3e 925d 4b3e
00000370: 8589 203e ba83 b2bc 7cd3 a03d 8e41 0dbe
00000380: cb3b 61bd 461c d13d 1976 bbbd 8a2a 9d3c
00000390: 56f7 b5bd cc55 123e 65d8 debd f120 fbbd
000003a0: 625b 383e 2d27 8dbd 4fbf bb3d 0308 c2bc
000003b0: 3cca c8bb e654 a4bd d917 223e 4fa9 813d
000003c0: 3f33 153e 8a26 3a3e 5da8 61bc c05f b2bd
000003d0: d078 ce3c c0ae e1bd 1a42 f83d 97f4 02be
000003e0: 006c 643c b4de c5bd 96a4 3b3c 62a1 9d3d
000003f0: b9df e6bc ce5c e03c b648 d1bd 84ce 87bc
-0.12578472 -0.11655889 -0.15910174 0.06883458 0.16229711 0.04617868 0.11944831 -0.005417342
-0.007901624 -0.10190879 -0.17275944 -0.107838854 0.13471043 -0.16601756 0.10352287 0.12324429
-0.101196155 0.085545294 -0.061824862 0.073623754 -0.1405279 0.06376124 -0.13232404 -0.17251621
-0.16337149 0.021561738 -0.014596678 -0.011435262 0.08422378 0.0125736175 0.08196943 0.062023487
-0.17686813 -0.18576916 0.085497655 -0.07960643 -0.15304583 -0.096856534 0.101748586 -0.07919689
0.053972233 0.08479696 0.0095227305 0.10135002 -0.053671367 -0.08066373 0.12556009 0.14361803
-0.11979324 -0.04803401 0.13043629 0.013545519 0.06668498 -0.0426084 -0.0042386265 -0.1285043
0.16122058 0.01925434 0.06311212 -0.09611198 -0.1820034 -0.09272163 -0.12864548 0.054213766
-0.10250709 0.053707786 -0.038524587 0.13049737 0.1425084 0.15757063 0.16174339 -0.009830948
-0.11001513 0.0355117 -0.14037871 -0.09390396 0.122984745 0.15085058 -0.0007299129 0.0152931055
0.099719055 0.028203703 0.18526356 0.022437673 -0.09885526 0.059232313 -0.13663183 0.13479
-0.03623385 -0.041123044 -0.07836204 -0.03602937 0.024493061 0.003643703 0.13916627 -0.0154522555
-0.17891918 0.032420274 -0.09268283 0.033583652 -0.16825238 -0.13144481 -0.13902265 0.15960933
0.059293814 -0.11489715 -0.058235925 -0.04720047 0.04318862 -0.04185395 -0.1399775 0.040429037
0.08468016 0.0058536036 -0.002604059 0.1440148 0.12483339 -0.028931726 0.07501106 -0.11816808
-0.17062752 0.02838781 -0.1297695 0.083976984 0.10419113 0.1536778 -0.19020626 0.03870961
0.13749672 0.04255415 -0.024875306 -0.11252138 0.14001432 0.004446626 0.006907812 -0.07771341
0.14698769 -0.1701858 0.11005755 -0.024549307 -0.0729525 -0.118834816 0.03696709 -0.025248578
0.07932239 -0.047163926 0.15464449 -0.11886666 -0.13810378 -0.09294243 -0.15907009 -0.119976915
-0.13668601 0.14371024 0.16195743 0.0349909 -0.1081819 -0.14748546 0.13083825 0.09941379
0.0959823 -0.077878974 0.13643542 0.14283343 0.06215452 0.010315877 0.119090006 0.099464595
0.105941944 -0.047457203 -0.00813119 -0.1496674 0.009057647 0.04466284 0.12422558 -0.1572927
0.14652619 -0.11137115 -0.15102634 0.16218537 -0.11318395 0.05089936 0.024009462 -0.045029014
0.14563286 -0.031905398 -0.0073055145 0.13966885 -0.115486264 0.07988915 0.07940335 0.037375007
-0.0057044965 0.14564674 0.17653105 -0.059588652 0.029544346 -0.14821364 -0.072889194 0.10369681
-0.086252674 0.1154987 0.051613726 -0.023059748 0.16149609 -0.13771987 0.1620436 0.0946554
0.07111724 0.07636481 0.095154546 0.057716094 0.19418237 -0.0038397028 0.17326495 -0.031227421
-0.121144384 -0.10377265 0.20114142 0.19859913 0.1567746 -0.021791328 0.078528374 -0.13794538
-0.054988664 0.10210471 -0.09153385 0.019185323 -0.08885066 0.14290541 -0.10881118 -0.122621424
0.1800361 -0.06892238 0.091673486 -0.02368546 -0.006127624 -0.080240056 0.1582941 0.06331121
0.1457033 0.18178764 -0.013773051 -0.08709669 0.025204092 -0.11019659 0.12121983 -0.12788616
0.013941765 -0.09661618 0.011452815 0.07696797 -0.028182851 0.027388003 -0.10218947 -0.016577967

fc2_2.bias f4 [16]
00000000: 4480 943d 38c8 ec3d a8b5 dabc f1b0 0bbe
00000010: c4b8 cb3c dd70 39be a212 ed3c ce11 9d3d
00000020: 26a9 18bd 1269 30bd 5951 08bd 484b ffbd
00000030: 2e76 aebd 92d2 253e ead6 84bd 4fb9 d9bd
0.07251027 0.11561626 -0.026697949 -0.13641717 0.024868377 -0.1810946 0.028939549 0.076694116
-0.037270688 -0.043068953 -0.033280704 -0.12465531 -0.08518635 0.16193607 -0.06486304 -0.10631048

fc3.weight f4 [30, 16]
00000000: 1997 7bbd 104d cebd 61ff 963d 79d5 a5bd
00000010: d50b 343e ee9f dd3c 0a39 333d aefc 443d
00000020: df67 443e 16e5 893e 25b4 653e fe54 263e
00000030: 7cdd 093d a7eb 2f3d 933d 453e c77e df3c
00000040: 51b1 cbbd 15c5 1a3d 9b08 8d3e 2296 323e
00000050: 0251 07be 067a 0bbe a582 973d 7c9f 303e
00000060: fa64 863d 7ed3 04be 58db f8bd e366 86bd
00000070: 92e0 4d3e 7ac9 13be 6344 163e 770f 60bd
00000080: e699 92bd 5527 e9bd 4ea9 24be ce7f 8dbd
00000090: efe7 b3bd a31d 17be 01d4 6fbd b272 a13e
000000a0: f93e 74bd d09f ccbb a961 463d ed00 2a3d
000000b0: feae 093e 8fb4 563e 3812 20be 7eca 05be
000000c0: 9f09 2b3e 7c30 7e3e 8e05 a13d fc81 913c
000000d0: cec1 b23d be1a f4bd 6a7b 403e cce0 a93d
000000e0: 1ac6 423e 65cd 7b3e 4d5b 9b3d 5b9d 603e
000000f0: 2a67 7ebd 4fd9 85bd cf98 6ebd db28 b8bd
00000100: 4dd5 0fbe 8cd0 abbd 8ecd a83d 1937 f23d
00000110: 6792 0dbe 5438 6fbe 3ddd 6dbd 8a10 df3d
00000120: 5f83 debc 3474 dcbd 4068 19be 7e86 133e
00000130: 9304 9bbd 5ea4 2abe bbcf 01be 1eba 5dbe
00000140: a26c 09bd cbb3 293e 419f 963d 6942 113d
00000150: 3cde 46bd b6db 2cbe 6803 4b3d da91 bf3d
00000160: abb6 6d3d 21c4 25be b383 2dbd 3338 6f3e
00000170: 13ec ab3d c203 a0bd 2e3b 01be 4e14 8fbd
00000180: fe68 2bbd b2c1 c13d 876a e23d 9bf9 c63d
00000190: 4075 be3d c3cd 5d3e 54a2 d3bd 6428 fe3d
000001a0: b506 3cbe b00b d23d 0382 6ebd aa57 e8bc
000001b0: d0c0 373c 614e 563c 9940 4c3e eb07 2abe
000001c0: 5b04 8e3d 8991 5c3e edc9 973d b59a 253e
000001d0: 1f5e 173e 3a9a 973d 26e6 4f3e 5ba8 f3bd
000001e0: e511 25be 2294 a23d ca09 083e ea71 6bbe
000001f0: 8f3d cabd 4ee0 ee3d 21f3 043c 6a2d 3c3e
00000200: b9ec 433d 50bd 3cbd a2ee f13d fdd6 e03d
00000210: c6b7 8e3e cde4 1bbb 6f0f ab3d da94 3f3d
00000220: fe73 efbc 53e5 1e3d a1aa 24bd 5e95 1a3e
00000230: a820 43be cc17 20bd 0120 06be a8ad 44be
00000240: 40f9 44bd 379d 02bc 9c8d b93d 1e6d 9d3d
00000250: e560 9b3e 5372 773e a53d 9a3e d3eb 93bd
00000260: 8df9 773e 5d6d 423e f2d8 1fbd 8a13 92bc
00000270: 9103 023e afab a9bd 2b4f 373d 83c8 1dbe
00000280: 30b5 1fbd e5bf ba3a a4d4 5f3d aaa2 dcbd
00000290: 9f2f 993d abf5 9ebc 3c00 433e 81e4 833e
000002a0: 192b f93c 4086 85bd 95b1 64bb 8100 20be
000002b0: 7cdc 95bd bf96 4e3e 7fa8 29be 48c2 b7bd
000002c0: 5733 27be 60a1 433e 99e4 1cbe 7467 ccbd
000002d0: c0e7 0ebe eb14 1b3e 857b 8e3e 8179 a7bd
000002e0: 89ee 613e a46e c63d ebe9 fe3c eeab ca3d
000002f0: 2a15 92bd 5b90 a53e caec 2e3e 03b0 523e
00000300: 57f3 423e 6556 ee3d 1e35 babd 4e7e e23d
00000310: 8fa6 d9bd 66d3 ba3d a876 d53d 4c90 5d3e
00000320: bc8e 773e b2b2 0e3e 6f6e ddbd 715e 69be
00000330: a6ed 403e aa3f 813d 472f e8bd 7584 b0bd
00000340: 3b99 d13d ffd3 61bd dc2c 38bd 4858 b8bd
00000350: b701 843e b879 9bbd aab2 41bd a440 e2bd
00000360: c1c1 b8bc 302a 803c bd0a 09be fc31 193e
00000370: 6d0f 273e 65b4 9c3e 08e0 6a3e c74b 58bc
00000380: fa61 8e3e 4237 093e 0f2f 803e a5ae 16be
00000390: 89d5 283e df1a e43b 7290 0e3e eee8 31bd
000003a0: 1ca3 1dbe 9f30 f2bd eaa5 3fbe 4d67 173d
000003b0: 429d e6bd de4e cf3d 70db 7b3d c448 b03d
000003c0: 56de 10be 5d57 833e 2602 21bd 0b89 753d
000003d0: ead3 ea3c 1543 a23d b6a7 da3d 592e 293e
000003e0: 857f e03d d49d 0abc a476 193e 8315 25be
000003f0: e436 4ebe 0e61 ab3d d478 ce3d 5625 283e
-0.061423395 -0.10073292 0.073729284 -0.08097357 0.17582639 0.0270538 0.04375557 0.048092537
0.19180249 0.2693259 0.22432001 0.1624336 0.03365849 0.042949345 0.1926177 0.027282132
-0.0994593 0.03778561 0.27545628 0.17440084 -0.13214496 -0.13620767 0.07397965 0.17248338
0.065622285 -0.12971303 -0.121512115 -0.06562593 0.20105198 -0.14432326 0.14674525 -0.05470225
-0.0715826 -0.11384455 -0.1608021 -0.069091424 -0.08784472 -0.147574 -0.058551792 0.31532818
-0.059630368 -0.006244637 0.04843298 0.04150479 0.1344566 0.20967315 -0.1563195 -0.13065526
0.16702889 0.24823183 0.078623876 0.017762177 0.087283716 -0.11919163 0.18797079 0.0829483
0.19020882 0.2459007 0.075857736 0.21935026 -0.062110104 -0.06535589 -0.0582512 -0.089921676
-0.14046212 -0.083893865 0.082423314 0.11826915 -0.1382538 -0.23361331 -0.058072317 0.108918265
-0.027162252 -0.107643515 -0.14981174 0.14406773 -0.07569232 -0.16664264 -0.12676899 -0.2165303
-0.033550866 0.16572492 0.07354594 0.035463724 -0.048551783 -0.16880688 0.049563795 0.09353991
0.058035534 -0.16188098 -0.042361926 0.23361282 0.08394637 -0.07813217 -0.12620232 -0.06986295
-0.041848175 0.094607726 0.11055475 0.09715577 0.092997074 0.21660523 -0.10333696 0.12410048
-0.18361934 0.102561355 -0.058229458 -0.028362114 0.011215404 0.01308021 0.19946517 -0.16604583
0.069344245 0.21539892 0.07411561 0.16172297 0.14781998 0.07402463 0.20302638 -0.11897346
-0.16120107 0.0793841 0.13284984 -0.22992674 -0.098750226 0.116638765 0.008114607 0.18376699
0.04783318 -0.04607898 0.11813094 0.10978506 0.27874583 -0.00237875 0.08352553 0.046772815
-0.029230114 0.03879292 -0.040201787 0.15096042 -0.19055426 -0.039085194 -0.13098146 -0.1920687
-0.048089266 -0.007972053 0.09060213 0.07686828 0.30347362 0.24164705 0.30125156 -0.07222714
0.2421629 0.18987031 -0.039025255 -0.017831583 0.12696673 -0.08284699 0.044753235 -0.1540852
-0.038991153 0.0014247863 0.05464615 -0.10773213 0.07479786 -0.019404253 0.19043058 0.25760272
0.030416058 -0.06519747 -0.0034895886 -0.15625192 -0.07317445 0.20174693 -0.16568182 -0.08972603
-0.16328178 0.19104528 -0.15321578 -0.099806696 -0.13955593 0.15144698 0.27828613 -0.08177472
0.2206365 0.09689072 0.0311174 0.09896074 -0.07132943 0.32336697 0.17082515 0.20574956
0.1903814 0.11637572 -0.090921625 0.11059247 -0.10627472 0.09122352 0.104230225 0.21637076
0.24175543 0.13935354 -0.10812079 -0.22789933 0.18840656 0.06310971 -0.113371424 -0.08619014
0.102343045 -0.055133816 -0.044964656 -0.09001213 0.25782558 -0.075915754 -0.047289528 -0.110474855
-0.022553327 0.015645117 -0.13383003 0.14960474 0.16314478 0.3060638 0.22937024 -0.0132016605
0.27809125 0.13399985 0.25035903 -0.14715059 0.16487707 0.006961211 0.13922289 -0.04343503
-0.15394253 -0.1182568 -0.18715635 0.03696375 -0.11260463 0.101224646 0.06148857 0.08607629
-0.14147314 0.2565259 -0.03930869 0.059945147 0.028665502 0.07922951 0.106765196 0.16521586
0.109618224 -0.008460481 0.14986664 -0.16121487 -0.20138127 0.08368121 0.1008164 0.16420493

fc3.bias f4 [30]
00000000: 099c 0cbc a301 103d 512b a1bd 4a33 d3bd
00000010: 70a1 733e 3eba 773e e298 bb3d 3c53 4a3e
00000020: 1bfc eb3d b085 e3bd f16a b13d 34e5 b7bd
00000030: f9bc 373e a6b4 32bd 5052 9e3c e434 fa3d
00000040: 4e0d 18bd 5fa1 acbd 061b 8dbc c99b 153e
00000050: 2a5b c2bb 13f1 c9bc f1e3 203d ea0c cfbb
00000060: 7bff dc3d e993 bc3b 5bd2 113e 05c1 003e
00000070: dac8 80bc 47ea 9ebd
-0.008582124 0.03515781 -0.0786959 -0.10312517 0.23792052 0.2419214 0.091600195 0.19758314
0.11522695 -0.11109483 0.086629756 -0.08979264 0.17943181 -0.04362931 0.019326359 0.12217119
-0.037122063 -0.084292166 -0.0172248 0.14610209 -0.0059312778 -0.024651086 0.039279882 -0.006318678
0.107909165 0.005754937 0.142404 0.12573631 -0.015720773 -0.077595286
