Heater_Results/uniform_S30_vshape_Iter20_Epoch10.pth (torch, 44224 bytes, 14 tensors)

fc1.weight f4 [8, 3]
-0.16056694 0.5111679 0.19112489 0.12674886 0.43788552 0.04214808 -0.53940064 -0.3002628
-0.2648922 -0.35426545 -0.10924826 0.06999871 -0.005901118 0.23479386 -0.18596229 -0.29651952
-0.030045366 -0.020753508 0.21184531 -0.26091072 0.4182467 -0.137708 0.030241428 0.39752463
00000000: a96b 24be e6db 023f 3eb6 433e 74ca 013e
00000010: 8832 e03e 77a3 2c3d 2916 0abf 0cbc 99be
00000020: f39f 87be 4862 b5be 8dbd dfbd 7c5b 8f3d
00000030: 2a5e c1bb cd6d 703e e66c 3ebe 68d1 97be
00000040: b321 f6bc 4303 aabc faed 583e 1796 85be
00000050: 6e24 d63e 5303 0dbe dfbc f73c 5988 cb3e

fc1.bias f4 [8]
-0.1292103 0.23124513 -0.5576152 -0.45378464 0.06760736 -0.31873232 0.18582049 -0.50653034
00000000: b44f 04be 86cb 6c3e dfbf 0ebf 7656 e8be
00000010: ba75 8a3d e230 a3be ba47 3e3e f9ab 01bf

fc2.weight f4 [32, 8]
-0.0030408222 0.23803136 0.31010568 0.1297574 0.024754496 0.008564535 -0.117149696 -0.0684802
-0.11306448 0.05748135 0.074557565 0.032942273 0.30135703 0.1425403 -0.2842812 0.23088747
-0.26473024 0.13495556 -0.22659215 0.050091974 -0.18728022 -0.05843538 0.36746287 -0.28302547
-0.19108212 0.18347234 0.04979296 0.0068811667 0.30566677 0.19949679 -0.09095677 0.3589681
-0.1635347 -0.041739203 -0.3074517 -0.05865366 0.044796538 0.17318338 -0.3220299 0.2654097
0.34858674 -0.1503204 -0.10676555 0.25141427 -0.11820711 -0.18548001 -0.21347366 0.1350731
0.24090664 0.20264499 -0.07898951 0.28199124 -0.32338974 -0.14445081 0.14203447 0.13331087
0.32218954 0.27373698 0.1484017 -0.12360483 -0.32810205 -0.023046529 0.21132615 -0.061089233
-0.13944836 0.104904965 -0.036572423 0.055187512 0.04915445 -0.2279889 0.23731062 -0.19506565
0.2774315 0.32489607 0.25100353 -0.17853726 -0.18896277 0.21714553 0.32677966 -0.01342449
-0.050322454 0.20900474 -0.25810528 -0.32166755 0.092971414 -0.15340884 -0.19465005 0.008396749
-0.16035318 -0.25884867 -0.27187726 0.019141119 -0.1443857 -0.17586754 0.17358568 0.24782194
-0.28296444 -0.013778689 0.21732701 0.22847271 -0.10390138 -0.17053883 0.002383067 -0.32580954
0.14694662 -0.13226964 -0.3071838 0.09399582 -0.25332975 -0.11012651 0.3269557 0.34071738
-0.0399181 -0.1430622 -0.31639314 -0.11778843 -0.04031991 -0.14858513 0.24914484 0.017582465
-0.30246946 -0.046872053 -0.24113034 -0.06877789 -0.14476828 -0.06934105 0.34841627 0.011260521
-0.014018362 0.052769996 0.075224705 0.25248367 0.21637575 -0.3217403 0.19729328 0.24833646
-0.05438086 0.2792892 0.3117094 0.24487668 0.23917848 0.049829207 0.17580642 -0.28986117
-0.23090264 0.067098245 0.0046131834 0.25750914 0.07970972 0.1183333 -0.04913412 -0.28793833
-0.2615248 -0.27792147 0.018502677 0.32923287 0.18048035 0.004645257 0.18294838 -0.14688158
-0.0014539867 -0.11879784 -0.026240459 0.28642255 -0.1589738 -0.0072124214 0.019783027 0.29269463
-0.039087072 -0.16987503 0.31662983 -0.32370898 0.06847678 -0.2931331 -0.1571296 0.03703161
-0.2292367 -0.031972922 -0.2119581 -0.0034269167 -0.24949749 -0.22507879 0.32847145 0.2796833
-0.0035770875 -0.2607353 -0.23190305 -0.1695124 -0.348055 -0.008097168 0.18784334 -0.13894425
-0.30992877 -0.045671955 0.14598079 -0.057006232 -0.18145807 -0.16290818 -0.120650545 0.25579664
0.23496366 -0.19938664 -0.16100433 -0.079597734 0.28051963 -0.2613134 -0.15015708 0.09538493
0.05290774 -0.10300777 0.16106017 0.22859246 0.23852324 0.30920827 -0.09727291 -0.3096059
-0.165441 0.018849641 -0.19205484 0.22152917 -0.33338118 0.2936867 0.20116371 0.20979168
0.12584525 -0.18832365 -0.071697436 -0.1830546 0.1987117 -0.26477203 0.20611832 -0.10232976
0.03713212 0.21005203 0.3087331 0.12332678 -0.09494886 0.2805054 0.0145061305 -0.25976717
0.15248634 -0.109614134 -0.27205062 0.21546774 0.20977905 -0.2034631 0.03079074 -0.12905812
0.13921563 0.189801 -0.14645928 -0.29334715 -0.3287187 -0.04487649 0.12880705 0.27439278
00000000: 8848 47bb 7ebe 733e 2cc6 9e3e 20df 043e
00000010: f1c9 ca3c 4352 0c3c 2eec efbd 593f 8cbd
00000020: 5a8e e7bd 9071 6b3d a3b1 983d 7aee 063d
00000030: 784b 9a3e 16f6 113e 4e8d 91be c46d 6c3e
00000040: b98a 87be ca31 0a3e c607 68be 3e2d 4d3d
00000050: 63c6 3fbe f059 6fbd 1824 bc3e b7e8 90be
00000060: 08ab 43be 2ce0 3b3e b4f3 4b3d 697b e13b
00000070: 5b80 9c3e e348 4c3e 8b47 babd abca b73e
00000080: a475 27be baf6 2abd 4f6a 9dbe d23e 70bd
00000090: 937c 373d fc56 313e 1ae1 a4be c8e3 873e
000000a0: f679 b23e 97ed 19be e6a7 dabd 5fb9 803e
000000b0: 9216 f2bd 79ee 3dbe d798 5abe 9a50 0a3e
000000c0: 3bb0 763e 2b82 4f3e 41c5 a1bd 2861 903e
000000d0: 5793 a5be eaea 13be 7c71 113e a582 083e
000000e0: 07f6 a43e 4127 8c3e 9ef6 173e 8724 fdbd
000000f0: fefc a7be 13cc bcbc e265 583e b438 7abd
00000100: 8dcb 0ebe 6ad8 d63d f7cc 15bd 4d0c 623d
00000110: 2d56 493d ec75 69be 8e01 733e 4abf 47be
00000120: 800b 8e3e c758 a63e 8983 803e 79d2 36be
00000130: 757f 41be 665b 5e3e aa4f a73e 64f2 5bbc
00000140: eb1e 4ebd 5705 563e 6026 84be 9cb1 a4be
00000150: cc67 be3d 3517 1dbe 5852 47be 8592 093c
00000160: a033 24be d087 84be 7f33 8bbe d6cd 9c3c
00000170: d8d9 13be 9f16 34be 72c0 313e 09c5 7d3e
00000180: b7e0 90be 03c0 61bc f98a 5e3e c0f4 693e
00000190: 3fca d4bd bba1 2ebe 3b2d 1c3b 82d0 a6be
000001a0: 2d79 163e b171 07be 3247 9dbe e180 c03d
000001b0: 70b4 81be 028a e1bd bd66 a73e 8272 ae3e
000001c0: 2981 23bd e67e 12be 48fe a1be 0f3b f1bd
000001d0: 7d26 25bd b326 18be d31f 7f3e 1a09 903c
000001e0: 47dd 9abe e9fc 3fbd dfea 76be 6cdb 8cbd
000001f0: 233e 14be ae02 8ebd 9e63 b23e 0c7e 383c
00000200: 46ad 65bc 5a25 583d 690f 9a3d 8a45 813e
00000210: 9b91 5d3e 25bb a4be 4007 4a3e ea4b 7e3e
00000220: 77be 5ebd fefe 8e3e 6098 9f3e f4c0 7a3e
00000230: 34eb 743e b619 4c3d 9906 343e af68 94be
00000240: be71 6cbe ce6a 893d 302a 973b 3dd8 833e
00000250: da3e a33d bb58 f23d dc40 49bd a76c 93be
00000260: 94e6 85be b94b 8ebe ed92 973c 3691 a83e
00000270: d7cf 383e 3d37 983b d256 3b3e 2068 16be
00000280: b393 beba 484c f3bd 3bf6 d6bc faa5 923e
00000290: 07ca 22be 2d56 ecbb 0410 a23c 12dc 953e
000002a0: c419 20bd b8f3 2dbe 4e1d a23e 2fbd a5be
000002b0: 8e3d 8c3d 8b15 96be 95e6 20be 75ae 173d
000002c0: 07bd 6abe 0af6 02bd 8b0b 59be 1f96 60bb
000002d0: 457c 7fbe 0e7b 66be 692d a83e a632 8f3e
000002e0: 926d 6abb 197f 85be fe77 6dbe a994 2dbe
000002f0: 4434 b2be fca9 04bc 015a 403e 6747 0ebe
00000300: fcae 9ebe 8412 3bbd fd7b 153e 5e7f 69bd
00000310: 25d0 39be 67d1 26be a217 f7bd c7f7 823e
00000320: 509a 703e 032c 4cbe 52de 24be 2304 a3bd
00000330: 45a0 8f3e dfca 85be c7c2 19be 2d59 c33d
00000340: c9b5 583d bdf5 d2bd f5ec 243e 2414 6a3e
00000350: 703f 743e 8c50 9e3e 0537 c7bd aa84 9ebe
00000360: 5e69 29be 906a 9a3c 06aa 44be 8bd8 623e
00000370: f0b0 aabe 1a5e 963e dcfd 4d3e a1d3 563e
00000380: 94dd 003e ead7 40be 1bd6 92bd aa72 3bbe
00000390: 147b 4b3e 3390 87be ae10 533e 4492 d1bd
000003a0: da17 183d e117 573e 4412 9e3e c092 fc3d
000003b0: 8c74 c2bd 679e 8f3e 1fab 6d3c 3400 85be
000003c0: 6125 1c3e 607d e0bd 384a 8bbe 93a3 5c3e
000003d0: 52d0 563e a258 50be dd3c fc3c d027 04be
000003e0: 8b8e 0e3e 315b 423e 6cf9 15be 9931 96be
000003f0: d14d a8be 69d0 37bd ffe5 033e 367d 8c3e

fc2.bias f4 [32]
-0.17924422 -0.078989394 -0.25460505 0.1157311 0.13208897 -0.03886176 -0.34660003 -0.20879948
-0.29192108 0.2843077 0.21762465 0.3228159 -0.18655342 0.3255622 -0.24794152 0.3527065
-0.23870821 0.23373717 0.15981035 0.27149314 0.30111024 -0.097232275 -0.17291121 -0.13704759
0.2148136 -0.21525359 0.309554 0.034518067 0.104747795 0.14668368 0.15968199 -0.2644925
00000000: cc8b 37be 31c5 a1bd 985b 82be 6d04 ed3d
00000010: 5542 073e 822d 1fbd 8f75 b1be 88cf 55be
00000020: ae76 95be c790 913e ffd8 5e3e 2048 a53e
00000030: dc07 3fbe 17b0 a63e 62e4 7dbe f295 b43e
00000040: ed6f 74be cc58 6f3e 53a5 233e 2601 8b3e
00000050: 1f2b 9a3e b721 c7bd a30f 31be 3456 0cbe
00000060: 19f8 5b3e 706b 5cbe dd7d 9e3e d162 0d3d
00000070: 0386 d63d 3f34 163e ad83 233e 906b 87be

fc2_1.weight f4 [64, 32]
-0.0002896542 0.09781855 0.051628917 0.08021921 0.048143797 -0.16429886 0.16397098 -0.053543333
-0.12926987 -0.11835229 -0.045810673 -0.035988204 0.14434662 -0.05903176 -0.17641094 -0.0058086575
-0.12351614 0.056175616 -0.1111118 -0.09616703 -0.03639572 -0.13799919 0.11649913 0.08286751
0.002050402 0.022117022 0.014579501 -0.1481653 0.093384415 0.016737377 -0.0524574 -0.06938781
0.078517765 0.07189667 -0.19504806 -0.080228955 -0.00507035 -0.12791471 -0.103129365 0.17693332
-0.102000944 0.11341026 -0.14974084 -0.1319564 0.08302891 -0.1455133 -0.14157061 0.09447525
0.17977251 -0.21913028 0.13652259 0.020924263 0.15987068 0.13543311 -0.072619185 -0.0053648152
0.12071433 0.044424497 -0.047039483 -0.0070572575 0.039656185 -0.12631114 -0.09637777 0.10211712
0.06081881 -0.08586911 -0.21980304 0.1097853 -0.0064563705 -0.12352719 -0.1306573 0.08567559
0.012577326 -0.0052715195 0.062905595 -0.11353622 0.09304564 0.16463734 -0.098627575 -0.061420552
0.07708753 -0.12284435 -0.08829221 0.16172494 0.13351607 -0.042486425 -0.04621115 0.039922327
-0.03431671 -0.009151377 -0.12752856 0.00022944924 0.14872299 -0.16812089 0.0051010153 -0.0813717
-0.06158101 0.041875042 -0.17122966 -0.03151143 -0.038810797 0.12719193 -0.08910307 -0.102688015
-0.0040003047 -0.17360573 0.087177426 0.10554968 -0.098469995 -0.13516378 0.13508299 0.046936754
-0.15564528 -0.04639245 0.098885484 -0.06772404 0.081565216 0.10802939 -0.069195285 0.026012909
0.049580034 0.09041032 -0.15233125 0.11431867 0.138665 -0.10543274 0.10273509 0.16713473
-0.15259007 -0.059885357 -0.018367805 -0.05924017 0.04347852 -0.1015791 -0.007581045 -0.15721732
-0.0010643965 0.088211775 0.01319984 -0.08005463 0.072189964 0.066461556 0.1424334 0.11902456
0.06956629 0.16491447 0.08507407 -0.077984944 -0.066366434 -0.01486239 0.14904024 -0.17586784
-0.15658107 0.17478906 -0.058932662 -0.0019359858 0.06750205 0.13040337 0.18635216 0.1190717
-0.1162547 -0.15348409 -0.014982109 -0.039405975 -0.091954224 0.09821647 0.0683639 -0.09085805
-0.00084555004 -0.045120288 -0.16132562 -0.1150393 0.08432088 -0.117003046 -0.01981475 -0.10296661
-0.13714387 -0.17090239 0.10805055 0.13890788 -0.10017041 0.13373579 -0.057400636 -0.16557722
0.032267183 0.0039620143 0.14906514 0.14045995 -0.061830416 -0.026208997 0.14315423 0.06578598
0.048356 -0.11275556 -0.1296408 0.13373742 -0.12801151 -0.083271265 0.03986625 -0.076196104
-0.16472171 0.15335084 -0.09470592 -0.09108502 -0.13380186 -0.034850914 0.032152902 0.08478408
0.06527192 -0.16941226 0.09439539 0.09482556 -0.025868163 0.10866062 -0.15614866 -0.026432522
-0.055457603 -0.049083233 -0.03798685 0.030382158 -0.1397484 -0.11783535 -0.03405242 -0.17933543
0.031341173 -0.09374079 -0.17451337 0.11965269 -0.035086766 0.11643427 -0.13357003 0.036800086
-0.0023384776 -0.04676914 -0.029684799 0.15937124 0.13473418 -0.04943423 -0.14805341 0.0013015538
0.03489875 -0.13525234 0.010554308 -0.021259967 0.08972102 0.07922221 0.14394575 0.06736003
0.15637982 -0.013802685 -0.07051683 0.055306293 -0.08037167 -0.12909433 -0.09842051 0.12704912
00000000: bbdc 97b9 1855 c83d d878 533d f849 a43d
00000010: 6e32 453d f63d 28be 02e8 273e 4150 5bbd
00000020: 525f 04be af62 f2bd f9a3 3bbd 5e68 13bd
00000030: 9acf 133e 49cb 71bd 12a5 34be 8d56 bebb
00000040: 08f6 fcbd 6718 663d 958e e3bd 38f3 c4bd
00000050: ae13 15bd a94f 0dbe 1997 ee3d 71b6 a93d
00000060: 0a60 063b c22e b53c dcde 6e3c a5b8 17be
00000070: 5440 bf3d d31c 893c 92dd 56bd 321b 8ebd
00000080: eccd a03d 903e 933d aeba 47be 144f a4bd
00000090: 2e25 a6bb 13fc 02be 7d35 d3bd 022e 353e
000000a0: dfe5 d0bd a343 e83d aa55 19be 941f 07be
000000b0: 100b aa3d 7001 15be e3f7 10be 3d7c c13d
000000c0: 4916 383e b063 60be 94cc 0b3e 5c69 ab3c
000000d0: 24b5 233e faae 0a3e 5eb9 94bd 55cb afbb
000000e0: 1339 f73d 76f6 353d 79ac 40bd 9140 e7bb
000000f0: 866e 223d b557 01be b561 c5bd c822 d13d
00000100: 251d 793d 25dc afbd 0c14 61be 1ed7 e03d
00000110: f68f d3bb d3fb fcbd 07cb 05be af76 af3d
00000120: 2111 4e3c b6bc acbb a6d4 803d ad85 e8bd
00000130: b68e be3d b196 283e 41fd c9bd 1e94 7bbd
00000140: 11e0 9d3d d295 fbbd 8cd2 b4bd 399b 253e
00000150: 70b8 083e 3f06 2ebd e747 3dbd 9885 233d
00000160: ae8f 0cbd a8ef 15bc d996 02be 5098 7039
00000170: d74a 183e e227 2cbe 6b26 a73b 35a6 a6bd
00000180: 5f3c 7cbd 2a85 2b3d d456 2fbe 2112 01bd
00000190: 12f8 1ebd 9a3e 023e ac7b b6bd 184e d2bd
000001a0: fd14 83bb b3c5 31be 148a b23d 6e2a d83d
000001b0: a3aa c9bd 6068 0abe 3253 0a3e c140 403d
000001c0: 7a61 1fbe 0206 3ebd 7984 ca3d e7b2 8abd
000001d0: aa0b a73d 833e dd3d 42b6 8dbd 0619 d53c
000001e0: 6f14 4b3d 0c29 b93d b9fc 1bbe e81f ea3d
000001f0: 33fe 0d3e 1fed d7bd c666 d23d 5e25 2b3e
00000200: 9240 1cbe 594a 75bd 1478 96bc d2a5 72bd
00000210: 8816 323d b408 d0bd 6a6a f8bb 94fd 20be
00000220: 3883 8bba 60a8 b43d 2444 583c aff3 a3bd
00000230: 55d8 933d ff1c 883d 10da 113e 26c3 f33d
00000240: c578 8e3d 57df 283e 503b ae3d 92b6 9fbd
00000250: 20eb 87bd 6281 73bc 019e 183e b316 34be
00000260: ca56 20be e7fb 323e 6063 71bd e7c0 fdba
00000270: 843e 8a3d 7688 053e 1ad3 3e3e dddb f33d
00000280: f216 eebd ef2a 1dbe 8577 75bc 2968 21bd
00000290: 7f52 bcbd b725 c93d 5f02 8c3d c913 babd
000002a0: e7a7 5dba 0dd0 38bd 8b32 25be b999 ebbd
000002b0: 6db0 ac3d 4b9f efbd 8b52 a2bc 28e0 d2bd
000002c0: 716f 0cbe 0901 2fbe 9b49 dd3d de3d 0e3e
000002d0: 2526 cdbd 09f2 083e ee1c 6bbd 138d 29be
000002e0: 982a 043d c9d3 813b 88a4 183e bcd4 0f3e
000002f0: e441 7dbd 40b4 d6bc 0697 123e cdba 863d
00000300: f110 463d 63ec e6bd 8fc0 04be 76f2 083e
00000310: 7315 03be 208a aabd cb4a 233d b40c 9cbd
00000320: cfac 28be 0108 1d3e 2df5 c1bd c88a babd
00000330: 5b03 09be d5bf 0ebd c3b2 033d 47a3 ad3d
00000340: 49ad 853d 687a 2dbe 5f52 c13d e733 c23d
00000350: 78e9 d3bc 7689 de3d 6fe5 1fbe 0489 d8bc
00000360: 8327 63bd 800b 49bd 1998 1bbd 01e4 f83c
00000370: 341a 0fbe a953 f1bd 8d7a 0bbd b5a3 37be
00000380: 9a5f 003d 2cfb bfbd a2b3 32be 780c f53d
00000390: 24b7 0fbd 1775 ee3d 95c6 08be b0bb 163d
000003a0: 2541 19bb ff90 3fbd 892d f3bc 3732 233e
000003b0: c2f7 093e 8c7b 4abd 509b 17be e698 aa3a
000003c0: fef1 0e3d 977f 0abe faeb 2c3c 6229 aebc
000003d0: a7bf b73d 413f a23d 8466 133e 0ef4 893d
000003e0: 0822 203e a824 62bc 216b 90bd da88 623d
000003f0: e799 a4bd 4e31 04be b190 c9bd 2a19 023e

fc2_1.bias f4 [64]
0.0773956 0.079053134 -0.087863386 -0.14239317 0.07714805 0.13905275 0.013108826 0.16685075
-0.14622048 0.15108237 0.14897515 0.051872365 -0.0011149925 0.12682667 -0.14276208 0.07157778
-0.13202809 0.011772749 -0.031477127 0.040220387 -0.0668157 -0.16248566 0.08377762 -0.17250837
0.024359576 -0.16038834 0.046638787 0.018998869 -0.101822376 0.12658319 -0.12094112 0.102698825
-0.14400887 -0.14277017 -0.13399278 -0.08206313 -0.16596648 -0.13360865 0.079179 0.06824746
-0.13402593 -0.10802512 0.05703315 -0.10469018 -0.10437075 -0.03186988 -0.057569712 0.19943173
-0.14406583 0.06864217 -0.17319901 -0.10417574 0.0674204 0.047687583 -0.07846852 0.13818109
0.029872559 -0.055842854 -0.13116601 0.14725511 -0.05583924 -0.12776594 0.08419033 0.15197407
00000000: 9681 9e3d 9ce6 a13d b8f1 b3bd 84cf 11be
00000010: ccff 9d3d d863 0e3e 67c6 563c ecda 2a3e
00000020: d2ba 15be 56b5 1a3e f18c 183e 1e78 543d
00000030: f124 92ba dade 013e 3930 12be 5f97 923d
00000040: 5f32 07be 7de2 403c 29ee 00bd 22be 243d
00000050: abd6 88bd a462 26be 9a93 ab3d 09a6 30be
00000060: bc8d c73c d73c 24be 5008 3f3d 84a3 9b3c
00000070: 4088 d0bd 069f 013e faaf f7bd c353 d23d
00000080: 1077 13be 5832 12be 6735 09be b710 a8bd
00000090: 1ef3 29be b5d0 08be 9928 a23d 53c5 8b3d
000000a0: 183e 09be 463c ddbd 989b 693d ce67 d6bd
000000b0: 55c0 d5bd fe89 02bd 38ce 6bbd d537 4c3e
000000c0: fe85 13be 4494 8c3d 155b 31be 175a d5bd
000000d0: b513 8a3d 0e54 433d 1ab4 a0bd 587f 0d3e
000000e0: 4cb7 f43c 7abb 64bd 6250 06be 0bca 163e
000000f0: b0b7 64bd 13d5 02be fb6b ac3d 179f 1b3e

fc2_1_1.weight f4 [64, 64]
-0.08253233 0.067180514 0.07694766 -0.09143698 -0.08789171 0.0964911 -0.053802773 -0.08359647
-0.0048375875 -0.11855301 -0.058019504 -0.065440655 -0.04667814 -0.030306175 0.023570612 0.023713857
0.061141446 -0.0935764 0.06435208 0.09410554 -0.03326772 -0.12360324 0.016457736 0.033186257
0.09512961 0.10104671 -0.00800693 -0.054422542 0.0115484 0.078359246 0.013262749 0.084634975
-0.11111279 -0.12144072 -0.09949502 0.0359298 0.1230461 -0.0074971765 0.096208826 -0.017772645
-0.05603586 0.037157327 0.058882996 -0.054867193 0.09014313 -0.11395192 -0.12038919 -0.043958783
-0.12126131 0.020234033 0.12498632 -0.07377952 0.00020200014 -0.06697209 0.04045871 0.039335683
-0.10699184 0.002922982 -0.10324004 0.009580001 -0.11644839 -0.11526905 -0.10828684 0.0031140745
-0.0049876273 0.097650915 0.08068964 0.022526592 0.08438333 0.044738322 -0.010976402 0.057109106
0.013512415 -0.08430187 -0.08368485 0.021155715 0.031688564 -0.06996746 0.006852375 -0.0074321628
-0.086549826 -0.013136765 0.12119563 0.07921676 -0.050234884 -0.10888827 0.07467078 0.08356656
0.09218858 -0.057976346 -0.11266396 0.005986634 0.06497471 -0.08451881 -0.051681325 0.058015972
-0.04706428 -0.018776715 -0.08683035 -0.0006140522 -0.07467667 -0.094087034 -0.13913803 -0.03477659
-0.034693725 -0.0740031 -0.11151835 -0.08713223 0.025877107 -0.10610759 0.043023515 -0.09956215
0.035683572 -0.030785382 -0.08152031 -0.023201048 0.014598905 -0.020140657 -0.0034811364 -0.0007624626
-0.10592359 -0.09410661 -0.057291508 -0.004013747 -0.09487961 0.11567936 -0.07369588 -0.08212874
-0.0747993 0.09688348 0.057675913 0.082037136 0.10532911 -0.105733246 -0.083174616 -0.0069232224
0.008173214 0.09721513 -0.114004835 -0.01735793 -0.07515432 -0.10246539 0.025032034 -0.048347488
-0.063001655 0.025198204 -0.11682129 -0.047365543 -0.0993402 0.081943765 -0.112612456 0.008472679
-0.092456594 -0.09929697 0.062966816 -0.119873665 0.083858326 -0.09908953 -0.071030274 0.067975625
0.06228484 0.016349062 0.03621994 0.07861201 -0.015287012 -0.03590712 -0.067304306 -0.01133136
0.006129861 0.022054777 0.09251422 -0.121580884 0.07593252 0.06593844 0.027347239 0.03963588
0.052565195 -0.06849474 0.091492206 0.08443187 -0.023369491 -0.07810156 -0.08952341 -0.096982956
-0.09657845 -0.05883896 -0.0070150495 0.048805624 0.062677205 -0.08990258 -0.042337626 0.029738992
-0.005962327 -0.010129488 -0.013004348 -0.076617345 -0.091542415 0.040138885 0.04821539 -0.034568757
-0.07030838 -0.09730894 0.007460475 -0.1139883 0.061686847 0.072379075 0.1047781 -0.05469194
-0.021827938 0.11601785 0.08627631 0.019409353 -0.018455341 -0.014622718 -0.084513806 0.008074223
-0.12074875 -0.095854305 0.008919831 -0.030254934 0.04963867 0.11720365 0.06650941 -0.015874133
-0.0031522813 0.03626561 -0.07644455 0.045925763 -0.09413287 0.070977174 -0.039770342 0.07254767
-0.015466645 0.0122387465 0.0621866 -0.06605753 -0.09531589 0.09169979 0.118910596 0.03315316
-0.095618024 0.10585177 0.09866434 0.0060624494 0.04139492 0.104469456 -0.1042272 0.08971937
-0.077861845 -0.12188247 -0.12886247 -0.008498356 -0.07748608 0.031267367 -0.043155365 0.04490015
00000000: b606 a9bd f095 893d bc96 9d3d 5043 bbbd
00000010: 9200 b4bd 209d c53d 4c60 5cbd a034 abbd
00000020: a084 9ebb eccb f2bd dca5 6dbd c005 86bd
00000030: 9431 3fbd a844 f8bc 2817 c13c 9043 c23c
00000040: 746f 7a3d fca4 bfbd 06cb 833d 68ba c03d
00000050: bc43 08bd b223 fdbd 60d2 863c 50ee 073d
00000060: 50d3 c23d 94f1 ce3d 802f 03bc 2cea 5ebd
00000070: 8035 3d3c d07a a03d 004c 593c 1a55 ad3d
00000080: 1a8f e3bd eab5 f8bd 0cc4 cbbd 202b 133d
00000090: 98ff fb3d e0aa f5bb 2209 c53d f097 91bc
000000a0: dc85 65bd 4832 183d 4c2f 713d 6cbc 60bd
000000b0: f69c b83d a05f e9bd 9c8e f6bd 200e 34bd
000000c0: da57 f8bd d8c1 a53c d4f8 ff3d b819 97bd
000000d0: 00d0 5339 aa28 89bd 08b8 253d 741e 213d
000000e0: 8a1e dbbd 808f 3f3b 846f d3bd 70f5 1c3c
000000f0: 7e7c eebd 2e12 ecbd 7ec5 ddbd 8015 4c3b
00000100: 406f a3bb 34fd c73d 9c40 a53d b089 b83c
00000110: 2bd1 ac3d 883f 373d 5ed6 33bc 3deb 693d
00000120: 2d63 5d3c 75a6 acbd f662 abbd c04e ad3c
00000130: decb 013d 1a4b 8fbd e389 e03b 8089 f3bb
00000140: 0941 b1bd 963b 57bc 6a35 f83d 663c a23d
00000150: 18c3 4dbd d000 dfbd feec 983d f224 ab3d
00000160: 5ecd bc3d 9b78 6dbd 5dbc e6bd 872b c43b
00000170: 7611 853d 3318 adbd ccaf 53bd 28a2 6d3d
00000180: 79c6 40bd a0d1 99bc 1cd4 b1bd 58f8 20ba
00000190: 15f0 98bd b4b0 c0bd 337a 0ebe e671 0ebd
000001a0: 021b 0ebd f08e 97bd bc63 e4bd 6272 b2bd
000001b0: 3afc d33c f04e d9bd 6d39 303d 3ee7 cbbd
000001c0: f028 123d a031 fcbc 1ff4 a6bd 2010 bebc
000001d0: 3f30 6f3c 05fe a4bc c723 64bb 00e0 47ba
000001e0: 78ee d8bd f7ba c0bd 80aa 6abd c085 83bb
000001f0: 3e50 c2bd 4de9 ec3d deed 96bd 1d33 a8bd
00000200: 6030 99bd d96a c63d 943d 6c3d 1603 a83d
00000210: cab6 d73d ac8a d8bd 7457 aabd 33dc e2bb
00000220: f2e8 053c ba18 c73d 5e7b e9bd 3832 8ebc
00000230: 82ea 99bd 60d9 d1bd fb0f cd3c 0408 46bd
00000240: 0307 81bd 776c ce3c 0040 efbd 5f02 42bd
00000250: e072 cbbd 22d2 a73d 5ca1 e6bd fed0 0a3c
00000260: e259 bdbd 365c cbbd bff4 803d 5380 f5bd
00000270: eabd ab3d 74ef cabd 5278 91bd ce36 8b3d
00000280: 631e 7f3d 78ee 853c 5c5b 143d 55ff a03d
00000290: 6076 7abc 5813 13bd d7d6 89bd 2ba7 39bc
000002a0: 00dd c83b 38ac b43c 1878 bd3d 66ff f8bd
000002b0: 8282 9b3d bc0a 873d 5107 e03c 3c59 223d
000002c0: 9a4e 573d f846 8cbd 4460 bb3d 9eea ac3d
000002d0: 6071 bfbc b6f3 9fbd 0d58 b7bd 009f c6bd
000002e0: ecca c5bd 1f01 71bd 80de e5bb 68e8 473d
000002f0: e85c 803d d81e b8bd 386a 2dbd 309f f33c
00000300: a05f c3bb 27f6 25bc 3010 55bc 8ee9 9cbd
00000310: 977a bbbd ac68 243d 807d 453d f897 0dbd
00000320: d7fd 8fbd e949 c7bd 0077 f43b b372 e9bd
00000330: 59ab 7c3d 7b3b 943d e795 d63d a804 60bd
00000340: 81d0 b2bc c49a ed3d a2b1 b03d 5d00 9f3c
00000350: a82f 97bc 2094 6fbc 9315 adbd bf49 043c
00000360: 1f4b f7bd 434f c4bd 7c24 123c 32d9 f7bc
00000370: eb51 4b3d 7808 f03d 1636 883d 780a 82bc
00000380: 8196 4ebb 408b 143d f68e 9cbd a71c 3c3d
00000390: bcc8 c0bd 7b5c 913d 3ae6 22bd df93 943d
000003a0: d067 7dbc 0685 483c 60b7 7e3d 2c49 87bd
000003b0: fa34 c3bd 19cd bb3d 6687 f33d 9ccb 073d
000003c0: 62d3 c3bd d0c8 d83d 8810 ca3d 83a7 c63b
000003d0: b88d 293d 15f4 d53d 1275 d5bd cabe b73d
000003e0: 0876 9fbd 849d f9bd 86f4 03be b03c 0bbc
000003f0: 06b1 9ebd 3612 003d aec3 30bd 38e9 373d

fc2_1_1.bias f4 [64]
-0.018163577 0.022692047 0.05036677 -0.123785846 -0.00049670064 -0.106605306 0.07735847 -0.064179316
-0.08727448 -0.098443046 0.041795436 0.101843916 0.14893399 -0.052567028 0.07963656 -0.067147076
-0.10848304 -0.13146499 -0.06321724 0.09753467 -0.011814421 -0.077092364 -0.026495654 -0.08703732
0.06976091 0.015985072 0.08584133 0.07237685 -0.057691604 -0.09007803 0.07113437 0.107625164
-0.075897306 -0.07120526 0.034941 0.00091988547 0.084121384 -0.0008853279 0.09287924 -0.0008514362
0.07978973 -0.10506424 0.08844793 -0.07379013 -0.010057398 0.003376443 0.016350722 -0.0540114
0.13409865 -0.08775529 0.04754256 0.06795928 -0.11709519 -0.06559505 -0.040048033 -0.038665425
-0.08597613 -0.08353876 0.026428096 -0.09705562 -0.13578355 -0.11821732 -0.042004243 0.10563359
00000000: c8cb 94bc ace4 b93c 634d 4e3d 6f83 fdbd
00000010: 0435 02ba e253 dabd 1e6e 9e3d 7270 83bd
00000020: f6bc b2bd 829c c9bd b131 2b3d 8b93 d03d
00000030: 2782 183e 8650 57bd 7e18 a33d 6884 89bd
00000040: 5b2c debd c29e 06be 0a78 81bd 42c0 c73d
00000050: 4691 41bc 9ae2 9dbd 6a0d d9bc 9f40 b2bd
00000060: cfde 8e3d 20f3 823c 94cd af3d 503a 943d
00000070: 084e 6cbd d57a b8bd e6ae 913d 956a dc3d
00000080: 0c70 9bbd 10d4 91bd 4b1e 0f3d 7824 713a
00000090: d547 ac3d 5a15 68ba 7937 be3d eb32 5fba
000000a0: cc68 a33d ec2b d7bd 3024 b53d 481f 97bd
000000b0: c9c7 24bc 5047 5d3b f3f1 853c 0f3b 5dbd
000000c0: 2851 093e 0cb9 b3bd fdbb 423d 3c2e 8b3d
000000d0: 9acf efbd b356 86bd 6809 24bd a35f 1ebd
000000e0: 4114 b0bd 5f16 abbd bc7f d83c 19c5 c6bd
000000f0: d80a 0bbe ec1b f2bd a40c 2cbd 6c56 d83d

fc2_1_2.weight f4 [32, 64]
0.10725452 -0.04478661 0.11424332 0.011395073 -0.072353214 -0.033782437 0.121672474 0.098746486
0.030450001 -0.061080635 0.1328526 0.014441505 -0.1365318 0.004178217 0.046683032 -0.032371003
0.08738524 -0.034882545 0.0719091 -0.13936545 0.07182458 -0.03380192 -0.03080949 -0.08233269
0.0523002 0.11958254 0.13385932 0.005235392 -0.011862084 0.033493936 0.06753421 0.09268032
0.014628634 0.15678692 0.07839286 0.059287388 0.10372442 -0.09136456 -0.058796585 0.042586982
0.04613557 0.12581222 -0.025604457 0.007338428 -0.10597942 0.10861907 0.12307058 -0.005851871
-0.14705762 -0.0126325935 -0.054338954 0.082861476 0.02298541 -0.09443355 0.09409675 0.028151155
0.016122622 -0.049544197 -0.13386555 0.003990584 0.06574556 0.010639499 0.04914857 0.058924377
-0.12286581 0.02918111 0.063227646 0.13028525 -0.093188874 0.06299405 0.03767778 -0.085179634
0.041902795 -0.10370037 -0.014500629 -0.0018984148 0.04201393 0.06772217 0.048096705 0.03599151
-0.079308145 -0.10599374 -0.030557305 -0.019749718 -0.070722476 -0.027679631 0.10736929 -0.006131026
-0.043101437 0.062167387 0.08789334 -0.0064855823 -0.039199114 -0.035128776 -0.041718278 0.039143078
0.1173415 0.06620033 -0.09958418 -0.076560065 -0.04609172 -0.09306372 -0.082349844 -0.013057853
0.007960675 0.07977652 0.00036109984 0.0983685 -0.08604971 -0.10885437 -0.08927413 0.1049913
-0.11057796 0.12020908 0.087281294 0.060466208 0.05976809 -0.027240934 -0.12193315 -0.065971434
0.062071864 0.100614384 -0.0031704546 -0.050761253 0.08659034 -0.100174345 0.09051188 0.055799376
-0.03378682 0.09212145 0.014960565 0.11268201 -0.02137368 0.11031239 -0.044451013 0.00750768
0.055321068 0.09332843 -0.04942612 -0.019298771 0.10869815 0.069202654 0.004777319 0.026741736
0.014257002 -0.12848528 -0.09166274 0.06509429 0.01167718 -0.07523743 -0.03455095 0.047000416
-0.022479557 -0.099308945 0.11518539 -0.013494828 -0.09234133 -0.061109625 0.05492604 0.06902232
0.04053688 0.049744193 -0.083413176 0.04956066 -0.026075136 -0.007174193 -0.09054535 0.027189998
0.08784613 0.003242216 0.09437442 0.03312391 -0.056071036 0.0700217 -0.003730593 -0.11833999
-0.019541357 0.063654736 0.09138044 -0.11251424 0.0881402 -0.060010985 -0.074977495 -0.035375196
0.039582238 -0.030231094 -0.14357796 -0.025132641 0.07336169 -0.014087246 -0.06874217 0.08440039
-0.0794701 -0.02591928 -0.058656856 -0.124659106 -0.060841072 0.015970796 0.053643174 0.07044798
-0.069532335 0.032882586 0.08540324 0.023248684 -0.013817814 0.11700309 0.07751815 -0.06509658
-0.04421739 -0.029569805 -0.039332725 0.09147385 -0.11019586 0.123305716 0.11246095 0.059499055
-0.082412936 0.07676045 0.028127855 -0.0969372 -0.07367538 0.026395587 -0.05889199 0.0607502
0.00047843158 0.11243995 0.06818615 -0.014748799 0.006833784 0.0030907667 0.08196169 0.108823046
0.06609042 -0.11733281 -0.11859 -0.0809242 0.04641511 0.0022260766 -0.06703086 0.10683314
0.043169003 0.05328257 0.004607961 -0.07239005 0.011160723 -0.08983535 -0.053035624 0.07823904
-0.012890157 0.10366836 0.047522172 0.049562976 -0.12695292 0.0055456916 0.093121156 -0.019400487
00000000: 42a8 db3d 2a72 37bd 67f8 e93d 66b2 3a3c
00000010: ec2d 94bd 745f 0abd 6b2f f93d 993b ca3d
00000020: 4872 f93c b02f 7abd 830a 083e 109c 6c3c
00000030: fece 0bbe 6de9 883b b536 3f3d 7597 04bd
00000040: 08f7 b23d 00e1 0ebd 1445 933d d1b5 0ebe
00000050: c418 933d e273 0abd 2f64 fcbc 0b9e a8bd
00000060: bc38 563d b1e7 f43d 6b12 093e a78d ab3b
00000070: 3059 42bc f030 093d 604f 8a3d 2ecf bd3d
00000080: f0ac 6f3c c08c 203e 708c a03d 55d7 723d
00000090: 786d d43d 581d bbbd b0d4 70bd b06f 2e3d
000000a0: a7f8 3c3d ebd4 003e 70c0 d1bc 3277 f03b
000000b0: bd0b d9bd ad73 de3d 6e0c fc3d 0dc1 bfbb
000000c0: 4696 16be f0f8 4ebc 8692 5ebd 47b3 a93d
000000d0: e64b bc3c 6166 c1bd ccb5 c03d 409d e63c
000000e0: 9713 843c dbee 4abd 0d14 09be 72c3 823b
000000f0: 9ca5 863d 4b51 2e3c 0350 493d b05a 713d
00000100: 12a1 fbbd 390d ef3c 7f7d 813d 7f69 053e
00000110: cfd9 bebd 0603 813d 0454 1a3d a972 aebd
00000120: 44a2 2b3d dc60 d4bd 0c94 6dbc 3bd4 f8ba
00000130: cc16 2c3d ecb1 8a3d 0d01 453d d56b 133d
00000140: 4f6c a2bd 3f13 d9bd 5053 fabc 29ca a1bc
00000150: f2d6 90bd 65c0 e2bc 6ee4 db3d c6e6 c8bb
00000160: 228b 30bd 3ba3 7e3d 6c01 b43d 0285 d4bb
00000170: 408f 20bd 31e3 0fbd c9e0 2abd 7e54 203d
00000180: be50 f03d 0a94 873d caf2 cbbd 86cb 9cbd
00000190: acca 3cbd 3198 bebd 09a7 a8bd 9bf0 55bc
000001a0: 7e6d 023c df61 a33d 0052 bd39 6d75 c93d
000001b0: d53a b0bd 0aef debd 5bd5 b6bd ae05 d73d
000001c0: b376 e2bd 2e30 f63d 89c0 b23d 6aab 773d
000001d0: 62cf 743d 6128 dfbc 16b8 f9bd 081c 87bd
000001e0: 113f 7e3d ea0e ce3d 67c7 4fbb 08eb 4fbd
000001f0: 4756 b13d 3528 cdbd 4b5e b93d e38d 643d
00000200: 0c64 0abd 2caa bc3d 281d 753c d3c5 e63d
00000210: db17 afbc 76eb e13d 4412 36bd fc02 f63b
00000220: 5898 623d fa22 bf3d 0b73 4abd 7518 9ebc
00000230: 239d de3d 1fba 8d3d 0e8b 9c3b 7c11 db3c
00000240: 3396 693c a591 03be adb9 bbbd 2850 853d
00000250: a551 3f3c 1516 9abd 4c85 0dbd 8283 403d
00000260: 0c27 b8bc 7d62 cbbd 51e6 eb3d 6919 5dbc
00000270: 741d bdbd 164e 7abd 21fa 603d 935b 8d3d
00000280: 000a 263d 91c0 4b3d 87d4 aabd 1e00 4b3d
00000290: 869b d5bc 7e15 ebbb d76f b9bd 8fbd de3c
000002a0: ace8 b33d 5c7b 543b 6047 c13d f0ac 073d
000002b0: beaa 65bd 8967 8f3d f77c 74bb 3d5c f2bd
000002c0: 3215 a0bc 6a5d 823d ab25 bb3d de6d e6bd
000002d0: d982 b43d 14ce 75bd cd8d 99bd 95e5 10bd
000002e0: fc20 223d 33a7 f7bc 1a06 13be f8e2 cdbc
000002f0: a73e 963d 31ce 66bc b2c8 8cbd 1dda ac3d
00000300: 38c1 a2bd ab54 d4bc 2c42 70bd 464d ffbd
00000310: 7d34 79bd 30d5 823c f2b8 5b3d 0847 903d
00000320: f866 8ebd e4af 063d e5e7 ae3d 0674 be3c
00000330: 1d64 62bc 519f ef3d d6c1 9e3d 5b51 85bd
00000340: 4b1d 35bd 603c f2bc 5a1b 21bd a456 bb3d
00000350: 5eae e1bd b587 fc3d ed51 e63d 48b5 733d
00000360: 1dc8 a8bd 9534 9d3d 636c e63c 0387 c6bd
00000370: 1ee3 96bd 8f3b d83c ba38 71bd 34d5 783d
00000380: 00d6 fa39 eb46 e63d 2ea5 8b3d f2a4 71bc
00000390: efed df3b 768e 4a3b 88db a73d 9ede de3d
000003a0: 6a5a 873d 2f4c f0bd 50df f2bd 96bb a5bd
000003b0: c51d 3e3d 5ee3 113b 7a47 89bd 55cb da3d
000003c0: fbd1 303d d33e 5a3d 61fe 963b 3c41 94bd
000003d0: 77db 363c 99fb b7bd e23b 59bd ca3b a03d
000003e0: 3d31 53bc 1450 d43d 9ca6 423d 8c02 4b3d
000003f0: f2ff 01be a2b8 b53b 4eb6 be3d c5ed 9ebc

fc2_1_2.bias f4 [32]
0.09988041 -0.14424443 0.113913804 -0.068030655 -0.068570375 0.07879643 -0.020347904 0.020007998
0.06916 0.087622814 0.08581027 -0.045273803 0.12954389 0.11001912 -0.061588462 -0.14518681
0.094605975 0.03861464 -0.022478245 -0.09207849 0.0960325 0.03565672 -0.04531692 -0.02601034
-0.0121374 0.06966094 -0.10475091 0.08381015 -0.038528066 0.075108066 0.009402041 -0.02884964
00000000: 1a8e cc3d d0b4 13be a44b e93d a853 8bbd
00000010: a06e 8cbd 0660 a13d a6b0 a6bc d0e7 a33c
00000020: c2a3 8d3d 9773 b33d 4bbd af3d 0671 39bd
00000030: 27a7 043e b451 e13d 2f44 7cbd daab 14be
00000040: c7c0 c13d 622a 1e3d 4c24 b8bc a693 bcbd
00000050: b0ac c43d c80c 123d 3c9e 39bd a313 d5bc
00000060: f2db 46bc 65aa 8e3d a587 d6bd a8a4 ab3d
00000070: 9bcf 1dbd 42d2 993d 050b 1a3c 1556 ecbc

fc2_2.weight f4 [16, 32]
0.0117031615 0.07696644 0.0006163144 -0.004935355 0.08075733 0.16278954 -0.01705982 0.16072886
-0.0172553 -0.13419317 0.013163875 -0.13794672 0.048507955 0.11397719 -0.13670436 -0.047174625
0.18834636 0.1797496 -0.14743762 0.14447019 0.12221882 0.18361178 0.10627689 0.03785386
0.039031904 -0.16040786 0.09169935 -0.009366143 0.14844154 0.0037048326 -0.05239012 -0.12491652
0.0804082 -0.060336184 -0.036818035 -0.108252935 0.098634705 -0.15099049 -0.11294195 0.046818383
-0.15723492 -0.15538666 -0.11329409 -0.15000252 -0.19566765 -0.015902381 0.0889525 0.06560948
0.0098886 -0.14139888 -0.0132764345 0.10328144 -0.057710785 0.13195321 -0.18085085 -0.0025993516
-0.080229886 -0.10195515 0.036305886 0.032117143 -0.13427104 0.12954606 -0.09806147 -0.105957404
0.07874749 -0.031446114 -0.063234866 0.08438985 0.019051475 0.047076833 -0.04741523 0.037837155
0.014282113 -0.102379195 0.03367312 0.03160089 -0.070863925 -0.10277786 -0.11527866 -0.110082805
0.1498685 0.0581263 0.139881 0.005140718 -0.1233603 0.092700385 0.0775764 -0.051878374
-0.10064289 -0.08038064 0.063033625 -0.17958693 0.018402113 -0.12248442 -0.029171573 -0.13459936
0.13104776 0.06467192 -0.044354986 -0.06913357 -0.013593352 -0.14511025 0.011641571 0.08034857
0.06715527 0.08638548 -0.08415852 0.1824149 -0.15049651 0.049922824 0.03014402 -0.02504815
0.08517687 -0.09855331 0.066903666 0.0805754 0.12708975 0.048556212 -0.0065246904 0.14197604
0.14726087 0.13259973 0.0465791 0.0834061 0.07883182 0.16017756 -0.08689744 -0.1369914
0.16576497 -0.043350462 0.09271731 -0.05489671 0.068549186 -0.059202477 0.14114133 0.14879604
0.08816049 -0.06331689 0.11111701 0.15461676 0.027849153 0.14651148 -0.097364634 -0.11441701
0.10733113 0.11884478 0.040380552 -0.0026945462 -0.104963526 0.10472063 0.120772935 0.03915268
-0.06653025 -0.067193985 -0.055560265 0.07579057 0.031590898 0.09229626 -0.0042105573 -0.12619928
-0.0406529 -0.006073624 -0.14134021 -0.09167578 -0.20083904 0.15468809 0.041167006 0.055561677
-0.132343 0.007948861 -0.12124714 -0.01820686 0.012385151 0.11101209 0.0063531054 -0.19448675
0.16226342 -0.12716556 -0.006684454 -0.13099068 -0.07557625 -0.13485783 -0.12967937 0.088820934
-0.16441993 -0.16114208 -0.034295753 0.12572776 -0.019474853 -0.07491805 0.05580727 0.018223202
0.20536655 0.070246294 0.052762173 -0.043536294 0.07671935 0.123521194 -0.014554197 -0.13689679
-0.07201556 0.0052796523 0.10095281 0.18950337 -0.09369357 -0.0018753356 0.09162748 0.018011773
-0.029593581 0.12941222 0.061021466 -0.009577969 0.1342688 -0.106680065 -0.05713994 -0.010895072
0.010823385 -0.14623542 0.037567735 -0.024809742 0.0046202918 0.08293548 0.20309755 0.01670213
0.09805861 0.10884073 0.018467924 -0.10926401 0.09315544 0.07997007 -0.14138451 -0.08998745
-0.18028277 0.08687625 0.14499547 0.0648612 -0.0657787 0.048133437 -0.11169111 0.014918741
-0.13374457 -0.10205997 0.09376454 0.0046236855 -0.005089015 0.1105298 0.050234526 0.0012843746
-0.1255222 -0.022382557 -0.063815095 0.019916702 0.13918473 0.028140416 -0.059958424 -0.16179623
00000000: 9ebe 3f3c 95a0 9d3d 2990 213a c2b8 a1bb
00000010: 1964 a53d 4db2 263e 09c1 8bbc 1b96 243e
00000020: fd5a 8dbc ef69 09be 4bad 573c e841 0dbe
00000030: 47b0 463d df6c e93d 3afc 0bbe 2e3a 41bd
00000040: dedd 403e 4710 383e e3f9 16be feef 133e
00000050: dc4d fa3d ba04 3c3e b3a7 d93d a60c 1b3d
00000060: ebdf 1f3d f541 24be decc bb3d 7374 19bc
00000070: 0f01 183e c7cc 723b 0697 56bd 3cd4 ffbd
00000080: 0ead a43d 1323 77bd 82ce 16bd b7b3 ddbd
00000090: fe00 ca3d 409d 1abe 1c4e e7bd a2c4 3f3d
000000a0: 3102 21be ae1d 1fbe bb06 e8bd 439a 19be
000000b0: 1a5d 48be b645 82bc ba2c b63d 435e 863d
000000c0: cb03 223c deca 10be 6785 59bc 3885 d33d
000000d0: 2562 6cbd be1e 073e f730 39be e259 2abb
000000e0: 914f a4bd ddcd d0bd 7bb5 143d 448d 033d
000000f0: 597e 09be b9a7 043e 74d4 c8bd 3200 d9bd
00000100: 5d46 a13d a4cd 00bd 4881 81bd 96d4 ac3d
00000110: d711 9c3c a3d3 403d 7936 42bd 22fb 1a3d
00000120: 86ff 693c 2fac d1bd d3ec 093d ef6f 013d
00000130: 1b21 91bd 337d d2bd 3817 ecbd 1873 e1bd
00000140: 2177 193e d815 6e3d f73c 0f3e 7873 a83b
00000150: 53a4 fcbd b3d9 bd3d 60e0 9e3d 6b7e 54bd
00000160: dc1d cebd 9b9e a4bd c617 813d a3e5 37be
00000170: 07c0 963c 1dd9 fabd 39f9 eebc 6ad4 09be
00000180: 6231 063e b672 843d 93ad 35bd e795 8dbd
00000190: a7b6 5ebc c897 14be 4abc 3e3c cb8d a43d
000001a0: b488 893d dfea b03d 4d5b acbd f9ca 3a3e
000001b0: c21b 1abe e07b 4c3d 98f0 f63c c731 cdbc
000001c0: 3671 ae3d 51d6 c9bd ca04 893d b704 a53d
000001d0: d123 023e e1e2 463d 12cd d5bb 2b62 113e
000001e0: 8ecb 163e 39c8 073e bac9 3e3d d1d0 aa3d
000001f0: 9472 a13d 9605 243e 49f7 b1bd 7947 0cbe
00000200: 4bbe 293e 4190 31bd 93e2 bd3d 5fdb 60bd
00000210: 8463 8c3d 4c7e 72bd 5a87 103e fd5d 183e
00000220: 7d8d b43d 49ac 81bd 5191 e33d db53 1e3e
00000230: e823 e43c 1b07 163e 1c67 c7bd 7753 eabd
00000240: 6cd0 db3d e464 f33d 1466 253d fc96 30bb
00000250: 1ef7 d6bd c577 d63d cd57 f73d 905e 203d
00000260: 0341 88bd 009d 89bd 2993 63bd 1638 9b3d
00000270: 7565 013d d205 bd3d b7f8 89bb 623a 01be
00000280: a883 26bd 4005 c7bb 7dbb 10be 83c0 bbbd
00000290: c0a8 4dbe 8e66 1e3e bc9e 283d a494 633d
000002a0: ec84 07be f13b 023c 6c50 f8bd 8e26 95bc
000002b0: 17eb 4a3c 4f5a e33d b62d d03b 8927 47be
000002c0: 6228 263e b037 02be 4409 dbbb 6c22 06be
000002d0: b9c7 9abd 2c18 0abe abca 04be c0e7 b53d
000002e0: b35d 28be 6e02 25be b479 0cbd c7be 003e
000002f0: ba89 9fbc a26e 99bd 2a96 643d d348 953c
00000300: 9c4b 523e 4add 8f3d 261d 583d 1d53 32bd
00000310: 091f 9d3d aef8 fc3d ba74 6ebc ac2e 0cbe
00000320: e57c 93bd ef00 ad3b 59c0 ce3d 2c0d 423e
00000330: 6ae2 bfbd d2cd f5ba 30a7 bb3d 6d8d 933c
00000340: 3d6e f2bc a384 043e a5f1 793d eaec 1cbc
00000350: c37d 093e 147b dabd 920b 6abd 3e81 32bc
00000360: 9154 313c bdbe 15be a0e0 193d cd3d cbbc
00000370: d165 973b 14da a93d cef8 4f3e e8d2 883c
00000380: f4d2 c83d e3e7 de3d 0b4a 973c cfc5 dfbd
00000390: 48c8 be3d 59c7 a33d 1ac7 10be 574b b8bd
000003a0: 0c9c 38be 2dec b13d b179 143e f3d5 843d
000003b0: fcb6 86bd 9127 453d 4fbe e4bd bc6d 743c
000003c0: 56f4 08be d104 d1bd a007 c03d 4982 973b
000003d0: c0c1 a6bb 735d e23d b8c2 4d3d 7658 a83a
000003e0: e488 00be a05b b7bc 7db1 82bd 5a28 a33c
000003f0: 7186 0e3e bb86 e63c f796 75bd e9ad 25be

fc2_2.bias f4 [16]
0.037662722 0.010575559 0.15089849 0.12155617 -0.053345073 0.097920276 -0.07791886 0.005260956
0.0137611125 -0.066531755 -0.08043204 -0.13077196 0.106833644 -0.114829555 0.1238084 -0.014903282
00000000: 3a44 1a3d 1c45 2d3c 2285 1a3e 71f2 f83d
00000010: 5d80 5abd 6d8a c83d ec93 9fbd 1964 ac3b
00000020: 4a76 613c cd41 88bd 8eb9 a4bd 16e9 05be
00000030: 99cb da3d c22b ebbd 428f fd3d e52c 74bc

fc3.weight f4 [30, 16]
0.21684211 -0.19093257 0.16112731 0.114142865 0.056361973 -0.16099335 0.12246953 -0.10730133
0.10506929 0.19781491 -0.14987542 -0.14835136 -0.05759307 0.11937442 0.13041568 0.23433785
0.15535441 -0.21589066 0.07528144 -0.09476391 0.18190175 -0.068933904 0.15228114 -0.029084686
0.05027154 0.25154853 0.1817377 -0.06314647 -0.19196236 0.0025456543 0.20098048 0.1040034
0.18369722 0.22249758 0.23667933 0.22794132 0.00082740874 -0.23597322 0.020995455 -0.11799337
-0.1024042 -0.023661647 0.06952752 0.12515484 0.03511634 -0.16202475 -0.04624289 0.07490707
0.031888597 0.018810628 0.2670081 -0.08951733 0.24162778 0.0826458 0.11396517 0.16232176
0.05500558 -0.03392098 0.08001697 0.18681854 0.050995123 0.07009766 0.045495767 0.098715834
-0.08678506 -0.10333026 0.30234236 0.123974815 0.05535629 -0.058186263 0.22881833 0.10146362
-0.009570813 0.011429012 0.17603903 -0.06588134 -0.24446249 0.07184462 0.066097945 0.266859
0.1997064 0.13177875 0.08701251 0.007977628 -0.012505576 -0.15020606 0.12063106 0.061844815
0.15644398 0.24547684 0.01574081 -0.2168954 -0.08186745 -0.09110032 0.16105653 -0.035777
0.23502208 0.19109556 0.04280422 0.069403574 0.05790527 0.18697271 0.14041866 -0.038304385
0.12670004 0.21236764 0.07559119 0.18789625 0.0040209093 -0.120522514 0.3209198 0.31678697
-0.0533912 -0.21241428 0.18282714 0.097220875 0.19543508 0.04048725 0.13588007 0.08544891
-0.09333791 -0.070863955 0.05104908 -0.18532082 -0.1714336 0.0023086977 0.07003562 0.23309173
0.2508681 0.103936 0.00921274 0.115899615 0.16867352 -0.04986482 0.32155725 -0.12267251
0.1084906 0.1901616 -0.030012555 -0.21286012 0.010517196 0.18159038 -0.019172851 -0.019933743
0.21095625 0.1923148 -0.013264713 0.08266857 0.24388553 -0.22972955 0.25558066 0.108815655
0.075972326 0.29650557 -0.055727836 -0.16580978 -0.04579208 -0.16912283 -0.02735722 0.0666857
-0.13776872 0.102516636 0.09603003 0.10231502 -0.13098998 0.1414843 0.10126011 0.112556145
0.21744786 -0.12532397 0.038273107 0.2094858 -0.11641609 -0.0451213 -0.029752199 0.13847451
0.12801796 -0.2126484 0.030553563 0.18591519 0.26232845 -0.1401739 0.0108675 0.23738244
0.22318591 0.14314777 0.17655022 -0.026175926 -0.083525665 0.18618931 -0.074825704 -0.059158765
0.31402823 -0.0018875098 0.2719244 0.19072224 0.14558157 -0.13428035 0.2425607 -0.031182356
0.15459377 -0.07261696 0.25851652 -0.008769091 -0.16809875 0.11661363 0.03202688 -0.088528596
0.14158484 -0.19409756 0.22457165 0.15899192 0.20374562 0.103367426 0.13442716 0.06435698
0.25812358 -0.13507995 0.12365468 -0.08597734 0.12104322 0.11318802 -0.04740565 0.07727063
-0.007900846 0.032934196 -0.06660699 0.23531054 0.26146957 -0.22236733 0.11394276 -0.19016412
-0.14183746 -0.083211474 0.16477087 -0.15109114 0.18071038 0.098103866 0.06833194 0.048156485
0.29618213 -0.09914568 -0.058436047 0.16533612 -0.013285651 -0.09968318 0.33105123 0.0048890077
0.15796109 -0.08595329 -0.122269906 0.027545018 0.13409986 0.01715412 0.01906593 0.01846002
00000000: dc0b 5e3e d483 43be 8ffe 243e bcc3 e93d
00000010: d0db 663d 71db 24be 4ed1 fa3d cdc0 dbbd
00000020: 912e d73d fe8f 4a3e f178 19be 6be9 17be
00000030: b6e6 6bbd 937a f43d b08b 053e 43f6 6f3e
00000040: 3a15 1f3e 7112 5dbe 282d 9a3d 9513 c2bd
00000050: 7444 3a3e 382d 8dbd 96ef 1b3e 0243 eebc
00000060: 88e9 4d3d f8ca 803e 7319 3a3e f052 81bd
00000070: c891 44be fed4 263b d4cd 4d3e bcff d43d
00000080: 201b 3c3e 68d6 633e 115c 723e 7369 693e
00000090: 76e6 583a f7a2 71be a9fe ab3c 82a6 f1bd
000000a0: 4bb9 d1bd 12d6 c1bc 7264 8e3d 9728 003e
000000b0: 27d6 0f3d d1e9 25be 2f69 3dbd e168 993d
000000c0: 9e9d 023d bf18 9a3c 49b5 883e dd54 b7bd
000000d0: 466d 773e 3442 a93d 9266 e93d ad37 263e
000000e0: 884d 613d baf0 0abd f0df a33d 5c4d 3f3e
000000f0: 43e0 503d 5d8f 8f3d c559 3a3d 872b ca3d
00000100: 5ebc b1bd d19e d3bd 9ecc 9a3e 82e6 fd3d
00000110: 47bd 623d b854 6ebd 5a4f 6a3e 29cc cf3d
00000120: e6ce 1cbc c040 3b3c 9343 343e ccec 86bd
00000130: 6054 7abe 4623 933d 5c5e 873d bea1 883e
00000140: d67f 4c3e 02f1 063e 9d33 b23d 99b4 023c
00000150: 30e4 4cbc 9ecf 19be 6b0d f73d fd50 7d3d
00000160: da32 203e 485e 7b3e dff2 803c d419 5ebe
00000170: 1faa a7bd ce92 babd 01ec 243e e78a 12bd
00000180: a1a9 703e 8eae 433e 7a53 2f3d 7623 8e3d
00000190: 142e 6d3d c675 3f3e e9c9 0f3e 0fe5 1cbd
000001a0: a8bd 013e e776 593e 8ecf 9a3d e067 403e
000001b0: d5c1 833b 82d4 f6bd 9a4f a43e e731 a23e
000001c0: bbb0 5abd 2183 59be 0a37 3b3e bd1b c73d
000001d0: 2220 483e f5d5 253d 2524 0b3e d7ff ae3d
000001e0: f227 bfbd 1f21 91bd d718 513d bec4 3dbe
000001f0: 4a8c 2fbe 854d 173b d66e 8f3d 99af 6e3e
00000200: c971 803e 66dc d43d 08f1 163c c75c ed3d
00000210: c0b8 2c3e 0e3f 4cbd 27a3 a43e ba3b fbbd
00000220: 5230 de3d b9b9 423e e4dc f5bc 01f8 59be
00000230: 5150 2c3c d4f2 393e 6210 9dbc 174c a3bc
00000240: ea04 583e 2cee 443e 3d54 59bc 244e a93d
00000250: 21bd 793e 393e 6bbe 78db 823e beda de3d
00000260: 6197 9b3d 94cf 973e df42 64bd 0aca 29be
00000270: 7a90 3bbd 892e 2dbe 401c e0bc 8392 883d
00000280: 3e13 0dbe 3ef4 d13d 64ab c43d 8a8a d13d
00000290: 3d22 06be 43e1 103e 7661 cf3d d683 e63d
000002a0: a7aa 5e3e ed54 00be 43c4 1c3d 7283 563e
000002b0: 8f6b eebd 1dd1 38bd e2ba f3bc 43cc 0d3e
000002c0: 2417 033e 81c0 59be 774b fa3c 8d60 3e3e
000002d0: ea4f 863e bf89 0fbe 990d 323c 6214 733e
000002e0: d98a 643e 5495 123e 95c9 343e e56e d6bc
000002f0: 810f abbd 69a8 3e3e 383e 99bd 7650 72bd
00000300: 4fc8 a03e 5266 f7ba ad39 8b3e b14c 433e
00000310: 5613 153e ca80 09be d561 783e 2472 ffbc
00000320: d44d 1e3e 33b8 94bd 475c 843e 3cac 0fbc
00000330: 1422 2cbe 20d3 ee3d 9e2e 033d 7b4e b5bd
00000340: 9efb 103e 83c1 46be 1cf6 653e c7ce 223e
00000350: b1a2 503e 4db2 d33d 46a7 093e 98cd 833d
00000360: c628 843e 6652 0abe aa3e fd3d e314 b0bd
00000370: 82e5 f73d 1fcf e73d 6d2c 42bd 1040 9e3d
00000380: 8d72 01bc 02e6 063d 3f69 88bd 3ff5 703e
00000390: 57df 853e 43b4 63be d25a e93d 62ba 42be
000003a0: d73d 11be c76a aabd b2b9 283e a3b7 1abe
000003b0: 240c 393e aeea c83d 9ef1 8b3d bc3f 453d
000003c0: 2fa5 973e e40c cbbd a35a 6fbd df4d 293e
000003d0: 0fac 59bc b226 ccbd 8c7f a93e f833 a03b
000003e0: 8dc0 213e 4708 b0bd a568 fabd 17a6 e13c
000003f0: 7951 093e cc86 8c3c 2730 9c3c 7839 973c

fc3.bias f4 [30]
-0.008849336 0.11775938 0.089651644 0.1002491 0.0337926 0.15358543 -0.03455139 0.061749637
0.003957178 0.0054359375 0.2427814 0.10232853 -0.05484255 0.031103984 -0.012650862 0.011851608
-0.031400885 0.02493157 0.107654266 -0.08845083 0.12456743 -0.050588734 -0.13155282 0.045110986
-0.17310588 -0.1600156 -0.066150256 -0.10662493 -0.16852716 0.14242172
00000000: cefc 10bc d42b f13d 489b b73d 664f cd3d
00000010: 1c6a 0a3d 8045 1d3e c285 0dbd 30ed 7c3d
00000020: 37ab 813b f31f b23b b09b 783e 9f91 d13d
00000030: 95a2 60bd c8cd fe3c 9045 4fbc 3f2d 423c
00000040: 379e 00bd 4b3d cc3c d779 dc3d b525 b5bd
00000050: 351d ff3d 2236 4fbd c8b5 06be 4cc6 383d
00000060: ab42 31be 21db 23be c979 87bd 2c5e dabd
00000070: 6292 2cbe 00d7 113e
