Heater_Results/uniform_S20_vshape_Iter20_Epoch10_best.pth (torch, 44224 bytes, 14 tensors)

fc1.weight f4 [8, 3]
000000 76 a8 0d bf 7e 39 bf be 54 af e7 3e 42 1e 02 bf
       -0.55335176 -0.3734855 0.45250952 -0.5082742
000010 df 2f 50 bc 10 2a b6 3e 9d 4a 75 3e 32 ff 86 3e
       -0.012706726 0.35578966 0.23954244 0.26366574
000020 b3 2c 96 3e e5 8e e3 be 42 10 85 3e 86 5e 67 be
       0.29330978 -0.44444957 0.25988966 -0.22594652
000030 96 d6 e9 3e a2 48 e4 3c 37 f3 79 bd de 3c c2 3d
       0.4567153 0.027866665 -0.061022963 0.09484266
000040 cf e9 ff be 3c 58 fc be e6 79 4d be b7 f8 c9 3e
       -0.4998307 -0.49286067 -0.20066032 0.39447567
000050 3d a8 d7 3e dd 14 0a bf 79 f0 4e 3e c9 bc d3 be
       0.42120543 -0.53938085 0.2020892 -0.4135497

fc1.bias f4 [8]
000000 a7 35 f2 bd d9 4d d7 3e 0b 7a 40 3b 79 b7 f4 3d
       -0.118266396 0.4205158 0.0029369618 0.11949057
000010 5b de 37 be 9c 0f 1d be 34 a7 72 3e 99 c3 c7 3d
       -0.17955916 -0.15337986 0.23696595 0.09754104

fc2.weight f4 [32, 8]
000000 1b 94 89 be 54 cc 2f be c5 05 a4 be f3 01 77 bd
       -0.26870808 -0.17167789 -0.32035652 -0.060304593
000010 10 8c 4e be a5 42 87 3e 37 43 01 3e b5 fb a4 be
       -0.20170617 0.26418033 0.12623297 -0.32223287
000020 23 98 23 be 96 a3 ac 3e 37 ec 07 3d c7 ce fe 3d
       -0.15976004 0.33718556 0.033184256 0.124417834
000030 7a 74 88 3d 01 53 3c 3e 60 c0 be 3d 80 cc 87 3d
       0.06662841 0.18391038 0.09314036 0.06630802
000040 f2 94 2d 3e c3 47 85 3e 9c 05 41 bd 29 15 95 bd
       0.1695135 0.26031312 -0.04712449 -0.072794266
000050 f1 ea 89 3e 74 5b 75 3e cf 1f e3 3b af 50 97 be
       0.2693706 0.23960668 0.006931282 -0.29553744
000060 42 68 0a 3e e7 17 58 3e f6 20 9e bc eb 04 ef be
       0.13516334 0.21102868 -0.019302826 -0.4668344
000070 a6 e1 50 be 97 86 4d 3e a5 55 9c 3e 7c 70 77 3d
       -0.20398578 0.20070873 0.30534092 0.060410008
000080 3b f5 9c be 0a 94 21 be 6c 91 d0 3d ba 28 05 3e
       -0.30655846 -0.15779129 0.10183987 0.13003817
000090 19 ff b3 3d 31 cc 3d 3e 55 a0 29 3e dc 6a a8 3e
       0.087888904 0.18534924 0.16565068 0.32894027
0000a0 dd 39 81 3e 0e a3 b0 3d b5 10 8a bc 78 9f 27 be
       0.2523946 0.0862485 -0.01685367 -0.16369426
0000b0 0c af cd bd d6 fe ad be a5 9c 34 be a2 57 99 be
       -0.10043153 -0.33983487 -0.1763788 -0.2994967
0000c0 9b d1 4a 3e 70 db 5f bd d7 7b c0 bd f5 f8 9c be
       0.1980652 -0.05465263 -0.093986206 -0.3065869
0000d0 7a ea a4 be 72 97 28 be ba de 37 3e 27 c4 7c 3e
       -0.3221014 -0.16464022 0.17956057 0.24684201
0000e0 8f 4f 35 3e 1e db 91 be 87 f9 8e 3d 67 8b fa bd
       0.1770613 -0.28487486 0.06981187 -0.1223362
0000f0 90 3f 76 be 1a c6 04 3e 7d 63 a5 be ec 27 36 be
       -0.24047685 0.12966195 -0.32302466 -0.17788666
000100 61 d8 1b 3e 02 4d 57 be ed ac c7 bd a9 dc 03 bd
       0.15219261 -0.2102547 -0.0974978 -0.03219286
000110 15 bd 12 be 20 66 32 3e 00 f8 90 be cc 1b 72 3e
       -0.14329942 0.1742177 -0.2831421 0.23643416
000120 15 4c 92 be 85 17 68 be b1 03 99 be be 0c aa be
       -0.2857367 -0.22665222 -0.2988563 -0.33212847
000130 2f 9b 0e be b3 0a 38 3e 96 ba b5 3d 5e 01 83 bd
       -0.13926385 0.17972831 0.08873479 -0.06396745
000140 61 17 18 3e 25 f6 98 3e fc 9d 4a bd 05 4d e5 3d
       0.14852668 0.29875293 -0.049467072 0.11196331
000150 96 28 bf be 6e 05 75 3e 62 54 81 be d6 9a df bd
       -0.37335652 0.23927853 -0.2525969 -0.109182045
000160 39 34 9a 3c 18 ea 8e 3e a8 f3 36 3e 46 9d 4a bc
       0.01882373 0.27912974 0.17866385 -0.0123665985
000170 0a 7d 48 3d bf 71 a6 be 24 7e ff bc c4 3d cf bd
       0.04894737 -0.32508656 -0.031188078 -0.10119203
000180 10 59 4e be 9a be d4 bc 3e a4 be bc b3 a3 7c bd
       -0.20151162 -0.025969792 -0.023271676 -0.061679553
000190 2a 40 14 3e 09 61 3c bc 67 09 a0 be 05 e4 78 bd
       0.14477602 -0.011497744 -0.31257173 -0.06076433
0001a0 19 63 03 3e 49 5c a1 be 74 47 00 3e f3 39 85 be
       0.12830772 -0.3151572 0.12527257 -0.26020774
0001b0 97 a3 26 3e 15 f4 66 3e 81 92 91 3e 55 29 9c 3d
       0.16273342 0.22554047 0.28432086 0.07625071
0001c0 8f 09 c6 bd 90 03 6d be 2a c2 93 3e 03 ad bb 3d
       -0.09669792 -0.2314589 0.28859073 0.09163859
0001d0 b7 18 19 be 85 2c 8b 3e 03 4d 92 bd ad c4 89 be
       -0.14950834 0.27182403 -0.07143595 -0.26907864
0001e0 71 b6 e4 3d 9d 50 2f 3d 36 77 85 bb d1 dc e3 bc
       0.111676104 0.04280149 -0.004073049 -0.027815254
0001f0 9e e5 08 be 24 3a b4 3d cb 0a 51 3e 67 9e 17 3e
       -0.13368842 0.08800152 0.20414273 0.1480652
000200 ec 9e c1 3e 99 b8 85 3d 3e 84 7a 3e 4c 79 f1 3d
       0.3781656 0.0652935 0.24464509 0.11790714
000210 a2 38 4c be 12 d4 6b 3d 21 2a 2b 3d ad fb c4 bd
       -0.19943479 0.057575293 0.041788224 -0.09618316
000220 9c a5 10 3e 5b f3 04 3e 6a 6d 0a bd dc 6a 91 3e
       0.14125675 0.12983458 -0.03379575 0.2840184
000230 fc 54 ad 3d 5b 43 58 be 28 0d b3 bd 91 62 87 3e
       0.08463475 -0.21119444 -0.08742744 0.26442388
000240 51 a6 43 3e 92 e6 a1 3e 3f fe 84 be f8 d2 d1 bd
       0.19106413 0.31621224 -0.25975224 -0.10245317
000250 b8 f7 9b be 2a 16 65 3e c7 a0 d6 bd f7 e0 49 be
       -0.30462432 0.22371736 -0.104798846 -0.19714724
000260 fa 2c 59 bc 91 bf 64 3e b4 4d 2b be aa fb 89 3e
       -0.013255352 0.22338702 -0.1672886 0.26949817
000270 34 f9 45 3e 63 5b 88 3d 76 8b 8c be 40 97 95 3e
       0.19333345 0.06658056 -0.2745015 0.29216957
000280 80 02 3a 3e e6 1e 29 be 46 41 2c 3e 6a 5a 64 be
       0.18165016 -0.16515693 0.16821775 -0.22300115
000290 76 fc 7a 3e e9 7f 65 be ae 20 df bd a9 0f 91 3b
       0.24510369 -0.22412075 -0.10894905 0.0044269157
0002a0 1a d4 3a be 7a 8d 80 be 8f 14 da 3d e6 ca 05 be
       -0.18244973 -0.25107938 0.106484525 -0.13065681
0002b0 7d f7 94 3e c0 f5 40 3e 17 31 33 3e f8 6b 58 3e
       0.2909507 0.18843746 0.17499195 0.21134937
0002c0 c8 75 97 3d 19 0e 44 3e 86 67 68 be 97 4c c1 bd
       0.07395512 0.19146003 -0.22695741 -0.094384365
0002d0 32 5b a9 be f6 7e a9 3e a1 61 ab be 9d 08 8e be
       -0.3307739 0.33104676 -0.33472922 -0.27740946
0002e0 e6 21 52 3d fd 5c 06 bd 5e 8f 35 bc a0 45 fd bd
       0.05130186 -0.032803524 -0.011081545 -0.123667955
0002f0 2c 94 00 bd 04 8b a6 3e 03 10 6d bd 93 89 ac 3e
       -0.031391308 0.32527936 -0.057876598 0.3369871
000300 a9 47 5b be 9a 57 c0 bd 5b 99 ae be 0e 2d 74 be
       -0.21414055 -0.09391709 -0.34101376 -0.23845312
000310 16 b6 5a 3d aa a8 93 be 1a a5 21 3e bc b7 46 3e
       0.053396307 -0.28839618 0.15785637 0.19406027
000320 c9 41 5a be 9f a6 4e be 06 31 20 3d e4 26 4d be
       -0.21314158 -0.20180748 0.039109252 -0.20034367
000330 72 0c a1 3e 13 62 40 3e 10 dc 6c 3d d5 6c d4 3d
       0.31454808 0.18787412 0.057827055 0.103723206
000340 8e e9 57 3e 6a 71 4f 3c 74 76 53 3e 82 1a 5f be
       0.21085188 0.012661317 0.20650655 -0.21787456
000350 f1 0c bc be 24 56 0c be 77 bc 16 3d d8 1f 04 3e
       -0.36728624 -0.13704735 0.036800828 0.12902772
000360 0b 7a fc bd 28 a4 01 3e 66 02 72 be d0 da 57 be
       -0.12327965 0.12660277 -0.23633727 -0.21079564
000370 d6 18 5b be 56 ab 53 3e 27 25 05 3d d6 2d a4 3e
       -0.21396193 0.20670828 0.032506134 0.3206622
000380 11 7a be bd 52 f6 b6 3e 55 d8 91 bd 86 dc 51 be
       -0.09300626 0.35734802 -0.0712134 -0.2049428
000390 32 6f ed 3d 1e 2a a1 be 8d af 67 be 21 ed de 3d
       0.115934744 -0.31477445 -0.22625561 0.108850725
0003a0 7b 0b 82 be 3d 9a 9a be db 68 97 3e d6 d8 1f 3e
       -0.25399384 -0.301958 0.29572186 0.1561006
0003b0 94 73 cc 3e 71 66 0d be 76 a5 a3 3e 03 e7 86 be
       0.3993193 -0.1380861 0.31962174 -0.26348123
0003c0 bd 84 0f 3e 52 4d c9 3d 3f 12 f6 3c 53 40 df be
       0.1401548 0.09829201 0.030037997 -0.43603763
0003d0 f0 ce cf 3d 95 04 2d be e8 ef ba 3e 0c 54 b1 3e
       0.10146892 -0.16896279 0.3651116 0.34634435
0003e0 aa af 5d 3e 57 65 8e bd 1d d5 9b bd 95 a3 97 3e
       0.21649042 -0.06952923 -0.076090075 0.2961699
0003f0 6b 97 1f be 42 0f 7a 3e 50 96 17 bd 6d b2 f8 bc
       -0.15585105 0.24419883 -0.037008584 -0.030358518

fc2.bias f4 [32]
000000 12 48 76 3e 87 22 85 3e 5d 51 bf 3d 92 24 c2 bd
       0.2405093 0.26002905 0.09341691 -0.094796315
000010 04 c0 c7 3e 28 0c a6 3e 05 15 a3 3d 55 1a 86 be
       0.39013684 0.3243115 0.079629935 -0.26191965
000020 fa 70 a1 3b f4 74 99 bd 3e a0 7a 3e 6f ad 9f 3d
       0.004926798 -0.0749301 0.2447519 0.07796752
000030 49 0d 9b be 84 23 be 3e 26 86 e4 3c 32 3e 94 3c
       -0.30283573 0.3713647 0.027895998 0.018096063
000040 45 4f 59 be c7 d7 89 be 04 d5 18 3e 5e 54 8c 3e
       -0.21221645 -0.26922438 0.14925009 0.27408117
000050 5a d4 88 bd cf 82 ad 3e 92 0e 46 be 05 9a 6f bd
       -0.06681128 0.33888862 -0.19341496 -0.058496494
000060 69 3c d7 3c fb 58 0e be fb c6 e4 bc 39 5b 62 3e
       0.026273923 -0.13901131 -0.027926913 0.22105111
000070 5a d3 b3 3e 46 75 c2 3e 65 b2 88 3d fd 24 20 be
       0.35122186 0.37980098 0.06674651 -0.1563911

fc2_1.weight f4 [64, 32]
000000 73 d1 2b 3e 19 89 1c 3e 89 3a a4 3d d3 57 bb 3c
       0.16779117 0.15286674 0.08018977 0.022869026
000010 48 c3 ee bd 35 21 0f 3e af 16 f2 3c 37 70 02 3e
       -0.11658341 0.13977511 0.029551832 0.12738119
000020 46 7f f5 bd 9a 10 40 bd d7 7a 39 3d 5a 82 a4 bd
       -0.11987166 -0.046890832 0.045283165 -0.08032675
000030 cc 5b 7b 3d 71 c3 c1 3d c0 c6 2e 3e 0c 01 87 bd
       0.06136684 0.094611056 0.17068005 -0.065919966
000040 69 d3 fd bd 2b 24 94 3c 88 f6 9b bd 66 b3 86 3d
       -0.12393839 0.018083652 -0.076153815 0.06577186
000050 ff 32 2d be 84 63 43 3d de cc 3c 3d ac df 28 be
       -0.16913985 0.047702327 0.046093814 -0.16491574
000060 44 d1 a3 bd 95 46 b4 bd 64 9c 5d bd 62 47 21 be
       -0.079988986 -0.08802525 -0.054104224 -0.15749887
000070 ee c9 10 be a2 6f 0b be b5 61 c3 bd 0f d8 e9 bc
       -0.1413953 -0.13616803 -0.095401205 -0.028545408
000080 98 b9 a2 bd a4 2a 1e bd 6d a4 0c 3e ba 08 06 be
       -0.079455554 -0.038614884 0.13734598 -0.13089266
000090 02 9b 99 3b aa 86 4d 3c 44 d8 09 bc 5a e4 93 bc
       0.004687668 0.012544313 -0.008413378 -0.018053222
0000a0 f0 03 1f be 9c af 8a 3c 63 e0 84 bc 1c c3 8f bd
       -0.15528846 0.01692944 -0.016220277 -0.07019636
0000b0 60 50 85 bd 0c 21 6b 3d 04 fa 47 bd a7 d7 a0 bd
       -0.06509471 0.057404563 -0.048822418 -0.078536324
0000c0 81 c2 e3 3d 6b 80 5e bd 45 10 f9 bd 54 fc 19 3e
       0.11121083 -0.054321688 -0.12161306 0.15037662
0000d0 04 79 99 3c 25 d7 f9 bd 28 e8 25 be 5b 0c 20 3e
       0.018734463 -0.12199239 -0.16201842 0.15629713
0000e0 bc 13 e9 3d db c4 f5 bc 99 2f 8c 3d f9 19 e6 bc
       0.11380717 -0.030001095 0.06845016 -0.028088557
0000f0 3e 1f 0e 3e d6 57 b9 3d c9 14 2e be 7d c4 2d be
       0.13879105 0.090499565 -0.17000116 -0.16969486
000100 a8 7a 83 3d 11 85 4b 3d 72 c2 e2 3b f1 bc 91 3c
       0.06419879 0.04968745 0.0069201523 0.01779029
000110 60 c3 ac bd 42 13 20 3e bd 80 c7 bd 94 08 9b 3c
       -0.08435702 0.15632346 -0.09741352 0.018924989
000120 1d 39 c9 bd 8a 70 0d 3e c4 ea 16 3e ff 52 22 be
       -0.098253466 0.13812461 0.14737993 -0.15851973
000130 c9 e2 ef 3d a9 fd de bd 41 9e ba bd 3b 87 ab 3d
       0.11713178 -0.108882256 -0.09112216 0.083754025
000140 85 1c f8 3d 6e 9a df 3d 09 1a c0 3d 94 54 ca 3d
       0.12114815 0.10918127 0.09379966 0.09879413
000150 a4 e1 0d be d0 d5 97 bd 24 1b b4 bd 7e c3 c4 3d
       -0.13855606 -0.074138284 -0.08794239 0.096076
000160 5d ed a3 bd 8d 3a ba 3c 7f 19 1d be 6d a2 b5 3d
       -0.08004258 0.022732997 -0.15341757 0.08868871
000170 4b e7 81 bd aa 43 0c be 45 d9 82 bd f7 80 26 3d
       -0.06342944 -0.13697687 -0.06389097 0.040650334
000180 40 b2 32 3d 91 bd 26 3e 60 06 cb bd 80 20 05 be
       0.043627024 0.16283251 -0.09913325 -0.13000679
000190 69 35 1d 3e 17 48 eb 3d f0 4b e4 bd 3f d9 59 3c
       0.15352406 0.114883594 -0.111472964 0.013296424
0001a0 a6 7e cc 3d e1 ac 32 3e 80 bf 03 be cb 1f 29 be
       0.09985094 0.1744876 -0.1286602 -0.16516034
0001b0 73 ad 34 be b5 b2 17 3e 1c 1c b5 3d c9 0e e4 bc
       -0.1764429 0.14814265 0.08843252 -0.027839081
0001c0 74 f9 33 3b 3b ae 1c bc b6 c7 0c be 87 7a c9 3d
       0.0027461918 -0.009563024 -0.13748059 0.09837823
0001d0 7f 21 38 3e fd 2c 09 3e 46 96 06 be dc ec 29 be
       0.17981528 0.13396068 -0.13143262 -0.16594261
0001e0 f3 29 08 be 3a bd 63 3e d1 2e f3 bd 3c 21 aa 3d
       -0.13297252 0.22240153 -0.11874164 0.0830712
0001f0 d3 0d 85 bc 10 3f 0a 3e b5 60 4f bd 25 aa 0f be
       -0.016241943 0.13500619 -0.050629336 -0.14029749
000200 5c e7 e7 bd 42 60 25 3e 82 31 28 be bb 0c 01 3e
       -0.11323425 0.1615 -0.16425136 0.12602513
000210 7c bb 8c 3d c5 f5 f8 bc be a0 40 bc f8 38 01 3e
       0.06871697 -0.03039063 -0.011757074 0.12619388
000220 e9 94 04 3e b9 d4 8c bd 00 78 83 3b 0b 30 85 bd
       0.1294743 -0.06876511 0.004012108 -0.06503304
000230 f4 8c d7 3d 8c 4b 5d bd 7b 0f 4b bd 1c f4 25 be
       0.105249316 -0.054027125 -0.04957531 -0.16206402
000240 7e e8 10 3d c3 ca 5c 3e bb e9 2b 3c a8 fc da 3b
       0.03537797 0.21561722 0.010492737 0.006682951
000250 e2 29 58 3e e3 bd ff 3d f5 78 e4 bc 4c d5 92 bd
       0.21109727 0.1248739 -0.027889708 -0.071695894
000260 ac f7 12 bd 44 12 23 be c5 b9 d0 bc bd 88 99 bd
       -0.03588073 -0.15924937 -0.025479207 -0.07496784
000270 06 86 f0 3d a3 37 5b 3d dd 50 45 bd 4c 59 08 bd
       0.11744313 0.053519856 -0.04817282 -0.033288285
000280 34 5e 6b bd 97 8d d3 3c fa c0 8c bd 52 ba 9a bc
       -0.057462886 0.025824351 -0.06872745 -0.018887673
000290 d5 f7 e1 3d 2f 4e 00 3e 1e f4 45 bd d8 cb db bb
       0.11033598 0.12529825 -0.04832851 -0.0067076497
0002a0 7c f4 24 bd 6c 0d af bb 2c a9 ac bd d4 74 34 be
       -0.04027222 -0.005342176 -0.084307045 -0.17622691
0002b0 36 15 c0 bd 97 b4 04 3e e0 24 bc bd ee 22 b6 3d
       -0.09379046 0.12959515 -0.09186721 0.08893381
0002c0 35 38 09 3e 62 b8 49 3e 40 07 98 bd 75 c5 33 bd
       0.13400348 0.19699243 -0.07423258 -0.04388948
0002d0 a5 f4 90 3e fa f5 ba bd 43 7d ac 3d 24 43 06 3e
       0.2831165 -0.091289476 0.08422329 0.1311155
0002e0 02 42 09 3e a8 b3 e2 3d 62 12 25 be dc a3 0b 3e
       0.13404086 0.11069423 -0.16120294 0.13636726
0002f0 93 01 1b 3e 32 3d 27 3e 9c af 78 bd 6d 72 ad 3c
       0.1513732 0.16331938 -0.06071435 0.021172727
000300 3e c4 b5 3d 51 5e e9 bd 14 dc 9e bc a5 cb 64 bd
       0.08875321 -0.113949426 -0.01939205 -0.055858273
000310 19 ed db 3d aa 89 ac bd 86 ae 8f 3d a1 1f ee bc
       0.10738582 -0.08424695 0.070157096 -0.029067816
000320 da 6b 64 3d 98 d7 a1 3c f2 3b e1 3b 17 51 19 3e
       0.055766918 0.019756123 0.006873601 0.1497234
000330 60 a4 a1 bd 2f c8 8a 3d af f4 02 be b8 69 f1 3d
       -0.0789268 0.06776463 -0.12788652 0.117877424
000340 df 0a a9 3d e8 89 7d 3d 4c de 8d 3d 42 bc a1 3c
       0.082540266 0.061899096 0.069271654 0.019743089
000350 9e 12 b4 bc c1 79 e9 3d 33 fe 29 3e b4 61 00 bd
       -0.021981534 0.11400176 0.16600876 -0.031343177
000360 33 f6 fe bc ed 14 32 3e 35 04 e4 bd 0b 83 d1 bd
       -0.031123256 0.17390795 -0.11133615 -0.102300726
000370 38 04 d1 bc c2 e1 2d ba c5 5d 02 be df 5f f5 bd
       -0.025514707 -0.0006633067 -0.12731083 -0.119811766
000380 d9 90 2c 3d fa 78 1e 3e c6 34 f9 3d f2 f6 e3 ba
       0.042130325 0.15475836 0.12168269 -0.0017392321
000390 a4 ab f2 3d 73 45 14 3e 8c 40 77 b8 95 85 1f be
       0.11849144 0.14479618 -5.8949503e-05 -0.15578301
0003a0 b2 a0 0d be 45 3d 32 be 3d db 08 3e 69 51 b0 bd
       -0.13830832 -0.17406185 0.13364883 -0.08609278
0003b0 9e 13 0d be 67 84 12 3d de 15 12 3e b7 c8 73 3d
       -0.13777015 0.0357708 0.14266154 0.05951759
0003c0 dc 99 f3 bd 64 47 c2 bc 9d 2f 92 3d 8e dd eb bd
       -0.11894581 -0.023715682 0.07137988 -0.115168676
0003d0 f8 dc f2 bd 2a 9a e6 3d 56 b3 03 3e 3c 19 78 bd
       -0.11858553 0.11259873 0.1286138 -0.06057094
0003e0 54 65 2a bc 64 8d d7 bd 7c 63 ac bd ae b4 ae bb
       -0.010400135 -0.10525015 -0.08417413 -0.0053315973
0003f0 c5 ce d0 bc b8 aa 8c 3d 22 b3 b3 3d 5f 0a 07 3d
       -0.02548922 0.068684995 0.08774401 0.032968875

fc2_1.bias f4 [64]
000000 0e 06 a6 3d 53 76 64 bd 44 6a 8b 3d 83 e2 8b 3d
       0.081066236 -0.055776905 0.06807378 0.06830313
000010 19 7f 17 bd aa 7c cd bb 09 56 5b 3e 01 29 10 3e
       -0.036986444 -0.0062709646 0.21419539 0.14078142
000020 ac 8c e3 bd 69 af f0 3d 2b ec 8e bc 3e d2 0c 3e
       -0.111108154 0.11752207 -0.017446598 0.13752076
000030 f5 59 b6 3d 2f 56 06 3d 6f ec 9c 3e 4b 48 a6 3d
       0.08903877 0.032797035 0.30649135 0.081192575
000040 2d 1a 9c bc ea f9 64 3c bb c2 18 3d e8 f8 b4 3d
       -0.01905545 0.0139756 0.037295084 0.088365376
000050 09 71 31 be 37 8e a1 3d 4b f9 f3 3d 6d f5 e6 bc
       -0.17328276 0.078884535 0.11912783 -0.0281932
000060 e0 02 30 be 1b 15 a8 3d 6e 89 d4 3c f3 28 ad bc
       -0.17188597 0.082071505 0.025944438 -0.02113769
000070 56 d7 c8 3d 4c d3 4b be 3d c9 b7 3c fa 15 f2 bd
       0.09806697 -0.19904822 0.022434825 -0.11820598
000080 bc 13 a4 3b 5a 50 17 be 68 4a 32 be 9b cb 5e bc
       0.0050072353 -0.14776745 -0.17411196 -0.013598348
000090 b1 09 07 be c7 be 1e 3d 4d 28 14 3d 98 b7 e6 3c
       -0.1318729 0.03875616 0.036171246 0.028163716
0000a0 2d 61 88 bc 3b c8 09 be d1 95 9a bd f1 5e 7d be
       -0.0166479 -0.13455288 -0.075481065 -0.24743249
0000b0 87 25 8a 3d 21 07 2b 3d b1 4d b6 3d b8 77 46 be
       0.06745439 0.041754846 0.08901537 -0.19381607
0000c0 ee bc 91 3d 38 7d 64 be 19 51 ca 3c 8f 56 08 be
       0.071161136 -0.22313392 0.024696874 -0.1331427
0000d0 d3 ee 80 3c 31 31 1e be 90 1e fe bd d8 26 43 3e
       0.01573888 -0.15448453 -0.12408173 0.19057786
0000e0 9b 39 26 3e 96 58 18 3e 7a 72 a0 bd 70 6f 2c 3d
       0.16232912 0.14877543 -0.07834335 0.042098463
0000f0 c9 45 9d 3e 7b 46 20 bd 52 c8 dc 3c 0e 8c 40 bc
       0.30717304 -0.039129715 0.026950989 -0.011752142

fc2_1_1.weight f4 [64, 64]
000000 7a 10 8d bd f8 68 0a 3d 15 3f 61 3d 1f e1 cf bd
       -0.06887908 0.033791512 0.0549918 -0.1015036
000010 80 9e 2b 3d 12 da 44 3b 43 0b 8d 3d 0b 66 d7 bc
       0.041899204 0.0030037207 0.068869136 -0.026293775
000020 77 78 0d bd b6 3a 85 bd 67 aa d9 bc a1 16 fa 3d
       -0.034538712 -0.06505339 -0.026570512 0.12211347
000030 03 a2 24 bc 8c 12 58 3d 86 45 85 bd 4b bc cb 3d
       -0.010048392 0.052752063 -0.06507401 0.099480234
000040 57 48 c7 bd 30 ab b9 bd 1f 15 34 3e ad 89 a5 3d
       -0.097305946 -0.090658545 0.17586182 0.080829
000050 cb 69 bc bd 20 65 49 3d 3a d2 b9 bd 68 07 00 3e
       -0.09199866 0.049168706 -0.09073301 0.12502825
000060 e4 b8 a7 3d 3b e4 13 3d 4c b3 03 3b 29 53 68 bd
       0.08189562 0.03610633 0.0020095883 -0.056719933
000070 db 88 25 3b 45 c1 ae 3d 69 88 ab 3d 6e 30 cb 3b
       0.0025258574 0.08532957 0.083756275 0.0062008416
000080 00 5b b8 3c ca 2e ed bd 6d ab 96 bc e1 cc 49 bd
       0.02250433 -0.1158119 -0.018392289 -0.049267653
000090 1d 28 fc 3b 30 86 15 3d b7 52 80 3d c4 43 50 bd
       0.0076952116 0.036504924 0.062657766 -0.050845876
0000a0 7d 06 06 3e a0 b2 11 3c ec db 20 bd 3c 78 19 bd
       0.13088413 0.008892685 -0.039272234 -0.03746818
0000b0 46 8f 78 3d 05 33 9f bd e4 c3 4a 3d 14 7c c2 bd
       0.06068351 -0.07773403 0.049503222 -0.09496322
0000c0 9c 45 a6 3c c5 2c 26 bd 38 11 84 bd a0 94 3b bc
       0.020296864 -0.04057004 -0.06448597 -0.011449009
0000d0 af 05 ff 3c 81 5b 48 bd 33 32 2e 3d 7a a4 65 3d
       0.03113064 -0.04891539 0.042528342 0.05606506
0000e0 17 fe 1f 3d 77 3a ae bc 1c fb 68 3c 06 b9 b6 3d
       0.03906068 -0.021268113 0.014220025 0.08922009
0000f0 17 c0 2f 3e ad 87 72 bd 0e 66 23 bd ee fc d8 3d
       0.1716312 -0.05921142 -0.03989225 0.105951175
000100 48 a4 3d 3d 02 1f a8 3d 71 ec 0e 3c c2 a5 c9 bd
       0.04629925 0.08209039 0.008723364 -0.09846069
000110 dd d5 92 bd c7 ba cd 3d ea a7 c8 3c f5 13 ee 3d
       -0.071696974 0.100453906 0.02449413 0.116249
000120 8c 18 ab 3b 39 fb a6 3d d5 ab d4 bd 16 c2 e9 3d
       0.005221432 0.08153386 -0.10384337 0.11413972
000130 20 f8 c5 bc c8 14 b5 3c 33 0d 4c 3d 00 94 05 39
       -0.024166167 0.022104636 0.049817275 0.00012739003
000140 ae 08 ca bd 3c 8e 83 bd 29 15 59 3d d0 64 32 bd
       -0.09864937 -0.064236134 0.052998696 -0.043553174
000150 46 7d f8 3c d6 2d be 3d f0 4e ed 3c b3 8f 8f 3d
       0.030333173 0.09286086 0.028968304 0.0700983
000160 14 99 d0 bd 1b 78 42 bd d0 b7 aa 3d 19 86 e0 3b
       -0.10185447 -0.047477823 0.08335841 0.006851923
000170 86 c1 c3 3d d2 d8 98 3d a7 c8 ef 3d 4b 95 8d bc
       0.09558396 0.0746323 0.11708193 -0.017283102
000180 18 b2 ca bd 88 9d a5 bc 60 b1 c0 3d 93 0e 51 ba
       -0.0989725 -0.020216718 0.094088316 -0.0007974889
000190 96 9e 64 bc cb 7d 06 3d 0f 79 0b 3e d8 1b a2 bd
       -0.013953825 0.03283481 0.13620399 -0.07915467
0001a0 8c a8 5a 3d f4 f0 f3 3d cc 5b 80 bd 26 5d 12 3d
       0.053383395 0.119111925 -0.06267509 0.035733365
0001b0 b9 9e ae 3d da 17 d9 bd 90 81 79 bd 5d c0 a9 bd
       0.08526368 -0.106002524 -0.060914576 -0.082886435
0001c0 4f 03 82 bd f9 da cf bd 0a a2 c8 bd d0 9b f8 bd
       -0.06348287 -0.101491876 -0.097965315 -0.12139094
0001d0 2b 9d 30 3d 52 fa 65 3d d5 6b 04 be 61 31 d5 3d
       0.043118637 0.056146927 -0.1293176 0.10409809
0001e0 55 c4 50 3d d2 fa e8 3d b3 5c aa 3b 36 cf 81 bd
       0.050968487 0.11375965 0.005199039 -0.063383505
0001f0 95 50 aa 3d 1a 19 28 3d 55 1d 12 3e f3 2b 85 bc
       0.08316151 0.041039564 0.14269002 -0.016256308
000200 62 f2 f7 3d 95 fd 36 bc 7f fe 88 3d ba b5 c8 3d
       0.12106778 -0.011168857 0.06689166 0.098002866
000210 eb 0d 6b bd e7 a7 b0 3d 3f ec f7 3d d9 58 78 bd
       -0.05738632 0.08625775 0.12105607 -0.060631607
000220 3a 5e f2 bd 68 02 9d bd ab f9 ff 3d 34 94 b5 3c
       -0.118343785 -0.076664746 0.12498792 0.022165395
000230 83 e9 46 bd d2 82 e5 bd f1 ba 0e 3d 2a 48 ed 3d
       -0.048562538 -0.112065926 0.03484625 0.1158603
000240 fb a9 1d bd 68 02 b5 bc 51 1b da 3c 48 24 c8 bd
       -0.038492184 -0.022095874 0.026624354 -0.09772545
000250 92 1d c9 3c 07 05 76 3d 3c 3e cd bd 1b 0f 96 3d
       0.024550233 0.06006339 -0.10021636 0.073271
000260 50 87 81 bc 5e 3b 33 3d df f0 e5 bd 97 ca e2 3c
       -0.015811592 0.04375779 -0.11227583 0.027684493
000270 92 56 c1 3d cc 77 1b 3d 7d 72 a1 bc 1e 94 cd 3d
       0.0944034 0.037956044 -0.019707913 0.10038017
000280 b4 fb a1 bd 34 4b ab bd 64 40 1f bd a3 7b e6 3d
       -0.07909337 -0.08363953 -0.038879767 0.112540506
000290 db 7e e2 3c f6 d4 01 be 4b cd 3c 3d 5d 48 65 3d
       0.02764838 -0.12678894 0.04609422 0.055977214
0002a0 6c 0a a2 bd ba 35 c7 bd ec 3a fb bd 4a 10 30 3d
       -0.07912144 -0.097270444 -0.12267098 0.042984284
0002b0 18 e5 07 3e 78 87 05 bd a1 cf 00 bb 12 36 64 bd
       0.13270986 -0.032599896 -0.0019655006 -0.055715628
0002c0 a6 d4 98 bd 98 c1 f8 bd 7e 2c a0 3d 00 17 af bd
       -0.074624345 -0.121463 0.07820986 -0.08549309
0002d0 b8 a5 60 3d 0f c7 47 3d 95 b0 e1 bc ef f2 69 bd
       0.05484554 0.04877382 -0.027550021 -0.057116445
0002e0 83 14 ff bc 6b b4 d0 bd 9a 73 e4 bd 00 0d 07 3d
       -0.03113771 -0.10190662 -0.11154862 0.032971382
0002f0 24 e8 0c bd 80 75 8c 3a 10 9e 84 bd 8f 69 4b 3d
       -0.034401074 0.001071617 -0.064754605 0.049661215
000300 84 62 df 3d 3a e0 c6 bc bd f3 a5 ba 5a 54 cd bc
       0.10907462 -0.024276841 -0.0012661141 -0.025064636
000310 17 5f d0 bd 40 ff 02 be e5 83 5f bd f8 93 7d 3d
       -0.10174387 -0.12792683 -0.054569144 0.061908692
000320 10 48 72 bd 11 34 21 3e 46 93 87 3d fc dc b1 bd
       -0.059150755 0.15742518 0.06619887 -0.086847275
000330 fe 60 9f 3d d8 b6 f5 3d 1c cb 4e be e0 ea d7 bc
       0.07782172 0.11997765 -0.20194668 -0.026357114
000340 94 ac 9f bd 04 1b 56 3d 2c 14 01 be 49 d0 f7 3d
       -0.077965885 0.052271858 -0.12605351 0.12100274
000350 cd 7d 98 bd a4 18 04 3e 8a 74 bf bd 0d 29 4f 3c
       -0.074458696 0.12900025 -0.093484 0.012644065
000360 c4 08 db bd 67 15 a4 3c 8b 6f ae bd 9e 4f 8f bb
       -0.10695031 0.020029737 -0.08517369 -0.004373505
000370 3c e4 91 3d ee 8b a8 bc 07 37 64 3d 26 24 8f bc
       0.071236104 -0.020574536 0.05571654 -0.017473292
000380 0c b9 23 bd bc 33 df bd 62 c9 ca 3d 5c 7c 1a bc
       -0.039971396 -0.108985394 0.09901692 -0.009429064
000390 2f f7 b4 bd 26 db c0 bd fc 7d 6f 3d 36 d1 a5 3d
       -0.08836209 -0.09416799 0.058469757 0.080965444
0003a0 68 4d 22 3d 90 cc 8e bc 30 71 f3 bc 13 7b 91 bc
       0.0396246 -0.017431527 -0.029717058 -0.017758882
0003b0 3a ed 90 bd 93 6b eb bd a4 33 21 3d 0c d0 8e bd
       -0.070764974 -0.114951275 0.03935589 -0.069732755
0003c0 58 3f 55 bd c2 68 96 3d 50 52 73 3c aa e2 8c 3d
       -0.052062362 0.073442 0.014851168 0.0687917
0003d0 76 82 9d 3d a2 fd ac bd a4 e9 22 3d 34 47 80 3d
       0.07690899 -0.08446814 0.0397736 0.06263581
0003e0 08 17 1c 3d 34 4c 50 bd 2e cd 82 3d 10 1c e9 3d
       0.0381079 -0.050853923 0.06386791 0.113823056
0003f0 06 18 23 3d a5 d8 a0 3c bc 4e eb 3b ad c7 9f bd
       0.039817832 0.019634554 0.0071810167 -0.07801757

fc2_1_1.bias f4 [64]
000000 d6 86 40 3e f1 de a3 bd 26 67 ef 3d d1 9f ba bd
       0.18801436 -0.08001507 0.11689596 -0.09112514
000010 50 74 43 bc f9 79 14 3b 00 ab 98 bd 8b 11 10 be
       -0.0119295865 0.002265571 -0.07454491 -0.14069192
000020 93 1e 20 bd a9 a9 e5 bd fd 53 c7 3d 05 d7 53 bd
       -0.039091658 -0.11214001 0.09732816 -0.05171873
000030 8e 83 06 be 84 6e e8 3c f3 f0 9d 3b d3 e5 fa 3c
       -0.13136122 0.02837301 0.004819983 0.030627167
000040 f4 9b 76 bd 15 84 a0 3c 1e 12 26 bd 92 af 0c be
       -0.060207322 0.019594232 -0.04054462 -0.1373885
000050 28 43 39 be bf af 4b bc 50 97 56 bd 2a f7 19 3d
       -0.18092024 -0.012432038 -0.052390397 0.03758923
000060 23 a4 94 3c 74 32 2c 3e 89 0b 46 3d 5f eb 81 3d
       0.018144673 0.16816121 0.048350845 0.063437216
000070 de 83 77 bd ff 7b 9d 3d d3 a7 20 bd dc ba 9e bd
       -0.060428493 0.07689666 -0.03922255 -0.07750484
000080 45 02 96 3d d0 c8 76 bd ba 17 1e be 39 9f 18 be
       0.07324652 -0.060250103 -0.15438738 -0.14904489
000090 7b 41 b4 bd 1c 42 67 bb 88 fb 8c bd 8b 39 62 3d
       -0.08801552 -0.0035287207 -0.06883913 0.05523066
0000a0 8a 67 54 3d c8 e0 51 bd c1 cf e4 bd a4 95 ce bd
       0.051856555 -0.05123976 -0.111724384 -0.100871354
0000b0 2f e9 40 bd b4 47 63 3d 47 bd e2 bb 65 38 a5 3d
       -0.04709738 0.055488303 -0.0069195363 0.08067397
0000c0 f9 94 e4 bd e7 ca 8b bd c4 e2 43 3c 2a e3 16 be
       -0.11161227 -0.0682581 0.011955921 -0.14735094
0000d0 f5 8b 19 3e ea 2e 5f bc ce 49 da bd 58 56 f6 3b
       0.14994796 -0.013622025 -0.106586084 0.007517617
0000e0 f2 6d eb bb b6 46 21 3d 55 a5 9a bd 65 47 7e bd
       -0.0071847374 0.039374076 -0.07551066 -0.062079806
0000f0 b6 19 13 be e0 fd 2b be cd 40 cf bd bf 15 73 bc
       -0.14365277 -0.16796064 -0.10119782 -0.014836728

fc2_1_2.weight f4 [32, 64]
000000 97 1e 1c 3e 40 de 9a 3d 58 8c 77 3d 83 87 16 bb
       0.15246044 0.07561922 0.060436577 -0.0022968955
000010 05 d7 56 bd 1e 6e 00 3d f8 7a d9 3d 50 65 c0 bd
       -0.052451152 0.031355016 0.106191576 -0.09394324
000020 3a ea 41 bc 46 bf 53 3d 2c 22 2c 3d b2 3b 1f bd
       -0.011835629 0.051696084 0.042024776 -0.03887529
000030 9f 1e 8c 3a 44 00 1e 3d b4 6d ff bd 7b d5 92 bd
       0.0010690278 0.038574472 -0.12472096 -0.071696244
000040 6d 6b 85 bd 30 bf 73 bd 1f 82 ca 3d ab cc 12 bd
       -0.065146305 -0.059508502 0.098881 -0.035839718
000050 0d b0 bb 3c ec ac 28 bd 6e ed 20 bd f7 69 bb bc
       0.022911096 -0.041180536 -0.03928893 -0.022877676
000060 02 5b be bd a3 37 1c 3e 9c 43 3c bd 1f 84 28 3d
       -0.09294702 0.15255599 -0.045962915 0.041141625
000070 6c af b3 bd 12 97 7f 3d cf 41 01 3d b1 1d da 3d
       -0.087736934 0.06239993 0.0315569 0.106501944
000080 10 cc 65 bd 85 c3 ec 3c 44 3f 49 bc 6b b3 a8 bd
       -0.056102812 0.028901825 -0.01228315 -0.08237346
000090 eb 12 ed bd dc ee a5 bc 00 7c 6a 3d dc 9c fe 3d
       -0.11575874 -0.020255499 0.057247162 0.12432262
0000a0 90 8d ba 3c 83 d5 14 bd c5 b6 19 be 30 6e 35 3c
       0.02277258 -0.036336433 -0.15011127 0.011073634
0000b0 03 a7 dd bd a5 5d 7c 3d 6a 93 29 bc 8e 1c bd bd
       -0.108228706 0.061612744 -0.010350088 -0.09233962
0000c0 92 81 3f 3d 06 4b 59 3d ae 55 f4 3c 92 42 76 bd
       0.046754427 0.053050064 0.029826012 -0.06012208
0000d0 22 3d e3 3d cd 36 6d 3d 6e 26 94 bd c6 1e 09 bb
       0.110956445 0.05791359 -0.072338924 -0.0020922883
0000e0 e4 22 29 bd 7d cc 5e 3d 8c 8a 57 bd ca 54 3b 3c
       -0.04129304 0.054394234 -0.052622363 0.0114337895
0000f0 fe a8 d5 3d c1 3a d1 bc d6 ce 89 bd f5 5b e4 bd
       0.10432623 -0.025540711 -0.06728904 -0.11150352
000100 e8 47 4c be b3 34 64 bd 63 99 39 be 85 17 d3 3c
       -0.19949305 -0.05571432 -0.18124919 0.02576805
000110 b3 a6 a9 3c 4c d5 1d bd 9a 2e b4 bd 4e cb c0 3d
       0.020709371 -0.038533494 -0.08797951 0.09413777
000120 98 13 03 3d ae 26 40 3d bf ee 49 bd 81 e8 8a bc
       0.032001108 0.046911888 -0.04929995 -0.01695657
000130 03 3c e8 3c 06 ef 22 3d 04 6f 02 3e df fd 89 bc
       0.028348928 0.03977873 0.12737662 -0.016844688
000140 7b 5d 53 bb 3e ff ac 3d c1 ca 15 be df e1 63 bc
       -0.0032251764 0.08447121 -0.14628126 -0.013908832
000150 9f 26 d5 3d c5 33 a5 bc 02 8b da 3d 32 2a 76 3d
       0.10407757 -0.020166287 0.10671045 0.060098834
000160 d5 42 e3 bd 69 43 35 be b5 97 5e bd fb 95 f7 bd
       -0.110967316 -0.17701496 -0.054343898 -0.120891534
000170 9f 6f 42 3d 83 96 b8 3c 74 3b 53 3d c2 a0 84 3c
       0.04746973 0.022532707 0.05157037 0.016189937
000180 c3 23 ca 3d 52 44 c2 bd 56 74 ab bc 40 87 94 bd
       0.09870102 -0.09485687 -0.020929497 -0.072523594
000190 f7 da 17 bb c6 b9 ae 3c 6c 2c 0a bd ed 8a 02 be
       -0.0023171285 0.021328818 -0.03373377 -0.12748308
0001a0 d2 24 1f 3d 4e 21 9f bc 57 70 2b bd f2 e4 82 3d
       0.038853474 -0.01942506 -0.041855182 0.06391324
0001b0 f7 a8 fb bd cd d2 7f bd 00 7f 16 be 1f 82 c8 bd
       -0.12288087 -0.062456895 -0.14696884 -0.09790444
0001c0 c6 5f f4 3d 13 79 7f bd ba d4 55 bb 33 6a ef 3c
       0.1193233 -0.062371325 -0.0032628016 0.029225444
0001d0 39 27 08 bd 1a 0a 3b 3c d4 ce 90 bc 96 1d 18 3d
       -0.03324053 0.011415983 -0.017676748 0.03713759
0001e0 84 94 b8 3b 29 2a a9 3d 8a b4 82 bc d3 b7 9a 3d
       0.005632939 0.082599945 -0.015955228 0.07554593
0001f0 82 00 13 3e dc 04 76 3b 4b 0b 29 3c 45 22 91 bd
       0.14355662 0.0037539518 0.010317634 -0.070866145
000200 f0 48 8e bd df cb 35 bd 8b 7a 98 bd f6 b2 51 3a
       -0.069475055 -0.04438388 -0.07445248 0.00079993845
000210 6e 62 c8 bc 61 27 93 bd d4 88 2e 3d d3 18 d9 3c
       -0.024460997 -0.07185245 0.04261096 0.026501095
000220 d7 f3 1e bd c1 0a 1a bd 98 df b2 bd fa 3d f7 ba
       -0.038806763 -0.037607912 -0.087340534 -0.0018863075
000230 7a 56 8e 3d 3d 94 89 bd ec 02 c3 bd f0 f5 d2 3d
       0.06950088 -0.06717727 -0.09522042 0.10300815
000240 3a ed d1 3d 8e 86 32 3d 9b fc 70 bd 73 cc 8b 3d
       0.102503255 0.043585353 -0.058834653 0.06826105
000250 6c 93 fe bd c6 64 af bb 2a 37 74 3b ee 6c 90 3d
       -0.12430462 -0.0053525893 0.0037264326 0.07052027
000260 9b 7e 05 3e 9e 33 7e bd 8b ab f8 3c 4d b1 c8 bd
       0.13036577 -0.062060945 0.030355236 -0.097994424
000270 0f 46 de bc f8 57 81 3b f1 78 af bd 70 64 a0 bb
       -0.027133016 0.0039472543 -0.085679896 -0.0048947856
000280 f8 1b 9d bd f0 0f 67 bc 92 75 bb 3d 62 9d 12 bc
       -0.0767135 -0.014102921 0.09153284 -0.008948656
000290 12 dd d5 bc 92 7b 98 3c e4 b5 11 bd 38 7a 74 3c
       -0.026106391 0.01861361 -0.035573855 0.014921717
0002a0 c5 51 c2 bd dc 6f 05 be 1b 9e 9f bd f2 f4 fa 3d
       -0.094882526 -0.13030952 -0.07793828 0.12253751
0002b0 a6 3f db bd 39 92 55 bc fb 4b af 3d 91 1f 92 3d
       -0.10705499 -0.0130353505 0.08559414 0.07134927
0002c0 58 22 c7 bd 97 d5 2b bd 35 5b cd 3d dc 6e 96 bc
       -0.097233474 -0.041951742 0.10027162 -0.018363409
0002d0 ff 4f 27 bd 07 6d 8e 3c af 75 a7 bd 2d 6c 18 be
       -0.040847775 0.017385973 -0.08176743 -0.14885016
0002e0 89 e4 0b 3d a1 56 33 3c dd 6e a9 3d e4 0a 45 bd
       0.034153495 0.010945947 0.082730986 -0.04810609
0002f0 89 27 c5 3d 9e 44 0a bd e9 a4 97 3d 9a 2f a9 bd
       0.09626681 -0.033756845 0.07404501 -0.082610324
000300 40 37 e0 3c 62 97 e4 bd ed 81 bb bc ac 9c 07 be
       0.027370095 -0.111616865 -0.022889102 -0.1324336
000310 98 c0 03 be 1b e7 9e bd 8c 7b a9 3d 91 bc 5b bd
       -0.12866437 -0.077589236 0.08275518 -0.053646628
000320 9c 06 91 3d d3 79 2f 3c 7a 82 db bd 1e bb 35 3c
       0.07081339 0.0107101975 -0.10718246 0.0110919755
000330 42 23 0b 3e 4b 23 46 bc 1d 08 64 bc 84 d6 a3 bd
       0.13587669 -0.012093375 -0.01391795 -0.079999
000340 ab 8e 02 3c 65 7c 0c 3d 20 86 2b 3c 5f 15 bf bb
       0.007968585 0.03429832 0.01046899 -0.005831405
000350 af 08 d9 bb f5 65 79 bd 3d a2 ed 3d b5 a6 80 bd
       -0.0066233496 -0.06088825 0.1160321 -0.06281797
000360 ca 84 d8 bd 95 22 79 3c 89 d0 81 bc 68 10 ca bd
       -0.105722025 0.015205999 -0.015846508 -0.098664105
000370 63 a6 da bd db 22 a8 bd 71 bb 8e 3d 02 7f 4f bd
       -0.10676267 -0.08209773 0.06969345 -0.050658233
000380 fc 5b 5d 3d 2e 2d 02 3d 0d 11 32 3c b3 f7 0d be
       0.0540428 0.031781368 0.010868323 -0.13864021
000390 35 09 08 bd 2b de 90 bd f6 e9 99 3d 7e f6 86 3d
       -0.033211906 -0.07073625 0.07515328 0.065899834
0003a0 37 67 0e bd d5 cb a8 3d 36 39 2a bd 98 42 8a bd
       -0.034766402 0.08242003 -0.041558467 -0.06750983
0003b0 e4 98 bb bb 75 fd 7a 3c 54 09 bf 3d b9 b7 a3 3d
       -0.005725013 0.015319218 0.09327951 0.07994027
0003c0 51 66 97 bc f0 93 78 3d 34 f2 6e bd 54 04 c9 bd
       -0.018481405 0.06068796 -0.05833645 -0.09815279
0003d0 b7 0f 05 bd 94 4d e8 bc f3 97 06 be 24 26 df bd
       -0.03248569 -0.028357305 -0.13143902 -0.108959466
0003e0 2a 56 cd 3d 82 9c 4a 3d 3d 68 d1 3d 48 22 b0 3d
       0.100262 0.049465664 0.1022496 0.08600289
0003f0 0e dc ce 3d ae 01 dc bc 2a 8a a0 bc 9f 85 97 bb
       0.10100566 -0.02685627 -0.019597132 -0.004624083

fc2_1_2.bias f4 [32]
000000 32 e4 a6 bd 9b 4e 97 3c f9 78 0d bc 1c 1d 9b bd
       -0.081489936 0.0184701 -0.008634799 -0.075739115
000010 46 b0 28 3b 4d cb 9a 3d 40 81 07 3d af 56 d9 3d
       0.0025739833 0.07558308 0.033082247 0.10612237
000020 d1 9d 0f be d4 51 b3 bd 37 06 57 3d 0d 10 02 3d
       -0.14025046 -0.08755842 0.05249616 0.03175359
000030 ea b4 cb 3d dc eb 57 3b e7 79 44 3b 6b ea 26 3c
       0.09946616 0.003294698 0.0029979886 0.010187726
000040 1d f8 a7 3c 01 89 34 3d c7 a8 d6 bc b5 a4 ec 3d
       0.020504052 0.04407597 -0.026203526 0.11554853
000050 cd 99 4e bd 50 8c 34 3b 3a 07 96 bd ed f8 05 be
       -0.050439645 0.0027549453 -0.07325597 -0.13083239
000060 f3 da 89 bd fd 94 a6 bd bb 11 ae 3b e1 5c 80 bd
       -0.067312144 -0.08133886 0.005312172 -0.06267715
000070 1c 66 09 bc f4 79 07 3c 31 e8 83 bd bf 51 f2 3c
       -0.008386161 0.008268822 -0.06440771 0.029579995

fc2_2.weight f4 [16, 32]
000000 14 3f 6a bc d5 a0 3a be 24 76 81 bc 6d f2 bf 3d
       -0.014297266 -0.18225415 -0.015803404 0.09372411
000010 a3 0c 0f bc 02 fe 8d bc 81 1c 0c 3e 92 cc 33 be
       -0.00873104 -0.017333034 0.13682748 -0.17558506
000020 a2 af 87 bd f1 4e 02 3e f3 5c bb 3d 07 19 53 3d
       -0.06625296 0.12725426 0.09148588 0.05153754
000030 f7 16 16 3d b7 2b 83 3d 8f 67 da bd e1 f9 c8 3d
       0.036642995 0.06404822 -0.106642835 0.098132856
000040 ea 85 08 be bf bb 86 bc ec c1 82 bd a8 ef cb 3d
       -0.13332334 -0.016446946 -0.06384644 0.0995782
000050 de 40 03 3e 27 31 fe 3d 81 29 c0 bd c0 53 af 3d
       0.12817714 0.12411719 -0.09382916 0.08560896
000060 d4 dd 36 be 63 d4 ef bd ee 4e 21 3e ac a7 0d 3c
       -0.17858058 -0.117104314 0.15752766 0.008645933
000070 da 68 0d be 94 70 3f bd ce dd 31 be 44 14 32 be
       -0.13809529 -0.046738222 -0.17369768 -0.17390543
000080 7d ed 69 3b c9 d0 47 3d 37 8f 11 be bf 6d b8 bd
       0.0035694533 0.048783097 -0.14214788 -0.090053074
000090 8b 12 cf bd 33 6a 96 3d b1 b1 c0 bd df d6 be 3c
       -0.10110959 0.07344475 -0.09408892 0.023295818
0000a0 68 5b e6 3d 2f e1 cb 3d 09 c7 bb 3d 09 dd 25 3e
       0.11247903 0.0995506 0.09168822 0.161976
0000b0 e3 46 54 3c 65 8a eb 3d 8e 4b 7b bd 2e f4 50 be
       0.012956354 0.11501006 -0.06135135 -0.20405647
0000c0 6a 38 91 3d e4 97 37 3e b9 59 e4 bd 18 8a 82 3d
       0.07090838 0.17929035 -0.11149926 0.063739955
0000d0 07 04 dd 3d 48 39 07 3d e6 2b 0e 3e 1f b0 50 ba
       0.10791784 0.033013612 0.13883933 -0.00079608144
0000e0 e8 df ea bd 32 e1 a2 b7 8c 4c cc 3c 3a 01 a6 3d
       -0.11468488 -1.941677e-05 0.024938844 0.08105703
0000f0 3c 0c dc 3d 12 8f 62 bd 74 3a c3 3d 67 08 05 be
       0.10744521 -0.055312224 0.095326334 -0.12991486
000100 d9 4e cc 3d a6 87 9e 3a 3c 5e df bd 72 f9 7b bd
       0.099759765 0.001209487 -0.10906646 -0.061517186
000110 2b 48 58 bd 7b 27 bc 3d bc 7e 3c be aa 5b de bd
       -0.0528032 0.09187218 -0.1840772 -0.10857327
000120 17 03 05 bd 5d 1b 11 be 10 93 01 3e 4f f7 d6 3d
       -0.03247365 -0.14170595 0.12653756 0.10496389
000130 12 55 b6 3c bb 03 08 3e c6 db a6 3d c1 0c cc 3d
       0.022257362 0.13282673 0.08147387 0.0996337
000140 36 9b 11 3e 4a 97 7f 3d 8a 2d 91 3d 85 d4 26 3e
       0.14219365 0.06240014 0.07088764 0.16292007
000150 a0 4f 22 bd ea 87 cd 3d f4 16 f5 3d 41 c8 35 3e
       -0.039626718 0.10035689 0.119672686 0.17752172
000160 19 e5 11 be 3a 3d f0 3d 6f 6b c5 3d 63 b7 e2 bd
       -0.1424755 0.11730428 0.09639632 -0.110701345
000170 25 a0 2c bb 92 3a 03 3e 44 16 0a be e3 15 36 be
       -0.002634057 0.12815312 -0.13485056 -0.17781787
000180 32 c4 c7 bd ab 18 19 3e 80 2a 61 3e fc 73 c9 bc
       -0.09754218 0.14950816 0.21988869 -0.024591438
000190 b8 31 57 3e f0 a7 f4 3b 9e f0 2b 3e d6 85 2c be
       0.2101506 0.007466309 0.16791007 -0.1684793
0001a0 7c 5f 16 bb e7 4e 1c 3d e7 d0 36 bc 1d 4a 7e bd
       -0.0022945097 0.038161185 -0.011158205 -0.0620824
0001b0 7f 17 0a be 31 d9 f2 3d 3b 81 e7 3d 9f 3a cc bd
       -0.13485526 0.11857832 0.11303946 -0.099721186
0001c0 99 3b 76 bd d4 5f 7a bd 74 bb f6 3d ae 1c 80 bd
       -0.06011543 -0.061126545 0.120474726 -0.0625547
0001d0 1b 6a 92 3d 78 37 0f bd a4 20 0f ba a2 d0 b8 bd
       0.07149144 -0.03496501 -0.0005459881 -0.090241686
0001e0 db 4e 1b 3e 4a c3 3b 3e 43 ed b8 3d c9 53 88 3d
       0.151668 0.18336216 0.09029629 0.06656606
0001f0 8b 38 6f bc a7 f8 46 bd 0a 5d 07 3e 47 e7 d5 3d
       -0.014600883 -0.048576977 0.13219085 0.10444503
000200 cd 02 f0 bd 1e 40 1f 3e ac 30 1b 3e d6 3f 16 3d
       -0.11719284 0.15551803 0.15155286 0.036681972
000210 ee 54 62 3d 80 40 b3 bd c5 1e d9 bc d7 79 25 3d
       0.055256777 -0.08752537 -0.02650393 0.0403994
000220 7b a0 45 3c 3f 55 52 3c 50 9b 1f 3d 2b 15 2a 3e
       0.012062187 0.012837707 0.038966477 0.16609637
000230 3d 23 60 be 9c c8 b4 3d a5 bb a1 3d c6 a8 c3 bd
       -0.21888442 0.08827326 0.078971185 -0.09553675
000240 8b 84 d1 bc bd 93 40 be d3 97 78 bd 22 31 75 be
       -0.025575897 -0.18806358 -0.060691666 -0.23944524
000250 e7 2d 66 3d 75 2a 44 3e d5 1a 24 3e 6b a1 00 3e
       0.05619612 0.19156821 0.1602586 0.12561576
000260 7b fe 59 3d 29 f8 6d bd d7 ae 0f bd 94 63 15 3e
       0.053221207 -0.058097992 -0.03507885 0.14588767
000270 a3 4e 2f 3b 82 7e 43 3e 9c 12 33 bd 43 8a f4 3d
       0.0026749752 0.19091228 -0.04371892 0.11940434
000280 6b 79 a1 bd da 28 20 be b4 ac 50 bd 82 ba be bd
       -0.07884487 -0.15640584 -0.050945953 -0.09312917
000290 c2 dd 8c bd a4 a0 8d 3d e7 34 86 3d 33 52 eb bd
       -0.068782344 0.069154054 0.06553059 -0.11490288
0002a0 9a 65 00 bd 59 7d d1 3c c7 25 b0 bd 4a e2 79 bd
       -0.031346895 0.025572466 -0.086009555 -0.06100682
0002b0 8f 4b c1 bd 14 34 b1 3d b4 4f 1d 3d a3 e5 0c be
       -0.0943824 0.08652511 0.03840609 -0.13759474
0002c0 30 e9 00 be 6a df 44 3c 53 e4 b2 3c 7b 4f a8 3d
       -0.12588954 0.012016157 0.02183739 0.08218285
0002d0 ca df e6 3d 9a d1 da 3d 06 47 ea bd 0b 2a f7 bd
       0.11273153 0.106845096 -0.11439328 -0.12068566
0002e0 6b c1 bf bd b9 69 6f 3d 62 b6 d5 3d b1 89 2d be
       -0.093630634 0.058450434 0.104351774 -0.16947056
0002f0 46 d3 8e 3d f0 13 0c be 12 ec 91 3d fb b0 3c be
       0.06973891 -0.1367948 0.07125105 -0.18426888
000300 c8 4c e9 bd 5f 53 ce 3c b5 44 ff bb 8d 8a 05 3c
       -0.11391598 0.025186239 -0.007790173 0.008150709
000310 ba 20 11 bd af 99 c9 bd 6e 67 4b 3e 17 63 45 be
       -0.0354316 -0.09843766 0.19863674 -0.19276081
000320 fe 8a 5b 3e b6 27 df 3d 4c 0b 5b bd b2 0d bf bd
       0.2143974 0.10896246 -0.05347757 -0.09328784
000330 0f ed 18 be 42 00 57 3d d1 9a 61 3e 44 d8 9f bd
       -0.1493418 0.05249048 0.22031714 -0.07804921
000340 b6 2c a3 bd 89 1e c2 bc 53 9f af 3d ce 59 14 3b
       -0.07967512 -0.0236962 0.085753106 0.0022636536
000350 9c cd 2f 3e de ce f6 3c fa 95 8b bd 87 03 1a 3e
       0.17168278 0.030127939 -0.06815715 0.15040408
000360 1c ea 3f bd ce 94 2a 3c 97 e0 5f bd 67 d1 93 bd
       -0.046854123 0.010411454 -0.054657545 -0.07217675
000370 b7 1a 48 bd 75 dc 63 3d 06 0c 6e bd 22 65 1b 3e
       -0.048853602 0.055630166 -0.058116935 0.15175298
000380 c7 05 59 bd f7 20 f6 3d 45 e4 bd 3c 38 0c ee 3d
       -0.052984025 0.12018006 0.023180136 0.11623424
000390 0d 4d 77 3c 40 33 fa bc 6f d5 b2 3d 1e b2 a0 bc
       0.015094054 -0.030542016 0.087321155 -0.019616183
0003a0 e2 3d 8a bd 93 13 18 3e 69 a8 11 3e 54 10 85 bd
       -0.067500845 0.14851217 0.142244 -0.06497255
0003b0 ea 46 a5 bd dc df de bd 8f df aa 3d f6 66 52 bb
       -0.080701664 -0.108825415 0.08343422 -0.0032104827
0003c0 b4 72 27 3e d2 70 b9 3c 1c 4b b5 bd 20 c9 85 bd
       0.1635235 0.022636805 -0.088522166 -0.06532502
0003d0 01 a5 8f bd b2 85 3d 3e ea 80 1e 3e 7b 0a bb bd
       -0.07013894 0.18508032 0.15478864 -0.09132858
0003e0 03 70 81 3c 9d 0d 25 bd 25 a0 b7 bc cb 97 da bc
       0.015800482 -0.040296186 -0.02241523 -0.026683709
0003f0 1d 4f ce 3d 76 d4 94 3d 55 5e 45 3d 0e 82 a1 3d
       0.100736834 0.07267086 0.048185665 0.07886134

fc2_2.bias f4 [16]
000000 b6 c2 96 bd 47 c0 d0 3d ef d1 5f bd 43 10 d4 3b
       -0.07361357 0.10192924 -0.054643568 0.006471665
000010 1c fb 3f 3d 5d 19 1c bd f4 e7 b9 3b a7 47 14 bc
       0.046870336 -0.038110126 0.005673403 -0.009050286
000020 a2 df 5c bd 3f 89 b8 3d 49 88 10 bd 96 27 01 bc
       -0.05392421 0.090105526 -0.03528622 -0.007882973
000030 b4 0d be 3d a3 22 a5 3d b9 41 ee 3b eb b1 43 3c
       0.092799574 0.08063247 0.0072710183 0.011944274

fc3.weight f4 [30, 16]
000000 d4 c9 30 be e7 59 a0 bd c2 b7 32 be c5 81 39 3e
       -0.17264491 -0.078296475 -0.1745291 0.1811591
000010 95 75 9c 3e 27 b4 55 be c6 9f 7d 3e 13 7a 3d 3e
       0.30558458 -0.20869504 0.2476798 0.18503599
000020 99 f8 65 3d f6 01 82 bd c8 6f 2b 3e ad 83 4b 3e
       0.056145284 -0.0634803 0.1674186 0.19874449
000030 85 2a 4a 3c 5f 02 30 3e 24 a5 64 3e b7 44 30 3e
       0.012339239 0.17188405 0.22328621 0.17213713
000040 1c 7e 2f be 82 d1 19 be 7b 3c fa bd ab 73 34 3e
       -0.1713795 -0.15021327 -0.12218567 0.17622249
000050 0c 77 f4 3d 03 99 7c 3d c7 a3 85 3e f4 41 1e 3e
       0.11936769 0.06166936 0.26101515 0.15454847
000060 a1 0b 7f bd 4e cc f5 bd f7 bc 9a 3e 22 4f 15 3e
       -0.06226695 -0.12001859 0.30222294 0.14580968
000070 72 1f d5 bd 36 cf 5b 3e 17 7e 27 3e 3e e4 2a 3e
       -0.10406388 0.21465763 0.16356693 0.1668863
000080 aa ef 08 be 85 01 66 be 58 69 24 be 61 c2 22 3e
       -0.13372675 -0.22461517 -0.1605581 0.15894462
000090 69 53 36 3e a3 9b 17 bd 88 bd 2a 3e e0 87 5e 3e
       0.17805256 -0.03701366 0.16673863 0.2173152
0000a0 0e 25 ee bc 37 2e 1f bc 6b 37 4c 3e 91 e6 0a 3e
       -0.029070403 -0.009715608 0.19943015 0.13564517
0000b0 cb 9a 77 be 15 35 12 3e 35 e4 15 3e 38 91 8a 3e
       -0.24180143 0.14278062 0.14637835 0.27063918
0000c0 31 11 ad bd ca 17 2b be a6 67 f5 bd c1 f7 13 3e
       -0.084505446 -0.16708294 -0.1198266 0.1444998
0000d0 e6 8c bd 3d a6 84 67 3e 15 dd 52 3e 18 ae 82 3e
       0.0925539 0.22609195 0.20592149 0.25523448
0000e0 ab 8f 03 be 6b 51 6d be e2 ea 07 3e 8e f3 1f 3e
       -0.12847774 -0.2317559 0.13273194 0.15620252
0000f0 71 32 9a be c9 15 e0 3d 87 d1 2d 3e 7b 7f 3a 3e
       -0.3011661 0.10941655 0.1697446 0.18212692
000100 d5 e4 53 3e ca 9d 55 be 95 69 43 be ef be 14 3e
       0.20692761 -0.20860973 -0.19083245 0.1452596
000110 de 78 38 3e 62 6b d1 3d 1b af 68 3e 1f 34 d4 3d
       0.18014857 0.1022556 0.22723047 0.10361504
000120 f1 55 41 be fa ac 05 be 22 9b 5b 3e d1 87 11 3e
       -0.1888044 -0.13054267 0.21445897 0.14211966
000130 43 7c 8c be 19 56 be 3d aa 10 0f 3e 5f 05 68 3e
       -0.27438554 0.092937656 0.139712 0.22658299
000140 8e d6 18 be 87 e8 0b bd 69 1b a2 be aa 70 28 3e
       -0.14925596 -0.034157302 -0.31661537 0.16449228
000150 c4 6c 37 3e 02 23 5f 3e ba 2a 1d 3e 5e 33 4a 3e
       0.17912585 0.21790698 0.1534833 0.19746158
000160 e0 9d 61 be eb d2 2e be 06 57 23 3e b3 b0 32 3e
       -0.22032881 -0.17072646 0.15951166 0.17450218
000170 ab 7b 38 be 24 5c 26 3e ee 95 14 3e d3 88 24 3e
       -0.18015926 0.16246086 0.14510319 0.1606782
000180 b2 74 03 3e 8d 8b 0e be 7c bd a8 be f5 4c 11 3e
       0.12837484 -0.13920422 -0.32957065 0.14189513
000190 57 dd 2e 3e a2 d3 70 be 9f 52 58 3e 97 a2 64 3e
       0.17076622 -0.23518232 0.21125267 0.22327648
0001a0 be 5e 08 be b7 ad e3 3c f3 de 1b 3e 69 04 09 3e
       -0.13317391 0.027792795 0.15221767 0.13380589
0001b0 23 4e 18 bd ce aa 0f 3e 55 ab 11 3e b4 dc 8a 3e
       -0.037183892 0.1403 0.14225514 0.27121508
0001c0 b4 de 22 bd 80 29 00 be cc 75 e9 3c 9f 0b e5 3d
       -0.039763168 -0.12515831 0.028498553 0.11183857
0001d0 42 1f 5c 3e d1 f4 af bc e1 50 1e 3e f8 48 08 3e
       0.21496299 -0.021479042 0.1546054 0.13309085
0001e0 3d 65 04 3e dd 8c 08 be 9c 0b 6b 3e 8f 32 36 3e
       0.12929244 -0.13334985 0.22953647 0.17792724
0001f0 02 0d 15 3d e7 79 ac 3d b7 fb 01 3e 9c bf 80 3e
       0.03638936 0.084216885 0.12693678 0.25146186
000200 ce a6 03 3e d5 6b 1e be 1e 1d d7 3d c1 fd cd 3d
       0.128566 -0.15470822 0.105036005 0.10058165
000210 1f dd 38 3e 54 65 43 be 47 41 34 3e 68 20 0f 3e
       0.18053101 -0.19081622 0.17603026 0.13977206
000220 c2 8d ef bc 2a 2d 24 be 82 c9 53 3e 19 4b 18 3e
       -0.0292424 -0.16032854 0.20682338 0.14872397
000230 1c c0 91 bd 3c b1 0b 3e 9a 4c cc 3d 4d 5d 79 3e
       -0.0711672 0.13641828 0.09975548 0.24351998
000240 16 54 6a be 82 4a 60 bd b1 b9 a4 3a 8a 82 5e 3e
       -0.22883639 -0.054758556 0.0012567547 0.21729484
000250 83 b9 ff 3d cd b5 55 be 1c 6d 75 3d d1 2b 2f 3e
       0.124865554 -0.20870133 0.059918508 0.17106558
000260 2e 71 b6 3d 94 de 31 bd 0c 3c dd 3d a3 0e 2d 3e
       0.08908306 -0.043425158 0.10802469 0.16900115
000270 bc 51 63 ba 1f 95 5f 3e 4e bc 45 3e 8d 6f f8 3d
       -0.0008671542 0.21834229 0.19310114 0.121306516
000280 9b c3 bf 3c 36 ef 79 be 2e 02 14 be d9 62 d8 3d
       0.023408702 -0.24407658 -0.14453956 0.10565729
000290 92 ae 0f 3e 63 45 7f 3d 6b 31 7c 3d de ea 0f 3e
       0.14031437 0.06232203 0.061570566 0.14054438
0002a0 c1 1b ab bd 68 9c 86 be ef f0 48 3e 49 18 16 3e
       -0.08354903 -0.26291203 0.19623159 0.14657702
0002b0 f4 90 4a be 29 0e a1 3d cd 4d d0 3d ff 6b 53 3e
       -0.19781858 0.07864029 0.10171089 0.20646666
0002c0 21 ac 99 bd 0e bd 04 be 45 c8 12 be a7 df 12 3e
       -0.07503534 -0.12962744 -0.1433421 0.14343129
0002d0 8b f0 b5 3d 22 c9 25 be b7 f0 7d 3d ab ae 39 3e
       0.088837706 -0.16190007 0.06199714 0.18133037
0002e0 f0 81 99 bd 26 b7 69 be 16 a1 54 3e 10 e2 14 3e
       -0.07495487 -0.22823772 0.20764574 0.14539361
0002f0 26 0b fb bc bd 97 07 3e a8 5d 01 3e 8d 1d 3b 3e
       -0.030644964 0.13241477 0.12633383 0.18272991
000300 fa db 4a 3e f3 23 7c be c9 61 f0 bd f0 2f eb 3d
       0.19810477 -0.24623089 -0.11737401 0.11483753
000310 5e 02 0e 3e e4 e4 4b 3e 41 5d e3 3d 26 92 1b 3e
       0.1386809 0.19911534 0.11101771 0.1519247
000320 0e dc 5b 3e 6a eb 57 be a4 ac 35 3e f8 3e 0f 3e
       0.21470663 -0.21085897 0.17741638 0.13988864
000330 88 50 39 be d5 bd ae 3d 43 57 cc 3d 41 db 2e 3e
       -0.18097126 0.08532301 0.09977581 0.17075826
000340 3f f1 a9 3c 80 89 9e bd 16 56 96 bc 01 a1 0b 3e
       0.020744918 -0.0774107 -0.018351596 0.13635637
000350 4f fa 56 3e ac 95 f5 3d 6c 94 5d 3d 8d eb ea 3d
       0.20993923 0.11991438 0.054096624 0.11470709
000360 fe 33 de bc 2b 82 f8 bd 7e 79 3b 3e e8 f9 2b 3e
       -0.027124401 -0.121342026 0.18308064 0.1679455
000370 dc 80 06 bd 6c 89 d6 3d a1 0b f4 3d 56 b7 74 3e
       -0.032837734 0.1047543 0.119162805 0.23898062
000380 9d d0 74 3e bd 7e 0c bd 8e b4 91 be fa 49 31 3e
       0.23907705 -0.034300555 -0.28458065 0.17313376
000390 3f b3 83 3e fe 35 ab 3d 9b bf b4 3d d6 73 fb 3d
       0.2572269 0.083599076 0.08825608 0.12277953
0003a0 43 9a 66 be 66 56 0e 3d b8 27 3d 3e 33 7a 5a 3e
       -0.22519784 0.034750365 0.18472183 0.21335678
0003b0 ab 5b 0e 3e 63 c1 4b 3e 8c b2 d5 3d c9 a7 db 3d
       0.13902156 0.1989799 0.10434446 0.10725362
0003c0 9c 25 17 bd 2a ec d9 bd d2 bc c0 3d 6c 92 0c 3e
       -0.0369011 -0.10640748 0.094110146 0.1372773
0003d0 66 f4 d6 3d 60 f6 16 3e 23 e1 ad 3d 5f 41 22 3e
       0.10495834 0.14742422 0.08490207 0.1584525
0003e0 7d 45 d3 bc 12 60 34 be 3f 7c c5 3d 48 91 21 3e
       -0.02578997 -0.17614773 0.09642839 0.15778077
0003f0 8e e2 5a be 7c 81 02 3e 23 89 fc 3d c1 ac 48 3e
       -0.21375486 0.12744707 0.12330844 0.1959715

fc3.bias f4 [30]
000000 e4 a7 04 3e 12 0e 1a 3e 3c 73 22 3e ec 7a 33 3e
       0.1295467 0.1504443 0.15864271 0.1752736
000010 0b 1e 2d 3e 19 91 15 3e d4 ca 08 3e 90 f4 0c 3e
       0.16905992 0.14606132 0.13358623 0.13765168
000020 50 92 17 3e 70 95 01 3e bd 93 36 3e 8d 98 1a 3e
       0.14801908 0.12654662 0.17829795 0.15097256
000030 30 32 30 3e a2 f6 0c 3e df e9 e1 3d bc fe 1e 3e
       0.17206645 0.13765958 0.110309355 0.15526861
000040 c2 9a 15 bd 21 05 2a bc b0 22 46 bc 8b ce e9 3b
       -0.03652454 -0.010377199 -0.012093231 0.0071352175
000050 bb fb 00 bd f9 a4 1c 3b 76 1b ff ba c9 5c 13 bc
       -0.03149007 0.0023902042 -0.001946314 -0.00899429
000060 38 9f a7 bc 6f b5 90 bd 22 30 ad bd b9 7e f1 bc
       -0.020461664 -0.07065856 -0.08456446 -0.029479371
000070 07 bf a6 bc f8 7f a1 39
       -0.02035476 0.00030803657
