Heater_Results/uniform_S50_constant_Iter40_Epoch10.onnx (onnx, 41615 bytes, 14 tensors)

fc1.weight f4 [8, 3]
00000000: 6e2c 49bf d86b dd3e 8a71 b63e 9f9e 2bbe
00000010: b0a7 debe b6a4 06bf 2247 713f 74b9 4f3e
00000020: b26b 3fbc ab70 5bbf e94f a23e 574d 0abe
00000030: f440 ed3e de0b 4fbe 66d7 ab3e c95d 7ebf
00000040: 99a1 5f3e b20e bebd 235a 413f b155 f03e
00000050: 01c7 b3be a2a2 70bf e96b 5d3e 9c80 453e
-0.7858342 0.4324634 0.35633498 -0.16759728 -0.4348731 -0.5259508 0.94249165 0.20285589
-0.011683391 -0.8571879 0.31701592 -0.13506065 0.46338618 -0.2021937 0.33562773 -0.99361855
0.21838988 -0.09280147 0.7552816 0.46940377 -0.35112765 -0.9399816 0.21623196 0.19287342

fc1.bias f4 [8]
00000000: c466 3d3e d193 013f 43e7 f1bc 30c6 03be
00000010: d2c3 15bf ac10 c7be 9abf f53e 7111 21bf
0.18496233 0.50616175 -0.02952922 -0.12868571 -0.58501923 -0.38879907 0.47997743 -0.6291724

fc2.weight f4 [32, 8]
00000000: ea11 90be 359b 273e cc7e 5e3e 3efb 04bd
00000010: c899 033d 1fcb b8bd bedb 543d 241e 4b3e
00000020: 90d6 803d 3d39 c9bd b0ae 02bf 4ab3 813e
00000030: 3a07 1bbe cf6a a03d e8d3 e93d 0b91 c43d
00000040: 0b79 fdba a2c1 d7bd c1ab 17be 0689 f3bd
00000050: af88 91be d665 c5be 5d89 683e f9aa 6cbe
00000060: c102 03be 31b5 8d3e a1be 033f 2a44 77be
00000070: 7eee 623e fb82 45c0 df3d 3dbe aad1 31be
00000080: 66c9 a53e c512 b33d 4d02 88be dac2 753e
00000090: c6b3 c3be eda4 203e 190a 2bbe df06 9e3e
000000a0: 7e0d 023d 4901 2ebe 89f3 20bd 5310 233e
000000b0: 8352 6f3e c547 013c e79b 96be abcd fd3d
000000c0: 842f 23be 083c 9cbe bc25 acbe 779a 8f3e
000000d0: e11f 9dbd ce7e 153e fc89 e1bd ddd7 1abe
000000e0: cca7 d43b e006 9c3e b9d4 edbc 3f02 aabe
000000f0: 753e 5fbe 276b 99be 41ce 44be 5804 19bd
00000100: 3763 823e c5ac b2be fe94 8abe 7635 633d
00000110: f05d 3fbc 6cdb c53e 76b7 4abe 860e ba3e
00000120: 783d 6ebe fbfa 26be d39c 973e 9ccb 953c
00000130: 61dd b43d 6846 acbc 1747 3e3c ff7a ac3c
00000140: 03c6 0fbe b410 9e3e 6ce3 1abe 84af ad3d
00000150: 2481 92be 3f00 193e 1753 9dbe 6f90 4dbe
00000160: 1369 b3bd 348b 083e 7d74 0f3d b442 e0bd
00000170: 68df 093e 5eff 53be 72a7 dd3e dbff 04be
00000180: fe03 81bc f429 263c 5c2f 63be acbd 19bf
00000190: c38f 7d3e 6936 233f e6f4 3cc0 bd3c c3bc
000001a0: 5559 63bd c873 523e d4bf 15bf bcec 74be
000001b0: 7a32 b93e 1b85 8539 4f1f 29c0 5418 6c3e
000001c0: a625 623e a1e7 abbd 806f 893c 9b1e 93be
000001d0: 5fbc 613e 4c1a 8b3e 45bf 7ebe c99e af3e
000001e0: afbc 173e b56d 96be 004b 59be 72c3 863e
000001f0: bfeb 9abe 7c3d 29bd 1b29 04be be32 1abe
00000200: bdb8 34be 4be2 a8be c41a 013e 0a58 c1bd
00000210: 7cc6 85be ae9a 20be 1e34 19bd 9a09 02be
00000220: ddbe e9bd cf85 a23b fd84 383e e936 783e
00000230: 4042 b1bc b09a b7be de5d 4fbe 83a1 1e3e
00000240: 4361 87be 0f59 c0bc d580 df3d 9280 b1bd
00000250: 324c a83d 5b1d 4ebe efe9 3e3d 2b0b b93e
00000260: 9666 cebe e81c 653e b898 a93e ee0f ec3d
00000270: 6dd5 793e 14ba 6a3e 46c6 c53b 093b 3a3e
00000280: 2524 dabd f7b8 263b a6a3 45bc 2ee9 00bf
00000290: 1327 89be 22b2 0bbf 0cfd 543e 76eb 4ebd
000002a0: e88c 6dbc 16a0 a0be 75f8 c0be b229 eabc
000002b0: 0567 fa3d f828 40be 8548 bd3d 1da6 103e
000002c0: 2d0b dfbf e0a3 1b3e 27ae 573e e054 9fbd
000002d0: 4ab9 1bbc fcd3 41be c489 bfbd fe86 173e
000002e0: 3b60 7bbc d312 8a3e 7669 b73e df00 74be
000002f0: b768 073e c6ed 8abe ce80 fc3e 0b0c 5ebe
00000300: 119e 70be cba5 9ebe 2223 ca3e fd65 8d3d
00000310: c886 643e e1b0 4fbe 55eb 293c 6407 293e
00000320: ee93 e73c db78 c0bd 9cb1 d03e c696 b1bd
00000330: b067 2ebe 9713 eabe bd38 733e 9438 51bd
00000340: ae31 273e b02a 42bd fd33 9f3e e89d 533c
00000350: 3948 803d 6093 2ebe 76e4 d8be 757f e9be
00000360: 53dd 9d3d c283 75be 1bbb 103d aa47 b3be
00000370: 4e56 33be 61ab c1be 87d4 d93d 116f 98bd
00000380: ac8b a13d 03c2 a43d a3da 88be 9946 623e
00000390: b9b7 693d 3f2f 253d fc87 863e 4a1f f1be
000003a0: 0181 6cbe 07ef b4be 1e19 f83e aab5 6e3d
000003b0: b6c5 bb3c 2230 a8be c791 3f3e d8ce 0bbe
000003c0: aa3d 4d3e 88d1 8ebe 56ae c3be d81f 1fbe
000003d0: 134b 453e e578 803e 5ffb e3be 08a8 acbe
000003e0: 703c 1cbe 2fa4 6f3e 1a6d 5b3e b149 b5bd
000003f0: 2d4e 04bf 193c 69be 71cb 4d3e 608a b83d
-0.28138667 0.163678 0.21728057 -0.032466166 0.03212908 -0.09023117 0.051967375 0.19835716
0.062909245 -0.098253705 -0.510478 0.253321 -0.15139475 0.07832872 0.11417371 0.09597977
-0.0019338442 -0.105349794 -0.14811613 -0.118913695 -0.28424594 -0.38554257 0.2270865 -0.23112096
-0.1279402 0.276773 0.5146275 -0.24147096 0.2216129 -3.0861194 -0.18480633 -0.17365137
0.32380217 0.087438144 -0.26564255 0.24000111 -0.38223094 0.15687914 -0.1670307 0.30864617
0.03175115 -0.16992678 -0.039294753 0.15924196 0.2337132 0.007890646 -0.2941582 0.12392744
-0.15936095 -0.3051455 -0.3362254 0.28047535 -0.07672096 0.14599153 -0.110126466 -0.15121408
0.0064897295 0.30473995 -0.029032098 -0.3320484 -0.21801169 -0.29964563 -0.19219305 -0.03735766
0.2546632 -0.34897438 -0.27066797 0.055470906 -0.011680111 0.38643968 -0.19796547 0.36339206
-0.23265636 -0.16306679 0.29611835 0.018285565 0.08831287 -0.021029666 0.011613629 0.021054743
-0.14040379 0.30872118 -0.15125817 0.084807426 -0.2861415 0.149415 -0.30727455 -0.20074628
-0.08760276 0.13334352 0.0350232 -0.109502226 0.13464129 -0.20702884 0.43291813 -0.12988226
-0.015748974 0.010141838 -0.22186035 -0.6005504 0.24761872 0.637549 -2.9524474 -0.023832673
-0.055505116 0.2055198 -0.5849583 -0.23918432 0.36171323 0.00025466908 -2.642536 0.23056155
0.22084674 -0.08393789 0.0167768 -0.28734288 0.22044514 0.271685 -0.24877651 0.3430083
0.14818071 -0.29380575 -0.21220016 0.26320988 -0.30257985 -0.0413184 -0.12906305 -0.15058419
-0.17648597 -0.32985148 0.12607867 -0.0944062 -0.26127994 -0.15684006 -0.03740322 -0.12698975
-0.114133574 0.004959799 0.18019481 0.24239697 -0.021638036 -0.35860205 -0.20250651 0.154913
-0.26441392 -0.023479966 0.10913245 -0.08667101 0.08217658 -0.20128386 0.046609815 0.36141333
-0.40312642 0.22374308 0.33124328 0.11526476 0.24397822 0.22922546 0.006035599 0.18186583
-0.10651425 0.0025439837 -0.012062943 -0.50355804 -0.26787624 -0.54568684 0.20799655 -0.05051752
-0.014498927 -0.31372136 -0.37689558 -0.028584335 0.12226681 -0.18765628 0.09242348 0.14125867
-1.7425286 0.15199232 0.21062528 -0.077798605 -0.009504626 -0.18928522 -0.093524486 0.14797589
-0.015342767 0.26967487 0.35822648 -0.23828457 0.1322354 -0.27134532 0.4931702 -0.21684282
-0.23497798 -0.30985865 0.3947993 0.06904218 0.2231704 -0.20282318 0.010371049 0.16506726
0.02826878 -0.09398051 0.40760505 -0.08671336 -0.17031741 -0.4571807 0.23752113 -0.051079348
0.16327545 -0.04740399 0.3109435 0.012916066 0.062637754 -0.17048407 -0.42361802 -0.45605054
0.0770823 -0.23976043 0.035334688 -0.35015613 -0.17513391 -0.37826064 0.106362395 -0.07443059
0.078879684 0.08044817 -0.26729307 0.22097243 0.057059977 0.04032826 0.26275623 -0.47094184
-0.23096086 -0.35338613 0.48456663 0.058278717 0.022921424 -0.32849222 0.18707953 -0.13653123
0.20043054 -0.27894235 -0.38218945 -0.15539491 0.1926692 0.25092235 -0.44527718 -0.33721948
-0.1525743 0.23402475 0.21428338 -0.08851946 -0.51681787 -0.22776832 0.20097138 0.09010768

fc2.bias f4 [32]
00000000: e6a3 a83e e5f5 ec3e e7d1 efbe 6f1e 643e
00000010: 9cae d8be 833b 35be 7838 4a3e bdb4 5e3d
00000020: fc1e a5bc 14db e73d 763b 313e 7993 de3c
00000030: b61a c1be 4f5f 8d3d 79bd 9a3d 2adf c1be
00000040: 204d 40be f543 2bbe 8388 c33e 8e82 c13e
00000050: 746b b9be 05b1 6b3d d3c3 c8be a06d d63e
00000060: 5b80 a8be 2b1f fd3d eb76 c0bd e514 d73d
00000070: 70e9 d33e 275c df3e 3117 2ebe e782 c43b
0.32937545 0.46281353 -0.4683983 0.22277234 -0.42320716 -0.17698483 0.19748104 0.054371584
-0.020156376 0.11321083 0.17307839 0.02716993 -0.3771569 0.06902944 0.0755567 -0.37865573
-0.18779421 -0.16725142 0.38190088 0.37794918 -0.36214793 0.057541866 -0.39211902 0.41880512
-0.32910427 0.123594604 -0.09397682 0.10502032 0.41389036 0.43624994 -0.17001034 0.00599705

fc2_1.weight f4 [64, 32]
00000000: 10a5 4fbe f631 0abe cce4 49be 72dc 0dbe
00000010: a40a bcbd 55d4 ab3d 9c6a 88bd 1289 ce3c
00000020: 3589 cd3d 9470 5b3e 8769 69bd af2e 923d
00000030: 8aba 4d3d 3844 023e 975a 183e 40d3 063e
00000040: 8802 053e e1f3 d53d b085 8d3d 4833 7d3d
00000050: 48bc c7be 367b 3bbe 1558 173e f38a 02be
00000060: f9df 563e d6ba c63d d7cf b53b ffb0 863c
00000070: 3001 debc af7a febc 860d 20be a165 653d
00000080: 9c09 703e ce74 283e 3251 003e 4248 0f3d
00000090: b4e8 dabd 615d 703d bc57 193e 04b3 133e
000000a0: 6236 c3bd d559 a8bd 4ccc 833d 5037 1e3d
000000b0: 5a99 4b3e 710d be3d a48b a23d 5019 8cbe
000000c0: 5eac 4cbd 086c 2ebe b8db 843d e1d0 8c3d
000000d0: 4cd8 f6bd 49a9 a93d dd9b 05bd e692 20be
000000e0: 04bb 2a3e d5f3 adbe 7866 2a3d 0dfe 3b3e
000000f0: 396d 403f d28a c8bd bc9b 533d 90ec c2be
00000100: 389f 083e e1a5 06be 73c5 3b3d b170 a7bd
00000110: df05 71bd 6547 c6bd 1049 06be 1111 24be
00000120: 20b9 0e3e 7b1e f2bd 91e5 8bbd 6d2c f23c
00000130: d00c 983b f2b0 b2bd d0a5 05be 20a9 cf3c
00000140: 7c7c 343e bfb7 083e 46c8 a73c 7e10 d5bd
00000150: 6e6c 463c f2ec 2fbe f948 273e 7e8e dbbd
00000160: eddf 0abe 5303 0dbe 2325 80bd f9a8 103e
00000170: cac6 0c3e 0677 153e 3863 06bd d0e7 31be
00000180: d476 533e 76d5 193e 0c39 32bd c291 97be
00000190: 8b06 273e 418f c6bc f09e 243e 2f2f 553d
000001a0: 4fe9 363e 0191 173e 5b95 5f3d 1c42 72bd
000001b0: bc41 0e3e c251 553e ef5e 543e 6e8d 8cbd
000001c0: 0b56 d73b 602f 90be 31c3 843d 3e4a 2cbd
000001d0: b44b 953c 9c34 f8bd e95d 98bd c461 dabe
000001e0: 24f7 e53d 3e38 34be 51ab 903d 3186 993b
000001f0: 8c6d 79bb 4746 bbbe 734c 133e d928 9b3d
00000200: 1c75 073e a428 5c3e b7d5 00be 6595 89be
00000210: 36d3 c03b fe97 bdbd a86a 073e d9f7 f9bd
00000220: 07ad 77bb 6047 813e 7687 343d e051 7cbe
00000230: d238 9abe 3166 493d d522 2b3c 20e4 ae3d
00000240: a50b d7bd 90df 263e a825 d93d f905 3ebd
00000250: de2c d43d 56e6 193e 630e 97bd efcb 25be
00000260: 6e72 63bf a2b5 afbe bc2b 923e edc0 d73e
00000270: d377 4d3e ad56 863d 2a5b bdbd a015 68be
00000280: fed4 79bc 41cc 213f 3dd4 a6be 2347 86bf
00000290: ff8b 73bd 2ff5 e13c fa3c db3d 0f82 103e
000002a0: d764 b1bc 3385 54be 7dd6 033e 2c9b d2be
000002b0: fc03 c3bd 1c37 5e3e 0b15 5bbd 09d4 4a3d
000002c0: 36e4 31be fb39 713d c824 d33f e8a9 1fbc
000002d0: 7c31 3cbe 7b25 993d 0969 243e 4302 0cbf
000002e0: ae91 3cbd a19f e4bd 734a b5be b6a1 1dbe
000002f0: 41db 253f 0138 fabd cecb 54be 4591 82be
00000300: a7ae 263e c12c e5bc c028 013e c3cb 863e
00000310: 9c96 46bd db9a 2abd af35 083e 045a 29be
00000320: ce13 ebbd de48 ccbd 3466 b0bd 640c f0b9
00000330: e584 e33d 21cb 93be f6cc ec3d f656 61be
00000340: 74ae 133e 3196 7c3e 5719 0cbe 1f30 d23d
00000350: 4bd9 f9bc 1a2d b0bd 1842 d7bd e7d9 b23e
00000360: 8b51 ad3d ee23 163e 677a 123d 2850 7abd
00000370: d81f 8dbe fe4b 303e 0dbf eb3d ec11 803d
00000380: 1cd1 ba3d dbdc 1bbe fcb6 21bd 91d9 d3bd
00000390: f9e5 1a3e 6ff2 46be 1384 f2bd 19f0 15be
000003a0: 0b5b 9dbd b2cf f13d 77aa 273e 07b4 b93d
000003b0: ba07 973d 1cde cc3a a324 24bd 53c4 3fbd
000003c0: d41f 07be ad77 29be efba 083d e7ff 14bb
000003d0: 2e0b 05be 3ce6 f53d ce01 f73d 8770 0cbe
000003e0: 3ff3 24be 58b3 9fbd fbaa 9dbc 4dd3 7ebb
000003f0: 64bc 373a 4332 c5bd d4ca ecbd 4472 cb3d
-0.2027781 -0.13495621 -0.19716185 -0.13853624 -0.09181717 0.083901085 -0.06660959 0.025211845
0.10035936 0.21429664 -0.056985404 0.071378104 0.050226726 0.12721336 0.14878307 0.13166523
0.12989247 0.10446907 0.069102645 0.061816484 -0.39010835 -0.1830872 0.14779694 -0.12748317
0.20983876 0.09703605 0.005548458 0.01644182 -0.027100176 -0.03106436 -0.15630159 0.056005124
0.23441166 0.16450807 0.12530974 0.03498102 -0.10688916 0.058682803 0.14974874 0.14423758
-0.09531857 -0.08220259 0.06435451 0.03862697 0.19882718 0.092799075 0.079367906 -0.27363062
-0.04996907 -0.17033398 0.064872205 0.06875778 -0.12052974 0.08284242 -0.032619346 -0.15681037
0.16672903 -0.33975092 0.041601628 0.18358631 0.7516666 -0.09792103 0.05166219 -0.38071108
0.13341987 -0.13149215 0.0458426 -0.08175791 -0.05884349 -0.09681586 -0.13113809 -0.16022135
0.13937807 -0.1182222 -0.06830896 0.0295622 0.0046401992 -0.08725156 -0.13051534 0.0253492
0.17625612 0.13351344 0.02048124 -0.10403536 0.012110813 -0.17180231 0.1633643 -0.107205376
-0.13561983 -0.137708 -0.06257083 0.14126958 0.13747707 0.14596185 -0.032809466 -0.17373586
0.20650798 0.15022835 -0.043511435 -0.29603392 0.1631109 -0.02423823 0.16076255 0.05204695
0.17862438 0.14801408 0.054585796 -0.059145078 0.13892263 0.2083197 0.2073934 -0.06862913
0.0065715364 -0.28161144 0.06482542 -0.04206299 0.018224575 -0.121194094 -0.07439787 -0.42652714
0.11228779 -0.1759958 0.07063926 0.0046851863 -0.003805968 -0.36577055 0.14384632 0.075761504
0.13228267 0.21499878 -0.12581526 -0.2687179 0.0058845533 -0.09257506 0.1322428 -0.12205476
-0.0037792341 0.25249767 0.044074498 -0.24640608 -0.30121475 0.049169723 0.010445316 0.08539605
-0.10500268 0.1629622 0.106028855 -0.046392415 0.1036012 0.15029272 -0.07375791 -0.16191076
-0.8884648 -0.34318262 0.28548992 0.42139378 0.2006524 0.06559501 -0.09245904 -0.226645
-0.015248535 0.6320229 -0.325838 -1.0490459 -0.059459683 0.027582733 0.1070499 0.14112113
-0.02165453 -0.20753936 0.1287479 -0.41134012 -0.09522244 0.2170071 -0.053486865 0.04951862
-0.17372212 0.058893185 1.64956 -0.009745099 -0.18378252 0.07477852 0.16055693 -0.5469095
-0.04603737 -0.11163259 -0.35408363 -0.15393719 0.6478768 -0.12217713 -0.2078087 -0.25501457
0.16277562 -0.027975442 0.12613201 0.26327333 -0.048483476 -0.041651588 0.13301729 -0.16538244
-0.11478387 -0.09974836 -0.08613244 -0.000457856 0.11109332 -0.28865913 0.11562531 -0.22005829
0.14422017 0.24666668 -0.13681541 0.102630846 -0.030499121 -0.086023524 -0.10510653 0.3493187
0.08462819 0.14662144 0.035761263 -0.0611116 -0.27563357 0.17216489 0.115110494 0.06253418
0.09121916 -0.15220968 -0.039481148 -0.10344232 0.1512679 -0.19428419 -0.118415974 -0.14642371
-0.07683381 0.11807193 0.16373621 0.090675406 0.073745206 0.0015630159 -0.040074002 -0.04681809
-0.13195735 -0.16549559 0.0333814 -0.0022735537 -0.12992546 0.12006804 0.12060891 -0.13714801
-0.16108416 -0.07797879 -0.019246569 -0.003888327 0.00070089684 -0.09628727 -0.11562124 0.09933904

fc2_1.bias f4 [64]
00000000: 59ea dbbe bb05 c9bc 0ff3 f43d 98f9 dd3c
00000010: 62f4 a73e 69e2 f23d abd5 32bd e8b1 ff3d
00000020: 9770 2d3e 6b4c 9b3e 31c7 d0bd 6c9a 48be
00000030: 5322 b0bd d6b9 09be 0b09 78be 32fa 163e
00000040: 5154 ae3d 418c b9bd 684f 3b3e 23a3 423c
00000050: 1366 7f3d 7dcd 243d c34f fbbd e86b 85be
00000060: 1078 d23d 4c12 e9bc a10b 053f c77c 2e3f
00000070: a95b 6cbe 5379 953d 2fdf b0bd 2f2e 1cbe
00000080: 4f66 333e dd92 67bc 0f1b 54bf 5309 f93d
00000090: 703a 91be 6e54 bfbd c319 babe 72ef ed3d
000000a0: 8f5b a6bd 7b44 47bd 8cf7 683c e59a a63d
000000b0: 36fe e03d 38ee 843c 39d3 18be 9c21 093e
000000c0: 6b62 53be ca04 72be e66a 813d 53d5 f3bd
000000d0: 5c75 30be b91f f8bd 6ea9 34bd 7a0a 06be
000000e0: e1d6 6b3e 8b4a 113c b73e 22be b88a 73be
000000f0: fc40 d83d ebb1 8d3e d420 ddbd 41ee 3e3e
-0.4295223 -0.024538865 0.11960422 0.027096555 0.32803637 0.118595906 -0.0436608 0.12485105
0.16937481 0.3033174 -0.10194243 -0.19590157 -0.08600297 -0.13449797 -0.242222 0.1474388
0.08512176 -0.090599544 0.1829201 0.011879715 0.062353205 0.04023503 -0.12271073 -0.26058888
0.10276806 -0.028451107 0.5197087 0.68159145 -0.2308184 0.072985314 -0.08636319 -0.15251993
0.17519496 -0.014134136 -0.8285379 0.121599816 -0.28364897 -0.093422756 -0.3634778 0.11617936
-0.08122932 -0.048649292 0.014219176 0.081350125 0.10985987 0.016226873 -0.14924325 0.13391727
-0.20643012 -0.2363464 0.063192174 -0.11905923 -0.17232269 -0.121154256 -0.044106893 -0.13089934
0.23031189 0.00886787 -0.15844236 -0.23783386 0.1055927 0.27674803 -0.10797277 0.18645574

fc2_1_1.weight f4 [64, 64]
00000000: be23 d6bc c0b5 4dbd 4cdb fdbd ff75 413e
00000010: b406 303d f2d0 21be 568a 4b3d d2e2 453d
00000020: c335 2abd 434a 6f3d b5ea 1d3e a507 95bd
00000030: 2464 6dbd 3812 3f3d d25f 813d 8c21 3fbe
00000040: f173 30be 9742 b13d e3b0 10be 0d12 803d
00000050: 278d bdbd 58e5 273e 4cea 283e fd1a b33d
00000060: 5245 d43d a1b9 97bd 32a6 44be 4c3a ffbc
00000070: 4910 773d 73c5 1b3e 24a5 96bd c910 0ebd
00000080: 1cd8 94bd 7aa2 94bd a452 ca3d 3cea 6ebd
00000090: 2882 67bd 2cf8 333e f3a5 e9bd 4571 c8bd
000000a0: 9d22 1ebd feef 3f3d 3984 1e3e 7e2f 07bc
000000b0: 7eb9 cfbd a92f 083c d417 86bd 3e83 d63c
000000c0: 8e5f 95bc 566f 643d e53d 23bf 7629 9f3d
000000d0: 4943 e5bd 10ab d23d 6153 acbd 8aa7 873d
000000e0: c4c7 a0be a9e1 393d 498d ad3d 62e4 c53d
000000f0: 52d4 88be 9061 113d f4a8 223e 9415 ff3c
00000100: c4cb f03d 4b53 2d3c ccdd 7a3d 93b6 163e
00000110: 949e 82bd a486 dcbd 7c92 93bc b894 af3c
00000120: f3c5 4abd f0ca e2bc 9991 1f3e 0b9a 923d
00000130: ef74 a0bd 9e11 f23d 5c0f 363d 4283 13be
00000140: e38d 99bb 26b7 173d 0ddd 9abd 9272 edbd
00000150: 32ce 0ebe 9834 2e3e 20bd d53d 9d43 073e
00000160: ff1e 703c 53bc dd3d 85d9 a5bd c1f6 8f3d
00000170: 8b26 25bc 43b2 2a3d c4af da3d 44bd b6bd
00000180: e532 4cbf b992 da3d ee61 55bd d4b3 ecb9
00000190: 05d4 cc3d f242 fe3d f5c1 993d 6b0c 89bd
000001a0: 8f63 ac3d 1da7 df3d 0129 a4bd 588b 27bd
000001b0: 5fe0 59bf 5715 48bb f517 23bc 9864 d7bf
000001c0: 7cfd e73d 2e53 bf3c 5960 2bbd f3ba f33c
000001d0: 23a9 10bf 4272 173d 6700 0d3e 7779 f63d
000001e0: 1123 ca3b 26ec 143e dbc3 14be 9f35 1dbe
000001f0: e809 09be d9b4 17be ad2f 8fbd f698 0a3a
00000200: c47c debc 22c1 293e 4e10 dc3d 03f8 2fbe
00000210: 53c6 a0be 2259 d0be cc5a 1f3e 980b d73d
00000220: 49f2 52bd 16c8 933d 2c27 08be 23ce 76bd
00000230: d6c6 8ebe 24af 8dbd 20df 14bd 1bf3 c73d
00000240: bbc7 d83c 0350 013e ba12 bd3d 035a 85be
00000250: 8fe5 febe 857b a7be b2be d8bd 273f e5bd
00000260: eb55 c1bc 89c1 823d 6d85 693e c4d2 8e3d
00000270: 15ce 19be b6fb c7be 3e58 833d 3dce b03f
00000280: ebcb 1a3d f5a1 edbd 86fd c13d d758 96bd
00000290: bc3e e0bb 2f28 99be 95f5 acbd fcee ccbd
000002a0: da5c 823d e8cf 123d 9545 fbbd f427 633b
000002b0: ba81 893d af04 a83d b77b 1b3e 0f45 363e
000002c0: 64b5 74bd 5090 24be 1a0a f63d 2838 ad3d
000002d0: 6f1f 443e 3ddf 043e 6e37 d3bc 5180 12be
000002e0: d300 473e adc3 eebb 249c fbbd dd34 e53d
000002f0: 0f16 983d 1f88 cabc fde5 e4be 0cd0 0cbd
00000300: f556 eabd 82db 2b3d 6ed7 953d d8a5 d3bd
00000310: 2224 00be bb5e 2e3f 809e 743d 9373 c9bd
00000320: 92a7 013e d4e5 f1bc 36a4 173e bdb1 3abd
00000330: 8290 b6bb 26ea c2bd 101e ab3d 4780 e5bd
00000340: 7ef4 80bd 908f fa3d b6b2 01bf b929 653e
00000350: ba02 973d da52 43bd 1eb4 a13c 2167 733d
00000360: 8314 8bbe 5083 5abe 1f5f 8e3c 2bd7 d03c
00000370: 8bbb 4fbe 0837 48bd c019 333d 6964 2fbe
00000380: 75a6 0f3d d2a2 47ba c88f aebd bd04 a13e
00000390: 5c34 313c 7624 d13c 850f 82be 6c72 72be
000003a0: bb23 a03d 8f3f fe3d 5f73 b0bd 8e9e 993e
000003b0: 0bf7 ddbb ff8e aabe d3a2 3bbd 9b48 42be
000003c0: b4ea 9bbe a7c9 5ebe 97da 05be 2f7f 9ebd
000003d0: 8c6f 63be 5d12 5abe 090e 1f3e 8bbd d8bd
000003e0: e3e8 d9bd b5cc b83d 4ab5 f53d 71eb 76be
000003f0: 898c 01bf 0404 573e c0ec 983d d1ca 193e
-0.02614009 -0.05022216 -0.12395343 0.18892668 0.042975143 -0.15802363 0.049692474 0.048312016
-0.041555177 0.05842043 0.15421565 -0.07276849 -0.05795683 0.046648234 0.063171044 -0.18665141
-0.17231728 0.08655279 -0.14129977 0.06253443 -0.09255438 0.16396081 0.16495627 0.08745382
0.10364784 -0.07408453 -0.19204023 -0.031155728 0.060318265 0.1521204 -0.07355717 -0.034683976
-0.07267782 -0.072575524 0.09879044 -0.058328852 -0.05652061 0.17575139 -0.114086054 -0.097872294
-0.03860723 0.046859734 0.15480126 -0.008251069 -0.10142802 0.008312144 -0.065475136 0.026185628
-0.01823404 0.05577024 -0.6376632 0.0777158 -0.11194474 0.10286534 -0.08414341 0.066237524
-0.3140241 0.045381222 0.08474214 0.09662701 -0.26724488 0.035493433 0.15884763 0.031138219
0.11757615 0.010578941 0.06124668 0.14718084 -0.063779026 -0.10767868 -0.018014185 0.02143322
-0.049505185 -0.027684659 0.15582885 0.071582876 -0.07834803 0.118197665 0.04444824 -0.1440554
-0.0046861037 0.0370399 -0.07561693 -0.11594118 -0.13945845 0.1701225 0.10436463 0.13209386
0.014655828 0.108269356 -0.08098129 0.070294864 -0.01007999 0.04167391 0.10678056 -0.08922818
-0.7976516 0.106725164 -0.052095346 -0.0004514741 0.10001377 0.124151126 0.075076975 -0.06691822
0.08417427 0.10920546 -0.080156334 -0.040904373 -0.8510799 -0.0030530298 -0.009954442 -1.6827574
0.11327645 0.023355093 -0.04183993 0.02975223 -0.5650808 0.0369742 0.13769685 0.12034886
0.006168731 0.14543208 -0.14527838 -0.15352486 -0.13382685 -0.14815082 -0.06991515 0.0005287075
-0.027159102 0.1657758 0.10745297 -0.17184453 -0.3140131 -0.40693003 0.1556198 0.10500258
-0.051500592 0.07215898 -0.13296193 -0.06025518 -0.27886075 -0.06918171 -0.0363456 0.097631656
0.026462426 0.12628178 0.092320874 -0.26045236 -0.49784514 -0.32711425 -0.10583247 -0.11193686
-0.02360054 0.0638457 0.22804804 0.06973794 -0.1502002 -0.39059228 0.06413315 1.3812939
0.037792128 -0.116031565 0.09472184 -0.073411636 -0.006843416 -0.2991347 -0.084452786 -0.1000652
0.06365366 0.035842806 -0.12269131 0.0034661265 0.067141965 0.08204018 0.15183912 0.17799781
-0.0597433 -0.16070676 0.120136455 0.084579766 0.19152616 0.12975784 -0.025783267 -0.14306761
0.19433908 -0.00728651 -0.12285641 0.111917235 0.07426082 -0.02472311 -0.44706717 -0.034378096
-0.11442367 0.041957386 0.073164806 -0.103343666 -0.12513784 0.681133 0.05972147 -0.09836497
0.12661579 -0.029528536 0.14808735 -0.04557966 -0.005571426 -0.095173165 0.08355343 -0.112061076
-0.06296633 0.122344136 -0.50663316 0.22379197 0.07373567 -0.047686435 0.019739207 0.059424523
-0.27164087 -0.21339154 0.017379342 0.025493225 -0.20286386 -0.048880607 0.04372573 -0.17128147
0.035070855 -0.00076155097 -0.08523518 0.31448928 0.010815706 0.025530081 -0.25402465 -0.23676461
0.07819315 0.124144666 -0.08615755 0.3000378 -0.0067738346 -0.33312222 -0.04580958 -0.1897301
-0.30452502 -0.21756612 -0.13071667 -0.07739102 -0.2221052 -0.21296068 0.15532698 -0.105830275
-0.10640123 0.0902342 0.11997469 -0.24113251 -0.50605065 0.20997626 0.074670315 0.15018775

fc2_1_1.bias f4 [64]
00000000: 6890 5b3d 3497 6b3d 75d0 d23d b4f2 98bd
00000010: 1ef1 9ebe 42b7 2ebd ae7e 28bd 97c7 e0bd
00000020: 7ce9 17be 29f1 cabd ba31 ac3e 12bc 7e3d
00000030: 2780 873d 855a f9bd 4f6b 3abe dca2 cbbb
00000040: 37c3 423c 5cbb 97be 7068 95bd d4fb b5bc
00000050: da73 283e 37bb 75bc 9eab 9dbd ba44 14bd
00000060: 3c85 11be 89b9 88bb bc26 6ebe 0c0e 1e3f
00000070: 768b f4bd 55b9 f2bd f83a 0b3e aa08 07bd
00000080: b5da acbd 31f5 babd 6202 e4be 09aa 20be
00000090: 72d1 acbc d3e6 8bbe 2ae7 0ebd 2350 023e
000000a0: eb02 493e c1d4 e93d e363 b13e 4e62 49be
000000b0: 4cbc 3cbe 43da 3abd 902e 35bb 16bf 1abd
000000c0: 39a8 efbd e353 d93d 06b1 82be f889 24bc
000000d0: cccc 603d eafd 60bd 1ef1 3d3d aedc cfbd
000000e0: 36ec 96bd a5a3 803e 9c8f 70be 082c 0abd
000000f0: 8990 143f 77eb 453d 5192 94bd a1ed 6a3e
0.053604513 0.057517245 0.10293666 -0.07468167 -0.31043333 -0.042655237 -0.041136436 -0.10975569
-0.14835161 -0.09909279 0.33631688 0.062191077 0.0661624 -0.12175468 -0.18204997 -0.0062144827
0.011887363 -0.2963513 -0.072953105 -0.022214808 0.16450444 -0.014998249 -0.07698749 -0.036198355
-0.14210981 -0.004172508 -0.23256963 0.61740184 -0.119406626 -0.118517555 0.13596714 -0.032967247
-0.084401526 -0.09128798 -0.44533068 -0.15689863 -0.021095965 -0.27324542 -0.034888424 0.12725882
0.1963002 0.11417533 0.3464652 -0.19666407 -0.18431205 -0.045618307 -0.0027646162 -0.03777989
-0.11702008 0.10611703 -0.25525683 -0.01004266 0.05488281 -0.05492965 0.046372525 -0.10149513
-0.073692724 0.2512485 -0.23492283 -0.033733398 0.58033043 0.04832026 -0.0725447 0.2294221

fc2_1_2.weight f4 [32, 64]
00000000: 49f5 923d adef a13c 492c 4c3d 7c44 ee3d
00000010: d25e d9bc 8969 013d 9c86 4dbd fcea c13d
00000020: 188e 80bd e565 ab3d 41e1 e3bd 103e 19bf
00000030: 0a74 5cbe 1afe 63bc 69db 49be 5612 2e3d
00000040: 6f76 9d3d 51bb 51bd 213d 8ebd ee91 0c3e
00000050: fae8 d03d 4946 34bc 3549 a3bc cc43 d5be
00000060: d7b4 cbbd ca97 07bb b0c5 1a3c 6f65 f8bd
00000070: 7d9e 72be b8d0 5fbd a9f5 8c3d 2052 93be
00000080: 4b09 193e 7789 b7bd c389 e13a b060 92bd
00000090: 3ea9 703d 5bb8 12be 6ff0 15bd bddf 433e
000000a0: 5ffe 16bd bb92 643d f1a5 20be 389b babb
000000b0: bd4c 2dbe a0c2 463d 2930 89bd 62b8 c2be
000000c0: 699f 3ebe 95fd 073d e2e3 3b3e fda6 21bd
000000d0: d455 0e3e 567f ddbe 9bde 93bd 1553 8bbd
000000e0: e942 b83d 787a c33e f289 e9bc 9669 173b
000000f0: d9b7 8f3d d6e1 74be a586 e0be 7b3c 4f3d
00000100: feca 16be 8f57 df3c b51a abbd 143e d3bd
00000110: 720b cdbd 1220 21bc 35f5 b2bc c60a bfbd
00000120: 9049 c4bd c0b0 933d 20e0 0cbb bc8a 3b3c
00000130: 53a1 87bd 8156 893d a8dd 8fbd 8694 b1bd
00000140: 8f01 7e3b e430 0cbd c14c f0bd 4f50 0e3d
00000150: 80c3 8c3c acbd 0cbd 7c8d 743d bc27 3ebd
00000160: 7757 913d 946f 13be 93dc 32bd 9d27 babc
00000170: ce0a 5f3c b9a3 033e 85c2 563d 1121 953d
00000180: c4b3 6d3b 4ec0 94bd bf30 11be 2499 10bd
00000190: 214f e43d 55bf 68bd c71d c2bd ee89 80bd
000001a0: aefc 0ebe 7ffe 68bd 3cba 9b3d ee01 4abd
000001b0: a396 05bd 4115 81bd 570e 523c daeb dabd
000001c0: 976c 97bd db02 b83d 248f 2dbe 14ff fbbd
000001d0: 7a57 bb3c a08c 723d 08b3 d53c 594a 323d
000001e0: 3e71 01bd e9cf 08be b3f2 da3d aa72 cd3b
000001f0: ab3b 253d db2f fc3c 88e0 903d cdc4 f1bd
00000200: 6114 0c3e a718 1a3e 4a03 d0bd 84ed 05be
00000210: f064 02be 58cf 4cbd d541 3a3e faea 95be
00000220: bc5b 36bd 55d2 df3d 918d b03d 0348 8e3d
00000230: 515a 743d 429c 023e a5e1 b6bd cb5f df3d
00000240: 944f cb3d 86d8 2abe 1946 9fbd 45ea d33d
00000250: 8d7b 80bd ae68 5c3d 3c9a 563d 2fc7 ce3d
00000260: 4ed9 113e c0de e43c 9d31 353e 09a3 8e3d
00000270: e489 8ebe 4696 8bbe f416 6e3d b2d0 0c3e
00000280: 5ef9 773d 3fc4 ef3d 5861 abbd df38 b0be
00000290: d630 1cbf 975c 88bd 55ab c2be 368e 593f
000002a0: b9b3 3fbc 4960 2cbe 5b48 f7be 9a52 b7bd
000002b0: 94d4 73bd 1826 0f3d 8c80 133e ce82 0d3d
000002c0: 47d3 aa3c 7ad3 fcbd 870a 01be ec46 213f
000002d0: 9e2e b1be bffc 08bd f1c3 3b3e 6647 2cbd
000002e0: ac50 7f3d b8fe 9fbe 9503 a53d 6e9f e1bd
000002f0: 5b24 043e fc3b fabe 7f2a 163e 63eb 363d
00000300: c36e 3ebd dbc1 84bc ec8b 1bbe 9855 9fbe
00000310: 00ea 90bd 5156 8abe dfd5 4cbd 9adf 65bd
00000320: 9dae c53d a288 043d 556c 1ebe 647a 20be
00000330: 0bfc 08bf c189 7dbd df8d cabd 05b9 2fbe
00000340: 7713 acbd 69f6 f3bb d806 2cbe ddd9 88bd
00000350: 73e1 1cbd 838c 0cbc 04c8 d2bd b7e4 92bd
00000360: 9b93 0cbe 21bb 21be 4d21 79bd 8753 0bbe
00000370: d08b 1a3d 40ec b7bd b2b1 423d f6f8 5cbb
00000380: 3005 2e3d c530 11be b39d ce3d f3b8 a23d
00000390: e922 8bbd 4688 0ebb 3fca b33c 45fe 0b3e
000003a0: 9416 7fbc 7143 46bd b199 eb3c 6ddf 9fbd
000003b0: 7171 c6bd 78e5 8d3d cb63 2dbe ef03 15be
000003c0: 0b1f 85bd e736 4abe 2848 51bd 66bf 3c3d
000003d0: abd1 153d d739 4cbe 4005 23be dd70 763d
000003e0: c2ef 253d 82dd 6e3d 9bd7 dcbd 4a51 803b
000003f0: f4a9 03be f305 56bc e315 a8bd 2f78 e03d
0.07175691 0.019767607 0.04984692 0.11634156 -0.026534472 0.031594787 -0.0501772 0.09468648
-0.06277102 0.08369044 -0.11126948 -0.59860325 -0.2152864 -0.013915563 -0.19712605 0.042497955
0.07688605 -0.05120403 -0.06945253 0.13727543 0.10200687 -0.011003085 -0.019932369 -0.41653287
-0.09946602 -0.0020689839 0.009446546 -0.12128722 -0.23693271 -0.05464241 0.068827935 -0.28773594
0.14944951 -0.08961766 0.0017207194 -0.07147348 0.058755152 -0.14328139 -0.03660625 0.19128318
-0.03686368 0.055803996 -0.15688302 -0.005694773 -0.16923805 0.048525453 -0.06698639 -0.38031298
-0.18615498 0.03320082 0.18348649 -0.039465893 0.13899928 -0.43261212 -0.07220193 -0.06802956
0.08997137 0.38179374 -0.02850816 0.0023103706 0.07017488 -0.23914275 -0.43852726 0.050594788
-0.14725873 0.02726343 -0.08354703 -0.10314575 -0.10011949 -0.009834306 -0.02184544 -0.09328227
-0.095843434 0.07211447 -0.0021495894 0.011446651 -0.06622567 0.067059524 -0.070246994 -0.08670907
0.0038758253 -0.034226313 -0.1173339 0.034744557 0.017183065 -0.034360573 0.059705243 -0.046424612
0.07096761 -0.14398032 -0.043667387 -0.022723967 0.013613416 0.12855424 0.052431602 0.072816975
0.0036270479 -0.07263242 -0.14178751 -0.035302296 0.11147905 -0.056823093 -0.09478336 -0.06276308
-0.13963577 -0.05688333 0.07603881 -0.049318247 -0.03261436 -0.06302882 0.012820802 -0.10689516
-0.07393759 0.0898492 -0.16949135 -0.12304512 0.02286886 0.05921614 0.026086345 0.043527935
-0.031602137 -0.13360561 0.106908225 0.0062697725 0.040340107 0.030784538 0.07074076 -0.11805115
0.13679649 0.15048467 -0.10156877 -0.13078886 -0.12733817 -0.050002426 0.18189175 -0.29280835
-0.04452108 0.109287895 0.08620752 0.06947329 0.059656445 0.1275492 -0.08929757 0.10906943
0.09927288 -0.1668416 -0.07777042 0.10347418 -0.062735654 0.053810768 0.052393183 0.10096585
0.14243051 0.027938247 0.17694707 0.0696469 -0.27839577 -0.27263087 0.05812736 0.13751486
0.06054055 0.11707353 -0.08368176 -0.3441839 -0.6101202 -0.06658285 -0.3802134 0.8498262
-0.011700564 -0.16833605 -0.4829739 -0.08951302 -0.059528902 0.03494844 0.14404505 0.034548573
0.020852698 -0.123450235 -0.12601672 0.62998843 -0.3460588 -0.033444162 0.18336464 -0.04206028
0.062332794 -0.31249022 0.08057324 -0.11016737 0.12904494 -0.4887389 0.14664648 0.044658076
-0.04649235 -0.016205719 -0.15190095 -0.3111999 -0.07075882 -0.2701898 -0.05000865 -0.056121446
0.096524455 0.032356866 -0.15471013 -0.15671688 -0.5350959 -0.06189895 -0.09890341 -0.17160423
-0.0840215 -0.007445146 -0.16799486 -0.06682179 -0.038300943 -0.0085784225 -0.10292056 -0.0717253
-0.13728182 -0.1579404 -0.060822774 -0.13606082 0.03773099 -0.08980608 0.047532745 -0.0033717728
0.042485416 -0.1417876 0.100886725 0.079454325 -0.06793768 -0.0021748706 0.021947024 0.13671215
-0.015569348 -0.04840416 0.02875981 -0.07806287 -0.09689606 0.06928533 -0.16932599 -0.14552282
-0.065000616 -0.19747506 -0.051094204 0.04608097 0.036576908 -0.19943939 -0.15919971 0.06016623
0.040511854 0.058316715 -0.10783311 0.0039159404 -0.128578 -0.013062942 -0.082072996 0.10960423

fc2_1_2.bias f4 [32]
00000000: a7ff e7bd ec32 a8bc ff48 613b e701 6fbe
00000010: 8b95 8dbc ae59 bd3e 2cd7 643e 51f8 d73d
00000020: 3238 9ebd 7c1b e7bd 19c8 cebd 7394 00bc
00000030: 0096 d2bd 8d4a a6bd 9713 54bd e318 4a3d
00000040: afa1 1abe a6b7 b83e 03da 4dbd 970a 263e
00000050: fc3a 463e 4a52 7c3d 9101 91bd 2e20 efbc
00000060: eb5b f83c 4106 203e a490 953d ae40 a8bd
00000070: 74ca 03be 546b 833d 69ba afbd 0eee b8be
-0.11328059 -0.020532094 0.0034375784 -0.2334057 -0.017283222 0.36982483 0.22347707 0.105454095
-0.07725562 -0.11284539 -0.10096759 -0.007847893 -0.102825165 -0.08119688 -0.051776495 0.04934014
-0.1510074 0.36077613 -0.05025674 0.16214977 0.19358438 0.061601914 -0.07080377 -0.02919015
0.030317267 0.15627386 0.07302979 -0.08215462 -0.12870198 0.064169556 -0.08580477 -0.3611912

fc2_2.weight f4 [16, 32]
00000000: 40bc 223e 8954 09be 5fec 9d3d 9518 a43d
00000010: 96d6 113e 9fb1 923d c91b 20be 6d43 8e3e
00000020: b956 903e 627d fcbd ed9c d63d e4bc b2bd
00000030: 650c 2abe 10c2 8fbe 5244 9e3e dd6e 83bd
00000040: 43fc 173c 6527 99bd 438b a6bd 7e09 0a3e
00000050: efdb 613e 4c22 9c3e 7ec2 5ebd 6d6e 033f
00000060: 38f0 53be d0a5 74bb 3ddc c43d d3ef 213e
00000070: aa62 80bd bd02 d4be 64fb 0b3d edac 47bd
00000080: b280 3b3d 4789 d5bd 91ba 4b3e be73 cb3d
00000090: 620b 333d fe3f 8a3e e018 3dbe e0ef 27bf
000000a0: 2a39 67bf a297 97bd 2a73 cc3d be57 343e
000000b0: 011a 65bd 18ad 833e a257 d73d 370d d1bd
000000c0: 7a6e 4dbe da68 3fbe 5985 12be 834a f73d
000000d0: 5e47 893d 98b1 01be f57b 3f3e fee4 213e
000000e0: 2ce9 55bd 27f8 80bd 28cc 933d 675f d83d
000000f0: 76ca b5be a3e9 c53d 6224 8bbd 7582 99be
00000100: 2f5e 043b f457 b53d 590c 023d ed75 113e
00000110: a34d 61bd 742c 2a3e 1633 283e db1c 84bd
00000120: 7d0f 413d 4f1b 8cbd 78da ee3c bf18 193e
00000130: 03a1 153d 2b01 9b3c 3003 6d3d 757b 8ebd
00000140: 0a25 04bc e200 ce3e 5362 8c3b 3fd6 f3bb
00000150: 9750 fcbd 9269 103e 603a a6bd b9fc 04be
00000160: 2c17 003f 191f 993e 898f 4c3e e73a c7bc
00000170: a548 e93e 2148 40bb f9b3 a43d 2171 ffbd
00000180: 8529 893e f7e3 043d 449e 0f3e 1a63 0ebe
00000190: 462f 3e3e b4d3 efbc a044 7b3e 1102 033e
000001a0: a688 4a3e fde4 803d c48d efbd 21d0 d23d
000001b0: 4e15 073d a3e1 c4bd 8595 2ebe 3a5b 35bc
000001c0: be01 5dbe e871 7e3c a868 1abd b567 e4bd
000001d0: b113 333d 5458 e23e 2f08 693e 658b 58bd
000001e0: c426 3fbd 855a 07be 64e5 a63d 8061 703d
000001f0: b7da 833c 5025 99bd f028 ff3d eeeb 1c3e
00000200: 059f a0bc b96f eebd dd14 18be 6888 0f3c
00000210: 3e31 ee3d a992 fa3a 4f56 5a3e 5cfc ac3b
00000220: a51a 8d3d b8f7 bebc 0f77 c2bc 6040 363e
00000230: cda6 40bd 3cff 7d3d 4724 11bd 3562 9e3d
00000240: a718 d8bd 6393 ac3d 5428 0abe 6d8c ebbd
00000250: 9271 01be 8f67 833d 6da2 a63d 61b0 cfbb
00000260: f468 783d 3701 a0be bf99 e9bc b809 603d
00000270: f511 873e 8f86 a9bd 6b8b e3bd a049 87bd
00000280: 3c81 ca3d dba8 273e 7e6a 533e 2693 0abe
00000290: 7d1f b8bc 8823 703c 25f0 fdbc 5c5c f03d
000002a0: 10d1 b63d 2ce2 8e3d 3704 873d a4de 23bd
000002b0: 8d52 863d 2f17 64be 7352 bc3e 774d 4cbe
000002c0: 6107 13be f378 28bd e690 473e 86a3 803d
000002d0: 97a7 cfbd 135e 963e 64ec 1abe c9c5 7e3c
000002e0: 4366 643e cd2c 343c a5e4 d2bd 22f1 96bd
000002f0: bb51 823b e68b 9fbe 8b98 ae3d d761 f1bc
00000300: 9742 713e aa78 b33d 14ee b43c 04aa 093d
00000310: 027b 09bd 7aa7 5abf dd26 9abe e4fd aebc
00000320: 5fe0 1b3d 2773 083e 3bdd 313e 2281 023d
00000330: 524e 1d3e 75f2 613d d509 13be a24c 87bd
00000340: 527f 803e 2d5a 423d 8142 153e 188d aabe
00000350: 0b15 d03e ce4a 8f3d 54a0 8d3d d797 8ebd
00000360: 0cc0 e4bd 670e 403c 2e4b 89be c95d b13c
00000370: 230b f2bc c25c 03bd 29ca fabd 14d6 143e
00000380: 507a 283e b212 a3bd 28b2 0c3e ebe7 e23c
00000390: a0ab 0cbe 5464 403e 9bb5 a5be e517 08be
000003a0: d7ec 533e 31b6 9cbe 7c2b b2be 6458 dfbd
000003b0: da81 82bf 1a41 0abf f776 043e de0c 003e
000003c0: daba 673e 1a5a 05bd 40b9 5d3e 2ea4 223e
000003d0: 4355 37bb ec79 ae3c b6f8 14bf 1b54 063f
000003e0: 25ce 82bd 39e4 8c3e 67da 58bd 2a4c 20bf
000003f0: 68ca 8bbe 8039 113e 63db a9bc e9a6 a0bd
0.15892124 -0.13411154 0.077111 0.08012501 0.14242014 0.07162785 -0.15635599 0.27785817
0.28191164 -0.123286024 0.1047915 -0.08727434 -0.1660629 -0.28077745 0.309115 -0.0641763
0.0092764525 -0.07478217 -0.08132031 0.13480183 0.22056554 0.30494916 -0.0543847 0.5134037
-0.20697105 -0.0037330277 0.096123196 0.15814142 -0.06268819 -0.4140834 0.03417529 -0.0487489
0.04577703 -0.10426574 0.19895388 0.099341854 0.043712027 0.27001947 -0.1846652 -0.65600395
-0.903216 -0.074019685 0.09982903 0.17611596 -0.055933002 0.25717998 0.105147615 -0.10207599
-0.20061675 -0.18692341 -0.1430868 0.12074759 0.06703065 -0.12665403 0.1869963 0.1581001
-0.052224323 -0.06297331 0.07216674 0.105650716 -0.35506028 0.09663703 -0.06794049 -0.29982343
0.002019774 0.08854666 0.031750057 0.14205141 -0.05500568 0.1661852 0.16425738 -0.06450816
0.04713391 -0.06841146 0.029156908 0.14950846 0.036530506 0.018921455 0.057864368 -0.06957141
-0.008065471 0.4023505 0.004284182 -0.0074413116 -0.12320059 0.14102772 -0.08116603 -0.12987031
0.5003536 0.29906538 0.1997663 -0.024320079 0.45563236 -0.0029339867 0.080421396 -0.124727495
0.2678949 0.032443967 0.14025217 -0.13904992 0.18572721 -0.029275753 0.24537897 0.12793757
0.1977869 0.06293676 -0.116969615 0.10293604 0.032979302 -0.09613349 -0.17049225 -0.011069113
-0.21582696 0.015530087 -0.037697464 -0.11152593 0.04371995 0.44208014 0.22757028 -0.052867312
-0.04666783 -0.13218124 0.081492215 0.058686733 0.016095502 -0.0747782 0.1245898 0.15324375
-0.019607076 -0.11642403 -0.14851709 0.008760549 0.11630486 0.0019117194 0.21321987 0.005279107
0.06889848 -0.02331148 -0.023738412 0.17797995 -0.047034074 0.06201099 -0.035434987 0.07733575
-0.10551577 0.08426549 -0.13491946 -0.115013935 -0.1264098 0.064162366 0.08136449 -0.0063381647
0.060646966 -0.31250927 -0.028515695 0.05469677 0.26380888 -0.08277618 -0.11110576 -0.0660584
0.09887931 0.16373007 0.20646092 -0.13532695 -0.022475952 0.014656909 -0.030998299 0.11736366
0.08926594 0.069767326 0.06592601 -0.04000725 0.06558714 -0.22274469 0.36781654 -0.19951425
-0.14358284 -0.04113097 0.19488868 0.062811896 -0.10139387 0.29368648 -0.15129238 0.015550085
0.22304635 0.010997009 -0.10297517 -0.07370211 0.003977028 -0.31161422 0.08525189 -0.029465599
0.23560558 0.08763249 0.02208618 0.033609405 -0.033564575 -0.854118 -0.30107775 -0.021361299
0.038055774 0.13325177 0.17369549 0.031861432 0.15361908 0.055162866 -0.1435922 -0.066064134
0.25097138 0.04744928 0.1457615 -0.3331077 0.40641055 0.0699669 0.06915346 -0.06962555
-0.111694425 0.011722184 -0.2681517 0.021651166 -0.029546326 -0.032070883 -0.1224559 0.1453479
0.16452909 -0.0796255 0.13739836 0.027698478 -0.13737345 0.18788272 -0.32365116 -0.13290365
0.20695816 -0.3060775 -0.347988 -0.10905531 -1.0195878 -0.5400559 0.12936006 0.12504908
0.22629872 -0.03255663 0.21652699 0.15882942 -0.0027974404 0.021298371 -0.58192 0.52472085
-0.06386975 0.2751787 -0.05294266 -0.6261622 -0.2730286 0.14182091 -0.020734495 -0.078443356

fc2_2.bias f4 [16]
00000000: faf6 6d3e 1fec 6e3d 7434 203e 9a0f 8fbd
00000010: a459 823c f1a9 7f3e 0eef 893d beae 213e
00000020: da6b 893d 2cba 8a3e ebf8 b73d e0d9 07be
00000030: 2db3 3ebc 0ab4 a43d aaea 223d d190 e93d
0.23238745 0.05833065 0.1564501 -0.06985398 0.015911885 0.24967171 0.06735049 0.15789315
0.06710024 0.27095163 0.08983024 -0.13266706 -0.0116393985 0.08042152 0.039774574 0.11404575

fc3.weight f4 [30, 16]
00000000: 8121 1c3f 4d95 79be 97d7 c33e 4697 e53e
00000010: f156 4dbe 3d72 023f 3b8f c2be 605d ce3e
00000020: f52b d53e 38a5 3fbe c554 f53e 71f3 08bf
00000030: dc8d b3be fe51 4abf f2e2 163f cc19 9a3e
00000040: c865 79bd 861f 7e3e 31e3 2abe 2a31 28be
00000050: 0df3 1f3e bc3e 223e 3731 f4bc 4eec 183c
00000060: 74ea 043e b0a7 e63c 6c23 c6bd c823 7dbc
00000070: 3cad 4f3e 96b0 9cbd 9f50 343e 9ec9 6dbe
00000080: b993 12be 7a05 c7bd e4ca e5bd a0ce 043e
00000090: cd64 643e bb08 f03d c99b d53d 5991 093e
000000a0: 428e ab3d a526 94bd ebdd 1f3c 1bd8 2f3e
000000b0: a74a ee3d a477 00be 163d 6bbc 21af 34bd
000000c0: 4492 efbd 104c 063e cf10 aebd 6d6f 443e
000000d0: 7141 f9bd f026 153d ccdc 8c3e 06b5 523e
000000e0: eb79 b8bd e222 71be 031b 573e 28d3 f3bb
000000f0: f46b 613d 9b1d 4abd 0ecf 92bd 8c40 00be
00000100: f4a9 6d3d 0e1b e23b 8ec1 4f3e bb75 063e
00000110: 0b8b 09be ab85 323e 7083 cdbd e7ce 3638
00000120: 21e4 493d 136b 93bb e7f6 3f3d f8bc 63be
00000130: fdcc 32bd 5758 4d3e 86d5 7ebe cd77 4f3d
00000140: 38be 81bc 2266 603e d0c8 f7bd ace4 153c
00000150: cad5 b63d 177b 1fbe b530 633d f58e aa3c
00000160: 25f2 a23c d32a 5dbe 5c77 2abd 373c 98bb
00000170: 3a08 923e 772c 9cbd e30b 1b3e 05d1 943d
00000180: 8ce3 2a3e 3975 4c3c 88a7 a83c 0a1d c83d
00000190: d42d 89be 5329 0abe b46a 1b3e bdce 0d3e
000001a0: 800d 683d 9f95 c6bd 7562 8f3d 82a9 68be
000001b0: 2159 d2bd ff53 3e3e bc70 60be 1f6d f63d
000001c0: 8eb7 163e d1ac c43d 2652 d53d 258c 6d3e
000001d0: 0587 463e 232e 46be 240f d9bb f82e d8bd
000001e0: 36f1 f1bd 9f5e 893e 6459 ffbb f7aa bb3c
000001f0: 1a41 cc3d 1ac4 34bd 78cb b4bd c7b6 edbd
00000200: 712a 8e3e 1829 f43d 7d31 3bbe cc5e 15be
00000210: a2f8 e53c cbae cbbd 5f2b 093d 104a 3d3d
00000220: 321c 84bd 4d02 9f3b 4624 013e ae00 92bd
00000230: 7ed9 f13d 79a7 583c 156d 07be 2d6f fc3d
00000240: b9af 56bd edf5 e6bd 2ea0 debd 7912 18be
00000250: 9b62 693e f480 1f3e 97c0 b3bc f61e 0d3d
00000260: 1770 953d 6a90 3b3e 81a7 19bd 99cd fe3d
00000270: 2909 573e d93f a0bd 44a8 0f3e 432e dcbd
00000280: 88f9 c7bc a244 ed3d e783 2d3e 06fb 493e
00000290: 8eba 69bd 1778 bb3c 7c62 873d 857d 17be
000002a0: b3a1 4bbd fda8 0cbe c074 293c 3e8f d3bd
000002b0: 306a bd3d 09ec 483d 6eda a0bc 7bbf 30bd
000002c0: b3df 77bd 6d19 a4be f027 9b3d 39cc 323e
000002d0: 9127 33be 813c 263e d1f3 21be 7aae 3cbe
000002e0: e564 cb3d dda7 d23e c358 bd3d 2651 ccbd
000002f0: 79c3 0ebe 62d2 403e 7e71 04be 0927 9fbe
00000300: 6501 553e 6f33 063e 8336 82bd e663 2cbe
00000310: 4481 ae3b 2fa7 5fbe 79ef 14bc 5462 ce3d
00000320: 0f5a 663e f5ba 8fbe eb49 cbbd c126 30bd
00000330: ca78 633e 6cd4 8abc fd49 45bd 37af 143e
00000340: b963 d73d b291 91be d921 c53c d2ba 2c3e
00000350: 9031 443d 74ba 9e3c 8e4c a73d 0fd2 8cbe
00000360: f30c bebd 840a 453e 89ae 94be 40fb 433e
00000370: c26f 8f3d 8c9b a1bd 76b1 223d bad7 dd3d
00000380: 5499 00bd 7cd0 43be 4f0b 50be 218a 9a3d
00000390: 8785 e63d 59b1 6a3e f4e1 353e 1e45 133d
000003a0: 5be5 183b 4aab 233d b699 a4bd d843 983d
000003b0: 888d b0bc 8e66 3dbc afa9 4bbd fb4c 203e
000003c0: 9548 673d 358d 4ebb 8960 123e e142 e2bd
000003d0: 52ce 1e3e a862 533e fb5b a6be a982 ea3c
000003e0: 45f1 c93d a33c a03e 42d0 a33d fbd8 56be
000003f0: 1560 e03d fd67 433e 0b54 e7bd 7f4d 39bb
0.6098862 -0.2437336 0.3825042 0.44841975 -0.20052697 0.50955564 -0.379999 0.40305614
0.416351 -0.1871537 0.47916237 -0.5349646 -0.35069168 -0.7903136 0.5894004 0.30097806
-0.06088808 0.24816713 -0.16688229 -0.16425005 0.1562006 0.15844244 -0.029808624 0.009333683
0.12980062 0.028156132 -0.09674725 -0.015450425 0.20280927 -0.076508686 0.1760888 -0.23221442
-0.14314164 -0.097178414 -0.11220339 0.12969446 0.22304077 0.11720415 0.10430104 0.13434352
0.08376743 -0.07233933 0.009757499 0.17172281 0.116353326 -0.1254564 -0.014357826 -0.04411233
-0.1169782 0.13114953 -0.084993 0.1918313 -0.12170685 0.036414087 0.27512205 0.20576867
-0.09007629 -0.23548463 0.21006398 -0.0074409433 0.055034593 -0.04934464 -0.07168399 -0.12524623
0.058023408 0.006900198 0.20288679 0.13130848 -0.13431947 0.17433803 -0.10034835 4.3584874e-05
0.049289826 -0.004498848 0.046866324 -0.22240055 -0.043652523 0.2005323 -0.2488614 0.05065136
-0.015837774 0.2191396 -0.12098849 0.009148758 0.08927496 -0.15574299 0.055466373 0.02082012
0.019890854 -0.21598367 -0.041617736 -0.00464585 0.285219 -0.076256685 0.15141253 0.0726643
0.16688365 0.01247912 0.020587698 0.09771164 -0.26792777 -0.13492326 0.15177423 0.13848396
0.0566535 -0.09696507 0.07001201 -0.22720912 -0.10270906 0.1858673 -0.21918005 0.12032532
0.14718458 0.096032746 0.10416059 0.23197992 0.19387443 -0.19353537 -0.0066241194 -0.105558336
-0.118135855 0.26830003 -0.0077926386 0.02290867 0.09973355 -0.04413233 -0.08827871 -0.11607128
0.27766755 0.119219005 -0.18280597 -0.14586943 0.028072659 -0.099454485 0.033488628 0.04621321
-0.0645069 0.004852569 0.12611493 -0.07129036 0.118090615 0.013223522 -0.13225205 0.123258926
-0.052413676 -0.11277375 -0.108703956 -0.14850797 0.22791521 0.15576535 -0.02194242 0.034453355
0.0729677 0.18316808 -0.03751326 0.124415584 0.20999588 -0.07824678 0.14029032 -0.10751011
-0.024410978 0.11585356 0.16944848 0.19724664 -0.057062678 0.022884412 0.06610581 -0.14793976
-0.049714755 -0.13736339 0.010342777 -0.10330056 0.09248769 0.049053226 -0.019635405 -0.04315136
-0.06051607 -0.32050648 0.07575977 0.17460717 -0.17495562 0.16234018 -0.15815665 -0.18425933
0.099313535 0.41143695 0.092454456 -0.09976415 -0.13941754 0.18830255 -0.12933919 -0.3108447
0.20801313 0.13105558 -0.063580535 -0.16834983 0.0053254683 -0.21841119 -0.009090298 0.10077348
0.22495292 -0.28072324 -0.09926208 -0.04300571 0.22214046 -0.016946994 -0.048166264 0.14519964
0.105170675 -0.2843147 0.024063991 0.16868141 0.04789883 0.019376017 0.081688985 -0.27504012
-0.092798136 0.19242293 -0.2903941 0.19138813 0.07003738 -0.07890996 0.03972002 0.10832162
-0.031396225 -0.19122499 -0.20316814 0.07545877 0.11255937 0.22919215 0.17761976 0.035954587
0.0023330066 0.039958276 -0.080371305 0.07434815 -0.021551862 -0.0115600955 -0.04972237 0.15654366
0.056465704 -0.0031517271 0.14294638 -0.110479124 0.15508392 0.20643103 -0.3249205 0.028626757
0.09860472 0.31296262 0.079987064 -0.20981209 0.10955826 0.19082637 -0.11295327 -0.002827495

fc3.bias f4 [30]
00000000: c496 8e3e 01e9 473e acf0 563e 451b 9f3e
00000010: bcdd bf3c ef47 2a3e b315 083e d09b 923b
00000020: 6266 373e 3b78 f83c 3341 893d e4c5 b33d
00000030: e854 7e3e c313 933c f023 ef3d faf1 cbbd
00000040: b2ec 793e 17a9 48bc 4e9e 1e3e 77c2 973d
00000050: 1373 a63d dbbd 083e c047 513e 2ad6 ea3d
00000060: 46d6 313d 62f2 b73d 6ded 973e e1d8 223e
00000070: d3d5 553e 86e5 203c
0.278494 0.19522478 0.20990247 0.31075493 0.02342116 0.16629003 0.13289528 0.0044741407
0.1791015 0.030330768 0.06701889 0.08777979 0.24837077 0.017953759 0.116767764 -0.09958263
0.24406698 -0.012247345 0.15490076 0.07410138 0.081274174 0.13353674 0.20437527 0.1146663
0.043417238 0.08981778 0.2967333 0.15903045 0.20882349 0.009820348
