Heater_Results/uniform_S10_erf_Iter20_Epoch10.pth (torch, 44170 bytes, 14 tensors)

fc1.weight f4 [8, 3]
00000000: 559b e33e 9ba8 873e f71b c23c 7fd8 e4bd
00000010: 4cdd 9abe 5396 7a3e 6f26 99be 7670 623e
00000020: 9f71 0abe f7cf 5abc eca2 19be 057b fcbe
00000030: d4dc b2be a1ac fd3e 4776 033f 0c91 da3e
00000040: c70b babe d430 a9be d3ca 8ebe 41e1 14be
00000050: bc48 d3bd bffe c43e 1608 dc3e d062 dabe
0.44454446 0.26495823 0.023694975 -0.11174106 -0.3024696 0.24471407 -0.29912135 0.22113213
-0.13519906 -0.013355247 -0.15003556 -0.49312606 -0.34934103 0.49545768 0.5135235 0.42688787
-0.3633711 -0.33045065 -0.27889118 -0.14539053 -0.10316607 0.38475606 0.4297492 -0.42653513

fc1.bias f4 [8]
00000000: 9ce4 023d f827 183e 9be6 a23d afd2 3a3e
00000010: ba6c 07bf 1cf0 153f 33ac 86be 2404 ffbe
0.0319563 0.14858997 0.07954141 0.18244432 -0.5290028 0.585695 -0.26303253 -0.49807847

fc2.weight f4 [32, 8]
00000000: 9e40 a1be 79c4 263e 9039 75bd 3b71 ae3e
00000010: 2362 e13d 1732 60bd a554 a83e adc9 3ebc
00000020: 1a7c 8abe 115c 74be 7384 993e c62f 333e
00000030: f1a0 dbbd 82df 213e 20d9 5fbe aa17 a93e
00000040: 8ad0 9e3e 4157 df3b e25a 42be 815a 363e
00000050: 1b7a 10be 5857 01bd 90b3 2e3e 2cfe db3d
00000060: 3783 9a3e 8d86 2e3a be4d 45be cb22 7a3e
00000070: 1386 263e a6e5 bb3e 3b24 7ebe b984 973e
00000080: 2aa2 4f3e 316f a2bd baab 1cbe 7194 8f3e
00000090: e850 10be 2830 443d ef71 0dbe c14b 7ebe
000000a0: 6f22 a7be dce8 673c 031b 5bbe d850 243e
000000b0: 5cc2 06be 6d9c 223e 5dc1 8a3e 41e7 92bd
000000c0: 09ff a93e 53a6 523e 4c28 2a3e 3274 443e
000000d0: 6f6f 7e3c a007 a9bc 17fc 183e 7b76 d83d
000000e0: b9a9 913e e911 7fbd cf5f 553e 16e2 223c
000000f0: f80e 49bc 2aee 853e 0ab3 893c d2b9 2a3c
00000100: 0ab4 4ebe 793e 423e f6f3 af3d 7f0a 313d
00000110: 1838 6b3e f882 02be 2567 e8bd ebc1 4e3d
00000120: 1750 12be 3490 ab3e f969 b0be 1c60 03be
00000130: 52d3 7c3e 799b febc 13f1 7b3e cce9 54be
00000140: 6781 103e 0d72 9a3e 05d5 723e 2343 5abd
00000150: 44f9 21bd 5be6 f5bd 16b4 10be 34c4 eebc
00000160: 7a84 98be c9a3 e3bd 0f54 723e 72e8 77be
00000170: d943 abbd fe15 bc3d 4858 32be 6028 2e3e
00000180: 425c 78bd 75c9 9dbe 41c1 30be 9642 9bbe
00000190: dd4a 53be 23e1 1e3e ccc2 9c3e 209d 2cbe
000001a0: bebb 513e 3ca9 47be b02e 1fbe 656f b4bb
000001b0: b686 07be 39ee 8e3e baac 083e 1a78 ba3e
000001c0: 4d80 903d b523 953e 44da 89be 467a 86be
000001d0: 201a 853e cfc6 0cbd 29c1 eebc 3f00 8dbe
000001e0: b697 3e3d 541a 3dbe 9dfa 323e 421f 0dbe
000001f0: 1de0 0a3e 692a 553c 0464 173e c5be 603e
00000200: 9861 ab3e 64df 04be 90fd c33e 338d b43e
00000210: 33f4 cabd a17b fa3d cf57 a93d e4b5 22be
00000220: 3843 8f3b f63b 1abe 2729 89be 0382 563e
00000230: 86b0 203e bc70 73be f832 a9be fd94 79be
00000240: 49e3 ddbd c5f1 b0be 8d35 e8bd a458 98be
00000250: 1064 843e 9c2f 67be 97d8 64be 08b9 373e
00000260: ee32 183d a7c1 483d a62c 973e 68bb 2abe
00000270: eb60 53be 417b 453e d4dc ad3e b544 b73e
00000280: 495d 2b3e 2824 6bbe 23db 1d3e ec81 2a3d
00000290: b398 363d a95f bcbe 586d aabe 570f 81be
000002a0: 3f52 503e be28 ff3d 5ee6 723d 6473 89be
000002b0: 64ef 733e 4a1d b9bd 2c98 653d 75ff 9dbc
000002c0: 2ea1 7cbd 5fd9 a53e cc57 57be 676f 0d3b
000002d0: 1bf3 c4bd 9fad 7f3d 26a0 873e 4cc7 933e
000002e0: 98af 7d3e 4e83 4b3c be6f a7be 4df4 983d
000002f0: c4af 303e 5493 d7bd 9e16 763c 94db 08be
00000300: 72c5 8abe 10dc 02be 462f 5fbe bdaa c3bc
00000310: befc 123e d742 e8bb 1fca c6bc b2e0 9d3e
00000320: 94ac e73c f31c 963e 10cf d93c 1bd0 79be
00000330: e652 303d 2773 463e c7ae 63be f166 a9be
00000340: 2352 9a3e ea82 6fbe b0cb 98be 9b38 a13d
00000350: d089 8fbe 679a 5fbb cdc4 99be 4b6f 39be
00000360: 01bf ee3d 776c 76be 324d ad3e a869 8dbc
00000370: 8e48 f73c 3877 b7bd f9bd 7ebe 8967 983e
00000380: 9fd7 503e 55b7 8e3e bf87 783d d6a0 653e
00000390: be19 0f3e 19a2 ef3d 7b29 b83d 7939 573e
000003a0: 8de2 32be f911 9f3e b5c3 e9bd eae7 77be
000003b0: 0653 bbbc ec7b 063e 6276 1abe 78bc 003e
000003c0: 4728 a5be cccd 30be b7c0 2fbe f963 bcbd
000003d0: e508 7f3e d9f9 3e3d 7ce7 a6be 2411 413e
000003e0: 8814 bcbe efb9 9f3e cc60 903d c96d 403e
000003f0: 3f85 a53e 7aea 9bbd f2e6 6e3d 257f 3f3e
-0.31494612 0.16285886 -0.05986935 0.34070763 0.11005046 -0.05473527 0.3287708 -0.011644763
-0.27047807 -0.23863246 0.29983863 0.17498693 -0.107240565 0.15807918 -0.2186017 0.33025867
0.31018478 0.0068158214 -0.18979982 0.17807962 -0.1410908 -0.031577438 0.17060685 0.10741839
0.30178234 0.0006657623 -0.19267938 0.24427335 0.16262083 0.36698645 -0.24818508 0.29593447
0.20276704 -0.07931364 -0.15299883 0.2804294 -0.14093363 0.047897488 -0.13812993 -0.24833585
-0.32643458 0.014154639 -0.21397023 0.16046464 -0.1316008 0.15879984 0.2710065 -0.071730144
0.3320239 0.2057126 0.16616935 0.1918495 0.0155294975 -0.020633519 0.14939915 0.10569473
0.284498 -0.06227294 0.2083733 0.009941598 -0.012271635 0.26158267 0.016809005 0.01042028
-0.20185867 0.18969144 0.08591454 0.0432229 0.22970617 -0.12745273 -0.11347798 0.050477903
-0.14288364 0.33508456 -0.3445585 -0.12829632 0.24689987 -0.031079995 0.24603681 -0.20792311
0.14111863 0.3016514 0.23714073 -0.053286683 -0.03954436 -0.120068274 -0.14131197 -0.029146291
-0.29788572 -0.11115224 0.23664878 -0.24209765 -0.0836255 0.09183882 -0.17416489 0.1700759
-0.06063486 -0.30817762 -0.1726122 -0.3032424 -0.20634027 0.1551557 0.30617368 -0.16856813
0.20481774 -0.19498152 -0.15545154 -0.0055064433 -0.13234982 0.27916124 0.1334714 0.36419755
0.070557214 0.29128805 -0.26924336 -0.26265162 0.25996494 -0.034369286 -0.02914484 -0.2753925
0.0465314 -0.18467075 0.17478414 -0.13781455 0.13562055 0.0130106 0.14784247 0.21947773
0.33472896 -0.12975842 0.3827939 0.35263976 -0.099098586 0.122306116 0.08268701 -0.15889698
0.004372027 -0.15061936 -0.2678921 0.20948033 0.15692338 -0.23773474 -0.330467 -0.24373241
-0.10834367 -0.34559456 -0.11338339 -0.29755127 0.25857592 -0.22576755 -0.22348247 0.17941678
0.037157945 0.049012806 0.29526252 -0.16673052 -0.2064244 0.19285299 0.3395754 0.35794607
0.16734804 -0.22963011 0.15415625 0.04162781 0.04457922 -0.36791733 -0.33286548 -0.25207016
0.20343874 0.12458943 0.059301727 -0.2684585 0.23821789 -0.090387896 0.056053326 -0.01928685
-0.06167715 0.32392403 -0.21029586 0.0021581294 -0.09616681 0.062421437 0.2648937 0.2886299
0.24774015 0.012421442 -0.3270244 0.07468472 0.1725455 -0.105261475 0.015020041 -0.13365012
-0.27103764 -0.1277926 -0.21795377 -0.023885125 0.14354226 -0.007088046 -0.0242663 0.3083549
0.028280534 0.29318962 0.026587993 -0.24395792 0.043047808 0.19379865 -0.22234641 -0.3308635
0.3014079 -0.23389784 -0.298429 0.07872125 -0.2803483 -0.003411913 -0.3003296 -0.18108861
0.11657525 -0.24064814 0.33847958 -0.017262295 0.030185964 -0.08958286 -0.24877156 0.2976649
0.20394753 0.27874246 0.060676333 0.22424635 0.13974664 0.117008395 0.08992287 0.21018018
-0.17469235 0.310684 -0.11414281 -0.24209562 -0.022866737 0.1313321 -0.15084222 0.12571895
-0.32257292 -0.17266005 -0.17163359 -0.09198756 0.24905737 0.046624992 -0.32598484 0.18854195
-0.36734414 0.31196544 0.070497125 0.1879188 0.3232822 -0.07613082 0.058325715 0.18700846

fc2.bias f4 [32]
00000000: 769b bcba 2b4b b8bc 442a a33e a490 063e
00000010: 0bfb 473c 7249 9ebe b7a7 34be 4477 aabd
00000020: fc73 da3c 2f9d 953e 0670 4dbe efb7 94be
00000030: 0cf0 8a3d daa0 2c3e 2878 cf3d cf1f 3dbe
00000040: 4f99 d83e 6f9d bcbe 030f 10be 3701 083e
00000050: 3a43 b5be 8244 003e d03e 393d 7639 d2bd
00000060: 851d 46be 4951 12be 49db b8bc 1e7e ce3e
00000070: 2674 9ebe 9b01 7fbe efe4 1abd 2deb a2be
-0.0014389593 -0.02249678 0.31868184 0.13141114 0.012205849 -0.3091541 -0.17642103 -0.08323529
0.026666634 0.29221484 -0.20062265 -0.2904658 0.067840666 0.16858235 0.1013034 -0.18469165
0.42304465 -0.36838862 -0.14068227 0.13281713 -0.35402852 0.12526134 0.04522592 -0.10264866
-0.19347198 -0.1428882 -0.0225655 0.40330595 -0.3094799 -0.24902956 -0.037815984 -0.3182005

fc2_1.weight f4 [64, 32]
00000000: edfa 05be 8d4d abbb d8a8 213d 0e4b 213d
00000010: bf25 833d 786a b8bd fc99 55be 234d c1bd
00000020: 3152 123e 058d b83d cf9f 023e b903 323e
00000030: 6b3d 223d aa0c 683d b7f3 313d 35c5 0e3e
00000040: c192 21be 9e24 8f3d b74b 93bc 1b86 3cbe
00000050: e97b 51be b294 9fbc 2c0c cbbc 01f5 aebd
00000060: bea0 c4bd 912f da3d 5d8c 083e b675 a73d
00000070: f0ea 773d 4710 2a3d 5212 e63c ae13 87bd
00000080: 3da0 65bd a592 1e3b 11f3 09be 78c3 d7bb
00000090: 1618 743c 65d4 01be 7bef 7a3d 04c2 063e
000000a0: fa78 bc3d 53f1 ed3d d51e 8e3d c6d9 12be
000000b0: 21b9 0bbd 0538 bf3d 7ad1 53bd 28a1 fcbd
000000c0: 04b7 d3bd cc69 cf3d fe15 f53d 1ec6 14bd
000000d0: 59e9 fe3d 4719 19be 0bd7 0cbe 23b3 36bd
000000e0: c5a7 013e a3d5 9dbd 6830 eb3d 3e94 f5bd
000000f0: 6f85 01be 8d29 9cbd f63f 913d 9b62 01bd
00000100: c254 9f3d d60d f83d d186 423c 7b04 75ba
00000110: 082a 77bc ce73 b83d 2f6e 143e d377 06be
00000120: 32c6 363e 8623 cebd 412d 213e 57b0 1fbd
00000130: 3f03 89bd 4380 0abd a4ae 853d 564f 03bd
00000140: 00e9 78bd 9222 15be 80f3 e4bc d1b1 6cbc
00000150: 5ff8 933b b9bd fcbd c946 9ebd eb7e 4f3e
00000160: 987e c53d 8300 f13d 01d1 6ebd 01d7 f63d
00000170: ee18 2d3d cbcb 08bd efe3 08be b466 0cbe
00000180: 68d2 513e 78b4 203e 2613 73be 774f 2bbc
00000190: 77ab 32be 3947 debd 7caa 223d 5c57 b93d
000001a0: 15dc 693d 3964 393e 80ff f03c bf02 213e
000001b0: 5435 113e 9f24 23be 27b8 8a3d 86e3 32be
000001c0: 36e0 67be a685 96bd 74a8 243e 6fd9 d83d
000001d0: 6a0e 643c 33aa c93c 8961 743e a7ae c03c
000001e0: 113a f6bd e8f5 69bc 17d7 1c3e 70b5 9ebd
000001f0: 55b2 823d d1d0 adbd c797 eb3d 250e 1a3e
00000200: cbb1 e63d 94c7 183c c190 793d 4c20 fdbb
00000210: da24 113e 9b1c fabd 76d7 463d f8d4 11be
00000220: 03b1 323d 4585 2fbe 40d1 553d e22a 6dbd
00000230: 2626 183e d06e f53c 16b3 1f3e 0e1f 2ebe
00000240: f551 243d ed5b 143e 21e0 ed3d fe7d fb3d
00000250: 69de 303d 4fb0 50bc b501 fb3d 6de1 f7bd
00000260: a050 2ebd 513e ffbd 8b41 b0bc 2b9b 1abe
00000270: dd48 b1bb f759 05be 703d abbd c9b6 413d
00000280: 1870 14be fc84 d4bd 1742 01be 61fa 28be
00000290: 705e bc3d 45a4 e33d 5f70 2fbd 15e3 863d
000002a0: 301e 673c 6dc0 d83d 9cd6 17be 3af1 febd
000002b0: 18b1 16be 3d90 e13c 9a21 c7bd 465a 05be
000002c0: 7573 ce3c 29e0 eabc 29ff edbd 7836 8b3d
000002d0: c910 d0bd 5679 ddbd 5f1c 35bc 7369 953d
000002e0: a939 c23d 4bab 903c cd51 9e3d 6962 03be
000002f0: 6b2c b43d b39f 06be b77a 8d3d 42fb 473d
00000300: 67a9 46bd 12e3 1a3e a419 3fbe 0fc0 18be
00000310: 1c23 68bd a05c 79bd 4410 25bd b53f e33d
00000320: 49da b03d 33da 053e a0f4 033e 67e5 fc3d
00000330: 645d afbd da31 3eb9 51ab 253e 1e50 1d3e
00000340: 1add bc3d 32ec f7bd 9d85 38be 346b 08be
00000350: 781d 32be 0312 fe3d 49bf debc 5874 adbc
00000360: 43d3 eb3d 41e1 f33d 89bb 82bd b3be 5f3d
00000370: 5f66 f9b9 6054 863c fa0b febc ed7d 213d
00000380: 8b24 18be 9112 babd d414 4b3e 94fa c73d
00000390: 4ee3 923c ffc9 ffbd 1887 163e 8822 d63d
000003a0: 5ac0 573d 0cc3 8dbd f50b 37bd 56a1 263e
000003b0: db88 9a3b 41b6 56bd 75dd 3dbe 85cd 14bd
000003c0: 3f08 623e 3055 313d eaae 16be 1aed 083e
000003d0: 10f3 5cbd 8478 1d3e 22f0 2abd 60c6 ab3d
000003e0: 46b1 b7bd 2c78 f5bd 9f55 dabd 6614 4b3d
000003f0: 3c6f af3c c748 e7bd c19c f3bd 5d3e 7dbc
-0.13084002 -0.0052277506 0.039467663 0.03937822 0.06403684 -0.09004682 -0.20859522 -0.09438541
0.14289166 0.09011272 0.12756275 0.17384233 0.039609354 0.056652702 0.043445315 0.13942416
-0.15778638 0.06989406 -0.01798044 -0.18410532 -0.20457424 -0.019480083 -0.024786077 -0.085428245
-0.09600972 0.10653604 0.13334794 0.081767485 0.06052679 0.04151943 0.028084908 -0.065955505
-0.05606102 0.0024196294 -0.13471629 -0.006584581 0.014898321 -0.12678678 0.061263543 0.13159949
0.09202762 0.116182946 0.069394745 -0.14340886 -0.0341121 0.09336857 -0.051713444 -0.123354256
-0.10337642 0.10127601 0.11967085 -0.03632175 0.12446851 -0.14951049 -0.13753907 -0.04460443
0.12661655 -0.077067636 0.11483842 -0.119911656 -0.12648557 -0.07625113 0.07092278 -0.031588178
0.07779838 0.12112014 0.011872963 -0.0009346676 -0.015085705 0.09006463 0.14495157 -0.13131647
0.17849043 -0.10065369 0.15739919 -0.03898653 -0.06690072 -0.033813726 0.06527451 -0.032058083
-0.06076908 -0.14563969 -0.027948141 -0.014446692 0.004515692 -0.12340874 -0.07728345 0.20263259
0.096432865 0.11767676 -0.05830479 0.120527275 0.042260103 -0.033397477 -0.133682 -0.13711053
0.2049042 0.15693843 -0.23737773 -0.010455958 -0.17448221 -0.108534284 0.039713368 0.090498656
0.057094652 0.18104638 0.029418707 0.15723704 0.141805 -0.15931939 0.067734055 -0.17469606
-0.22644123 -0.0734971 0.16079885 0.10588347 0.013919452 0.02461729 0.23865332 0.02352078
-0.12022794 -0.01427982 0.15316425 -0.0774945 0.063816704 -0.08487094 0.115035586 0.15044458
0.1126438 0.009324927 0.060929064 -0.0077247974 0.14174214 -0.12212487 0.048545323 -0.14241397
0.043625843 -0.17140682 0.05220151 -0.057902224 0.14858302 0.029960066 0.1559566 -0.17004034
0.040117223 0.14488192 0.11615015 0.122798905 0.043180857 -0.012737348 0.12256185 -0.121035434
-0.04255736 -0.12463058 -0.021515628 -0.15098254 -0.0054102973 -0.130226 -0.08361328 0.047293458
-0.14495885 -0.10376927 -0.12622868 -0.16501762 0.091977 0.11115316 -0.042831775 0.06586281
0.014106318 0.10583577 -0.1482796 -0.12448354 -0.14715993 0.027534598 -0.09723206 -0.13022718
0.025201539 -0.028671341 -0.116209336 0.067974985 -0.101594515 -0.108141586 -0.0110541275 0.072955035
0.09483654 0.017659804 0.07730446 -0.12830509 0.087975346 -0.13146858 0.069081716 0.048823602
-0.0485014 0.15125683 -0.18662125 -0.14917015 -0.056674108 -0.06087935 -0.040298715 0.110961355
0.086353846 0.13071518 0.12886286 0.123484425 -0.08562735 -0.00018138383 0.16178633 0.15362594
0.09221859 -0.121055976 -0.1801972 -0.13322145 -0.17394054 0.12405779 -0.027190821 -0.021173641
0.11514904 0.11908198 -0.06383426 0.054625224 -0.00047569253 0.016397655 -0.03101157 0.039426733
-0.1485769 -0.090855725 0.19832164 0.09764591 0.017930653 -0.124896996 0.14699972 0.10455805
0.052673675 -0.06921968 -0.044689137 0.16272482 0.0047160215 -0.052419905 -0.1854151 -0.03632881
0.22073458 0.04329413 -0.14715162 0.13371697 -0.05394274 0.15378004 -0.041732915 0.083874464
-0.08969359 -0.119858116 -0.10660862 0.04958 0.021415345 -0.11293178 -0.11895133 -0.015456763

fc2_1.bias f4 [64]
00000000: e140 dc3c 02ec bb3b 0178 753e 0ccd 03be
00000010: 6ae1 e1bd e5eb 13be c578 c1bd 84cb aa3d
00000020: ab31 303e 0c5a 10be 5a1c 17be 775d e1bc
00000030: d1ed 5ebe f137 cc3d 91cd 0b3d eb40 d03d
00000040: 82db 84bd a89e 783e d5a8 fb3d 5131 1fbe
00000050: 2500 7e3d b767 93bd 87cd dd3c b143 f83c
00000060: ad40 7a3d 9da3 403e d9e2 10bd 4b58 f1bd
00000070: 95a3 3fbd 98b4 c7bd a81a 5ebd 3634 253e
00000080: 9ae6 253d b28d 58be 3814 3abe 79d2 d03d
00000090: 5bd8 67bd b18a 2ebe bbb0 50bd 4edf e03c
000000a0: 8396 b0bc 5f0d 9bbd c2fc 82bd 9e49 1cbb
000000b0: 1bcd 693e 1c51 09bc 3de2 033e f683 72bd
000000c0: 5433 613b 9854 e93c e43c c93c 8442 aebd
000000d0: aad9 eb3d 9671 95bd 0800 d9bd 1dc0 373d
000000e0: ee9e 12be 4647 363e 8ad9 7e3d 680a 593e
000000f0: 8f3c 38be 587c 5dbe 21e7 a23c 18aa c2bd
0.026886405 0.0057349214 0.23971559 -0.12871188 -0.110293224 -0.14445455 -0.09446863 0.08339599
0.17206447 -0.1409685 -0.14756909 -0.027510388 -0.21770407 0.099716075 0.03413159 0.10168632
-0.0648718 0.24279273 0.122880615 -0.15546156 0.062011857 -0.071975164 0.027075542 0.030305715
0.061096836 0.18812414 -0.03537259 -0.11784419 -0.046786863 -0.097512424 -0.05422464 0.16133198
0.040503122 -0.21147802 -0.18171775 0.101963945 -0.056602817 -0.17045094 -0.050949793 0.02745023
-0.021556145 -0.0757091 -0.06395866 -0.002384759 0.22832148 -0.008381154 0.12879272 -0.05920788
0.003436287 0.02848272 0.024565168 -0.085087806 0.115161255 -0.072970554 -0.10595709 0.044860948
-0.1431844 0.17800626 0.06221918 0.21195376 -0.17991851 -0.21629465 0.019885601 -0.09505099

fc2_1_1.weight f4 [64, 64]
00000000: e930 a7bd fcbf cf3d a3e5 e43d c758 543d
00000010: f82c 083d 1092 1c3d 93a7 04be ca88 a63d
00000020: 677a 593d 2a3f b1bb 3ece d3bd bdd2 9d3d
00000030: 7f61 bf3d 2f2c 5fbd 8fcf b03d 7030 1f3d
00000040: 506e 14bc b0b5 f7bd fa80 b0bd 2698 a4bd
00000050: 947b ecbd 1e34 c1bd 800f 943a fde3 acbc
00000060: 30d4 10bc 4bbc 623d dc37 c639 3fcf 02bd
00000070: 3a4f 5ebd 6a13 d3bd 5a98 cf3d 371c 9d3d
00000080: 7497 e6bd d243 8e3d 1bd3 623d 4ed3 82bd
00000090: 9e96 f53d a933 e5bd 7ece f2bb 4a02 d0bd
000000a0: 9884 80bc 608b 62bc 0cba b9bb 0529 b4bd
000000b0: 2216 a4bd bc57 c4bd 6274 333c 306e abbd
000000c0: 00e1 86bd 921c 91bd 124c ecbc dc68 acbd
000000d0: f80c 77bd e7d0 c43d d8c3 f73c 032c d6bd
000000e0: d5a7 e1bd 38b2 db3d f00c ddbd ea3d 103d
000000f0: f591 f33a c289 bb3d ce1f 353d 8b57 1b3d
00000100: 3691 8ebb bc11 f73d 7a57 623c 6645 81bd
00000110: 706b 4dbc 761d af3d 3c6e 82bd ef86 4c3d
00000120: 0d7f cc3d d881 96bd 0164 ffbd 6a52 b7bd
00000130: c9f8 5abd 8000 cabd a15c ca3d 97a9 99bc
00000140: 6e18 113e 0462 0dbd bfa6 233d 43a0 d93c
00000150: e7b3 d2bd 769c b93d f41e ad3d 3bfc d1bd
00000160: bd8c e9bd 2efc 6bbd b1db b1bd 96e9 f43d
00000170: d2d4 2dbd e2aa dc3d 7172 a2bc 0936 b8bd
00000180: 0fcc 143c 8b92 9bbc 2d27 d6bd 723d bb3d
00000190: e851 23bd fe63 38bd 37fd 0e3e b5d1 56bd
000001a0: 9430 0fbc 3c59 fbbd 20b8 bcbd 2328 4b3d
000001b0: a9fc e33d 8848 ea3d 50a1 c53d 212e 083d
000001c0: f82a 193c 6249 2fbd af41 a9bd 6246 013d
000001d0: 983c 8d3d 4f34 f03d d899 893d 5b88 a63b
000001e0: efad 6b3d e62f 36bd 1ef6 a5bd b7ab f23d
000001f0: ef83 85bc aa18 bb3d 33b0 0cbd 191c 0ebc
00000200: 09c9 9c3d f4e7 943d 6ab2 4d3d 5d08 4abc
00000210: b0a0 05bd ac80 d4bd 0173 a93b d3e9 b9bd
00000220: f943 1cbd 70b6 71bc e050 d3bc f5d5 c63d
00000230: d0fe f8bd 3037 103d 9ffb 3a3d 2561 28bd
00000240: d256 7f3c 1ec1 3bbd 03b2 63bd 9849 683d
00000250: cc03 c7bc b2ed d6bd 00be f7b9 48c7 763d
00000260: 7709 6d3d 396f f73c 014f ecbc 40a6 c6bc
00000270: ee9e bdbc 5df7 fa3a a4ae 1c3d 125b cdbd
00000280: 8f39 e7bc 926c c03b 7816 9ebc 6d92 42bc
00000290: 5c6c 623d 18bf f2bd 82bb d23c 6240 fcbc
000002a0: 7b18 ba3d 0a70 ee3d 0441 273d aee2 c0bd
000002b0: cd80 e93d db68 cabd cf91 8fbd 6f8d 07bc
000002c0: 86ff dfbc beac 013d defc 4ebd 1ba8 e23d
000002d0: 9342 80bd d84f 95bd 62da f63d 45b4 f63d
000002e0: 280f e0bc 6f53 a33c 9867 223d 6e1c ad3d
000002f0: 60db 0ebd da01 2e3d e3b0 d63d b41a bcbd
00000300: c559 0cbc fa72 fabd cce2 8ebc 2c52 56bd
00000310: 987a d6bc 50e7 3a3d 4072 bfb9 1694 b03d
00000320: 9d70 abbc 5c66 fcbd 7582 eb3d b58c 4ebd
00000330: d3c0 d43c a145 b13d 4fb3 023e 0fbb fcbd
00000340: 5050 893d e88b 893d 9bd9 ad3d 9ab3 c8bd
00000350: 2a04 b73d 08ea 4b3d 3dcc b73d 4b6e 133c
00000360: 9d0d 2abc cc97 083c f4ba acbd 938a d33d
00000370: 99c1 87bd 99ee f4bb a6a8 76bd 0072 163c
00000380: 974f 4f3d 27cd a83d 768c f8bd 107a 733c
00000390: b02f 2cbd 7df0 5dbc da98 bc3d 8248 69bd
000003a0: 2ccb ccbd b05b 9d3d 26d8 d9bd 5bc9 8ebc
000003b0: 875d 043e 703d d9bc 2f2b b2bd 0cd0 babc
000003c0: 3e91 c23d 3949 f13d 09a7 b5bd f57e 93bd
000003d0: efa8 bcbd 95eb 0b3d 4c26 98bd 0d35 9bbc
000003e0: d53f 8c3d 88d7 d83c 3c40 b8bd 1f85 e23d
000003f0: 2c0c 1f3b e5ab a53d 4053 ae3d 1f60 bfbd
-0.08163626 0.1014404 0.11176612 0.051842477 0.03324601 0.038225234 -0.1295455 0.08131559
0.053095248 -0.005409141 -0.10342072 0.07706211 0.09344768 -0.054485496 0.08633339 0.038864553
-0.009059504 -0.12095201 -0.0861835 -0.080368325 -0.11547008 -0.09433769 0.0011296123 -0.021104807
-0.008839652 0.05535535 0.0003780712 -0.031935927 -0.054274775 -0.10306437 0.10136481 0.07671397
-0.11259356 0.069465294 0.055377107 -0.063879594 0.119916186 -0.11191494 -0.0074098697 -0.101566866
-0.015688226 -0.013827175 -0.0056679305 -0.08796886 -0.08012034 -0.095870465 0.010953041 -0.08370626
-0.06585884 -0.070855275 -0.028844867 -0.08418438 -0.060315102 0.096101575 0.030244753 -0.10457613
-0.110183395 0.10727352 -0.10793483 0.035215296 0.0018582927 0.091571346 0.044219784 0.037925284
-0.0043508066 0.120639294 0.013814801 -0.06312065 -0.012537822 0.08550541 -0.06368682 0.04993337
0.099851705 -0.073489845 -0.12470246 -0.08951266 -0.053459916 -0.098633766 0.09880949 -0.018757625
0.14169475 -0.034517303 0.039953943 0.026565677 -0.1028822 0.09063046 0.084531695 -0.10253187
-0.11403797 -0.057613544 -0.08684481 0.119586155 -0.04243929 0.10774781 -0.01982996 -0.089946814
0.0090818545 -0.018990776 -0.10456691 0.09142579 -0.039873034 -0.045017235 0.13963781 -0.052446086
-0.008739609 -0.122728795 -0.092148066 0.049598824 0.111321755 0.114396155 0.096499085 0.033247117
0.009348623 -0.042794593 -0.08264481 0.031561263 0.06896323 0.11728727 0.067187965 0.005082173
0.057538923 -0.044479273 -0.08103584 0.11849158 -0.016298262 0.09135564 -0.034347724 -0.008673691
0.07655532 0.07270804 0.050218977 -0.0123310955 -0.032623947 -0.10376105 0.0051711802 -0.090778016
-0.03815076 -0.014752969 -0.0257954 0.09708778 -0.121579766 0.03520888 0.04565012 -0.04110827
0.015584664 -0.045838468 -0.055589687 0.05671081 -0.024293803 -0.104945555 -0.00047253072 0.060248643
0.057870355 0.030204402 -0.028846266 -0.024249196 -0.023147073 0.0019147206 0.038252488 -0.10027136
-0.028225688 0.0058723176 -0.019297823 -0.011875731 0.05527912 -0.118528545 0.025724176 -0.030792419
0.090867005 0.116424635 0.040833488 -0.09418236 0.1140152 -0.09883281 -0.07010233 -0.0082734665
-0.027343523 0.03165888 -0.05053412 0.1106722 -0.06262698 -0.072906196 0.12053372 0.120461024
-0.027350977 0.019937245 0.039649576 0.08452688 -0.03487718 0.042482235 0.10482957 -0.09184781
-0.008566325 -0.12228961 -0.01744213 -0.05232446 -0.026181504 0.045630753 -0.00036515482 0.08621995
-0.020927722 -0.12324211 0.11499492 -0.050427157 0.025970852 0.08655859 0.12763713 -0.12340366
0.067047715 0.06716138 0.084887706 -0.09799881 0.08936341 0.049783736 0.08974502 0.008998464
-0.010379222 0.008336972 -0.08434096 0.10329165 -0.06628723 -0.007474732 -0.06021943 0.009182453
0.050613012 0.08242255 -0.12136166 0.014860645 -0.042037666 -0.013546106 0.092088416 -0.056953914
-0.099996895 0.07683504 -0.1063693 -0.017429998 0.12926303 -0.026518553 -0.08699643 -0.022804283
0.09500359 0.11781544 -0.0886975 -0.072019495 -0.09211909 0.034160215 -0.074291795 -0.018946195
0.068481125 0.02646996 -0.08996627 0.11060547 0.002426873 0.08089427 0.085119724 -0.093445055

fc2_1_1.bias f4 [64]
00000000: 648b 3abd 5e45 9fbd 3d2e 323c 141a e93d
00000010: 5386 f73d 85dc 873d a09c 6e3c b042 b63c
00000020: ff25 1d3e f00e 09bd e9ba 993d c171 5c3d
00000030: a771 b6bc 1de6 08be 9f32 9fbd 9f84 103e
00000040: 99b1 22bd 1887 563d f1e5 ba3d 8106 e3bd
00000050: 4810 ce3d 2206 993d 66a5 c23c 791d 1ebd
00000060: 0cc4 a5bc 4b5f 1c3e fde6 f83d 1531 9d3c
00000070: bc04 fcbd 30ca e9bb bd1b adba 447f 04be
00000080: 3799 92bd 2006 9d3d 6db7 1f3d 5024 07bd
00000090: 5eb2 1e3e b146 d3bd ded6 0839 968d b4bd
000000a0: 019a 453d 4dd2 893d 5190 3b3d 49f4 aa3c
000000b0: ab34 313e 0e2d 963d ee29 8c3c 4714 d4bb
000000c0: f6d5 cebd 66be 88bd 5c06 4b3d 05ec eebd
000000d0: c384 9cbd 968f 99bd 8e16 a73b dee7 983d
000000e0: f27f afbd 3503 c43c 2453 8e3d a961 8f3d
000000f0: 87d6 95bc 6e86 54bc b8c5 f2bd df21 5a3d
-0.04554309 -0.077769026 0.010875282 0.11381927 0.12086167 0.06633858 0.0145637095 0.022248596
0.15346526 -0.03346151 0.075063534 0.05381942 -0.02227099 -0.13369031 -0.07773327 0.14113091
-0.03972015 0.05237493 0.09125889 -0.11085225 0.10061699 0.07471873 0.023760509 -0.038602326
-0.020235084 0.15270726 0.121534325 0.019188443 -0.123055905 -0.0071346983 -0.0013207119 -0.12939173
-0.0715813 0.07667184 0.038993288 -0.032993615 0.15497729 -0.10316218 0.00013050015 -0.08816068
0.048242573 0.06729565 0.045791928 0.020868437 0.17305247 0.07332812 0.017109837 -0.006472144
-0.100994036 -0.066769406 0.04956661 -0.11666111 -0.0764251 -0.0749809 0.0050991243 0.074661
-0.085693255 0.02392731 0.069494516 0.07001049 -0.018290771 -0.012971504 -0.11854118 0.05325496

fc2_1_2.weight f4 [32, 64]
00000000: afd9 693b 17a6 ffbd 151e fb3c 168e 9f3c
00000010: 0d1d a4bc 053d e53c 60bd d43d 706f ae3c
00000020: 1dec cfbd 1c28 2bbd fde6 cebd b6fe c43c
00000030: ffcd 87bd ea0e bbbd 533d 17bd 3e98 5b3c
00000040: af2e 9cbc 8925 143c 3eb4 c2bc 4ea5 ca3d
00000050: 5efb d6bd 12fd d5bd 49e2 babd cc27 69bc
00000060: 2ace bfbc c233 db3c 5764 a6bd d3ee bd3b
00000070: 09b7 9d3d 069e e33c 52a0 ef3d cdd1 eebc
00000080: 2045 d03c 658a 02be 40d7 75bd 1a06 b13b
00000090: cccb 9abd fe05 4a3d 2b2b b1bd 525c 903d
000000a0: bf16 a2bd 9fbf a3bd 3681 983d abd9 5abd
000000b0: f7ce ddbd 0da8 32bc 3ae4 fb3d 3409 bb3d
000000c0: 6ff3 3cbd fc09 ebbd 7eee 253d 1601 a5bd
000000d0: 83ac 853d 5306 02bd a2b4 b9bd 205e 02be
000000e0: 35b0 6abd dd7a 0abe 8a4d 6c3c 266b fabb
000000f0: 485f c5bd 5530 553d 6461 e13d 16ac eebd
00000100: 4d9d 67bd d6ab 01be ed55 963d 2ab5 acbd
00000110: e37e 0f3d a34d 293d 7659 883d 608d 303c
00000120: e8cb 9fbd a476 3bbd ff98 d33d e21c f23c
00000130: 6398 45bd 2b81 953d 68d7 8ebd 8586 0cbe
00000140: 1b0d 773d 4289 3bbb 527c 363c 93ff 9ebd
00000150: 75bc 7dbd f75e 1e3d 6b78 d7bd 67f1 053e
00000160: 0e79 a3bd e907 cbbd 6623 9b3c b612 61ba
00000170: ab3f 483d 969a 0bbd 8faf e03d b883 debd
00000180: 282c 8a3c 39e9 4a3d 4ed8 82bd 16e2 8e3c
00000190: bd57 b8bd b95e f23d 5b7d ed3d b233 e73d
000001a0: 6e02 e9bc eabb 5cbd 517d 803d f7d3 b53d
000001b0: 7d85 eabd 0583 1ebc 020e 193e df84 d9bd
000001c0: 8a11 03be 71f4 b6bd 3513 e5bd 3568 823d
000001d0: 0b80 f8bc 6c57 94bb 84ef 2fbd 4fb8 51bd
000001e0: 5588 16bd 693b 543d f378 093d c2b6 a9bd
000001f0: 00f5 613c a02b e03c 6906 f93d e0fb b7bd
00000200: 8b78 d73b a2ab 3dbd 8309 84bd 4a66 43bd
00000210: 154c 0d3d 9da4 4d3d 7cd9 0f3d 64d4 f2bd
00000220: 39de d13c 0099 52bc c39c afbd b21b 263d
00000230: 7b19 f43d 9a24 7d3d 620b 013d 2908 97bd
00000240: b395 82bd c37f e83d 82b6 3b3a 04cf 94bc
00000250: f3a2 bf3d d4d4 b1bd 720e 32bd 3312 05bd
00000260: 3f24 0c3d 22a5 703d 7a59 57bd 7a28 e03b
00000270: 7716 d6bd 3907 cd3c 790b da3d 43c0 c1bd
00000280: 6c39 e5bc 3229 543d d641 76bd e45a d7bd
00000290: 3084 b1bd 300f babd 66d2 eebc 8357 843c
000002a0: ad6c 373d 8aa0 8b3c bd4a 063e 740c 1e3d
000002b0: 75c6 9d3d 87ec 2c3d 4bed 16bd 57bc ab3c
000002c0: 3e9f f4bd 8bba 193d a7fb c7bd 90b0 33bc
000002d0: f545 ef3d 3ef6 4cbd 4028 823d f858 bb3c
000002e0: d262 a13d d717 20bd 62ef 153d 97e8 b13d
000002f0: 59cc dbbd b30f adbc b731 8b3d b0fa 293d
00000300: 2a03 41bd 2d5e cfbc 5680 773d f2fa 91bd
00000310: 9aa1 e6bd 7ed5 3f3d 18b2 273d 94df b53d
00000320: 029b e8bd 7cca 0c3d 92ca 693d 303c 403d
00000330: 9bff eabd c56b 79bd f337 5a3d 8b70 5cbd
00000340: 59f8 23bd bdef 57bb 3edf 97bd 506b 093c
00000350: 941c 00be 0d80 8d3d b02b 47bd 8f8f f3bc
00000360: b045 9d3c f9d0 873d 94bc b0bd d511 07be
00000370: 9cd1 e93d be02 74bc 268b 96bc 6b1b 6abd
00000380: eda0 e83d a10a 073e 8fce 9bbd 5e10 a6bd
00000390: 0f8a a9bd c09a 8f3d ccb1 9f3d 4421 b23d
000003a0: a676 01be 2a05 45bc be47 46bd 4de5 c83d
000003b0: 0066 f73c 8629 063d a051 0f3e 80f6 033e
000003c0: 1733 29be 30e4 51bd f5e0 e2bd d593 bd3d
000003d0: 5a16 a03d 2ccf 9abc 51da 6abb 0ebf 3a3c
000003e0: 72c6 c8bd b178 09bb 4f58 c0bd c5e5 f7bd
000003f0: b063 b83d bfdc 563c 1044 8b3c fe22 39bd
0.0035682728 -0.12482851 0.030653993 0.019476932 -0.020033384 0.027983198 0.10387683 0.021293372
-0.10152457 -0.0417863 -0.10102651 0.024047237 -0.066310875 -0.09133704 -0.036923718 0.013402997
-0.01906523 0.009042152 -0.023767587 0.098948106 -0.10497163 -0.1044866 -0.09125192 -0.01423068
-0.023413736 0.026758078 -0.08124607 0.0057962923 0.07700927 0.027785312 0.117005005 -0.029152775
0.025423586 -0.12748106 -0.06001973 0.0054023387 -0.075584024 0.04932212 -0.08650812 0.07048859
-0.07914495 -0.07995533 0.0744652 -0.05343024 -0.10830491 -0.010904324 0.1229939 0.09132615
-0.046130594 -0.11476514 0.040510647 -0.08056848 0.065270446 -0.031744312 -0.09067656 -0.12731218
-0.05729695 -0.13523431 0.014422784 -0.0076421676 -0.09637314 0.052048046 0.11004904 -0.116539165
-0.056546498 -0.12663206 0.07340608 -0.08432992 0.035033118 0.041333806 0.06657688 0.010775894
-0.07802564 -0.04576744 0.10331916 0.029554788 -0.04824103 0.073000275 -0.06974679 -0.1372319
0.060315233 -0.0028615748 0.011138039 -0.07763591 -0.061947305 0.038664784 -0.10521015 0.13080369
-0.07982074 -0.09913618 0.018937778 -0.0008585857 0.048888844 -0.03408297 0.10970985 -0.10864967
0.016866758 0.049538825 -0.06388913 0.01744179 -0.0900111 0.11834473 0.11596175 0.11289157
-0.028443541 -0.053890146 0.06273902 0.0887832 -0.11451242 -0.009674792 0.1494675 -0.10621046
-0.1279966 -0.08933342 -0.11185304 0.06367532 -0.030334493 -0.004527023 -0.04295303 -0.05120116
-0.03675111 0.05181447 0.03356261 -0.082868114 0.013791323 0.027364552 0.12159426 -0.08983588
0.006575649 -0.04630626 -0.06447127 -0.047704972 0.034496386 0.050205816 0.03511952 -0.118569165
0.02561866 -0.012853861 -0.08574822 0.040553756 0.119189225 0.061802484 0.031504996 -0.07374603
-0.06376209 0.113524936 0.00071606797 -0.018165119 0.09357252 -0.08683172 -0.043470807 -0.03248806
0.034214254 0.058751233 -0.052575566 0.0068407627 -0.104535036 0.025027858 0.106467195 -0.09460499
-0.027981482 0.0517971 -0.06012138 -0.10515383 -0.08667791 -0.09084928 -0.02915306 0.01615501
0.044781376 0.017044324 0.13114448 0.038586095 0.07703868 0.042217758 -0.036847394 0.02096383
-0.119444355 0.037531417 -0.09764796 -0.010967389 0.11683265 -0.050039522 0.06355333 0.022869572
0.078801766 -0.039085235 0.036605246 0.08686941 -0.107323356 -0.02112565 0.06796592 0.04149884
-0.047122158 -0.025313461 0.060425125 -0.07127942 -0.11261292 0.04683446 0.040941328 0.08880535
-0.113576904 0.03437279 0.05707795 0.0469324 -0.11474534 -0.060893793 0.053276014 -0.053818267
-0.040031765 -0.0032949292 -0.07415627 0.008387402 -0.12510902 0.069091894 -0.048625648 -0.02973154
0.019198269 0.06631655 -0.086297184 -0.13190396 0.11416933 -0.014893232 -0.018376898 -0.057155054
0.11358819 0.13187648 -0.07607757 -0.081085905 -0.08278286 0.07011938 0.07797584 0.08697751
-0.12642917 -0.012025157 -0.048408262 0.09809361 0.030200005 0.032754444 0.13995981 0.12887001
-0.16523395 -0.051243007 -0.110780634 0.09256712 0.07816763 -0.018897615 -0.0035835693 0.01139809
-0.098034754 -0.0020976479 -0.093918435 -0.12104372 0.09003389 0.013114153 0.017000228 -0.045199387

fc2_1_2.bias f4 [32]
00000000: 4559 0e3d 9025 83bc f6c9 aabd afed f83d
00000010: 7d3e a6bd c51e 31bd b68e 00be ddb0 dc3c
00000020: c9c8 a73d 14f4 843d a169 573d c057 f43d
00000030: 26d9 3c3d 6e18 68bd 22e0 03bd 15b1 9e3d
00000040: 4b30 b5bd 950d ecb9 3f0e 00bd abdb 8dbd
00000050: 5122 aebd 65e3 c0bb d1e2 413e bb18 90bd
00000060: bf1c 973c b78b 163d fe6b 3bbd 6c44 a0bd
00000070: e70b 4fbd 7694 68bd 047f 7dbd 9403 1dbd
0.034753103 -0.016009122 -0.08339302 0.121547095 -0.081173874 -0.043242235 -0.1255444 0.026939804
0.081925936 0.06491867 0.05259097 0.119307995 0.046105526 -0.056663923 -0.03219617 0.077486195
-0.08847102 -0.00045023547 -0.031263586 -0.06926664 -0.08502639 -0.0058864825 0.1893418 -0.07035967
0.018446324 0.036754336 -0.045757286 -0.078255504 -0.05054846 -0.05678221 -0.06188871 -0.03833349

fc2_2.weight f4 [16, 32]
00000000: 3a7f 2a3d ab05 c13d 2e56 25bc 8f96 433d
00000010: 0927 00bc 0117 993c aeaf 2e3e dac6 1f3d
00000020: 8255 42bd 0764 ee3d 92d4 babd e366 4bbd
00000030: 47bb 2e3e 13b0 e93c 9c53 143e b198 b73d
00000040: 04db 3b3e 7018 563d d6ea a73d 1875 d1bd
00000050: 7695 b73c a073 573d 5db6 10be 6d1b ecbd
00000060: 763a cd3c 584f 26be 946b e03d 2063 9dbd
00000070: 9b6c 883d 13b0 27bd ee5f 9abd 4d60 c13c
00000080: cd93 e3bc 7388 38bd b902 363e 3759 4ebd
00000090: de9f 663e e0ac c93d 599d e5bc 42fd 1e3e
000000a0: 7b73 b13d 8fec bfbc ec19 07bd f7cc 943d
000000b0: a464 263e b1a5 4f3e 9573 bdbc 298e ffbd
000000c0: dad7 f33d 48a2 bc3d 8b67 ddbd 9454 133e
000000d0: 1f25 e63d 00a6 e7bd f1fd 1c3d 4529 eb3d
000000e0: d4a1 d13d 25a3 723d 9638 2ebe 42e4 d03d
000000f0: f5b3 9b3d 7685 00bb 42ee 973d 2cf2 fc3d
00000100: 236d fc3c de2b 583d 0c9d fa3d 4ece aabc
00000110: a9d5 243e 547f 513e 40e7 e0bd d73b a53d
00000120: b76d 1f3e 14c5 2e3e 1953 053d 986b c2bd
00000130: f3e0 bb3d 94ed 17bc 436e 06bd 279e 643d
00000140: 3a19 863d 146a 893c c19b f33d 4e8a fabd
00000150: cac9 173d b662 573d 14ce 4a3b b688 4fbd
00000160: a1bd f73d 21bd 02be 7f24 1fbb 65fa fa3d
00000170: b1a3 5c3d 13fc 23bd 381b 8ebd 8498 b93c
00000180: 9ce4 0e3e 9a40 8f3d c636 2b3e 8bbe 8bba
00000190: 581c 98bd 8875 333e e38a b9bd f8b3 99bd
000001a0: 4d27 023d 07fc 1f3e 60b7 a6bd 4818 3dbe
000001b0: bb36 f23c 2a3a dc3c 9daf 133e 4bf9 a6bc
000001c0: 92bf 1fbc 332a 01be 1cda ebbd 7064 ccbc
000001d0: 1d92 ac3d a88b c03d aca9 9cbd e020 1bbd
000001e0: 8752 97bd 0d40 0dbe 3e48 b83d e375 1e3d
000001f0: e639 d93c d35b 463e 4688 49be 32a0 b9bc
00000200: b501 82bd 5673 e53c f291 1a3e efe1 ed3d
00000210: e0ea 2dbc a772 acbd f7c7 a13d 272d 463e
00000220: f8c4 cf3d cac8 0d3e da36 febd 3d5e 9dbc
00000230: 094b 13bd dc59 2dbd 8ab9 043e e8a6 273e
00000240: b3c4 abbd 124f b4bc 13da 16bc d6af 3b3d
00000250: 8564 bb3d 4b48 1e3d de36 a43d 6895 033e
00000260: b669 febd de04 74bd 87ae dc3d f59c 013e
00000270: 5ebb 47bd 608d 11bd 3e3f d43d 4a2d 32bd
00000280: d1db 69bc 1b84 253d 5e8e 48bd 80c2 d73d
00000290: 3ce5 93bd b0f5 a4bd e4f1 fa3d 2379 d5bc
000002a0: f392 1b3e d1be 273c e622 3b3c d907 cdbc
000002b0: 1cc5 203e 7118 70bd d327 76bd 69fa 1d3e
000002c0: 2a39 cdbd 6989 19be 9f14 ed3d 7844 b03d
000002d0: 6088 75bc cead 6ebc a4c0 e93d c502 48bd
000002e0: cf98 58be bb73 70bd 842d b03c 1bd8 223e
000002f0: 2034 273d 973c bcbd 6412 5ebe 9761 c43a
00000300: 7f39 be3d 120a 873c 57ca 2c3e be7f 81bb
00000310: 94c5 893d 32e6 6ebd 95d8 b1bd 6d6f 5e3d
00000320: 224e 88bd fcb4 043e aa87 01bd 5bf2 0abe
00000330: 7634 303d b014 9a3d 6a31 563b 65bb 1cbd
00000340: b172 333e bda5 173d d42d 0e3e f2aa 073e
00000350: 1405 3f3d 585d a53d 2dff dabd 64b1 a1bd
00000360: 9dff 56bd e52d 63bd 98c7 f13a b2f1 3a3e
00000370: c7e6 06bd ad1e d7bd 2206 a0bd 21f7 c6bd
00000380: 500d e23c 23f7 d4bd 4c47 663c bb48 003e
00000390: 1c19 0a3e f0d8 863d c34e 67bd 4aa1 853d
000003a0: 8cad 953c 344c 733d 1012 81bd 744f 20bd
000003b0: c561 8bbc 562f 2f3e 765a 2a3d 490e 173d
000003c0: 4923 1e3e 316f 283d b948 bc3d 7f37 223e
000003d0: 8d84 0f3e dea1 ed3d ac84 193e 4620 13bd
000003e0: 3f38 4abd 49f0 b5bc 7b41 a23d 98f8 9abc
000003f0: 113b 623d f24a 76bd a01c 26be f2bc 253e
0.04162524 0.09424909 -0.010091348 0.047751006 -0.007821807 0.018687727 0.17059204 0.039008
-0.047444828 0.116401725 -0.09122576 -0.049658667 0.17063628 0.028526342 0.1448502 0.089646704
0.18345267 0.0522694 0.08199088 -0.10227412 0.022410136 0.052600503 -0.14132066 -0.115286686
0.02505229 -0.16241205 0.10958019 -0.07684922 0.0666134 -0.0409394 -0.075378284 0.02360549
-0.027780438 -0.045052003 0.17774476 -0.05037805 0.22521922 0.098474264 -0.02802913 0.15526298
0.08664604 -0.02342823 -0.032983705 0.072656564 0.16249329 0.2027805 -0.023126403 -0.12478287
0.11906405 0.0921064 -0.10810765 0.14387733 0.11237549 -0.11310959 0.038328115 0.11482481
0.102359444 0.059237618 -0.17013773 0.10199787 0.076026835 -0.00196108 0.07418491 0.12350878
0.03081376 0.05277621 0.122369856 -0.020850327 0.1609713 0.20458728 -0.109816074 0.08068054
0.15569197 0.17067367 0.03254995 -0.09493178 0.09173765 -0.009272952 -0.032819998 0.05581489
0.0654778 0.016774215 0.11894942 -0.12233411 0.037057675 0.052584372 0.0030945586 -0.050667487
0.12096716 -0.1276746 -0.0024283228 0.1225479 0.053867046 -0.04003532 -0.06938785 0.022655733
0.13954395 0.06994744 0.16720113 -0.0010661645 -0.07427281 0.17525303 -0.09059694 -0.075050294
0.03177576 0.15623485 -0.08140445 -0.18466294 0.029567113 0.026883204 0.1442246 -0.020382544
-0.009750264 -0.12613754 -0.115162104 -0.024950236 0.084263064 0.09401637 -0.0764955 -0.03787315
-0.07388788 -0.13793965 0.08998154 0.038686644 0.026516866 0.19370966 -0.1968089 -0.022659395
-0.06347982 0.028009098 0.15094736 0.11615359 -0.010615081 -0.08420306 0.078994684 0.19353162
0.10144991 0.13846126 -0.12412806 -0.019209975 -0.03596023 -0.042322025 0.12961403 0.16372263
-0.08387127 -0.02201036 -0.009207266 0.045821987 0.09150032 0.038643163 0.080182776 0.12849963
-0.124225065 -0.059574954 0.10775476 0.1265753 -0.04876267 -0.035535216 0.10363625 -0.043500222
-0.0142736 0.04040919 -0.048963897 0.10535145 -0.07221457 -0.08054674 0.12253168 -0.026058739
0.15192775 0.010238365 0.011421895 -0.025028156 0.15700191 -0.05861706 -0.060096573 0.15427555
-0.10020669 -0.14993824 0.11576199 0.086068094 -0.014986128 -0.014567805 0.114136964 -0.048830766
-0.21152042 -0.05870412 0.021506079 0.1590275 0.040821195 -0.09191244 -0.21686703 0.0014982697
0.0928831 0.016484294 0.16874062 -0.0039519956 0.06727138 -0.058325 -0.08683888 0.054305483
-0.06655528 0.12959665 -0.03162352 -0.13569014 0.04301878 0.07523477 0.0032683262 -0.03826465
0.1752422 0.037023295 0.1388467 0.13248804 0.046635702 0.080744445 -0.10693202 -0.07895163
-0.052489866 -0.05546369 0.0018446324 0.18256262 -0.03293493 -0.10503898 -0.0781367 -0.09715105
0.027594239 -0.103987 0.014055084 0.12527744 0.13486141 0.06584346 -0.056471597 0.06524904
0.01827123 0.059398845 -0.06302273 -0.039138272 -0.017014394 0.17107901 0.041590177 0.036878858
0.15443148 0.041121665 0.09193558 0.15841483 0.14015408 0.11603139 0.14992017 -0.03591945
-0.049370047 -0.022209303 0.07922646 -0.018917367 0.05523211 -0.060130067 -0.16221857 0.16185358

fc2_2.bias f4 [16]
00000000: 4691 af3d fe45 e2bd 86ef b1bc e256 f93d
00000010: a18c abbc 05d0 973d f697 8a3d 11bf b43a
00000020: e262 e73d 6b03 23be c39c 27bd 982c d83c
00000030: f720 55be 6e11 773d 0cee 823d 9f42 143c
0.085726306 -0.11048506 -0.021720659 0.12174775 -0.02094108 0.074127235 0.067672655 0.0013789852
0.11298157 -0.15919273 -0.040920984 0.026388451 -0.20813356 0.060319357 0.0639306 0.009049087

fc3.weight f4 [30, 16]
00000000: 91ea 303e 8e94 62be b978 523e b9dc 413e
00000010: c021 423e 2c07 393e 9148 703e ee15 233e
00000020: 5d3b 1d3e 73ed babd 3f28 933d d759 353e
00000030: f617 54be 5734 48be 54d5 dcbd ddda 4b3e
00000040: c812 313e 774a d2bd 2a4d 503e 0c24 313e
00000050: ac08 4a3e 0986 283e da8e 363e c6d5 543e
00000060: 75d5 053e acf3 98bd 69f2 fb3d 7220 f23d
00000070: 76e0 2cbe 09d6 89be 80df b5bd a8e8 5d3e
00000080: 8092 403e 7ce8 07be c51e 273e 9aa5 573e
00000090: 6256 563e 9b51 3d3e 1fe8 173e 1099 3b3e
000000a0: 2b76 2a3e a05c 023e 89f8 19be f882 e03d
000000b0: bcd6 113e b725 6b3c 5a49 a7bd f7d4 463e
000000c0: dfed 7a3e 50b9 c1bd 92d0 e63d adf8 653e
000000d0: e72b 1b3e 9cfd 6c3e 106c 093e 8229 723e
000000e0: 3a7c 053e e8ca e13b 97e5 043d 41a9 b03d
000000f0: f48e 813e e318 bcbd d2cd bd3d 5e08 623e
00000100: 732d c93d 11a6 e8bd f293 8d3e 4a5b 123e
00000110: d1b2 3f3e 02c5 f73d 28e1 7c3e da32 d73d
00000120: df7b 223d e73d 033e 23ea 67bc 2952 813e
00000130: 98b3 2c3e 9949 a6be 336f 2dbe 14f7 173e
00000140: e276 013e 7c84 1ebe 6a98 273e f969 313e
00000150: 3048 423e f818 293e 928c 313e 7985 023e
00000160: 9f10 de3d cfc3 08be 3255 423e eb01 da3d
00000170: d824 2d3e 3c63 d2bd 093c 86be d878 6b3e
00000180: ba03 203e 5e71 0dbe 9ca0 383e 0f78 1f3e
00000190: 95e9 f63d e0e5 063e 72fd 7f3e 924e 353e
000001a0: 6595 223e 6c17 5dbe 9d13 a1bd e4a4 eb3d
000001b0: 2ebc 26bd 846e 9fbc 55ec 3abe 1f27 613e
000001c0: 0132 133e e3bd 1abe 7028 3c3e 5870 023e
000001d0: 8769 2a3e 4073 2e3e 52b5 2f3e 62fd 3c3e
000001e0: 134f 263e 4a52 963c 512f 163e f461 7c3e
000001f0: d0a9 bebd 7f9b ef3c 68ff d8bd ec1b 113e
00000200: cd75 e53d 20a6 0dbe fe6d 2a3e 1da9 203e
00000210: c865 0a3e d89c 1c3e 614e 623e 02d5 2d3e
00000220: dd8d 423e 331c 743e 7ac5 e3bd 3c8f 643e
00000230: 3f38 1e3d f969 92bc b604 f3bd d399 233e
00000240: 1253 103e 61ce 243c cfc1 443e 1f04 0e3e
00000250: 5e77 0f3e 7db6 183e 62a5 583e 463c 363e
00000260: 8a87 103e 9b70 e1bd 2921 ecbd cb71 0c3e
00000270: 0e14 cb3d 895a 163d 8370 f4bd 91b1 483e
00000280: b947 303e 7a77 47be ce48 213e ecd2 003e
00000290: 0bb1 fd3d 7d1b 2b3e a383 513e cbff 583e
000002a0: 5590 273e 508c 81bd 8a40 713c ecbf 4c3e
000002b0: db79 57bd 3770 20be 1d48 51bd eda3 f83d
000002c0: c5f4 b83d a9d5 e6bd 8d5c 563e c6d8 003e
000002d0: 4e0d fe3d 6017 173e 9955 393e 0cca 013e
000002e0: 89ff 173e 2703 143e 821c 703e b61e 8a3e
000002f0: a750 8ebd 583b 4fbe 5533 9fbd 505c 493e
00000300: aae3 1c3e 676f 453c 8854 253e 0cdf 253e
00000310: 5139 2a3e 2fef 4c3e aca8 ec3d 5951 003e
00000320: c8b5 033e 51e0 58be 72f4 a63e 6f2f 763e
00000330: b9ca ccbc 8dc9 763d bc6a 2a3e 4aa1 653e
00000340: be70 123e dd19 c8bd f44d 083e b86e 243e
00000350: dfac 0e3e 0d49 343e 2f4e 073e 0e30 2c3e
00000360: d1df 223e 9ee3 07be a837 f5bd 34be 1d3e
00000370: 47b2 febd acaa 283d c3e5 49bd 0d3e 543e
00000380: 34e1 df3d eab1 46bd 594d 4e3e 3c13 153e
00000390: 5b0f 133e 78b9 0b3e 81e5 2a3e a429 363e
000003a0: ee3b 863d a1c0 1f3e 186d b4bd 9bcc 9c3d
000003b0: 7d53 a8bd 1ab8 073d 78c0 89be b142 443e
000003c0: 0217 c33d 9dcb c1bd ad53 353e eb2b d43d
000003d0: a299 eb3d af28 213e 6b10 4b3e 737b 2a3e
000003e0: dd61 5b3e ab39 3cbe 6173 1b3e 9962 893e
000003f0: 54e2 38be a44e c5bd 69fa e63d 00e6 2f3e
0.1727698 -0.22126982 0.20553865 0.18931855 0.18958187 0.18069142 0.23465182 0.15926334
0.15354677 -0.09127321 0.07185411 0.17710052 -0.20712265 -0.19551216 -0.107828766 0.19907708
0.1729232 -0.10268109 0.20341936 0.17298907 0.1972987 0.1645738 0.17827931 0.20784673
0.13069709 -0.07468352 0.123020954 0.11822595 -0.168825 -0.26921108 -0.0888052 0.21670783
0.18805885 -0.1327228 0.16320331 0.21059266 0.2093139 0.18488161 0.14834641 0.18320107
0.1664664 0.12730646 -0.15036215 0.1096248 0.14242071 0.014352254 -0.081682876 0.19417177
0.24504803 -0.09459174 0.112702504 0.22458144 0.15153466 0.2314362 0.13420129 0.23648646
0.1303567 0.0068906434 0.032445516 0.086260326 0.25304377 -0.09184434 0.09267773 0.22073504
0.09823122 -0.113598 0.27651936 0.14292637 0.18720557 0.12098123 0.24695265 0.10507746
0.039668914 0.12816583 -0.014154944 0.25257996 0.16865385 -0.32478026 -0.1693695 0.14840347
0.12643006 -0.15480226 0.16366735 0.17325582 0.1897285 0.16513431 0.1733878 0.12746228
0.10843014 -0.13355945 0.18977812 0.10644897 0.16908586 -0.10272834 -0.26217678 0.22995317
0.15626422 -0.13812777 0.18030018 0.15573142 0.12056271 0.13173628 0.24999025 0.17705753
0.15877302 -0.21590966 -0.07865069 0.1150606 -0.040706806 -0.019461878 -0.18254216 0.2198758
0.14374544 -0.15111499 0.183748 0.12738168 0.16641818 0.17036152 0.17159012 0.18456033
0.16241102 0.018349785 0.14666487 0.24646741 -0.09309733 0.029248951 -0.1059559 0.14170808
0.11204109 -0.13832903 0.16643521 0.15689512 0.13515389 0.15294206 0.22100212 0.16975787
0.18999429 0.23838882 -0.1112165 0.22320265 0.03862786 -0.017872797 -0.11866133 0.15976648
0.14094189 0.01005897 0.19214557 0.1386876 0.14010379 0.14913364 0.21156839 0.1779643
0.14114204 -0.11007806 -0.11529762 0.13715284 0.099159345 0.036707435 -0.119355224 0.19598986
0.1721486 -0.1947917 0.15750429 0.1258046 0.12387284 0.16709705 0.20460372 0.21191327
0.16363652 -0.063255906 0.01472486 0.19995087 -0.052606445 -0.15667807 -0.051094163 0.12140641
0.09031061 -0.11271221 0.20933743 0.12582693 0.124048814 0.1475501 0.18099059 0.12674731
0.14843573 0.14454328 0.23448375 0.26976556 -0.06948977 -0.20237482 -0.07773463 0.1966412
0.15321222 0.012050486 0.16145527 0.16198367 0.16623427 0.20013116 0.11555609 0.12531032
0.12862313 -0.2117932 0.32608372 0.24041532 -0.02499901 0.060250808 0.16642278 0.22424808
0.1430082 -0.09770558 0.13310987 0.16057861 0.13933133 0.17605992 0.13213418 0.16815206
0.15905692 -0.13270423 -0.11973506 0.15404588 -0.124363475 0.04117839 -0.049291383 0.20726795
0.10931626 -0.048509516 0.20146693 0.14558119 0.14361326 0.1364497 0.16689111 0.17789322
0.065543994 0.15600826 -0.088098705 0.07656213 -0.08219049 0.033134557 -0.26904655 0.19166066
0.09525873 -0.09462664 0.17707701 0.10359939 0.115039125 0.15738176 0.19830482 0.16648655
0.2142405 -0.18381374 0.15180732 0.26833037 -0.18055087 -0.0963414 0.11278231 0.17177582

fc3.bias f4 [30]
00000000: dca6 e93d ef94 f03d 2325 de3d 26d8 c03d
00000010: 4124 0a3e 417f 023e ab5c f63d 0468 e23d
00000020: 992f e73d c821 eb3d a241 e23d a311 f03d
00000030: 3f55 be3d 7941 dc3d a74a 053e 5a89 ca3d
00000040: 926b 10bd 8e8b b638 5005 afb9 372e 5c3a
00000050: 8175 033c 5da3 8c39 3b4c 323b eb59 09b9
00000060: bb30 95bb 86ad 3dbd c33a 34bd c413 55bb
00000070: 9c9e 71ba a920 513b
0.11408779 0.11747157 0.10846927 0.09416227 0.13490392 0.12743856 0.12029394 0.11054996
0.112883754 0.11481053 0.11047675 0.11722114 0.09293603 0.107546754 0.13016759 0.09889479
-0.035258837 8.7044304e-05 -0.0003338256 0.00083992205 0.008023621 0.00026824596 0.0027206081 -0.00013098835
-0.0045529283 -0.046308063 -0.044001352 -0.0032513002 -0.0009217055 0.0031910336
