Heater_Results/uniform_S50_constant_Iter30_Epoch10.onnx (onnx, 41615 bytes, 14 tensors)

fc1.weight f4 [8, 3]
000000 41 f1 e5 3e dd 98 08 3c 24 ff ec 3b 0d 59 3d 3e
       0.44910625 0.008337227 0.0072325636 0.18491001
000010 45 f2 57 be 17 e1 89 be 32 69 67 be 29 dd 2f 3e
       -0.21088512 -0.26929542 -0.22598723 0.1717421
000020 48 6b 2a 3d 2d f1 59 bf 5b bd a0 3e 55 0b 2b 3e
       0.041606218 -0.8513363 0.31394467 0.16703542
000030 37 5f a2 3f 2c 8a b6 3e 15 66 8d bd 4e 2d e6 3d
       1.2685307 0.35652292 -0.06904236 0.1123911
000040 e7 d9 ae be 92 a4 3b be 88 0f f6 be 86 f6 12 be
       -0.3415062 -0.18324497 -0.48058724 -0.14351854
000050 7b 83 08 bf 1e 30 95 3d ce 7c c9 be cd 05 c8 be
       -0.53325623 0.07284568 -0.3935303 -0.39066926

fc1.bias f4 [8]
000000 02 17 2e 3f 86 72 58 be d3 87 67 3c fb c7 2c bf
       0.6800386 -0.21137437 0.014131504 -0.67492646
000010 a1 92 8b 3e 5e 3d af be 3e c0 08 3f d6 07 94 3e
       0.27260306 -0.34226507 0.5341834 0.28912228

fc2.weight f4 [32, 8]
000000 39 9e ce be 81 bf 2d 3d 26 85 c1 be 81 03 b8 3d
       -0.4035509 0.04241896 -0.37796897 0.08985043
000010 1e bd 3f bf be 9c cd 3d 45 f2 33 be d4 1b 81 3e
       -0.74897945 0.10039662 -0.17572887 0.25216544
000020 6c c5 ac be 5b 75 67 be e3 58 65 be f7 2e cc 3d
       -0.3374437 -0.22603361 -0.22397189 0.09969895
000030 04 5e c0 be 16 ce 1e be 2c 2b e4 bc fe 2d 7b 3c
       -0.37571728 -0.15508303 -0.027852617 0.01533079
000040 0f a1 6c be 9e 2a e1 bc 55 9b 29 3d 98 ae c4 bc
       -0.23108314 -0.027486142 0.0414079 -0.024009034
000050 91 db a3 be 7c aa cd bd 63 ba 14 bd 07 15 b1 be
       -0.32003453 -0.10042283 -0.036310565 -0.34586355
000060 89 62 71 bd 98 ab b4 bd bf 0a 83 be 52 1e ec bd
       -0.05893186 -0.088217914 -0.25594136 -0.11529221
000070 0d 51 3a 3e ef 91 de bd a1 26 fc bd b0 4e 0f 3e
       0.18194981 -0.108676784 -0.123120554 0.1399486
000080 e2 61 e9 bd aa 9a 60 3e e2 ce cc bd 4b be dc bc
       -0.11395623 0.21934 -0.10000397 -0.026946208
000090 af de aa bc ae 13 fa 3d 0d ed a2 3e 13 d7 85 be
       -0.020858137 0.12210785 0.3182148 -0.2614065
0000a0 2e 81 9f 3e 0b 57 34 3e 89 7d 0a bd 77 fe a1 be
       0.31153244 0.1761133 -0.033811126 -0.31639454
0000b0 64 d5 91 3e 1d 3f b4 3d b0 7f b3 be 72 75 9a 3e
       0.28483117 0.088011004 -0.35058355 0.3016773
0000c0 ed 4c da bd d6 ef 9a bd 25 a7 af be 37 e6 8e bd
       -0.10659204 -0.07565276 -0.3430721 -0.06977504
0000d0 49 4b 0b 3d 26 00 12 3e 4d ed f0 bc 75 53 66 3e
       0.034007344 0.14257869 -0.029410029 0.22492774
0000e0 ee 3b 27 be e1 43 b2 3d 11 e0 a9 3d b0 13 0c bd
       -0.16331455 0.08704353 0.082946904 -0.034198463
0000f0 ee f8 6b bd 45 9c 6c be 95 3a b2 3e 30 0a 17 3c
       -0.057610445 -0.23106487 0.3481032 0.0092187375
000100 53 29 62 3d b4 e8 91 3e d2 bc 85 bd e5 16 9a 3e
       0.05521519 0.2849785 -0.06530155 0.30095592
000110 3a f4 6b be be 6e 88 bd cf e4 17 be 3a 48 ed bd
       -0.23042384 -0.066617474 -0.14833377 -0.11586042
000120 d4 42 10 be 24 d2 63 be 28 13 29 3e a5 08 50 be
       -0.14087993 -0.22248131 0.16511214 -0.20315798
000130 5a f2 f1 3c 4e cc 8a 3e 01 4b 81 3d 6c 72 9b 3d
       0.029534508 0.27108997 0.06313134 0.075901836
000140 8b bc 20 3e ed d6 a7 be 7c 61 9b 3e 1e 9d 83 be
       0.15696923 -0.32781163 0.30347812 -0.25705808
000150 0d 92 a1 3d 70 b3 55 3d 01 62 86 3e 42 40 0b 3e
       0.07889185 0.052173078 0.26246646 0.13598731
000160 8e 2a f3 3d fc b6 34 3e 59 22 1e 3d fd 67 f4 bd
       0.11873351 0.17647928 0.038606975 -0.11933897
000170 b8 50 a6 be a8 fe b7 3d 99 5c 80 3d 50 7e f3 bd
       -0.3248346 0.08984119 0.062676616 -0.118893266
000180 5b 75 74 3e ea af 4b 3e 36 d4 54 be 4b 7b 2b be
       0.23872893 0.19891325 -0.20784077 -0.16746251
000190 ec d0 42 be ad d7 99 3e 87 57 41 3d 08 02 9b 3e
       -0.1902501 0.3004736 0.047202613 0.30274987
0001a0 ab e4 40 3e 12 d5 32 3e 57 b3 91 3e b0 75 7f be
       0.1883723 0.17464092 0.28457138 -0.24947238
0001b0 68 e2 fc bd 53 c0 24 3e de d8 a7 3e e8 c9 10 be
       -0.12347871 0.16088991 0.32782644 -0.14139521
0001c0 b7 52 51 be 94 7f 42 be e1 6d 49 be f8 3f 9b bd
       -0.2044171 -0.1899398 -0.19670822 -0.075805604
0001d0 ed 5e 31 3e 5f cc 92 be bb f0 71 3e 35 69 34 3c
       0.17321368 -0.28671548 0.23626988 0.011011411
0001e0 d3 21 4c 3e f0 4c 8d 3e e0 e2 b2 be 63 ea 01 be
       0.19934778 0.2759776 -0.34938717 -0.12687068
0001f0 4d 07 83 3e c4 37 5c 3d 98 91 a4 3e dd 81 ab be
       0.25591508 0.05376412 0.3214233 -0.33497515
000200 44 28 bf be 49 f4 65 3e 63 ef 48 bd 25 7e 1e 3d
       -0.37335408 0.22456469 -0.049056422 0.03869452
000210 be 5f 83 bd c0 38 a0 3e 4a 18 49 be d2 cc 02 3d
       -0.06414746 0.31293297 -0.19638172 0.031933613
000220 3d 81 36 be 27 f2 7e 3e 8a c1 95 be 9d f8 93 3d
       -0.17822738 0.24897061 -0.2924922 0.072251536
000230 df fb 10 bd 7a b1 dc 3b 32 c1 0f 3c b6 9b 2c 3e
       -0.035396453 0.006735024 0.008774089 0.16856274
000240 56 f4 70 be 62 59 82 be 50 a1 4f be e4 53 9c bd
       -0.23530707 -0.2545882 -0.2027638 -0.07633188
000250 83 80 43 3b f7 8d ae 3c 91 60 84 be 62 f7 14 be
       0.0029831238 0.021307928 -0.25854924 -0.14547494
000260 0d e8 00 bf 59 fd a0 3e 76 b7 14 3d 69 05 17 3e
       -0.5035408 0.3144329 0.036307774 0.14748158
000270 7d c5 44 be 98 9d 9a 3e 9f 77 2f bd 3b 80 5f 3e
       -0.19215961 0.3019836 -0.04283869 0.2182626
000280 ef 6a 4f be 82 5a 1c be c1 44 91 be 01 f9 bc 3d
       -0.20255636 -0.15268901 -0.28372768 0.09227181
000290 b4 83 86 be 8b 1b 8b 3e 28 2d 63 be 8a 35 14 3e
       -0.26272357 0.2716945 -0.22185194 0.14473549
0002a0 53 26 83 be 99 5c c2 bd 24 93 c3 3d 1b a5 2d be
       -0.25615177 -0.09490318 0.09549549 -0.16957514
0002b0 1d f5 40 3d cf 98 b8 3d 00 13 7b 3e aa 80 83 3e
       0.04710876 0.09013521 0.24518967 0.256841
0002c0 f7 62 c7 bd 0a 72 56 be 8e 01 fc bb 8a 0e 43 be
       -0.09735673 -0.2094194 -0.007690615 -0.19048515
0002d0 a0 be 19 3c 81 4c 02 3e 19 36 88 3e cb 5a 51 3e
       0.009383827 0.12724496 0.26603773 0.20444791
0002e0 6f 78 c6 bc 6f 1f 22 be f2 f5 71 be 5c 3e e9 3d
       -0.02422735 -0.15832303 -0.23628977 0.11388847
0002f0 7a 52 60 bf 83 f3 7a be 93 18 45 bd d6 55 65 3d
       -0.8762585 -0.24506955 -0.04811914 0.055990063
000300 3f 41 38 3e 2d fe 99 be 28 dd 46 bd 54 a7 26 be
       0.1799364 -0.30076733 -0.048550755 -0.16274768
000310 04 6d 0c be e6 3e 44 3e 0c b9 21 be 11 91 44 3e
       -0.13713461 0.19164619 -0.15793246 0.19195963
000320 a2 71 1f bd f8 36 2e be 20 70 32 bd 0b 50 88 3e
       -0.038926728 -0.17013156 -0.043563962 0.26623568
000330 cd 89 65 be b4 0e fb bb 45 d6 30 be bc 4b b1 be
       -0.22415848 -0.007661665 -0.17269237 -0.34628093
000340 f3 c4 31 be 63 f6 b0 3e 6a fa a4 3e 1d e9 a0 be
       -0.17360286 0.34562978 0.322223 -0.3142785
000350 db 60 84 bd f7 74 92 bd b1 3a 00 3e 77 df 83 3e
       -0.06463786 -0.071512155 0.12522389 0.25756428
000360 a4 17 dd be 10 61 2c be cd 81 a0 be 57 4e 4f 3e
       -0.431821 -0.16833901 -0.3134903 0.20244728
000370 0f 24 84 be 7b eb d8 bd 26 e5 81 3e b3 48 35 be
       -0.2580876 -0.10591789 0.2537014 -0.17703514
000380 ab cb c2 bd d1 f7 46 3d dd cc a6 3e 5e 57 80 be
       -0.09511503 0.04857618 0.32578173 -0.25066656
000390 db b7 1a be 62 34 06 be 85 df e6 bb 9f 25 65 3d
       -0.15109198 -0.1310592 -0.0070456886 0.05594408
0003a0 c0 22 b4 3c f0 6a 37 3e 00 fe d2 3e d1 fd 4d bc
       0.021989226 0.17911887 0.41209412 -0.012572722
0003b0 ea bc 53 be de 9c 89 3e 7a 31 7e 3e 27 23 7b 3e
       -0.20677534 0.26877493 0.24823561 0.24525128
0003c0 6b f5 4b 3e 2c c9 39 be 40 da 86 be 19 ec 95 be
       0.19917838 -0.18143147 -0.26338387 -0.2928169
0003d0 f0 01 13 3e 9e 39 76 bc 72 9d 2c be cf 26 01 3e
       0.14356208 -0.015028385 -0.16856936 0.1261246
0003e0 39 a6 02 3e 37 ab 83 3e 7c e4 1d 3e 12 ff 4f 3d
       0.12758721 0.25716564 0.15419191 0.050780363
0003f0 d2 e7 01 be 15 52 98 3e d1 72 3b 3e 16 a6 62 3e
       -0.12686089 0.29750124 0.18305518 0.2213367

fc2.bias f4 [32]
000000 b6 b1 80 3e c3 52 a6 bd 63 99 5e 3e 4d be db 3d
       0.25135583 -0.08121254 0.217382 0.10729656
000010 50 3f 6f be 64 38 fc bd 57 04 3a be 89 5f 41 be
       -0.23363996 -0.12315443 -0.18165718 -0.188841
000020 cb 1a 30 3d 9c 15 eb 3e 8b 97 1e be 62 f8 da bd
       0.0429943 0.45914924 -0.15487497 -0.106919065
000030 f7 33 7d be 98 ba 7d 3e a2 21 99 be 11 dc 04 be
       -0.24726854 0.24778211 -0.29908472 -0.12974574
000040 c1 36 1b bf 49 94 06 bf c2 93 9f 3e 38 60 36 bf
       -0.6063042 -0.52570015 0.31167418 -0.7124057
000050 94 75 a0 3e 45 14 9b be 24 07 03 3d fd 35 b7 bc
       0.31339705 -0.30288902 0.03198923 -0.02236461
000060 22 6a 2e 3e d0 dd 41 bf 65 b5 2f 3b 26 8a f3 be
       0.17032674 -0.75729084 0.0026811 -0.47566336
000070 18 ca 38 be 51 f5 0a 3e 12 3e 85 be 28 c5 d8 bc
       -0.18045843 0.13570143 -0.26023918 -0.026461199

fc2_1.weight f4 [64, 32]
000000 94 51 50 3e 17 fa c8 bb dd d2 9a 3e 06 71 4c be
       0.2034362 -0.0061333287 0.30239 -0.1996499
000010 b9 cd ad 3c 39 63 64 be bf 19 12 be 34 2e 84 3d
       0.02121626 -0.22303475 -0.14267634 0.06454125
000020 42 f5 9c 3e 4e 58 a7 3d 95 5f 58 be 63 50 2c bd
       0.30655867 0.0817114 -0.21130212 -0.04206885
000030 12 58 f1 bd b8 7f ef 3d 58 c2 79 3c a5 7f 9c bd
       -0.11784376 0.11694282 0.015244089 -0.07641534
000040 34 a7 d5 bd 25 e2 00 be 33 ce a3 bd 99 b4 ee bd
       -0.10432282 -0.12586267 -0.07998314 -0.1165554
000050 1e 13 d2 3e 0b ee 39 3d ef 7c f0 bd 45 cf e9 3d
       0.4103021 0.04539303 -0.11742579 0.11416487
000060 38 51 f7 bd e8 63 a7 3d 53 4a 01 be 39 2b a7 3d
       -0.12076038 0.081733525 -0.12626009 0.08162541
000070 0d f4 76 3d 5f 13 14 be 21 c9 bc be b4 56 82 3e
       0.06029134 -0.14460514 -0.368722 0.25456774
000080 15 d0 11 be 85 99 d9 3d 4e 5d 12 be 91 79 04 be
       -0.14239533 0.10624985 -0.14293405 -0.12936999
000090 96 77 a5 bb 1e d2 22 bd ae 6d 53 3d b2 4e 9e 3d
       -0.005049656 -0.039751165 0.05161827 0.07729854
0000a0 01 18 24 be c8 f8 b9 3d bf 81 ad be 9b 2f 05 be
       -0.16024782 0.090806544 -0.3388805 -0.13006441
0000b0 21 d5 41 3e 12 3e 44 bd e4 17 67 be 3c 1c 94 3d
       0.18928958 -0.047910757 -0.22567707 0.07231948
0000c0 41 fc ae bd c9 e7 29 bc e7 2b 32 3e 9c 29 a4 bd
       -0.08544207 -0.010370203 0.1739956 -0.08015749
0000d0 a8 3e ec bd 8f 49 b2 bd a9 08 da 3d 3c 8c 23 be
       -0.11535388 -0.087054364 0.10646183 -0.15971464
0000e0 f5 5d 03 3e 43 08 f2 bd c8 03 8e 3d 46 77 95 bd
       0.1282881 -0.11817982 0.06934315 -0.0729814
0000f0 b3 9e 57 3d bf 93 0a be 0d 97 e7 bd 7a 80 fc 3b
       0.05264158 -0.13532923 -0.113081075 0.0077057453
000100 bb 27 37 bd f4 43 de 3d 98 da dc 3d df df 46 be
       -0.044715624 0.10852805 0.10783881 -0.19421338
000110 ef f7 90 bd 73 a7 b9 be c7 13 e0 3c 8c f5 bb 3d
       -0.070785396 -0.36260566 0.02735318 0.09177694
000120 59 9c 59 bd d2 be d9 3c 90 46 bd be 09 77 9e 3c
       -0.05312762 0.026580248 -0.36967897 0.01934387
000130 0f 3a 14 3d 79 82 12 be ab 24 1b bd 25 06 f0 3c
       0.03618818 -0.14307584 -0.037876766 0.029299805
000140 b1 f0 46 3c b0 26 67 be 33 91 5b bd ee 96 f5 bb
       0.012142346 -0.22573352 -0.05360527 -0.007494799
000150 10 8a 17 be 5f c9 46 bd 91 6e 66 bd 0c 9f 5a be
       -0.1479876 -0.048531886 -0.056257788 -0.21349734
000160 18 36 ca be 88 df fd bd de c2 ef bc 2c f9 37 be
       -0.39494395 -0.12396151 -0.029267725 -0.17966145
000170 80 83 0a 3e 7a a0 81 3d a3 0f 61 be 33 4d 31 3d
       0.13526726 0.063294366 -0.21978621 0.043286514
000180 e2 1b c7 bc a5 fe 94 bc fd 37 63 3d 0a 9a 0c 3e
       -0.024305288 -0.01818783 0.055473316 0.13730636
000190 0c 4c 1f be 1f a7 49 3d cd 27 93 3d 80 a8 87 be
       -0.15556353 0.049231645 0.07185326 -0.26495743
0001a0 4a d3 b9 3d e3 92 47 be cd 40 37 bd 6a 7c 5a bd
       0.09073503 -0.19489627 -0.044739533 -0.053341307
0001b0 87 d4 05 be 01 51 08 be 13 48 0f 3d ff f1 31 3c
       -0.13069354 -0.1331215 0.034980845 0.010860919
0001c0 64 dd 45 be 59 55 b4 3c cd d1 46 bc f3 e3 a5 3d
       -0.19322735 0.022013353 -0.012134981 0.081001185
0001d0 60 ff 6b 3e 45 4d 17 be d2 fd 40 bc 4e b8 87 3e
       0.23046637 -0.1477557 -0.0117792655 0.265078
0001e0 ed 68 10 3d ac a4 05 bd 87 75 00 bd d5 72 0b 3e
       0.035256315 -0.032627746 -0.031362083 0.13618024
0001f0 79 39 20 be 66 49 f4 3d 73 da ad 3d d9 a2 5a 3e
       -0.15646924 0.11928062 0.084889315 0.21351184
000200 29 a2 9f bc 87 82 34 3d e0 b1 2e bd d8 a4 e2 bd
       -0.019486504 0.044069793 -0.042650104 -0.11066598
000210 6f 4d 8c bd 78 68 81 bd 58 12 b8 3d f3 03 9a 3d
       -0.06850707 -0.06318754 0.08987874 0.075202845
000220 d1 9e 94 bd d2 77 1c be db 72 82 3d 31 a6 19 3e
       -0.07256854 -0.15280083 0.06369563 0.15004803
000230 f8 e1 17 3e 99 09 9e bd 51 09 02 3e 4c b6 5e bd
       0.14832294 -0.07716674 0.12698866 -0.05437307
000240 4a a2 8c 3b fb 99 1d be 53 d4 90 be 8c 0e 3d 3d
       0.0042918073 -0.1539077 -0.2828699 0.04615645
000250 c2 03 75 3d dd 00 1c bd 0d 6c ea 3d 36 b9 7b 3d
       0.059818037 -0.03808676 0.1144639 0.061455928
000260 8e ff 9f bd af 13 f9 3d af 35 b7 ba 5a 73 d4 bc
       -0.07812415 0.121619575 -0.0013977791 -0.02593391
000270 22 81 01 be 48 d3 18 bd 18 54 08 3e 80 b5 93 be
       -0.12646917 -0.03731087 0.13313329 -0.2884941
000280 15 f1 05 be 6d b5 72 be 9b 9c 04 3d a9 9f a6 be
       -0.13080247 -0.23702021 0.032375913 -0.32543686
000290 dd f3 0a 3e 7d bf 8b be 09 67 57 3d 78 eb 91 3c
       0.13569589 -0.2729453 0.052588496 0.017812476
0002a0 30 22 74 3e 74 90 05 3e e1 ff 22 be 84 07 fd 3c
       0.23841166 0.13043386 -0.15917923 0.030887373
0002b0 70 80 af 3c 47 e3 88 bc e4 3f 2f bc 36 a2 2b be
       0.021423548 -0.016709937 -0.010696385 -0.16761097
0002c0 95 cb f4 bd 27 b1 e2 3c 5b c0 8d bb 3b 73 71 3d
       -0.11952893 0.027672363 -0.004325909 0.058947783
0002d0 9d 5f ba 3d 1f a1 0c 3e 16 fe 87 3d d8 62 f8 bd
       0.09100268 0.13733338 0.0664026 -0.12128228
0002e0 0e 63 bc be 03 45 25 3d a7 2f cf 3d f8 86 18 be
       -0.36794323 0.040349018 0.10116511 -0.14895236
0002f0 75 77 bd bd 04 7e 8c 3c 15 7b 75 be d1 67 96 3e
       -0.092513 0.017149933 -0.23972733 0.2937608
000300 72 03 46 be 71 82 6e 3c 9c 3b 74 be c6 2f 3e bd
       -0.19337252 0.014557467 -0.23850864 -0.04643228
000310 a9 d7 dc bb c6 70 27 be 83 67 46 ba fa e1 b8 bd
       -0.006739576 -0.16351613 -0.0007568525 -0.090274766
000320 20 f9 16 bd 77 c8 9c 3d 9a 4d a7 bd 46 bf 30 3c
       -0.036858678 0.07655423 -0.08169098 0.010787791
000330 c3 a0 90 bd 5f e7 3b 3e 82 f7 84 be fd 92 94 3d
       -0.07061913 0.1834998 -0.25970083 0.07254598
000340 2f 56 10 be 45 1e e7 3c 38 af 21 3d 25 4b 97 bd
       -0.14095376 0.028212676 0.039473742 -0.073873796
000350 90 aa 0b b8 f1 ec 9c be 23 03 05 3e 6d 42 e1 3c
       -3.329903e-05 -0.30649522 0.12989478 0.027497495
000360 00 2c 04 3d 18 4d 03 be 72 cb 5b bd 82 6d 6c be
       0.032268524 -0.12822378 -0.053660817 -0.23088649
000370 02 b6 13 3e 24 2b 29 be 77 a3 3b be ce 1e ec 3b
       0.14424899 -0.16520363 -0.18324076 0.0072058206
000380 b8 89 34 3e 13 16 11 3e 93 ac 80 be 61 e7 82 bd
       0.1763066 0.14168577 -0.25131664 -0.06391788
000390 a2 a5 88 3c 33 f2 86 3d 09 cb cd 3d 9c 44 c5 bc
       0.016680542 0.065891646 0.100484915 -0.024080567
0003a0 92 d3 1b bd 04 bd ec 3c 8c eb b3 be ff 2b 70 bb
       -0.038043566 0.028898723 -0.35140646 -0.0036647317
0003b0 f8 e9 f3 3d 74 d8 20 be 4e 98 66 3d ef 7d 35 bc
       0.119098604 -0.1570757 0.056297593 -0.011077388
0003c0 33 98 1c bc 80 78 65 3d 48 e7 5d bc ed aa 71 bd
       -0.0095577715 0.05602312 -0.013543911 -0.0590009
0003d0 65 46 00 3d f0 6b a6 bc 2b 0b 0b bd cf ea 35 3e
       0.031317133 -0.02031514 -0.033946197 0.17765354
0003e0 4f a4 bd bc 38 84 eb 3d 83 a8 0a 3e 68 f4 fc bd
       -0.023149638 0.11499828 0.13540845 -0.12351304
0003f0 64 f8 d5 bd d2 eb e1 3d 62 98 ca 3c 6b 39 85 be
       -0.104477674 0.11031307 0.024730865 -0.2602037

fc2_1.bias f4 [64]
000000 de 54 35 3e 26 84 34 3e f7 ba df 3e 88 c7 d4 bd
       0.17708156 0.17628536 0.4369733 -0.1038962
000010 44 21 a6 be 12 33 ae 3e 87 06 18 be 3b 90 e3 be
       -0.32447255 0.3402334 -0.1484624 -0.44445977
000020 c0 64 2a be c4 fe 03 be 97 a1 c1 be a4 8e 3f be
       -0.16639996 -0.12890154 -0.37818596 -0.18706757
000030 a5 1f 60 be 8f 32 91 be 40 08 94 be 34 b2 7f be
       -0.21887071 -0.28358886 -0.28912544 -0.24970323
000040 b2 ff 27 be 7a 5d b3 3e e8 00 8c bd 46 15 d1 bd
       -0.16406134 0.35032254 -0.0683611 -0.10209136
000050 6f 2f b2 3e c7 a3 60 3e 3d 28 22 be d0 8e 41 bb
       0.34801814 0.21937476 -0.15835662 -0.0029534586
000060 66 d4 6f 3e 53 7a 47 3c f6 18 dc be 8c d5 f5 3d
       0.23420867 0.01217516 -0.42987794 0.120036215
000070 65 e7 13 bd 66 36 e7 3e 97 bb f2 3d 15 22 0a be
       -0.036109347 0.4515869 0.11852186 -0.13489564
000080 3b c2 4b be f7 63 4d 3e 59 ba f3 bc 3d aa 41 bd
       -0.19898312 0.20057665 -0.029751943 -0.047281493
000090 83 dc 33 3d 4d 80 8b bc 1f c1 53 bd ca fe c4 bd
       0.04391147 -0.017028952 -0.051697847 -0.0961891
0000a0 65 84 e1 3b 98 a3 ff 3e fc c1 a4 be b1 87 3e bd
       0.0068822377 0.499295 -0.32179248 -0.046516124
0000b0 a5 64 c9 3d 18 13 ce bd ba 89 53 bd b0 3a ea 3c
       0.098336495 -0.100622356 -0.05164502 0.028592438
0000c0 32 7c 96 3e 22 f1 85 3e e4 15 f3 ba c4 8e 69 3d
       0.29391629 0.26160532 -0.0018545953 0.057020918
0000d0 96 c4 00 bb ba ce 69 3e 8a ba 55 be 04 44 9c be
       -0.0019648424 0.22832766 -0.2087194 -0.30520642
0000e0 05 bd 3f 3e 1b 31 30 be 8a 6a bc bd f7 82 48 3d
       0.18724449 -0.17206232 -0.09200008 0.048953023
0000f0 8a 3c 5c 3e c9 0c 5b be 70 87 2e be a3 fe 1f 3b
       0.21507469 -0.21391596 -0.17043853 0.002441325

fc2_1_1.weight f4 [64, 64]
000000 cf 03 bd bd 0b 75 2d 3e 8a 51 96 bd 5e bb a5 bd
       -0.09229242 0.1693918 -0.07339771 -0.08092378
000010 73 0a 8f bd df 87 a9 be 41 20 ee 3d d9 2a 0f be
       -0.06984415 -0.33111474 0.11627246 -0.13981189
000020 a9 a7 69 be fa 33 c1 bd fa 7c 8c bd 70 ad 0c 3d
       -0.22817864 -0.09433742 -0.06859775 0.03434509
000030 d9 b3 10 bd c7 48 e5 bd 40 39 68 be 60 8d e4 bd
       -0.035327766 -0.11195522 -0.22678089 -0.11159778
000040 3b f7 14 bd 9a 1e 71 3d a2 58 07 3d 51 dd de bd
       -0.03636859 0.058867075 0.03304351 -0.108820565
000050 49 a3 0c 3e 49 8a 90 3d d4 58 89 be e4 06 e9 bc
       0.13734163 0.07057626 -0.26825583 -0.028445669
000060 db 23 b1 3c ff 17 d8 3d dd 70 33 bc b5 7e fd 3d
       0.021623543 0.10551452 -0.010952202 0.12377683
000070 f6 9f 1e bc b3 58 52 be 7e c9 10 bd 79 c2 c0 bd
       -0.009681692 -0.20541649 -0.035348408 -0.09412093
000080 5d 00 62 3d 95 bd 39 bd d4 bd eb 3d 46 32 31 be
       0.055176128 -0.045346815 0.11510816 -0.17304334
000090 75 de 2c be 2a 30 77 bd e5 ea 18 be ae 68 a2 bd
       -0.16881736 -0.060348667 -0.14933355 -0.07930122
0000a0 41 db 49 3e 1a d8 07 3e 52 60 cf bd 56 55 57 3e
       0.19712545 0.1326603 -0.101257935 0.21028647
0000b0 b4 c7 f3 3d c3 dc 38 be 18 85 c5 bb bf d8 78 3e
       0.11903325 -0.18052964 -0.006027829 0.24301432
0000c0 39 f9 5a bd 42 8b 4a 3c 0e ff 2b 3d 86 f2 45 bd
       -0.053460333 0.012362303 0.041991286 -0.04832699
0000d0 e0 bf df 3d de 4d 92 3d 76 28 03 3c c2 0f f4 3c
       0.10925269 0.07143758 0.008005252 0.02979267
0000e0 ac 12 7a 3d b2 3e 20 be 4a 6e 24 be 17 02 e4 bc
       0.061052963 -0.15648916 -0.16057697 -0.027833028
0000f0 a2 67 4b 3e 81 ad 47 bd d3 8b 03 3d 5e 4e f7 bd
       0.19863752 -0.04874945 0.03211577 -0.12075494
000100 ff d5 b6 3d cb 4d 30 bd 56 02 d7 bd f5 6c a0 bd
       0.08927535 -0.04304294 -0.104984924 -0.07833282
000110 b1 b0 97 bc f9 91 0b be e4 6b 27 3d 60 80 6a bc
       -0.01851687 -0.13629903 0.040874377 -0.014312834
000120 a0 a0 4d bd c7 04 d1 3c 2b 25 2f bc bb 10 db 3d
       -0.050202012 0.025514973 -0.010690014 0.106965505
000130 de 9f c8 3d 85 e1 96 3c 71 97 cc bd aa 01 97 3d
       0.09796117 0.018418083 -0.09989823 0.07373364
000140 08 5c 23 3c 1c 6f 14 be e9 c1 c1 bc 30 6c f0 bd
       0.009970672 -0.1449551 -0.023652034 -0.11739385
000150 07 5e c5 bd a7 aa 6c bd df 57 82 3d c6 33 f9 bc
       -0.09637075 -0.057779934 0.06364416 -0.030420195
000160 0a 33 7f bc 2f 1a 1b be e5 a7 4a bd e7 6a d4 bd
       -0.0155761335 -0.15146707 -0.049476523 -0.103719525
000170 ba bc 02 3d 6b b5 a1 be f3 db 41 3c b4 59 01 be
       0.031918265 -0.31583723 0.011832225 -0.12631875
000180 5b 80 f6 bc 71 1c b2 be b8 02 01 be e6 3f 22 3d
       -0.030090502 -0.34787324 -0.12598693 0.03961172
000190 a9 61 16 bd 98 b8 7b 3d 45 79 98 bc d0 75 c8 bd
       -0.03671423 0.06145534 -0.018612513 -0.09788096
0001a0 27 a8 0a 3e 4f ae 66 be 38 38 a3 bc 35 51 cd 3d
       0.13540708 -0.22527431 -0.019924268 0.10025255
0001b0 54 2c 34 bc 8d 9d 8e 3d e4 27 bc 3d 20 d6 42 bc
       -0.010996897 0.06963644 0.09187296 -0.011891872
0001c0 35 39 51 be 7c 60 38 bd 38 22 32 be 11 cd a2 3c
       -0.20431979 -0.04501389 -0.17395866 0.019873174
0001d0 c5 01 09 be 6a ef 7f 3d a1 0a ee 3b 94 63 00 bc
       -0.13379581 0.062484182 0.0072644507 -0.007836241
0001e0 40 73 be 3d 25 81 bf bd 09 32 ee 3b 7e 76 ac b8
       0.09299326 -0.09350804 0.0072691482 -8.22367e-05
0001f0 cc 75 93 3d 60 bb 44 bd 90 77 4f 3d 41 46 91 3d
       0.07200202 -0.048030257 0.050651133 0.07093478
000200 31 74 8a 3d 51 5d 0d 3e d5 51 7a be f2 1d 82 3a
       0.06760443 0.13805129 -0.24445279 0.0009927137
000210 0f 7d 14 3d 56 df be bd e8 dc 44 bd 5e ea 9b 3c
       0.036252078 -0.09319942 -0.048062235 0.019032653
000220 73 6f 11 3e b7 83 e6 bd cf 34 0a 3d f8 db 62 3d
       0.14202671 -0.11255591 0.03374177 0.05538556
000230 54 7d b4 3d 62 64 e7 bb f8 7e 24 bc c2 ff 6c 3c
       0.08812967 -0.007061527 -0.010040037 0.014465274
000240 34 af 84 3d e3 73 ca bd a8 05 9e 3d ed 73 ed 3d
       0.0647873 -0.09885385 0.077159226 0.11594377
000250 fc ea 3e bd 2c e4 64 3d b2 7c 80 3d 93 9a 07 bd
       -0.046610817 0.055881664 0.06273784 -0.033106398
000260 99 ee 02 bd 92 62 62 3d 93 3e 58 3d 7d 65 b3 3d
       -0.031965826 0.055269785 0.05279405 0.08759592
000270 15 8a 74 bc 99 cd 4e be 02 c1 0d bd 91 8b c2 3d
       -0.014925499 -0.20195617 -0.034607895 0.094992764
000280 28 ae 6c 3e 97 ab 19 bd 3a df ab bc b2 10 37 3d
       0.2311331 -0.037517156 -0.020980466 0.044693656
000290 ca 44 ec bd 0d 16 48 be cf c1 df 3d a5 44 1f be
       -0.11536558 -0.19539662 0.10925638 -0.1555353
0002a0 84 0b 2a be f1 bc 14 be 28 2a f3 3d 83 47 ed 3d
       -0.16605955 -0.145252 0.11873275 0.115859054
0002b0 bd b7 32 3d e4 d0 0c 3d 0f 2b 83 bc 02 06 53 be
       0.043632258 0.0343789 -0.016011743 -0.2060776
0002c0 40 a8 1e 3e 9a 3d 1b be d5 4f 93 3e 68 35 7c be
       0.1549387 -0.15160218 0.28771845 -0.24629748
0002d0 5e ec 5d 3d 53 c6 1b bd ec b5 d3 3c b2 b9 04 3e
       0.054180495 -0.038030934 0.025843583 0.12961462
0002e0 40 89 fd bd c1 f4 1f 3e 31 fe ba 3c cd 8d 89 3d
       -0.12379694 0.1562071 0.022826286 0.067164995
0002f0 cb 1a d5 bd f2 64 55 3c a5 19 86 bd 45 4e 53 3e
       -0.10405501 0.0130245555 -0.0654786 0.20635326
000300 81 16 6e 3c f8 44 1e 3e b4 bd 8a bc 9a 2d 00 be
       0.014531733 0.15455997 -0.01693616 -0.12517396
000310 bb 73 1c 3e 94 68 5d bc 55 96 e5 3b 6b 96 e5 bd
       0.15278523 -0.013513703 0.0070064464 -0.112103306
000320 c1 d1 2d bd ac bf 9e bd fd 43 46 bd 0a 8c 3c bd
       -0.042436365 -0.07751402 -0.048404682 -0.04603199
000330 33 72 8e 3d 0f 77 85 3d 36 55 0b 3a e0 08 b9 3d
       0.069553755 0.06516849 0.00053151266 0.09034896
000340 1c 40 2b 3c 9c 31 f3 bd 44 11 15 3d eb fe 81 3d
       0.010452297 -0.118746966 0.03639342 0.0634745
000350 d0 fb dc 3c fc 8f f7 3c 5d 4d c8 bd 9a 14 11 bc
       0.026975542 0.030220024 -0.09780381 -0.008855009
000360 85 f4 b9 3d 7d 24 02 3b 5c 77 2a bd 29 54 1f 3c
       0.090798415 0.0019858174 -0.041617736 0.009724655
000370 be f4 35 3e 05 bd f7 3c 19 9b e0 bd be f2 f7 3d
       0.17769143 0.030241499 -0.109670825 0.12106846
000380 33 bf 7a 3d ab 3f 57 3c b7 f1 a6 bc 61 87 ae bd
       0.061217498 0.013137738 -0.02037893 -0.08521915
000390 0b 40 55 bd 7c 1f f4 bd a9 8c 7f bd 15 15 c7 3d
       -0.05206303 -0.11920068 -0.062390003 0.09720818
0003a0 a8 e6 f9 3d 09 c1 e7 bd 90 f9 af bd 4a bb 39 3e
       0.12202197 -0.113161154 -0.08592522 0.18137851
0003b0 51 a2 b5 3d 79 ee 02 3e da 2b 05 be c8 00 03 be
       0.0886885 0.12786283 -0.1300501 -0.12793267
0003c0 27 9f 90 3d c5 bd 20 bd 06 59 2d 3c 2c 57 c5 3d
       0.07061606 -0.03924348 0.010580307 0.09635767
0003d0 f8 ab cc bc f9 0c 00 3d 6b 37 a8 3d 32 a1 82 bd
       -0.024984345 0.03126237 0.08213695 -0.06378402
0003e0 a2 ef 99 3d 68 18 f7 3c 72 64 bb 3c a1 b5 19 be
       0.075164095 0.030163005 0.022875044 -0.15010692
0003f0 04 09 4a 3e e0 8f a8 3c f1 97 b4 bd 43 31 76 3d
       0.19730002 0.020576417 -0.08818043 0.060105573

fc2_1_1.bias f4 [64]
000000 34 34 53 bd cb 40 59 be 0a cf bb bd d8 26 80 bd
       -0.051563457 -0.21216123 -0.09170349 -0.06257409
000010 b8 af 1b be 87 e3 60 3d ef 4d b5 bd 56 63 09 3e
       -0.1520375 0.054904487 -0.08852755 0.134168
000020 3e 13 27 3d 57 36 1d be 3d 2f 57 bc ce 87 2f bd
       0.040789835 -0.1535276 -0.013133821 -0.042854123
000030 3c e7 3b be 48 27 f6 3d 84 f9 89 3d c0 ed 0d be
       -0.18349928 0.12019211 0.067370445 -0.13860226
000040 79 d1 9a 3d 41 2e a8 bd ff 02 d4 3c a8 2e 7c bd
       0.07559485 -0.08211947 0.025880335 -0.061567932
000050 f2 33 e9 3d 17 42 29 3e e2 10 8a bd 31 ba 22 3e
       0.11386861 0.16529118 -0.067415014 0.15891339
000060 28 b9 3f 3d 86 c2 5b be ce b2 1f 3e a3 7f c5 bd
       0.046807438 -0.21460924 0.15595552 -0.096434854
000070 ad a5 c5 bd a4 69 29 be b6 4d 5e bd 9d 80 da 3d
       -0.09650741 -0.16544205 -0.05427333 0.10669062
000080 a6 09 c7 bd 7e 65 2e 3d a0 34 ba 3c a1 1f 24 be
       -0.09718637 0.04257726 0.022730172 -0.1602769
000090 f9 35 6b be 93 cf 06 bc fc 00 25 3d c9 49 ca 3d
       -0.22969808 -0.0082282005 0.040284142 0.09877355
0000a0 f8 e9 25 3e a8 c4 bc 3d 08 5e e2 bd 13 4b 84 bd
       0.16202533 0.09217197 -0.11053091 -0.06459632
0000b0 5e 40 b8 3c 13 12 f6 3d 10 32 42 bd 51 8b 02 3e
       0.02249163 0.12015166 -0.047411025 0.12748457
0000c0 29 70 21 3e fd 7a b7 3d 0d 23 0b be 37 c7 da 3d
       0.15765442 0.08959005 -0.1358759 0.106825285
0000d0 4c c4 e2 bd 66 13 2e be 5f 55 d3 bc ad 8e 36 be
       -0.11072597 -0.16999587 -0.025797544 -0.17827864
0000e0 c5 00 20 be fe aa bd 3d 32 e4 42 3e cc 19 1c bc
       -0.15625294 0.0926113 0.19032362 -0.009527635
0000f0 ab 8f ca bd 95 07 10 3d b6 9a 69 be f3 96 d4 bd
       -0.09890684 0.03516348 -0.22812924 -0.10380354

fc2_1_2.weight f4 [32, 64]
000000 79 94 14 be 10 48 4b bd 32 c1 69 3e f6 4b e4 3d
       -0.14509763 -0.04962927 0.22827604 0.11147301
000010 07 a7 01 3c 91 53 48 3b 44 e6 81 bd d1 cb 28 3c
       0.007913358 0.0030567388 -0.06342748 0.0103025
000020 1d 99 9b 3c 31 0b eb 3d 00 c2 b4 bd 26 73 72 3c
       0.018993909 0.11476744 -0.08826065 0.014797961
000030 21 87 e1 bc 45 17 41 3b d0 38 1d 3e 67 44 00 3e
       -0.027530255 0.0029463333 0.15353703 0.12526093
000040 72 76 89 be bd a9 05 3b 27 da b5 bd cf 98 aa ba
       -0.2684818 0.0020395361 -0.088795 -0.0013015511
000050 a7 d5 5f be b7 72 d0 3e 4b cd 0f 3e cd 12 58 bd
       -0.21858846 0.4071252 0.14043157 -0.052752305
000060 bb 3d 28 3e e0 d6 2e 3c 26 c8 ed bd 4f 1e 8d 3d
       0.16429798 0.010671347 -0.11610441 0.068905465
000070 b0 17 f6 bd 0e b7 52 bd 48 b8 55 3e ab fd 47 be
       -0.12016237 -0.051444106 0.20871079 -0.1953036
000080 b2 07 ab 3d dc 80 bd bd 95 f5 c9 3d df b8 13 3e
       0.08351077 -0.092530936 0.09861294 0.14425991
000090 58 12 37 bc 74 b3 ef 3c d2 5c db bc 9c a1 71 39
       -0.011173807 0.029260375 -0.026777659 0.00023043755
0000a0 d6 2d 79 bd 29 14 68 3e fc 2b 13 3e b2 20 c8 bd
       -0.06083473 0.2266394 0.14372247 -0.09771861
0000b0 23 10 e8 bc 2e 7c 50 3c 17 ea 84 bd 9f 9e 5f 3d
       -0.028328007 0.012724919 -0.064899616 0.054594632
0000c0 a1 f6 88 bc 00 b0 4c bd 78 98 a2 3c 24 fb 49 be
       -0.016719164 -0.049972534 0.019848093 -0.19724709
0000d0 84 38 39 bb a5 e4 2f 3d bc 99 f4 bc f0 df ac 3b
       -0.0028262446 0.04294266 -0.029858463 0.005275719
0000e0 5b b0 02 3e 04 ac 13 be 3f 16 42 be 3a 54 1d 3c
       0.12762587 -0.14421088 -0.18953799 0.009602601
0000f0 e2 e4 dd 3d b3 71 41 bd 19 b3 23 be 50 da 23 3d
       0.108346716 -0.047227573 -0.15986289 0.04000312
000100 d3 40 f7 3d 33 6a 53 be 48 7f 54 bd d0 99 ec 3c
       0.12072911 -0.2064598 -0.051879197 0.028881937
000110 26 59 08 be fe 65 13 be e0 ac 46 be cf 70 22 bd
       -0.13315257 -0.14394376 -0.19401884 -0.039658364
000120 9d c5 a4 3d 9b f1 ce be 07 be 9d 3d 82 41 99 be
       0.08045504 -0.40418705 0.077022605 -0.2993279
000130 62 5e 11 be 66 ec 78 3d a2 b2 ee 3d 1e e3 0f be
       -0.1419616 0.060772322 0.11655165 -0.14051482
000140 56 2e 02 3e 80 33 41 be dc 47 40 3e a7 9d 11 be
       0.12712988 -0.18867302 0.18777412 -0.14220296
000150 88 f7 bc 3d 4f 8a da bd b7 b8 86 be db a2 a6 bd
       0.092269 -0.106709115 -0.263128 -0.08136531
000160 8b 18 ae 3c 39 28 b3 be 62 80 df 3d 6f cc c3 be
       0.021251937 -0.34991625 0.10913159 -0.38241908
000170 c4 e5 63 be de bf 12 bd 51 c0 63 bb ee 3c 53 3e
       -0.22255617 -0.03582751 -0.003475208 0.20628712
000180 1e d2 da be e4 f9 f8 bd 15 12 00 be 60 2b 62 bd
       -0.42738432 -0.12157038 -0.12506898 -0.055217147
000190 50 f3 28 be 73 e0 02 3e 32 0b f6 bd a1 1b cc bc
       -0.16499066 0.12780933 -0.12013854 -0.024915518
0001a0 85 85 e0 bd e9 65 58 be 95 1d 0c 3d e4 c8 11 be
       -0.10962967 -0.21132626 0.0342079 -0.1423679
0001b0 5c 9c 87 be f0 3e 8e bb 72 74 9b be e2 8b 52 3e
       -0.2648648 -0.004340999 -0.30362278 0.20561174
0001c0 a6 7a cd 3b 77 16 61 3d cd 33 6b be e2 9d c4 3d
       0.0062707243 0.054953065 -0.22968979 0.09600426
0001d0 e3 3b e7 bd 5f 16 7e bd be dc 21 bd 77 0e 76 bd
       -0.11290719 -0.062033053 -0.039517157 -0.06007239
0001e0 3f f3 42 be 05 36 65 3e b4 f1 31 bd 41 ac eb 3b
       -0.19038104 0.22383888 -0.043443397 0.007192165
0001f0 0f 5e b9 be fa d8 0c 3e 76 ee 2a be f7 ca 03 3e
       -0.36204574 0.13754645 -0.16692528 0.12870394
000200 bc a3 df be 0e 77 fa 3c 1d d4 4f be 7e d2 ab 3d
       -0.43679607 0.030574348 -0.20295759 0.083897576
000210 8e 4a dd 3d 38 1e 83 bd 78 d0 e9 bc 6d 35 7b bf
       0.10805236 -0.06402248 -0.028541788 -0.98128396
000220 fd 23 f6 be af 13 24 be 8e 7b 11 bf 66 06 30 bd
       -0.48074332 -0.16023134 -0.56829154 -0.042974852
000230 64 82 38 be bf e0 09 bf 17 ed b6 be 92 a4 5a bf
       -0.1801849 -0.5385856 -0.3572776 -0.85407364
000240 a5 4e 61 bf 79 90 1a be 48 ce 30 bf 23 11 aa bd
       -0.8801063 -0.15094174 -0.6906476 -0.0830405
000250 9d 67 51 bf f3 51 6e bf b8 51 b5 bb 40 d5 fb be
       -0.81798726 -0.93093795 -0.0055334233 -0.49186134
000260 b4 6f 11 be a7 77 e1 3c f7 aa 77 bf 32 f9 d6 bd
       -0.14202768 0.027522875 -0.96745247 -0.10496749
000270 ae 70 c0 bd 0d 98 a4 3d 15 e3 e2 3d d6 5e 3f bf
       -0.09396492 0.08036814 0.11078469 -0.74754083
000280 07 a8 2b 3d f4 5e ce be bb e7 7a be 12 80 ff bd
       0.04190829 -0.40306818 -0.2450246 -0.12475599
000290 9b 0e 97 3d 86 8a e1 be a3 83 49 be 14 db 88 bf
       0.07375833 -0.44050997 -0.19679122 -1.0691857
0002a0 9c cd 2d bf 6f 69 f1 3b e8 55 d4 be 8e 72 f1 3d
       -0.6789186 0.007367305 -0.4147179 0.11789428
0002b0 72 cf ff be 81 f0 7c bc 55 a0 80 3c db 96 d1 be
       -0.49962956 -0.0154382 0.015701452 -0.40935406
0002c0 8e 7d f2 be c9 43 46 3d bd b9 af be a3 21 d3 be
       -0.47361416 0.04840449 -0.34321395 -0.412366
0002d0 6c d1 0e be 49 9d fa 3d 8c 60 76 bd 71 21 46 3d
       -0.13947076 0.12237031 -0.060150668 0.048371736
0002e0 10 8f 12 be 9b df 30 bf 61 d8 f0 be fc 63 d3 be
       -0.14312387 -0.69091195 -0.47040084 -0.4128722
0002f0 e3 83 6f 3c 48 b7 06 bf 73 13 e9 bd 32 60 1b be
       0.014618847 -0.52623415 -0.11380663 -0.15173414
000300 a0 a2 2d bd a9 7b 1c be 04 be d0 3d c4 1b fb 3d
       -0.04239142 -0.15281548 0.101924926 0.12261155
000310 b2 e1 b1 3d 14 17 99 3d a2 c1 50 3d 8f 78 a7 bd
       0.08685626 0.07475105 0.050965913 -0.081772916
000320 76 e4 53 bd 20 30 e7 bc 66 86 0d 3d 68 de e6 bd
       -0.05173155 -0.02822119 0.034552 -0.112728894
000330 5d 45 da 3d 80 9b 63 bd c6 af 01 bd c4 11 6f be
       0.10657761 -0.05556822 -0.03166177 -0.23346621
000340 2d c9 89 bd 65 78 5e be ed 29 c8 bc 46 a7 c7 3d
       -0.06727824 -0.21725614 -0.024434054 0.09748702
000350 d4 f1 3e 3d d2 db 10 be 9a 93 fb 3d b4 43 52 3e
       0.046617344 -0.14146355 0.12284012 0.20533639
000360 1a e9 07 3e f4 03 1c bd 5a df 8b bd f1 ff 26 bc
       0.13272515 -0.038089707 -0.0682971 -0.010192857
000370 75 f4 06 bd 0a 1f d9 bd cf db dd be 7a db f4 3c
       -0.032947976 -0.10601623 -0.43331763 0.02988981
000380 23 c1 75 3c ec e8 12 bc 65 14 99 bc 83 a3 59 bc
       0.014999661 -0.008966666 -0.018686483 -0.013283613
000390 8e db e1 bd de cf ef bc a9 a8 2f be 5a 41 39 3e
       -0.11028205 -0.029273923 -0.17154182 0.18091336
0003a0 5e d1 2d 3e 46 77 6f be 95 e0 ca 3c ed 1c 47 39
       0.16974398 -0.23385343 0.024765292 0.00018988895
0003b0 48 c4 da 3d 48 75 27 bd bc 4f a7 bc ac e9 43 bd
       0.10681969 -0.040883332 -0.020423763 -0.04783027
0003c0 4a fd 0d 3d 37 02 a3 3d a0 05 00 3e 4d 0b cc bc
       0.034665383 0.07959407 0.12502146 -0.024907732
0003d0 e6 40 5e 3d 38 62 11 3d 9d f3 d9 3d e6 f7 7b 3d
       0.05426111 0.03549406 0.10642169 0.06151571
0003e0 a3 bd 50 3d c2 83 fa bb b3 73 bc be 46 35 67 bd
       0.0509621 -0.0076451013 -0.36807021 -0.05644729
0003f0 9c 35 41 bc 1b 5d 16 bd 08 50 f9 3c c0 b9 27 bd
       -0.011792567 -0.036709886 0.03043367 -0.04094863

fc2_1_2.bias f4 [32]
000000 86 5c 41 bd 57 c3 5d 3e 81 08 4e 3e 41 6a 4b 3d
       -0.047207378 0.21656547 0.20120431 0.04966188
000010 04 30 40 3e e5 8e 83 3e 6c 8e aa 3d 5d 6b b8 3d
       0.18768317 0.25694957 0.08327946 0.09004853
000020 8a 37 b9 3d 34 b4 ce 3e 5f ca 9e 3e 36 e2 a7 3c
       0.09043796 0.4037186 0.31013772 0.020493608
000030 b1 d3 3a 3d 28 7c 89 3e 06 23 01 3e f6 31 53 3d
       0.04561204 0.26852536 0.12611017 0.05156132
000040 5d 1d 8b 3e 6c 62 88 3e e5 a0 da 3d e3 66 56 3e
       0.2717084 0.2663759 0.106752194 0.20937686
000050 51 10 59 3e 4a 23 bf 3d b0 8f bb 3d 57 66 9f 3e
       0.2119763 0.09332903 0.091582656 0.31132767
000060 17 41 fc 3d bb 84 8a be 72 f3 9b 3d 7b 03 08 3f
       0.123171024 -0.2705439 0.07614793 0.5313031
000070 94 33 28 3d 6f d6 e2 3d dd 8c c1 3e 12 0b a3 3c
       0.041064814 0.11076056 0.37802783 0.01990274

fc2_2.weight f4 [16, 32]
000000 61 c4 c9 bc d5 28 90 be 19 a9 84 3d 11 1c af 3d
       -0.024629774 -0.28156152 0.06477565 0.08550275
000010 41 92 0c 3e d9 5d 59 3e 91 5f 0b 3e ac 73 c9 bd
       0.13727666 0.21227206 0.13610674 -0.09836516
000020 0d 8e 39 3c 70 52 e0 3c eb 5a 45 3c c5 71 6b bd
       0.011325371 0.02738306 0.012045602 -0.057481546
000030 9b 16 1b 3e c7 c5 f3 bd 67 1d 00 3d 66 06 ad 3d
       0.15145342 -0.119029574 0.03127804 0.08448486
000040 b3 ca e4 3c e6 73 10 3e ad 85 e2 3d 16 19 f4 3c
       0.027928686 0.14106712 0.11060653 0.029797118
000050 d6 7d 76 3d c6 eb 18 be ca 68 1e bd cc 25 37 bd
       0.0601786 -0.1493369 -0.038674153 -0.04471378
000060 6f 93 a7 bd 50 f6 a9 bd 81 d0 a7 3c f4 06 8a bd
       -0.081824176 -0.082989335 0.020485165 -0.067396075
000070 5d b0 0f 3e 6c 09 de 3d 2c 33 8b 3e 6c 89 8a bd
       0.14032121 0.10841641 0.2718748 -0.067644924
000080 f5 93 a6 bd 4d 80 a1 3d 3a b5 93 be 04 5f 23 be
       -0.08133689 0.078857996 -0.28849202 -0.15954214
000090 ac ba a5 3d cd f6 0b bf a8 55 13 3e a9 fe c6 bd
       0.080922455 -0.54673463 0.14388144 -0.09716541
0000a0 f8 01 35 3d 56 8b 04 3e 2f e2 c5 3d 33 f4 9d 3d
       0.04419133 0.12943777 0.09662282 0.07712593
0000b0 8c 32 34 be 9c 60 b8 3d 8a e9 1f 3e 1a f7 66 be
       -0.17597407 0.09002802 0.15616432 -0.225552
0000c0 ea 3f 1e 3e 8b 77 e3 be 15 c9 e3 be 99 28 a2 be
       0.15454069 -0.44427142 -0.4448935 -0.316716
0000d0 7d ae be be 29 59 13 3e a2 bb 81 3d a5 a0 71 3e
       -0.372425 0.1438948 0.06334616 0.23596437
0000e0 3a 81 68 be d4 64 b6 bd 7b 29 b3 bc 90 ce 81 bb
       -0.22705546 -0.0890595 -0.021870365 -0.0039613917
0000f0 16 fd 79 be 7f e5 5b 3e ab 03 c1 be 18 a3 2d bf
       -0.24412951 0.21474265 -0.3769811 -0.67826986
000100 8e f0 ad bd 03 8b 38 bd b3 ff f9 bd 3f 5f 02 be
       -0.08493148 -0.045054447 -0.12206974 -0.12731646
000110 d8 ca 20 3e b1 37 b7 be 2f cd 55 3d 52 2e 3e 3d
       0.15702379 -0.35784677 0.05219763 0.046430893
000120 8d 31 2b 3e be 40 8c 3d 2d 15 c6 3d 15 d4 56 3c
       0.16718121 0.06848286 0.09672008 0.013112088
000130 d6 45 bf 3d da 56 bf 3d ba 2c b1 3d b9 9d c5 be
       0.09339492 0.093427375 0.08651109 -0.38596895
000140 40 a6 e0 3c 13 c0 f2 bd ff 16 a4 bd 30 cc af 3d
       0.027423024 -0.118530415 -0.08012199 0.085838675
000150 a2 43 70 be 6a 2e bb 3d e3 54 93 bd 53 a2 3c 3d
       -0.234633 0.09139712 -0.07193925 0.046053242
000160 2e 3d b5 bd 95 25 ce bd 45 1c f3 bd cc 01 1e be
       -0.0884956 -0.10065762 -0.11870626 -0.15430373
000170 ba a4 81 3d 1f 22 9e 3d bd 16 d4 bd 75 1c f6 be
       0.06330247 0.07721352 -0.103558995 -0.48068586
000180 57 31 5e be 43 d6 b8 be e9 fc 8d bd 7d ee e9 bd
       -0.21698509 -0.3610097 -0.069330044 -0.11422441
000190 1d 5f 19 be 52 8e ec 3d f9 e0 75 be c7 63 9c be
       -0.14977689 0.11550583 -0.24011602 -0.30544874
0001a0 b9 e7 81 be 46 26 2a be 6e be 4a 3d 46 aa b3 be
       -0.25372103 -0.16616163 0.049498014 -0.35090846
0001b0 d1 a6 1e be 7d 66 83 be 77 97 09 bd 34 ee 2f be
       -0.15493323 -0.2566413 -0.033591714 -0.17180711
0001c0 78 22 74 bc 71 15 6f 3e e6 dc 17 be 93 57 83 3e
       -0.014900796 0.23348023 -0.1483036 0.2565275
0001d0 a7 2e 70 3d 60 f7 7b be ad ce c8 be f6 6d 1c be
       0.05863824 -0.24606085 -0.3922018 -0.15276322
0001e0 b7 1f 60 3d 1b 23 95 bd 76 14 10 be 37 ca 30 3e
       0.054717746 -0.072820865 -0.14070305 0.17264639
0001f0 dc 38 a9 be 46 6f a9 be 75 cf fa 3c da ab ed bd
       -0.33051193 -0.33092707 0.030616501 -0.11605044
000200 07 08 77 bc 24 07 3c 3d 54 61 93 be 7d 77 88 be
       -0.015077597 0.045905247 -0.28785193 -0.26653662
000210 16 32 2a bd d4 ff 00 be db 69 b5 3d 82 01 94 bd
       -0.041551672 -0.1259759 0.08858081 -0.0722685
000220 c8 a0 75 3d 8a df 14 3e 67 42 ff 3d 8c 56 00 3e
       0.059967786 0.14538398 0.12463837 0.12533015
000230 62 d5 4b be 2f b2 fc 3d 0f 64 67 3e bf 8f bb be
       -0.19905618 0.12338673 0.22596763 -0.36633107
000240 9f c1 22 3e b9 f3 89 be 89 53 31 be 43 73 64 be
       0.15894173 -0.26943758 -0.17317022 -0.22309594
000250 88 f4 b2 be 86 76 6a bd e2 6b 17 bd 50 db 80 3d
       -0.34952188 -0.05724194 -0.03696812 0.062918305
000260 2e bf b1 bd 3a 07 bb bd 32 35 41 be 5e 5f 0a bd
       -0.08679043 -0.09132238 -0.18867949 -0.033782355
000270 e4 9c 71 be a5 78 a1 3e 2a 8f af be f1 fa bd be
       -0.23595005 0.31537357 -0.34288913 -0.37105516
000280 83 c4 bf be 9a 58 b4 be 03 3e f4 bd ea 24 86 bd
       -0.37454614 -0.35223848 -0.1192589 -0.065500095
000290 38 32 0e be 59 b0 20 3d 54 91 dc bd b6 d8 f3 be
       -0.13886344 0.03923068 -0.10769907 -0.47626275
0002a0 0e 71 3d be 7f 91 59 bc 4e 72 dd 3c dd 85 c0 be
       -0.18500158 -0.013279318 0.027032044 -0.3760213
0002b0 da 32 27 3e 61 29 69 be fb 05 1a be 30 c9 9d be
       0.16327992 -0.22769691 -0.15041344 -0.30817556
0002c0 e6 60 12 be 20 40 1e 3e ff fe 5e be 02 70 5c 3e
       -0.14294776 0.15454149 -0.21776961 0.21527103
0002d0 44 f4 e4 bc d9 b1 7f be 2c 44 5f be 0d 7c f2 bd
       -0.027948506 -0.24970187 -0.2180335 -0.11840067
0002e0 fd 9b 44 3c 37 a0 d4 be 47 be d3 bc 8d 52 71 3e
       0.012000081 -0.41528484 -0.025847567 0.23566647
0002f0 7c 77 f8 be 6f 22 5b be 99 84 f7 3d 7a 01 62 be
       -0.4852866 -0.21399854 0.12085838 -0.22070876
000300 0a c2 10 be 60 67 16 3d d9 a1 23 3c 9d e8 dc bd
       -0.1413652 0.03671968 0.009987318 -0.10786555
000310 35 95 98 3e 7e aa 72 bd e7 48 c0 bc f6 f7 4c 3b
       0.29801336 -0.059244625 -0.023472263 0.0031275726
000320 4b 8a bb 3d 95 66 ce bc c4 f5 fe 3b 28 27 d2 3b
       0.09157237 -0.0251954 0.0077807624 0.006413359
000330 08 20 81 be f1 32 75 3c a4 da 7d 3c b2 33 e4 bd
       -0.2521975 0.014965759 0.0154940225 -0.111426726
000340 b0 14 8e 3c 5c ea cc 3b a0 d8 06 3c 04 4f b8 bc
       0.017343849 0.0062535238 0.008230358 -0.022498615
000350 d5 bf 51 be f9 cb 0a bc f9 55 f0 bc 1b 3b 93 3c
       -0.20483334 -0.008471482 -0.02933787 0.01797252
000360 d3 4e 5c 3d 25 7f 69 bd da d3 38 bc f0 a3 fe bd
       0.05378611 -0.05700602 -0.011280978 -0.12433612
000370 ab 5b c5 bd 95 1a 1c 3e b5 31 23 be 4c 07 a2 be
       -0.09636625 0.15244515 -0.1593693 -0.31646192
000380 17 54 3f 3d d1 89 93 3d 8e aa 5f 3e d2 0b 1d 3e
       0.046711054 0.07204021 0.21842405 0.1533654
000390 b8 ca 0d 3e 5b e4 57 3e 2c 63 d7 3d 7b c8 75 bd
       0.13846862 0.21083204 0.105169624 -0.060005646
0003a0 50 ad 87 3e 2b 19 d4 be db c6 0a bd 0b 97 dc 3d
       0.26499414 -0.41425452 -0.03388105 0.10770997
0003b0 97 ca 3f 3e 66 95 0f 3e 11 f7 9e 3c 88 b2 61 3e
       0.18729626 0.14021835 0.01940492 0.2204076
0003c0 6a ee 1a 3e 7a fa a0 3e 3c e7 94 3e c8 29 6a be
       0.1513001 0.31441098 0.29082668 -0.22867501
0003d0 1e cb 1f 3e 7e 3b 38 3d 44 11 45 be 6b 29 e2 bb
       0.15604827 0.04497861 -0.19244868 -0.00690191
0003e0 3f 7d 42 3e ff f4 8c be cf 2a 66 3e 73 17 8b be
       0.1899309 -0.27530667 0.22477268 -0.27166328
0003f0 8f 3b 1a 3e 58 09 76 3e 88 17 6d 3e 72 49 2b 3e
       0.15061782 0.24027002 0.23153508 0.16727236

fc2_2.bias f4 [16]
000000 a5 11 1b 3e ce 10 0b 3e b6 82 92 3d ba 79 cd 3e
       0.1514345 0.13580629 0.071538374 0.40131932
000010 c5 1b a3 3d e0 58 ba 3e d5 18 a9 3d f0 64 90 3d
       0.07964281 0.3639593 0.082566895 0.07050502
000020 1b 48 8b 3e e7 46 a1 3e 5b 70 ac 3e 61 21 ba bd
       0.2720345 0.31499407 0.3367947 -0.09088398
000030 f5 3f 35 3e 01 9d 89 3d 82 3f 68 3e b8 df 48 3e
       0.17700179 0.06719399 0.22680476 0.19616592

fc3.weight f4 [30, 16]
000000 69 f1 93 3e 34 0c c2 bd 99 09 6f be c7 09 ac 3e
       0.2889512 -0.09474984 -0.23343505 0.3360121
000010 62 e6 1d be 12 fd aa 3e 98 d2 90 be 18 fd 62 3e
       -0.15419915 0.33396202 -0.2828567 0.2216686
000020 71 7e 99 bd 5f b6 7e 3f fb 78 cb 3e 2b 89 b8 bc
       -0.0749482 0.99497026 0.39740738 -0.022526344
000030 e9 83 70 3e 97 3b 2e bf cd 1b 87 3e 05 36 8e 3e
       0.2348782 -0.68059677 0.26388398 0.2777559
000040 06 08 94 3e c8 df d8 bd 3a 6c 83 be 6d a2 a5 3e
       0.2891237 -0.10589558 -0.25668508 0.32350484
000050 2b 48 2d be 6a 4d a0 3e 0f 8a 9f be 6f 85 68 3e
       -0.16922061 0.31309062 -0.31160018 0.22707151
000060 f8 b8 a9 bd 81 43 64 3f 1d 62 c6 3e 94 e2 ce 3d
       -0.08287233 0.891655 0.3874673 0.1010181
000070 b0 4d 67 3e e3 83 3d bf 8e 2b 88 3e 2a 01 89 3e
       0.22588229 -0.7402937 0.2659573 0.267587
000080 b4 91 94 3e 95 9f d4 bd 3d d3 81 be 5c b7 a5 3e
       0.29017413 -0.10382 -0.25356475 0.32366455
000090 cb 2e 2c be 00 59 9b 3e 27 42 9e be 4c 90 6a 3e
       -0.16814725 0.3034134 -0.30909845 0.22906607
0000a0 11 e6 a7 bd df 02 52 3f f7 4e c7 3e 1e 27 ca 3c
       -0.081981786 0.8203563 0.38927433 0.024676856
0000b0 ad d7 65 3e da bb 39 bf 2b c0 86 3e 0f e5 87 3e
       0.22445555 -0.72552264 0.26318488 0.26541945
0000c0 d2 da 93 3e 66 17 d8 bd 47 58 84 be f1 03 a3 3e
       0.28877884 -0.10551338 -0.258486 0.31838945
0000d0 ac b8 30 be 9c 02 97 3e a7 15 9e be 42 96 6a 3e
       -0.17257947 0.29494178 -0.30875894 0.22908881
0000e0 28 f5 aa bd 11 5c 30 3f 57 99 c6 3e b7 2f 84 3e
       -0.08347541 0.6889048 0.38788864 0.25817654
0000f0 2d 60 62 3e 27 bf 39 bf a5 a4 84 3e 50 1a 85 3e
       0.22107 -0.725573 0.25906864 0.25996637
000100 0e fc 92 3e cd 54 de bd a1 50 87 be ae bb 9f 3e
       0.28707927 -0.10856018 -0.26428702 0.31197876
000110 c3 23 35 be 10 98 91 3e 89 39 a1 be 34 b2 6b 3e
       -0.17689423 0.28436327 -0.31489208 0.23017198
000120 ba 3c ae bd 19 3b 04 3f a3 ad c4 3e 75 85 3f be
       -0.085076764 0.51652676 0.38413724 -0.18703254
000130 2a 27 62 3e a4 5e 3a bf d2 f4 81 3e 54 f4 80 3e
       0.22085252 -0.7280066 0.25382096 0.25186408
000140 f7 45 92 3e 35 a9 e9 bd 77 0c 8b be 5e bd 9a 3e
       0.28569004 -0.11409227 -0.27157947 0.302226
000150 df 5e 3b be d0 18 8a 3e 7d 14 a6 be 26 26 69 3e
       -0.18297909 0.26972055 -0.32437506 0.22768459
000160 f3 1b b5 bd d4 6f a9 3e d5 e5 bd 3e 78 2e 58 bd
       -0.088432215 0.3309313 0.3708941 -0.05277869
000170 56 75 63 3e 72 c5 3d bf 98 75 81 3e c9 3f 7b 3e
       0.22212729 -0.741294 0.2528503 0.24536051
000180 7a ef 8f 3e b7 1d f2 bd 83 19 8f be fb 2a 95 3e
       0.28112394 -0.11822074 -0.2794915 0.29134354
000190 a8 37 41 be 9c 06 81 3e 26 8b ab be 71 86 65 3e
       -0.18868887 0.25200355 -0.335046 0.22414567
0001a0 c5 ec ba bd c7 cd 3a 3e 8f 34 b6 3e ff 6f 6d 3e
       -0.091271915 0.1824256 0.35586974 0.23187254
0001b0 e2 b6 5f 3e 2a 69 41 bf fc 08 7d 3e 9c a3 73 3e
       0.21847108 -0.7555109 0.24710459 0.23792881
0001c0 ca 97 8f 3e aa 4f ff bd 93 01 95 be 2f 1c 8b 3e
       0.28045493 -0.124663666 -0.29102764 0.2716994
0001d0 06 1a 4a be d6 9a 61 3e 2b 46 b3 be ed 89 66 3e
       -0.1973649 0.22031721 -0.3501447 0.22513552
0001e0 01 c7 c3 bd 4a c4 f3 3c 34 50 ad 3e cf e9 3a 3e
       -0.09559441 0.029756684 0.33850253 0.18253253
0001f0 d8 31 60 3e e7 17 43 bf 97 74 73 3e d7 26 6e 3e
       0.21894014 -0.7620835 0.23774944 0.23257004
000200 43 33 90 3e 3f bc 04 be e7 36 99 be b2 30 7d 3e
       0.2816411 -0.12962435 -0.299247 0.24725607
000210 2b 30 51 be 1f 6b 48 3e c0 25 b9 be b1 83 6a 3e
       -0.20428531 0.19572113 -0.36161613 0.22901799
000220 b1 9c ca bd d0 92 f0 bd be 25 a6 3e 05 39 fd 3d
       -0.09893168 -0.11746752 0.3245067 0.12364391
000230 e9 a4 63 3e 2f aa 3b bf 1f 84 6b 3e 75 d6 64 3e
       0.22230877 -0.73306555 0.22999619 0.22347434
000240 7e ba 90 3e 7e a6 08 be 64 3d 9c be 57 bb 6b 3e
       0.28267282 -0.13344762 -0.30515587 0.23020683
000250 44 b8 56 be 73 de 3a 3e 22 06 bf be 0a 3b 6d 3e
       -0.2096873 0.1824892 -0.37309366 0.23167053
000260 c5 4e d0 bd 48 b1 5d be 32 0e 9e 3e d9 ef 1b be
       -0.10171274 -0.21649659 0.30870205 -0.15228213
000270 46 41 63 3e 03 19 33 bf ae e8 61 3e 1f b0 5a 3e
       0.22192869 -0.6996004 0.22061417 0.21356247
000280 14 8e 91 3e b3 8e 0c be 55 49 9d be 48 27 58 3e
       0.2842871 -0.1372631 -0.3072001 0.21108735
000290 46 38 5b be 88 c1 20 3e cb b6 c2 be 76 14 71 3e
       -0.21408185 0.15698826 -0.38030085 0.23542961
0002a0 18 69 d4 bd d7 0e 9a be d7 3c 9a 3e aa 9a 24 3e
       -0.103716075 -0.30089447 0.30124542 0.16074625
0002b0 63 3f 68 3e 29 76 26 bf 20 78 55 3e 5b 91 59 3e
       0.2268043 -0.6502405 0.20846605 0.21246855
0002c0 3b 5f 93 3e f2 aa 10 be c9 70 9d be 8c 70 4b 3e
       0.28783593 -0.1412771 -0.3075011 0.19867152
0002d0 a9 05 60 be 5f 80 05 3e 70 7f c4 be 21 27 74 3e
       -0.21877159 0.13037251 -0.38378477 0.23843051
0002e0 d3 6e d8 bd a4 90 c3 be 4b e9 97 3e cc d8 34 be
       -0.10568013 -0.3819629 0.29670176 -0.17660826
0002f0 4f fd 66 3e 47 0b 17 bf 17 5c 53 3e d7 d8 53 3e
       0.22557567 -0.5900158 0.20640598 0.20688187
000300 47 ec 91 3e da 1e 14 be 04 6c 9d be 7b 53 3e 3e
       0.28500578 -0.14464894 -0.30746472 0.18586533
000310 54 be 63 be cc 83 c5 3d d3 53 c4 be b1 92 72 3e
       -0.22240573 0.09644279 -0.38345203 0.23688771
000320 ec b8 dc bd b0 2c e1 be 59 8e 94 3e 65 fa 6a be
       -0.107774585 -0.43979406 0.29014853 -0.2294708
000330 42 93 67 3e fd 16 0a bf e4 9c 50 3e b1 fa 4e 3e
       0.22614768 -0.5394133 0.20372349 0.20212819
000340 16 ae 94 3e c0 f0 14 be ff af 9b be ea a1 2a 3e
       0.29039067 -0.14544964 -0.30407712 0.16663328
000350 95 e4 63 be ff 55 86 3d 74 03 c3 be 6e 2b 7a 3e
       -0.22255166 0.06559371 -0.38088572 0.2443063
000360 05 17 dd bd 54 f3 f7 be bd 80 90 3e 20 41 6f bd
       -0.10795406 -0.48427832 0.2822322 -0.058411717
000370 27 8c 68 3e dc 58 ff be e4 18 48 3e 05 d8 45 3e
       0.22709714 -0.49872482 0.19540745 0.19320686
000380 14 fe 95 3e 74 30 16 be 6e d2 9a be c6 da 1c 3e
       0.2929541 -0.14666921 -0.3023867 0.1531783
000390 f5 68 65 be 5e 92 17 3d 07 cd c1 be 6e 31 81 3e
       -0.22403319 0.03700482 -0.37851736 0.25233024
0003a0 47 15 dd bd 02 82 fb be 28 a2 8a 3e 0e 03 b5 bd
       -0.10795074 -0.49122626 0.2707684 -0.08838473
0003b0 ef dd 68 3e 58 7f ee be 1d 9d 41 3e 8c b4 3c 3e
       0.22740911 -0.4658153 0.1890759 0.18428248
0003c0 fe 27 95 3e d8 97 16 be 2a 1b 9a be 0f 74 08 3e
       0.29132074 -0.14706361 -0.3009885 0.13325523
0003d0 4e f4 64 be 5a e4 28 3c e7 5a bd be d0 ad 83 3e
       -0.2235882 0.0103083495 -0.36983415 0.25718546
0003e0 e4 7a dc bd 2e ee 03 bf 5e 75 85 3e 07 f5 65 be
       -0.10765627 -0.5153531 0.26066107 -0.22456752
0003f0 d7 38 6b 3e c7 03 de be 04 5b 41 3e 2a 03 34 3e
       0.22970901 -0.43362257 0.18882376 0.17579332

fc3.bias f4 [30]
000000 45 c8 5a 3e 9f cc 71 3e 76 a5 6f 3e a8 ba 74 3e
       0.2136546 0.23613213 0.23402962 0.23899329
000010 d0 98 7a 3e 33 53 82 3e c7 ac 86 3e 50 36 8d 3e
       0.24472356 0.254541 0.26303694 0.275805
000020 50 28 92 3e 6d 1b 96 3e d9 09 99 3e 03 fe 9b 3e
       0.2854638 0.293178 0.29890326 0.30467233
000030 43 c0 9e 3e b0 a5 9e 3e 7c ad 9f 3e 98 2c a0 3e
       0.3100606 0.30985785 0.31187046 0.31284022
000040 dd e5 dd 3b 36 b4 5e bb 9a 10 19 ba 0f 1f 8a ba
       0.0067717866 -0.0033981926 -0.00058389606 -0.0010537821
000050 9f 98 f5 bb bd b0 bb bb a6 c3 c6 ba e7 56 57 ba
       -0.0074950005 -0.005727856 -0.0015164509 -0.00082145486
000060 ec 0d 26 3c 06 b6 87 bb 46 bc 89 bb a8 a5 82 bb
       0.010135155 -0.004141572 -0.004203352 -0.003987033
000070 84 31 74 ba f1 a9 14 39
       -0.000931524 0.00014177688
