Heater_Results/uniform_S50_vshape_Iter30_Epoch10.onnx (onnx, 41615 bytes, 14 tensors)

fc1.weight f4 [8, 3]
00000000: 9af1 e53e 3326 093c 6970 87bb 0d59 3d3e
00000010: 45f2 57be 17e1 89be 31f7 5ebe 65f4 4b3e
00000020: d403 6c3d ccee 56bf 9427 a13e e8ca 213e
00000030: eba4 a03f f66d b93e 7d5c a0bd 4e2d e63d
00000040: e7d9 aebe 92a4 3bbe 880f f6be 86f6 12be
00000050: 7b83 08bf 1e30 953d ce7c c9be cd05 c8be
0.4491089 0.008370924 -0.0041332734 0.18491001 -0.21088512 -0.26929542 -0.21773984 0.19917448
0.05762084 -0.83958125 0.31475508 0.15800059 1.2550329 0.36216706 -0.07830141 0.1123911
-0.3415062 -0.18324497 -0.48058724 -0.14351854 -0.53325623 0.07284568 -0.3935303 -0.39066926

fc1.bias f4 [8]
00000000: 8921 2f3f 8672 58be fcb9 2f3d 681f 33bf
00000010: 5f9b 843e 5e3d afbe 3ec0 083f d607 943e
0.68410546 -0.21137437 0.042901978 -0.699698 0.2589979 -0.34226507 0.5341834 0.28912228

fc2.weight f4 [32, 8]
00000000: 600e cabe 81bf 2d3d 09de bcbe 381e cb3d
00000010: 1ebd 3fbf be9c cd3d 45f2 33be d41b 813e
00000020: 19da aabe 5b75 67be 6eba 63be b902 ce3d
00000030: 75e6 b9be 16ce 1ebe 2c2b e4bc fe2d 7b3c
00000040: 2ba2 2dbe 9e2a e1bc 3e03 e83d c72f 3c3d
00000050: 6492 8fbe 7caa cdbd 63ba 14bd 0715 b1be
00000060: 3c1b bdbc 98ab b4bd d5e7 60be d2f8 acbd
00000070: 8f00 4e3e ef91 debd a126 fcbd b04e 0f3e
00000080: e261 e9bd aa9a 603e e2ce ccbd 4bbe dcbc
00000090: afde aabc ae13 fa3d 0ded a23e 13d7 85be
000000a0: 5b91 a03e 0b57 343e 9db1 0bbd f776 a1be
000000b0: ed4c 8d3e 1d3f b43d b07f b3be 7275 9a3e
000000c0: ed4c dabd d6ef 9abd 25a7 afbe 37e6 8ebd
000000d0: 494b 0b3d 2600 123e 4ded f0bc 7553 663e
000000e0: ee3b 27be e143 b23d 11e0 a93d b013 0cbd
000000f0: eef8 6bbd 459c 6cbe 953a b23e 300a 173c
00000100: 755f 5d3d b4e8 913e 5aa6 7cbd 2a64 9d3e
00000110: 8e65 5fbe be6e 88bd cfe4 17be 3a48 edbd
00000120: 35a4 2cbe 24d2 63be 937a 003e 0e44 77be
00000130: 24e9 56bc 4ecc 8a3e 014b 813d 6c72 9b3d
00000140: 5ff7 173e edd6 a7be e9d5 843e d00f 98be
00000150: 3b36 413d 70b3 553d 0162 863e 4240 0b3e
00000160: 8e2a f33d fcb6 343e 5922 1e3d fd67 f4bd
00000170: b850 a6be a8fe b73d 995c 803d 507e f3bd
00000180: 5b75 743e eaaf 4b3e 36d4 54be 4b7b 2bbe
00000190: ecd0 42be add7 993e 8757 413d 0802 9b3e
000001a0: bec2 3a3e 12d5 323e b48f 933e a070 76be
000001b0: 0b4d 0abe 53c0 243e ded8 a73e e8c9 10be
000001c0: b1e3 7fbe 947f 42be 500a 5abe 376b 9cbd
000001d0: 4805 173e 5fcc 92be bbf0 713e 3569 343c
000001e0: 1fc0 793e f04c 8d3e 64a0 abbe 6c20 d8bd
000001f0: 8760 8f3e c437 5c3d 9891 a43e dd81 abbe
00000200: 4428 bfbe 49f4 653e 63ef 48bd 257e 1e3d
00000210: be5f 83bd c038 a03e 4a18 49be d2cc 023d
00000220: 3d81 36be 27f2 7e3e 8ac1 95be 9df8 933d
00000230: dffb 10bd 7ab1 dc3b 32c1 0f3c b69b 2c3e
00000240: bb8c 80be 6259 82be 9d0d 60be 1b4f cabd
00000250: a27f 9c3b f78d ae3c 9160 84be 62f7 14be
00000260: 7675 eabe 59fd a03e 1423 8e3d df0a 3e3e
00000270: 2362 32be 989d 9a3e 9f77 2fbd 3b80 5f3e
00000280: 8942 63be 825a 1cbe cddd 92be 6be9 a23d
00000290: 789f 59be 8b1b 8b3e 282d 63be 8a35 143e
000002a0: 5326 83be 995c c2bd 2493 c33d 1ba5 2dbe
000002b0: 1df5 403d cf98 b83d 0013 7b3e aa80 833e
000002c0: f762 c7bd 0a72 56be 8e01 fcbb 8a0e 43be
000002d0: a0be 193c 814c 023e 1936 883e cb5a 513e
000002e0: a8d4 62bd 6f1f 22be 3a27 8cbe 9b30 a33d
000002f0: 8997 54bf 83f3 7abe 9318 45bd d655 653d
00000300: 87ac 5e3e 2dfe 99be b4f6 79bd a120 4abe
00000310: 0778 ecbd e63e 443e 0cb9 21be 1191 443e
00000320: 3754 5bbd f836 2ebe 57d0 20bd bde7 8c3e
00000330: 9595 78be b40e fbbb 45d6 30be bc4b b1be
00000340: f3c4 31be 63f6 b03e 6afa a43e 1de9 a0be
00000350: db60 84bd f774 92bd b13a 003e 77df 833e
00000360: 1de9 eabe 1061 2cbe a27c abbe 352e 3c3e
00000370: 4792 dabe 7beb d8bd 26e5 813e b348 35be
00000380: abcb c2bd d1f7 463d ddcc a63e 5e57 80be
00000390: dbb7 1abe 6234 06be 85df e6bb 9f25 653d
000003a0: c7e3 1bba f06a 373e 914c d43e 3836 30bc
000003b0: 13e9 5abe de9c 893e 7a31 7e3e 2723 7b3e
000003c0: 9d5d 8e3e 2cc9 39be 9902 6abe f6ac 87be
000003d0: 0b74 513e 9e39 76bc 729d 2cbe cf26 013e
000003e0: 5839 363e 37ab 833e 42fa fd3d 87f7 543d
000003f0: a847 38be 1552 983e d172 3b3e 16a6 623e
-0.39464092 0.04241896 -0.3688815 0.09917873 -0.74897945 0.10039662 -0.17572887 0.25216544
-0.3336952 -0.22603361 -0.22239086 0.10059113 -0.36308637 -0.15508303 -0.027852617 0.01533079
-0.16956393 -0.027486142 0.113287434 0.045944 -0.28041375 -0.10042283 -0.036310565 -0.34586355
-0.023084275 -0.088217914 -0.21963437 -0.08445896 0.201174 -0.108676784 -0.123120554 0.1399486
-0.11395623 0.21934 -0.10000397 -0.026946208 -0.020858137 0.12210785 0.3182148 -0.2614065
0.31360897 0.1761133 -0.034104932 -0.31536075 0.27597752 0.088011004 -0.35058355 0.3016773
-0.10659204 -0.07565276 -0.3430721 -0.06977504 0.034007344 0.14257869 -0.029410029 0.22492774
-0.16331455 0.08704353 0.082946904 -0.034198463 -0.057610445 -0.23106487 0.3481032 0.0092187375
0.054046113 0.2849785 -0.061682083 0.30740482 -0.21816084 -0.066617474 -0.14833377 -0.11586042
-0.16859515 -0.22248131 0.12546758 -0.24147055 -0.0131171085 0.27108997 0.06313134 0.075901836
0.14840458 -0.32781163 0.2594445 -0.29699564 0.04717086 0.052173078 0.26246646 0.13598731
0.11873351 0.17647928 0.038606975 -0.11933897 -0.3248346 0.08984119 0.062676616 -0.118893266
0.23872893 0.19891325 -0.20784077 -0.16746251 -0.1902501 0.3004736 0.047202613 0.30274987
0.18238351 0.17464092 0.28820574 -0.240664 -0.13505952 0.16088991 0.32782644 -0.14139521
-0.24989201 -0.1899398 -0.21292996 -0.07637637 0.14748108 -0.28671548 0.23626988 0.011011411
0.24389695 0.2759776 -0.33520806 -0.10553059 0.28003332 0.05376412 0.3214233 -0.33497515
-0.37335408 0.22456469 -0.049056422 0.03869452 -0.06414746 0.31293297 -0.19638172 0.031933613
-0.17822738 0.24897061 -0.2924922 0.072251536 -0.035396453 0.006735024 0.008774089 0.16856274
-0.2510737 -0.2545882 -0.21880193 -0.098783694 0.004775957 0.021307928 -0.25854924 -0.14547494
-0.4579274 0.3144329 0.06940284 0.18558834 -0.17420249 0.3019836 -0.04283869 0.2182626
-0.2219335 -0.15268901 -0.28684846 0.07954677 -0.21252239 0.2716945 -0.22185194 0.14473549
-0.25615177 -0.09490318 0.09549549 -0.16957514 0.04710876 0.09013521 0.24518967 0.256841
-0.09735673 -0.2094194 -0.007690615 -0.19048515 0.009383827 0.12724496 0.26603773 0.20444791
-0.055378586 -0.15832303 -0.27373677 0.07968255 -0.83043724 -0.24506955 -0.04811914 0.055990063
0.21745501 -0.30076733 -0.06102629 -0.1973901 -0.11546331 0.19164619 -0.15793246 0.19195963
-0.05354711 -0.17013156 -0.03926119 0.27520552 -0.24275811 -0.007661665 -0.17269237 -0.34628093
-0.17360286 0.34562978 0.322223 -0.3142785 -0.06463786 -0.071512155 0.12522389 0.25756428
-0.45880976 -0.16833901 -0.33493525 0.18377002 -0.42689726 -0.10591789 0.2537014 -0.17703514
-0.09511503 0.04857618 0.32578173 -0.25066656 -0.15109198 -0.1310592 -0.0070456886 0.05594408
-0.0005946722 0.17911887 0.41464666 -0.010755114 -0.21377973 0.26877493 0.24823561 0.24525128
0.27805796 -0.18143147 -0.22852553 -0.26499146 0.20454423 -0.015028385 -0.16856936 0.1261246
0.17795312 0.25716564 0.124012485 0.051993873 -0.17996085 0.29750124 0.18305518 0.2213367

fc2.bias f4 [32]
00000000: e54d 853e c2f2 a2bd 186b 8c3e 5a04 263e
00000010: 503f 6fbe b769 cebd 5704 3abe 895f 41be
00000020: bbf8 483c 3ecf db3e 71cd 31be 62f8 dabd
00000030: f733 7dbe f774 803e fed1 a6be be1b d5bd
00000040: c136 1bbf 4994 06bf 52b3 973e 40ac 25bf
00000050: 633f 953e 4514 9bbe 2407 033d 0cfb a3bd
00000060: 5a78 513e 3ed4 37bf 65b5 2f3b 8afd fdbe
00000070: 18ca 38be 7ef6 003e 3e07 3dbe e1c2 f33b
0.2603599 -0.07956459 0.27425456 0.16212597 -0.23363996 -0.10078757 -0.18165718 -0.188841
0.012266333 0.4293155 -0.17363526 -0.106919065 -0.24726854 0.25089237 -0.32582086 -0.10405682
-0.6063042 -0.52570015 0.29628998 -0.6471596 0.29149923 -0.30288902 0.03198923 -0.08006868
0.20456067 -0.7180823 0.0026811 -0.49607497 -0.18045843 0.1259403 -0.18459794 0.007439003

fc2_1.weight f4 [64, 32]
00000000: 398b 573e b119 163d 0d4d 943e df01 e6bc
00000010: b9cd ad3c 3846 5fbe bf19 12be 342e 843d
00000020: b133 a53e f2f1 613d de36 4dbe 6350 2cbd
00000030: 1258 f1bd 614d 123e c748 803d e966 26bd
00000040: 34a7 d5bd 25e2 00be 8774 c7bd 80c8 8ebd
00000050: 0552 b03e 0bee 393d ef7c f0bd 396e 073e
00000060: 5a75 73bd 8cc9 b13d 534a 01be 0768 5c3e
00000070: 0df4 763d 237d 2cbe 8e2d a5be 92ae 793e
00000080: 15d0 11be 8599 d93d b521 c3bd 7297 24be
00000090: 9677 a5bb c772 aabd ae6d 533d b24e 9e3d
000000a0: 450a 2fbe 195d a73d 2651 b5be 9b2f 05be
000000b0: 21d5 413e 7dea 91bd aed4 6cbe 4b03 253d
000000c0: 41fc aebd c9e7 29bc b706 313e 9c29 a4bd
000000d0: 5471 67bd 8f49 b2bd a908 da3d 697e 07be
000000e0: e78a f03d 9eb7 c1bd c803 8e3d 4677 95bd
000000f0: b39e 573d fcd8 8ebd f007 09be b978 7e3a
00000100: 8098 2bbd 66da 8e3d bd76 fe3c fea8 f2bd
00000110: eff7 90bd 37b6 aebe c713 e03c 8cf5 bb3d
00000120: 2aa6 71bd 94a6 423b 261a aebe 0977 9e3c
00000130: 0f3a 143d 410d f4bd 1db9 40bc 4b5b f0ba
00000140: b1f0 463c b026 67be cb68 b3bd 72e4 d83c
00000150: e3cb 9abd 5fc9 46bd 916e 66bd 3611 53be
00000160: a468 c2be d6ea bbbd dec2 efbc 836d 86be
00000170: 8083 0a3e 7f78 db3d f327 38be 2932 4e3d
00000180: a711 b9bc c0cf b0bb 5ed1 6d3d 9c68 0a3e
00000190: 0c4c 1fbe fd37 283d cd27 933d 80a8 87be
000001a0: 92fc d23d 0d71 5fbe 4e7c 00be 6a7c 5abd
000001b0: 87d4 05be eb61 e8bd 5d65 93bc f2d9 853c
000001c0: 64dd 45be 5955 b43c cdd1 46bc 79c4 463d
000001d0: ac26 1a3e 454d 17be d2fd 40bc 6e02 813e
000001e0: 863b cb3d 4d7c 1dbd 8775 00bd 2203 ea3d
000001f0: 7939 20be f28a d33d cd25 9a3d 3891 7d3e
00000200: 29a2 9fbc 8782 343d e0b1 2ebd d8a4 e2bd
00000210: 6f4d 8cbd 7868 81bd 5812 b83d f303 9a3d
00000220: d19e 94bd d277 1cbe db72 823d 31a6 193e
00000230: f8e1 173e 9909 9ebd 5109 023e 4cb6 5ebd
00000240: 4aa2 8c3b fb99 1dbe 53d4 90be 8c0e 3d3d
00000250: c203 753d dd00 1cbd 0d6c ea3d 36b9 7b3d
00000260: 8eff 9fbd af13 f93d af35 b7ba 5a73 d4bc
00000270: 2281 01be 48d3 18bd 1854 083e 80b5 93be
00000280: bc6b 0bbe 3882 90be b8f5 c6bc e533 94be
00000290: ddf3 0a3e e127 a0be 0967 573d 78eb 913c
000002a0: f6fc 1a3e d842 1d3e 69da 15be 8407 fd3c
000002b0: 7080 af3c 2dd3 b2bb f4bf 38bc 1283 60be
000002c0: 95cb f4bd 27b1 e23c e02d 1fbd 44db 8f3c
000002d0: b3eb ad3d 1fa1 0c3e 16fe 873d 4130 1fbe
000002e0: 753b afbe cb8d deba a72f cf3d e5df 6fbe
000002f0: 7577 bdbd 0bce 033d 6a6c 76be 2182 853e
00000300: 7203 46be 7182 6e3c 9c3b 74be c62f 3ebd
00000310: a9d7 dcbb 4877 3dbe 8367 46ba fae1 b8bd
00000320: 7dfd fcbc 4403 a43d 9a4d a7bd 46bf 303c
00000330: c3a0 90bd 5fe7 3b3e 82f7 84be fd92 943d
00000340: 2f56 10be 451e e73c 38af 213d 254b 97bd
00000350: 90aa 0bb8 f1ec 9cbe 2303 053e 6d42 e13c
00000360: 002c 043d 184d 03be 72cb 5bbd 826d 6cbe
00000370: 02b6 133e 0078 25be 77a3 3bbe ce1e ec3b
00000380: b889 343e 1316 113e 93ac 80be 61e7 82bd
00000390: a2a5 883c 33f2 863d 09cb cd3d 9c44 c5bc
000003a0: 44f8 e6bc 04bd ec3c 8ceb b3be ff2b 70bb
000003b0: f8e9 f33d 74d8 20be 4e98 663d ef7d 35bc
000003c0: 3398 1cbc 8078 653d 48e7 5dbc fd0f 3ebd
000003d0: 6546 003d f06b a6bc 2b0b 0bbd cfea 353e
000003e0: 4fa4 bdbc 44ec ff3d 83a8 0a3e 68f4 fcbd
000003f0: 64f8 d5bd 49a5 f53d 6298 ca3c 6b66 83be
0.21049203 0.036645595 0.28965035 -0.028077064 0.02121626 -0.2180413 -0.14267634 0.06454125
0.32266 0.055162378 -0.20040461 -0.04206885 -0.11784376 0.1428733 0.06263881 -0.040625487
-0.10432282 -0.12586267 -0.09739023 -0.06971836 0.34437576 0.04539303 -0.11742579 0.1322564
-0.059438087 0.0868102 -0.12626009 0.21524058 0.06029134 -0.16844611 -0.32261318 0.24383
-0.14239533 0.10624985 -0.095279135 -0.16073397 -0.005049656 -0.08322673 0.05161827 0.07729854
-0.17093761 0.08172054 -0.35413474 -0.13006441 0.18928958 -0.07124803 -0.23128006 0.040286344
-0.08544207 -0.010370203 0.17287718 -0.08015749 -0.056504562 -0.087054364 0.10646183 -0.13231815
0.117452435 -0.0945885 0.06934315 -0.0729814 0.05264158 -0.0697498 -0.13381934 0.000970732
-0.041893482 0.0697525 0.031062478 -0.11848639 -0.070785396 -0.34123394 0.02735318 0.09177694
-0.058996357 0.002970134 -0.34004325 0.01934387 0.03618818 -0.119165905 -0.011762884 -0.0018337754
0.012142346 -0.22573352 -0.08760222 0.026476119 -0.075584196 -0.048531886 -0.056257788 -0.20612034
-0.3797046 -0.09175651 -0.029267725 -0.26255426 0.13526726 0.10716342 -0.1798399 0.050340805
-0.022591425 -0.0053958595 0.058060996 0.13516468 -0.15556353 0.04106902 0.07185326 -0.26495743
0.1030208 -0.21820469 -0.12547418 -0.053341307 -0.13069354 -0.11346801 -0.01799267 0.016339276
-0.19322735 0.022013353 -0.012134981 0.048527215 0.15053815 -0.1477557 -0.0117792655 0.25197166
0.099234626 -0.03844862 -0.031362083 0.11426379 -0.15646924 0.10329236 0.07526741 0.24762428
-0.019486504 0.044069793 -0.042650104 -0.11066598 -0.06850707 -0.06318754 0.08987874 0.075202845
-0.07256854 -0.15280083 0.06369563 0.15004803 0.14832294 -0.07716674 0.12698866 -0.05437307
0.0042918073 -0.1539077 -0.2828699 0.04615645 0.059818037 -0.03808676 0.1144639 0.061455928
-0.07812415 0.121619575 -0.0013977791 -0.02593391 -0.12646917 -0.03731087 0.13313329 -0.2884941
-0.13615316 -0.2822435 -0.02428709 -0.28945842 0.13569589 -0.31280425 0.052588496 0.017812476
0.1513556 0.1535753 -0.14634098 0.030887373 0.021423548 -0.005457303 -0.011276234 -0.21925
-0.11952893 0.027672363 -0.03886211 0.017560609 0.08492222 0.13733338 0.0664026 -0.15545751
-0.3422505 -0.0016979513 0.10116511 -0.23425253 -0.092513 0.03217892 -0.24064794 0.26075843
-0.19337252 0.014557467 -0.23850864 -0.04643228 -0.006739576 -0.18502533 -0.0007568525 -0.090274766
-0.030882591 0.08008435 -0.08169098 0.010787791 -0.07061913 0.1834998 -0.25970083 0.07254598
-0.14095376 0.028212676 0.039473742 -0.073873796 -3.329903e-05 -0.30649522 0.12989478 0.027497495
0.032268524 -0.12822378 -0.053660817 -0.23088649 0.14424899 -0.16159058 -0.18324076 0.0072058206
0.1763066 0.14168577 -0.25131664 -0.06391788 0.016680542 0.065891646 0.100484915 -0.024080567
-0.028194554 0.028898723 -0.35140646 -0.0036647317 0.119098604 -0.1570757 0.056297593 -0.011077388
-0.0095577715 0.05602312 -0.013543911 -0.046401966 0.031317133 -0.02031514 -0.033946197 0.17765354
-0.023149638 0.12496236 0.13540845 -0.12351304 -0.104477674 0.11994416 0.024730865 -0.25664076

fc2_1.bias f4 [64]
00000000: c6ce 303e c1be 273e d256 c03e 8b82 cbbd
00000010: 4421 a6be 05d4 923e 5075 14be 416b debe
00000020: 2f3e 03be fe8b 00be 3073 b7be a48e 3fbe
00000030: 6c5d 60be a6c7 91be 0d8d 5dbe 22b6 7abe
00000040: 7467 33be 146c ae3e e800 8cbd 508e d8bd
00000050: 7d9d 933e 3690 753e 74a9 22be 3d96 443d
00000060: 03bf 5b3e b849 4b3d f618 dcbe b15f aa3c
00000070: 6020 65bd 0e68 c73e 5f5e d33d 6afa 5cbd
00000080: 9310 42be 8066 7e3e 17c5 13bd f0ea b1bd
00000090: f712 b63d 55d1 8fbc 8173 34bb 7fcd f8bd
000000a0: 14c9 8ebc bff6 0a3f bc1d 91be 7727 1abd
000000b0: 1b6c cd3d 1813 cebd 3501 dabd 3940 d8bc
000000c0: e10a a03e 14b1 673e 586a cabc 69e9 9f3d
000000d0: 7402 1b3b 3f6a 533e 5b35 54be fe37 88be
000000e0: 504f 493e dda4 0ebe 49b5 a4bd c954 cc3a
000000f0: 1696 203e 340c 40be 4455 24be ef4f 8b3d
0.17266378 0.1638136 0.3756624 -0.099370085 -0.32447255 0.28677383 -0.14497876 -0.43441203
-0.1281669 -0.12553403 -0.3583007 -0.18706757 -0.21910638 -0.28472632 -0.21635838 -0.2448354
-0.17519933 0.34066832 -0.0683611 -0.10574019 0.28831092 0.23980793 -0.15884954 0.04799484
0.21459584 0.04963085 -0.42987794 0.020797582 -0.05593908 0.38946575 0.10320734 -0.05394975
-0.18951635 0.24843788 -0.03607663 -0.08687389 0.08890336 -0.017555872 -0.0027534666 -0.1214857
-0.017429866 0.54282755 -0.28342998 -0.037635293 0.10030385 -0.100622356 -0.106447615 -0.026397811
0.312583 0.22626144 -0.024708912 0.07808191 0.0023652585 0.20645998 -0.20723478 -0.2660522
0.19659162 -0.13930078 -0.0804239 0.0015589233 0.15682253 -0.18754655 -0.16048151 0.068023555

fc2_1_1.weight f4 [64, 64]
00000000: 7675 6bbd 037f 473e f911 aebc 576f 11be
00000010: 730a 8fbd fce9 9abe 2abd b73d d92a 0fbe
00000020: fdb3 49be fa33 c1bd fa7c 8cbd 70ad 0c3d
00000030: d9b3 10bd c748 e5bd 0913 64be 608d e4bd
00000040: 7eec 2bbd 9535 db3d a258 073d 7014 a9bd
00000050: 7b9a 103e f77e b03d 4deb 72be 4487 c7bb
00000060: 6c2a 5c3d 652f 1e3e dd70 33bc 7494 0c3e
00000070: fdda 773a 3de4 1dbe ba4b ec3b 427e f3bd
00000080: 0ab4 413d efdd 9cbd 5685 fe3d 4632 31be
00000090: b4b6 d1bd c5b2 53bd b2ee 03be 2f42 30bd
000000a0: 26f1 3a3e 3da1 0f3e 2269 e4bd 9331 4e3e
000000b0: 08a8 2a3e c3dc 38be 614b 98bc 3235 813e
000000c0: 17bf 5abd 0e4f 583c 46d2 8c3d 5470 0ebd
000000d0: b330 043e 9e1f 423d 2f9c 9bbc 5c24 153d
000000e0: 0124 ed3d 7d85 26be 696a 12be 1c45 e03c
000000f0: 8ffd 803e 81ad 47bd 39b1 de3c a086 cebd
00000100: ffd5 b63d cb4d 30bd 5602 d7bd f56c a0bd
00000110: b1b0 97bc f991 0bbe e46b 273d 6080 6abc
00000120: a0a0 4dbd c704 d13c 2b25 2fbc bb10 db3d
00000130: de9f c83d 85e1 963c 7197 ccbd aa01 973d
00000140: 085c 233c 1c6f 14be e9c1 c1bc 306c f0bd
00000150: 075e c5bd a7aa 6cbd df57 823d c633 f9bc
00000160: 0a33 7fbc 2f1a 1bbe e5a7 4abd e76a d4bd
00000170: babc 023d 6bb5 a1be f3db 413c b459 01be
00000180: 5b80 f6bc 711c b2be b802 01be e63f 223d
00000190: a961 16bd 98b8 7b3d 4579 98bc d075 c8bd
000001a0: 27a8 0a3e 4fae 66be 3838 a3bc 3551 cd3d
000001b0: 542c 34bc 8d9d 8e3d e427 bc3d 20d6 42bc
000001c0: 3539 51be 7c60 38bd 3822 32be 11cd a23c
000001d0: c501 09be 6aef 7f3d a10a ee3b 9463 00bc
000001e0: 4073 be3d 2581 bfbd 0932 ee3b 7e76 acb8
000001f0: cc75 933d 60bb 44bd 9077 4f3d 4146 913d
00000200: a616 a03d 3a3e bb3d 921e 50be af23 debb
00000210: 0f7d 143d 74f3 a7bd e8dc 44bd 8199 ac3c
00000220: dfba 173e b783 e6bd 6105 f83c f8db 623d
00000230: 4714 a53d 7ad7 41bd 14ba fbbc 54eb 223c
00000240: 3a9c 2a3e e0c3 65bd a805 9e3d a435 cc3d
00000250: de7d 0abc 6777 ef3c a971 573d 0e41 4abd
00000260: 56ea d3bb bac3 473d 933e 583d 3605 fb3d
00000270: e126 853d 4a4b 45be 4bd9 20bd 4bb4 653d
00000280: 28ae 6c3e beff aabd 3adf abbc e9bc b33c
00000290: c9c9 e8bd f8ca edbd 31c8 fb3d fcf3 d3bd
000002a0: 05ee 92bd 6612 1fbe 7773 ad3d 8347 ed3d
000002b0: bb42 2f3d e4d0 0c3d d1aa 5ebd 9b4f cbbd
000002c0: 03d9 f83d adb3 eabd cca8 973e d3e3 30be
000002d0: ec76 ad3c 9400 373c ecb5 d33c 8747 383d
000002e0: 26fd edbd 7e6d 1f3e 31fe ba3c ddce e73d
000002f0: a123 94bd b52c d3bb a519 86bd 2efa 423e
00000300: 8789 b63c ed27 233e 0256 21bc 9a2d 00be
00000310: bb73 1c3e 5757 e0bb 80ef 073b 6b96 e5bd
00000320: b430 31bd acbf 9ebd fd43 46bd 0a8c 3cbd
00000330: 3372 8e3d 0f77 853d 3655 0b3a e008 b93d
00000340: 1c40 2b3c 8d84 e6bd 4411 153d 3656 773d
00000350: 196c 003d dc3b 0d3d a925 c5bd 8a4b 8bbb
00000360: 165c c23d 12ee dd3a 5c77 2abd 2954 1f3c
00000370: b22d 253e bbed 163d bd62 d4bd d42a f63d
00000380: 33bf 7a3d e241 af3b 097c c9bc 6187 aebd
00000390: 9bb1 43bd f0c8 05be 09c4 a3bd 310f c43d
000003a0: 41f3 ef3d 8e93 dfbd bf22 c6bd e29d 353e
000003b0: 7936 c43d 79ee 023e da2b 05be 81ea 0bbe
000003c0: e11e 993d 22a3 3ebd 14db 933b a52f b03d
000003d0: f8ab ccbc 4a76 f93c d6ec 9a3d 32a1 82bd
000003e0: 8dec a63d 6818 f73c b09b af3c a1b5 19be
000003f0: 5938 4e3e e08f a83c f197 b4bd 0116 8a3d
-0.057485066 0.19482045 -0.021248804 -0.14202629 -0.06984415 -0.3025664 0.08971627 -0.13981189
-0.19697566 -0.09433742 -0.06859775 0.03434509 -0.035327766 -0.11195522 -0.22272886 -0.11159778
-0.041973583 0.10703579 0.03304351 -0.08255851 0.1412143 0.086179666 -0.23722573 -0.006089123
0.053751394 0.15447767 -0.010952202 0.13728505 0.0009454934 -0.15419097 0.0072111757 -0.11889316
0.04729084 -0.07659518 0.124277756 -0.17304334 -0.10239926 -0.05168416 -0.12884024 -0.043031868
0.18256053 0.14026351 -0.11152865 0.20136099 0.16665661 -0.18052964 -0.018590631 0.25235897
-0.053404894 0.013202442 0.06876044 -0.034775093 0.12909202 0.047393434 -0.018995373 0.036411628
0.11579133 -0.16261859 -0.14298405 0.027376704 0.2519345 -0.04874945 0.027184116 -0.100842714
0.08927535 -0.04304294 -0.104984924 -0.07833282 -0.01851687 -0.13629903 0.040874377 -0.014312834
-0.050202012 0.025514973 -0.010690014 0.106965505 0.09796117 0.018418083 -0.09989823 0.07373364
0.009970672 -0.1449551 -0.023652034 -0.11739385 -0.09637075 -0.057779934 0.06364416 -0.030420195
-0.0155761335 -0.15146707 -0.049476523 -0.103719525 0.031918265 -0.31583723 0.011832225 -0.12631875
-0.030090502 -0.34787324 -0.12598693 0.03961172 -0.03671423 0.06145534 -0.018612513 -0.09788096
0.13540708 -0.22527431 -0.019924268 0.10025255 -0.010996897 0.06963644 0.09187296 -0.011891872
-0.20431979 -0.04501389 -0.17395866 0.019873174 -0.13379581 0.062484182 0.0072644507 -0.007836241
0.09299326 -0.09350804 0.0072691482 -8.22367e-05 0.07200202 -0.048030257 0.050651133 0.07093478
0.0781682 0.09142728 -0.20324162 -0.006779156 0.036252078 -0.08200732 -0.048062235 0.02106929
0.1481738 -0.11255591 0.030276002 0.05538556 0.08060508 -0.047324635 -0.030728377 0.009943802
0.16661158 -0.056095004 0.077159226 0.09971169 -0.008452861 0.02923174 0.05259863 -0.049378447
-0.006467144 0.048770644 0.05279405 0.12256853 0.06501556 -0.19267002 -0.039269727 0.056080144
0.2311331 -0.0834956 -0.020980466 0.021940665 -0.113666125 -0.11610979 0.12294043 -0.10349271
-0.07174305 -0.15534362 0.08469289 0.115859054 0.04278825 0.0343789 -0.054362122 -0.09927293
0.12150767 -0.11460052 0.2962097 -0.17274408 0.02117487 0.011169571 0.025843583 0.04499009
-0.1162055 0.15569112 0.022826286 0.11318753 -0.07233358 -0.0064445385 -0.0654786 0.19040748
0.022282375 0.15933199 -0.009847166 -0.12517396 0.15278523 -0.006846349 0.0020742118 -0.112103306
-0.043259338 -0.07751402 -0.048404682 -0.04603199 0.069553755 0.06516849 0.00053151266 0.09034896
0.010452297 -0.11255751 0.03639342 0.06038495 0.03135309 0.034480914 -0.09626324 -0.0042509483
0.0949022 0.0016931912 -0.041617736 0.009724655 0.16130713 0.03684781 -0.10370395 0.120198876
0.061217498 0.00534843 -0.024595277 -0.08521915 -0.0477768 -0.13064933 -0.07996375 0.0957321
0.11716319 -0.10916816 -0.09674596 0.17736009 0.09580702 0.12786283 -0.1300501 -0.13663675
0.07476593 -0.046542294 0.0045122 0.086028375 -0.024984345 0.030451912 0.07564704 -0.06378402
0.08150587 0.030163005 0.021436542 -0.15010692 0.20138682 0.020576417 -0.08818043 0.06742478

fc2_1_1.bias f4 [64]
00000000: 74cb 50bd cb40 59be 94ef b0bd 3491 6ebd
00000010: 691a 14be 7c0e 5b3d ef4d b5bd 1f7d 0a3e
00000020: b78b fd3c 5736 1dbe c60a 973c ce87 2fbd
00000030: 3ce7 3bbe 5135 ea3d f383 a13d 6698 8fbd
00000040: ae3e 9e3d 412e a8bd 8cb4 4d3d a82e 7cbd
00000050: 5be3 d93d 2d1d 3b3e 41b5 81bd 7a7d 303e
00000060: df99 1dbb 86c2 5bbe 995d 3e3e a37f c5bd
00000070: ada5 c5bd a469 29be 68d4 3abd eca6 953d
00000080: a609 c7bd 1725 503d fa44 39bd a11f 24be
00000090: f935 6bbe 2fbd c9ba 8b4e 1d3d 36d4 1b3e
000000a0: 6dff 523e 589a a53d b3a5 1cbe a216 88bd
000000b0: 634a c23c 0290 023e 1032 42bd 156e 073e
000000c0: 67aa 3c3e 79f7 bd3c 15e4 bdbd c1fc c23d
000000d0: 4cc4 e2bd 6613 2ebe dc1d 56bd 91e1 2fbe
000000e0: cf79 17be e25d b43d 4edf 303e c217 6d3c
000000f0: ab8f cabd c8f0 ca3c b69a 69be f396 d4bd
-0.050975278 -0.21216123 -0.08639446 -0.058243945 -0.144632 0.05348061 -0.08852755 0.13524292
0.03095041 -0.1535276 0.018437754 -0.042854123 -0.18349928 0.114359505 0.078864954 -0.070114896
0.07726799 -0.08211947 0.05022101 -0.061567932 0.10639068 0.18272848 -0.063333996 0.17235366
-0.0024048013 -0.21460924 0.18590392 -0.096434854 -0.09650741 -0.16544205 -0.045612723 0.073072284
-0.09718637 0.05081662 -0.045231797 -0.1602769 -0.22969808 -0.0015391464 0.038404983 0.15217671
0.2060525 0.08086079 -0.15297584 -0.06644942 0.023717111 0.12750247 -0.047411025 0.13225587
0.18424378 0.023189293 -0.09272019 0.09520865 -0.11072597 -0.16999587 -0.05227457 -0.1717589
-0.1479256 0.08806969 0.17272684 0.014470996 -0.09890684 0.024773017 -0.22812924 -0.10380354

fc2_1_2.weight f4 [32, 64]
00000000: 5774 3cbe 1048 4bbd ead7 1d3e fd31 ee3d
00000010: 499e 753a 8755 84bd 44e6 81bd 5688 f93d
00000020: a2a4 72ba 310b eb3d 200a 5cbe 2673 723c
00000030: 2187 e1bc fe4e 4c3c 79b1 753e b4f3 e73d
00000040: 5780 9abe bda9 053b c9fa 81bd cf98 aaba
00000050: 866c 79be ec4a c23e bdfe 923d e745 b3bd
00000060: e757 ef3d e0d6 2e3c e5b7 a7bd 4f1e 8d3d
00000070: b017 f6bd 0eb7 52bd e90b 573e 6595 44be
00000080: b207 ab3d f553 a8bd f002 5a3d dfb8 133e
00000090: 5812 37bc 9f46 b23d a30b 75bc 75c4 e0bc
000000a0: 78c3 f8bd 2acd 633e dd92 1d3e 7b87 e4bd
000000b0: bbcd 1a3d 49a1 da3c 17ea 84bd fe65 6c3d
000000c0: 8caa b3bd fa58 b2bd 4032 95bb c381 86be
000000d0: 8438 39bb a5e4 2f3d f60b f5bc 4c0e a5ba
000000e0: 5952 ec3d 3552 95be c8bd 00be f52c a23a
000000f0: e2e4 dd3d 4f71 8e3b 19b3 23be 50da 233d
00000100: ba08 e93d 336a 53be 2f40 ddbd 687b 313d
00000110: efc9 0abe d149 81bd e0ac 46be 6d5d 5bbd
00000120: 31e2 8c3d 9bf1 cebe cc06 863d 8241 99be
00000130: 625e 11be 8af2 b93d ad28 d33d f709 cbbd
00000140: 0a8b fc3d 8033 41be 71db 403e a79d 11be
00000150: 0e91 d43c c7dd 9ebd e541 9ebe cd9e 00be
00000160: 72fa 283d 3928 b3be 7851 ec3d 6fcc c3be
00000170: c4e5 63be debf 12bd 8b04 ebbb 759f 073e
00000180: 1ed2 dabe 53ec 1ebe 4f6d 6ebe 602b 62bd
00000190: 50f3 28be 4177 153e 2c98 d4bd 1ae4 93bd
000001a0: 2ffa 06be a4dd 31be 6dbd b13c 2c02 00be
000001b0: 273e 65be 8b48 3cbc 7274 9bbe c707 333e
000001c0: acb5 e83c 972f 323d 5cca 8cbe 9758 093e
000001d0: e33b e7bd 5f16 7ebd 8c66 72bd cb16 62bd
000001e0: 314a 56be 4db0 4d3e 2219 34bd b337 bb3c
000001f0: 0f5e b9be 58b3 023e 76ee 2abe f7ca 033e
00000200: ba14 ccbe 0e77 fa3c 4355 f6bd 0a3a a63d
00000210: 04d6 df3d 11e7 f4bd 78d0 e9bc 86c9 64bf
00000220: b3bc c1be af13 24be a6f4 e8be 6606 30bd
00000230: 6482 38be 7388 dfbe cf05 d5be 9fd1 1dbf
00000240: 5259 48bf 7990 1abe f46f 25bf 2311 aabd
00000250: 781c 49bf 7123 45bf 0e4b 8dbc d0ce d8be
00000260: 843d 26be a777 e13c 4da1 67bf 32f9 d6bd
00000270: ae70 c0bd 0d98 a43d df6a da3d 77a2 2ebf
00000280: 07a8 2b3d 1ca9 9abe 3668 02be 1280 ffbd
00000290: 9b0e 973d df75 e6be 3347 19be 2fd1 65bf
000002a0: 4bc0 15bf 1212 0a3c 7750 8dbe f296 c43d
000002b0: bfa9 b7be b5e7 a7bb 55a0 803c ebf5 a7be
000002c0: 1575 b1be 58fe 643d b3f0 a4be 49c1 ccbe
000002d0: 6cd1 0ebe 499d fa3d f127 3c3c f323 323d
000002e0: 7dbf 09be 132e 1fbf 20bd e2be 3f37 b7be
000002f0: e383 6f3c 8f49 d6be 7313 e9bd 3260 1bbe
00000300: e515 74bd a97b 1cbe ce8c a33d c848 023e
00000310: da4b b73d 6d45 553d a2c1 503d cd88 e7bd
00000320: 9a54 7dbd 2030 e7bc b544 8ebb 68de e6bd
00000330: 5d45 da3d ae76 84bd af48 c6bd b642 fcbd
00000340: 22c6 aabd 6578 5ebe 4abc 95bd 46a7 c73d
00000350: 453e 923d e637 56be 1bd3 1f3e d07b 103e
00000360: be0a c93c f403 1cbd e2b9 06be f1ff 26bc
00000370: 75f4 06bd 0a1f d9bd ee1f dbbe 73d8 963c
00000380: 23c1 753c 1dde a6bd bade 8dbd 83a3 59bc
00000390: 8edb e1bd 3865 efbd 8883 72be 279d 033e
000003a0: 7a90 ff3d 81d6 43be eee7 4ebd 0dee dc3b
000003b0: 7486 9ebd 77b5 89bd bc4f a7bc 1a20 cebd
000003c0: ca19 373d 3ce1 103d 928d 0b3e c14f 4cbd
000003d0: e640 5e3d 3862 113d 2665 ba3d c7f9 673d
000003e0: a3a9 613d 1d06 72bc e492 bebe dbfe 8cbd
000003f0: 9c35 41bc 20b2 ddbd 0850 f93c c0b9 27bd
-0.18403755 -0.04962927 0.15414396 0.11630628 0.00093695946 -0.064616255 -0.06342748 0.12184207
-0.00092560996 0.11476744 -0.21488237 0.014797961 -0.027530255 0.012470005 0.23993482 0.113257796
-0.3017604 0.0020395361 -0.063466616 -0.0013015511 -0.24357805 0.37947786 0.07177494 -0.08753567
0.11686688 0.010671347 -0.08189372 0.068905465 -0.12016237 -0.051444106 0.21000637 -0.19197614
0.08351077 -0.082191385 0.053225458 0.14425991 -0.011173807 0.08704876 -0.014956388 -0.027437428
-0.12146658 0.22246233 0.15388055 -0.11158653 0.037793856 0.026688235 -0.064899616 0.057714455
-0.087727636 -0.08708377 -0.0045531094 -0.26270875 -0.0028262446 0.04294266 -0.02991293 -0.0012592762
0.11539144 -0.2916428 -0.12572396 0.0012373017 0.108346716 0.0043470035 -0.15986289 0.04000312
0.113786176 -0.2064598 -0.10803258 0.04333058 -0.13553594 -0.063129075 -0.19401884 -0.053555895
0.0687908 -0.40418705 0.06544265 -0.2993279 -0.1419616 0.09079464 0.10310493 -0.0991401
0.12331207 -0.18867302 0.1883371 -0.14220296 0.025948074 -0.077571444 -0.3090965 -0.12560578
0.04125447 -0.34991625 0.115389764 -0.38241908 -0.22255617 -0.03582751 -0.0071721724 0.13244422
-0.42738432 -0.15519838 -0.23283885 -0.055217147 -0.16499066 0.14596273 -0.10380587 -0.07221241
-0.13181375 -0.17369705 0.02169677 -0.12500829 -0.2238699 -0.011491905 -0.30362278 0.17483436
0.02840694 0.043502416 -0.27498138 0.134127 -0.11290719 -0.062033053 -0.059179828 -0.05519752
-0.2092674 0.20086785 -0.04396928 0.022853708 -0.36204574 0.12763727 -0.16692528 0.12870394
-0.39859563 0.030574348 -0.12027981 0.08116539 0.10929492 -0.11958135 -0.028541788 -0.8937
-0.3783928 -0.16023134 -0.45499152 -0.042974852 -0.1801849 -0.4365879 -0.41605994 -0.6164798
-0.7826129 -0.15094174 -0.6462395 -0.0830405 -0.78559065 -0.77007204 -0.017247703 -0.42345285
-0.16234404 0.027522875 -0.904805 -0.10496749 -0.09396492 0.08036814 0.10664915 -0.6821665
0.04190829 -0.30207145 -0.12735066 -0.12475599 0.07375833 -0.45011804 -0.14968567 -0.89772314
-0.5849654 0.00842716 -0.27600452 0.09599103 -0.35871693 -0.005124057 0.015701452 -0.32804808
-0.3465964 0.055906624 -0.3221489 -0.39991215 -0.13947076 0.12237031 0.011484132 0.043491315
-0.13451953 -0.6217968 -0.44284916 -0.35784337 0.014618847 -0.41852996 -0.11380663 -0.15173414
-0.059591193 -0.15281548 0.07985841 0.12723076 0.089500144 0.052068163 0.050965913 -0.113053896
-0.06184826 -0.02822119 -0.0043416866 -0.112728894 0.10657761 -0.06467949 -0.09681832 -0.123174116
-0.08338572 -0.21725614 -0.07311304 0.09748702 0.07140783 -0.20919761 0.15607874 0.1410973
0.024541255 -0.038089707 -0.13156846 -0.010192857 -0.032947976 -0.10601623 -0.42797798 0.018413758
0.014999661 -0.081478335 -0.06927247 -0.013283613 -0.11028205 -0.11689228 -0.23682988 0.12852918
0.124787286 -0.19124795 -0.050514154 0.006742245 -0.07740489 -0.06724065 -0.020423763 -0.10064717
0.04470233 0.03537105 0.13628224 -0.049880747 0.05426111 0.03549406 0.09101324 0.05663469
0.05509342 -0.014771965 -0.37221444 -0.06884547 -0.011792567 -0.1082499 0.03043367 -0.04094863

fc2_1_2.bias f4 [32]
00000000: e5f2 52bd c42b 813e ec49 033e cc30 fc3d
00000010: 3164 443e 8a2c 603e a1b9 093e 65eb d73d
00000020: 492b 5c3d fbc2 d03e 6b5e 8f3e 6464 493d
00000030: fe33 e33d 4b80 843e 4b05 233e 598b 6d3d
00000040: 1885 9a3e 43f8 653e 5019 d43d 53fe 1f3e
00000050: b644 463e 892b b13d 8403 e13d c2b6 983e
00000060: 5997 ce3d 55db 9abe f892 f93d 8e5f fe3e
00000070: 7f91 a33c 86d6 3d3e 2408 b33e aadf 043d
-0.051501174 0.25228703 0.12821168 0.12313995 0.19178845 0.2189199 0.13449718 0.10542945
0.053752217 0.40773758 0.28001723 0.049168006 0.11093901 0.2587913 0.15919988 0.05799422
0.30179667 0.22457986 0.103563905 0.1562436 0.19362149 0.08650882 0.10986999 0.29826933
0.10087461 -0.30245462 0.12186235 0.49682277 0.019966839 0.18538865 0.34967148 0.032439865

fc2_2.weight f4 [16, 32]
00000000: dfd1 84bb 6e40 9bbe dcd0 923d 2497 e33d
00000010: 5a19 c63d 554f 393e ec87 083e 4d2c dfbd
00000020: 0851 d23d 19ce 703b 0d29 1bbc 4f67 033b
00000030: c2a1 0b3e c4bc 19be 19eb 313d e3ba 3d3d
00000040: 57e7 e33c ac9d 083e fe5d e13d 1524 c73d
00000050: bbe4 7a3d e356 03be 6bd1 ecbc b296 5fbc
00000060: 92f8 71bd 9566 97bd 11c4 3f3d 3f6b 59bd
00000070: 1357 0b3e 010a 313d 59f1 8b3e 94d2 67bd
00000080: a7cb 17bd 9a52 c43d e82e 2dbe deba 3bbe
00000090: 43c7 113d 87ea dabe 24c3 433e b734 a9bd
000000a0: 8756 eb3b 550a 083e 2cec d83d 625a 043d
000000b0: 5c51 2bbe f76f 983d f630 283e a5ef 5dbe
000000c0: d439 043e 75da efbe 666d d6be bd38 46be
000000d0: 0442 86be 1ecc 4e3e 56a0 963d b099 4f3e
000000e0: bfe8 38be aa02 e9bd 9bb4 973d 393f 8a3c
000000f0: 42a5 adbd 6647 2e3e 0fd2 99be 5de7 26bf
00000100: c70b 51bd 5424 60bd 5f67 09bd 554e 98bd
00000110: e5a8 193e 839d abbe 9252 efbb 1dc9 6a3d
00000120: c79c 1f3e 7415 803d 0408 0d3e f4f7 24bc
00000130: a489 ac3d 12b5 de3d c665 3c3d 076c c7be
00000140: c79b 503d cf05 29be 0ccd c9bd e3fa 383e
00000150: abbd 54be 42ce 043e 9d46 15bd 3c3f 3a3d
00000160: 1268 5ebd 2c58 bebd 9e3e e3bc d453 1dbe
00000170: d4ff 2d3e bb2d 453d 661f 1bbe 2589 06bf
00000180: 5d3e 13be 0e28 d3be 13d6 69bd b559 28be
00000190: bce7 d0bd 4975 1f3e d2ba 86be 52da 96be
000001a0: 8e6a 05be ef2c 25be cfdc d6bd 1466 bfbe
000001b0: 1a93 bebd 9dea 65be 50e1 52bb ec84 cabd
000001c0: da6c e83c 6895 203e ae1f 1abe 9bfd 4d3e
000001d0: 5ed4 7b3d 3b48 82be fccd c1be 9b53 dbbd
000001e0: 2841 7b3d 82b6 adbd fdfd 23be 3eb1 413e
000001f0: 4673 95be 666a acbe 5cf8 a43b be27 d5bd
00000200: 9c68 e03c 4606 693d 7a75 3cbe 53b9 4fbe
00000210: b169 39bd 735c 0dbd db94 063e 9a2d 71bd
00000220: e5a9 34ba 9c5a 223e 0a72 0b3e 227c 003e
00000230: c45b 10be 90de 023e 45fd 503e 3698 e7be
00000240: 1573 083e a568 6abe 9179 fdbd 69d3 96bd
00000250: f3a0 a7be dfe9 32bd 56b9 a2bc 506b 953d
00000260: 6a98 2ebd 0522 a8bd 4577 b9bd 3a82 51bd
00000270: c1c0 28be 02ff 953e 659f a7be 9c6a babe
00000280: 3a1e b3be 7c83 c6be a4d1 12be 62b6 12be
00000290: 763c 27be 9734 113c d36a 3bbe 4b0c e9be
000002a0: a7b5 c5bd 761d 5e3c c8ce dfbd 72ea a1be
000002b0: e825 dfbc 25e5 60be 773d 1cbe b9c3 a1be
000002c0: b36a cabd a479 993d 9b1e 65be 3769 2a3e
000002d0: cef6 3bbc b6f5 c7be e819 60be 2685 d0bd
000002e0: 8592 263d 575e cdbe c2fe 01be cd96 783e
000002f0: 46c6 e7be 5ef2 89be 3564 ef3d 9046 3fbe
00000300: a9f7 4abd 6281 353d 27c1 2cbc d59b 31bd
00000310: 4ae0 8f3e 199c acbd 0992 6cbb 7e85 2cbc
00000320: 4a8b e2ba 4bc9 84bc 974a 393d 7f80 b73c
00000330: 5658 6fbe 594a 0f3d 2067 4d3c 0f13 23be
00000340: c049 7e3d a17a 22bd 3c5a dab9 8e64 8a3d
00000350: d983 69be 39fb b93c 9199 2fbc 8ea0 913c
00000360: 6614 d03c 7886 a4bd 34d9 123c 825a b6bd
00000370: 3f48 9dbc 7744 c33d 3531 63be 381b b4be
00000380: c7d2 793d 8b90 f03d 42ea 4a3e c6c4 143e
00000390: 9299 2b3e 7814 5f3e 55df 723d ba35 98bd
000003a0: 8869 8a3e 23f1 d2be aa13 9d3c 9081 c93d
000003b0: 31d4 f33d 1f4a 283e acae 3e3d dcab 4e3e
000003c0: 6b52 3b3e 7a34 a83e bcff a33e fb3e 65bd
000003d0: 5eec 163e 5c3d 553d 0cff 24be fa38 2f3b
000003e0: ca4a 533e b100 bdbd e6af 943e 34b4 5dbe
000003f0: 86b2 c73d 5ed4 8d3e 895a 683e e6c1 243e
-0.004053339 -0.30322593 0.07168743 0.11112812 0.09672804 0.18096669 0.133331 -0.108971216
0.10269362 0.0036743938 -0.0094702365 0.002005059 0.13635924 -0.15013415 0.043437097 0.046320807
0.027820272 0.13341397 0.11004256 0.09723679 0.06125329 -0.12826113 -0.028908452 -0.013646768
-0.059074946 -0.07392613 0.046817843 -0.053080793 0.13607435 0.04322243 0.2733257 -0.056597307
-0.037059452 0.095860675 -0.16912425 -0.18333003 0.03559042 -0.42757055 0.19117409 -0.08262008
0.0071819457 0.13285191 0.10591921 0.03231276 -0.16730255 0.074432306 0.16424927 -0.21673448
0.12912685 -0.46846357 -0.4188034 -0.19357581 -0.2622224 0.20195052 0.073548004 0.20273471
-0.18057536 -0.11377461 0.07407495 0.01687585 -0.08478786 0.17019424 -0.30043074 -0.6519678
-0.051036622 -0.054722145 -0.033545848 -0.07436816 0.15005834 -0.3351861 -0.0073035443 0.057320703
0.1558715 0.06254092 0.13772589 -0.010068882 0.0842469 0.1087438 0.045995496 -0.38949606
0.05092981 -0.16506122 -0.09853563 0.18064456 -0.20775478 0.12969306 -0.036444295 0.04547046
-0.054298468 -0.09294161 -0.02773982 -0.15364009 0.16992122 0.048139315 -0.15148696 -0.52553016
-0.14379258 -0.41241497 -0.057088923 -0.1644047 -0.1020045 0.15572084 -0.26314408 -0.2946344
-0.13028929 -0.16130422 -0.10491335 -0.37382567 -0.09305401 -0.22452779 -0.0032177754 -0.09888634
0.028372217 0.15681994 -0.15051147 0.20116274 0.061481826 -0.25445732 -0.37852466 -0.10709306
0.061341435 -0.08482076 -0.16014858 0.18915269 -0.2918951 -0.33674926 0.0050344896 -0.10407971
0.027393632 0.05689075 -0.18404189 -0.2028554 -0.04526681 -0.034511995 0.13142721 -0.05888138
-0.00068917713 0.15854877 0.13617721 0.12547353 -0.14097506 0.12780213 0.20409115 -0.45233315
0.1332515 -0.22891481 -0.123767026 -0.07364542 -0.32739982 -0.043680068 -0.019863766 0.07295859
-0.042625822 -0.08209614 -0.09055952 -0.051149584 -0.1647978 0.29296118 -0.32738796 -0.36409461
-0.34984 -0.3877219 -0.14337784 -0.14327386 -0.16331658 0.008862636 -0.18302469 -0.4551719
-0.09653788 0.013556829 -0.10928112 -0.3162418 -0.027239755 -0.21962412 -0.15257822 -0.31594637
-0.098836325 0.07493904 -0.22374956 0.16641699 -0.011472417 -0.3905465 -0.21884882 -0.10181646
0.040667076 -0.40111038 -0.12694839 0.24276276 -0.45268458 -0.26942724 0.11689035 -0.18679261
-0.049552593 0.044312842 -0.010544098 -0.043361504 0.28100806 -0.08428211 -0.0036097786 -0.010529874
-0.0017283943 -0.016209265 0.04523715 0.022400139 -0.23373541 0.034983013 0.012536794 -0.15925239
0.062082052 -0.03966773 -0.0004164743 0.067574605 -0.22804202 0.0227028 -0.010717765 0.017776754
0.025400352 -0.080334604 0.008962918 -0.08903982 -0.019199489 0.09534543 -0.2218674 -0.35177016
0.06099203 0.117463194 0.19815925 0.14528188 0.16757801 0.21785152 0.059295017 -0.074321225
0.2703364 -0.41199598 0.019174416 0.09839165 0.11905707 0.16434525 0.0465533 0.20182747
0.18293159 0.32852536 0.32031047 -0.055968266 0.14738604 0.05206047 -0.16112918 0.0026736842
0.20633999 -0.092286475 0.2904045 -0.21650773 0.097508475 0.27701086 0.22690786 0.16089591

fc2_2.bias f4 [16]
00000000: 97fc 0d3e 2cd7 f23d c1e1 513d cd90 d53e
00000010: 0221 9f3d 4065 ca3e 138d ab3d e89c 873d
00000020: 202e 683e be1f a83e 0652 b13e 6121 babd
00000030: 6b8c 393e ac3a 8d3d 7a84 603e cd4d 3f3e
0.13865887 0.11857447 0.051240686 0.41712037 0.077699676 0.39530373 0.08376517 0.06621724
0.22673845 0.32836717 0.3463289 -0.09088398 0.18119971 0.068959564 0.21925536 0.18682022

fc3.weight f4 [30, 16]
00000000: d5a4 943e 12d4 eebd b87d 64be 5d15 ce3e
00000010: ab5e 3ebe b25b e33e dc42 85be 4dee 5a3e
00000020: 21d3 bcbd dee1 793f ae97 d33e 2b89 b8bc
00000030: 9120 833e d24c 11bf c10d 963e 59f6 963e
00000040: ddc0 bc3e 9352 07be 51ac 81be fe3a cb3e
00000050: 5450 5ebe 5e9d d93e 0f75 a1be 149e 983e
00000060: b360 d0bd 9222 5f3f d50a e13e 94e2 ce3d
00000070: 542b 9d3e 2cd1 1bbf b12c b13e b2f4 9f3e
00000080: b022 b83e 0e3a 09be 0f11 83be ac88 c33e
00000090: 0a16 60be 7b85 d23e 35c1 a2be 0af8 953e
000000a0: d8dc d1bd 819b 4f3f ef92 d93e 1e27 ca3c
000000b0: da50 983e 5ab3 1abf 42bb aa3e 58f0 9a3e
000000c0: 861e b13e 8dcd 0bbe dadb 84be 9f23 ba3e
000000d0: 5dea 61be 05e7 cb3e 0322 a5be 9984 923e
000000e0: 2bee d3bd b075 313f 9168 d13e b72f 843e
000000f0: 4bb5 933e 6ad7 19bf 4838 a63e f461 943e
00000100: f081 ac3e 0536 11be 0c4e 88be c674 b33e
00000110: 7653 67be 1273 c23e 7232 a9be 4197 8e3e
00000120: 131d d9bd 67ed 073f cba8 ca3e 7585 3fbe
00000130: f33c 903e b0cd 1abf a020 9f3e 1436 903e
00000140: 6e48 a93e d820 18be 6822 8abe fdbc a63e
00000150: a7ea 6ebe cbac b23e b470 adbe 1206 8e3e
00000160: 4426 e0bd 9f6c ae3e 9190 c23e 782e 58bd
00000170: 5f73 8c3e e038 18bf cfc6 963e e22f 8b3e
00000180: 345c a73e 9a92 1cbe 557f 8bbe 233e 9d3e
00000190: 8c3e 74be 2ca5 a33e c8db afbe 5141 8c3e
000001a0: 89b9 e6bd b142 3a3e 9243 b93e ff6f 6d3e
000001b0: 26fa 863e bfc8 16bf 59da 8d3e 5ca0 833e
000001c0: 35a9 a43e 9091 24be ac27 8cbe 7301 983e
000001d0: 393e 7dbe 6164 903e abc4 b4be 23f4 873e
000001e0: 9656 ecbd 8e82 313d 4471 b23e cfe9 3a3e
000001f0: a857 823e d346 12bf 9623 843e 1366 803e
00000200: 45d1 9f3e b71f 29be db10 8fbe f96e 8e3e
00000210: 13ef 83be 1a31 773e a45c b6be 41b1 833e
00000220: 308e f7bd 1865 a6bd 21de ab3e 0539 fd3d
00000230: 476b 7c3e 9ab8 0bbf f90e 813e d896 753e
00000240: 106b a13e e910 2ebe 6a4a 91be 9729 833e
00000250: 1ed2 87be bd0d 553e c384 b6be 9375 813e
00000260: b44e ffbd 1db6 48be d472 a93e d9ef 1bbe
00000270: 0c4a 733e 1838 02bf e662 803e c92b 6c3e
00000280: 75e4 9f3e e017 31be 0a98 90be 3243 6e3e
00000290: 3943 8abe 1e63 293e 6dee b5be d079 803e
000002a0: a5af 00be 0227 92be 3a2b a33e aa9a 243e
000002b0: 8287 693e 39a8 edbe de00 7f3e c7bf 5f3e
000002c0: d60e 9c3e ef8e 33be 0d9d 8fbe d220 5d3e
000002d0: 27d1 8bbe 4f68 043e 74f3 b4be b69f 7d3e
000002e0: 11e4 02be 3bb4 b6be e020 a03e ccd8 34be
000002f0: 5897 633e 69d8 d6be a2bc 793e c61a 5a3e
00000300: e412 9c3e 8fbf 35be 9f6a 90be b335 423e
00000310: f804 8dbe 6b59 ce3d 7897 b4be 6a6f 773e
00000320: e12b 04be 09dd cdbe 529a 9a3e 65fa 6abe
00000330: bdb8 5e3e d93b c3be 4591 703e 3165 4e3e
00000340: 56fc 9b3e 8704 34be 2230 92be dd28 283e
00000350: f894 8dbe 36b1 993d 8fc5 b2be 7853 723e
00000360: 1b51 03be 0efc d9be f840 933e 2041 6fbd
00000370: 3a6c 5e3e 315b b7be e373 663e 45ba 4a3e
00000380: d5c5 973e 4806 30be 5a65 92be 5c2a 103e
00000390: ab7b 8dbe 3afa 483d ffa7 b3be 4cf8 703e
000003a0: 52eb 02be 0609 e1be 9904 8d3e 0e03 b5bd
000003b0: f463 5c3e 04d5 acbe 5e03 5e3e 0f15 453e
000003c0: 0e62 973e 0533 28be e639 8ebe 6f76 e53d
000003d0: 8bd9 8cbe 23e6 b43c 1283 abbe aed8 6d3e
000003e0: 3299 04be f48b ecbe b4d4 833e 07f5 65be
000003f0: 59bb 563e ebfb a3be 9f41 603e cb95 443e
0.29032007 -0.11661543 -0.22313583 0.40250674 -0.185908 0.44405895 -0.26027572 0.21379967
-0.09219957 0.9761027 0.4132666 -0.022526344 0.25610784 -0.56757843 0.29307368 0.29484823
0.36865893 -0.13215093 -0.2532678 0.39693445 -0.2171033 0.42502874 -0.3153462 0.29808104
-0.10174694 0.87162125 0.43953577 0.1010181 0.3069712 -0.60866046 0.3460441 0.31241375
0.35963964 -0.13401052 -0.25598952 0.3819021 -0.21883407 0.41117463 -0.3178803 0.292908
-0.10247201 0.81096655 0.42494914 0.024676856 0.29749185 -0.6042992 0.3334599 0.30261493
0.345936 -0.1365263 -0.25948983 0.36355302 -0.22062059 0.3982469 -0.3225251 0.2861679
-0.10348161 0.693202 0.4090009 0.25817654 0.28849253 -0.6009432 0.32464814 0.28980982
0.33692884 -0.14180763 -0.26622045 0.3505003 -0.22590432 0.37978417 -0.330463 0.27849773
-0.106012486 0.5309662 0.39581904 -0.18703254 0.281715 -0.60470104 0.31079578 0.28166258
0.33063072 -0.14856279 -0.26979375 0.32566062 -0.233317 0.34897456 -0.33875048 0.27739006
-0.109447986 0.34067246 0.3800092 -0.05277869 0.2743177 -0.59461784 0.29448554 0.2718497
0.32687533 -0.15290299 -0.27245584 0.3071147 -0.23851985 0.31961954 -0.34347367 0.27393582
-0.11265857 0.18189503 0.36184365 0.23187254 0.26362723 -0.58900064 0.2770565 0.25708282
0.32160345 -0.16071153 -0.27374017 0.29688606 -0.24730767 0.28201583 -0.35306296 0.2655345
-0.115399525 0.043337397 0.3485204 0.18253253 0.254575 -0.5713932 0.258084 0.25077876
0.31214347 -0.16516005 -0.27942547 0.2781904 -0.25768337 0.24139825 -0.35617554 0.25721171
-0.12087667 -0.08124751 0.33567908 0.12364391 0.24650298 -0.54578555 0.25206736 0.23983324
0.31526995 -0.16998638 -0.28377086 0.25617668 -0.26527494 0.20806022 -0.35648164 0.25285015
-0.12466183 -0.1960072 0.3309542 -0.15228213 0.23758715 -0.5086684 0.25075454 0.23063578
0.31228986 -0.17294264 -0.28240997 0.2326782 -0.27004412 0.16541716 -0.35533467 0.25092936
-0.12567003 -0.28545386 0.31868917 0.16074625 0.22805598 -0.46417406 0.24902675 0.21850501
0.3048007 -0.17534994 -0.28049508 0.21594551 -0.27308008 0.12930416 -0.3534199 0.24767956
-0.12782313 -0.3568438 0.31275082 -0.17660826 0.22225702 -0.41961983 0.24388364 0.21299276
0.30483162 -0.17748855 -0.28206345 0.18965797 -0.27542853 0.10075649 -0.3527181 0.24163595
-0.12907363 -0.402077 0.30195862 -0.2294708 0.2175016 -0.38131598 0.23492916 0.20155789
0.30465955 -0.17579852 -0.28552347 0.16421838 -0.27652717 0.075045034 -0.3491635 0.23664653
-0.12823908 -0.42575115 0.28760505 -0.058411717 0.21720973 -0.3581176 0.22505145 0.19797619
0.2964312 -0.17189896 -0.2859295 0.14078659 -0.27633414 0.04906676 -0.35089108 0.23532218
-0.1278508 -0.43952197 0.2754257 -0.08838473 0.21522504 -0.33756268 0.21680972 0.19246314
0.29566997 -0.16425712 -0.27778548 0.1120423 -0.27509722 0.022082394 -0.33498436 0.23227188
-0.12949064 -0.46200526 0.25748217 -0.22456752 0.20969905 -0.32028136 0.21900032 0.19197766

fc3.bias f4 [30]
00000000: 1049 803e 0822 8f3e fd09 913e 959e 933e
00000010: fd0d 993e 7765 9f3e f773 a43e 02b8 aa3e
00000020: 74d6 b03e 409a b53e b81c ba3e fef0 bc3e
00000030: 58f4 be3e a878 be3e 30ae bf3e 9668 c03e
00000040: e35d 193d 6008 563c 96c3 dd3b b9f9 34b8
00000050: 2186 c8bb 3dcc 89bc 1738 85bc 0659 72bc
00000060: 47db b2bb dd56 a8bc 4d4b a9bc 984b 6cbc
00000070: fac0 5bbc 009c 353b
0.25055742 0.2795565 0.28327933 0.28831926 0.29893485 0.311321 0.32119724 0.33343512
0.34538615 0.35469246 0.36350036 0.36902612 0.37295794 0.37201428 0.37437582 0.37579793
0.037443053 0.01306352 0.0067677004 -4.3147917e-05 -0.006119505 -0.016821021 -0.016262097 -0.014791733
-0.005458269 -0.020549232 -0.020665789 -0.01442232 -0.013412708 0.0027711391
